models/model35.onnx (onnx, 153271 bytes, 8 tensors)

sequential/dense_1/MatMul/ReadVariableOp:0 f4 [128, 10]
000000 2f cf b5 bd 44 6d 66 bd 93 1f a5 3d a9 2e 54 3d
       -0.08877408 -0.056256548 0.08062663 0.05180231
000010 ed 5e 8e bd 3c 27 d9 bd d6 23 03 bf 63 b7 d1 3d
       -0.069516994 -0.106031865 -0.51226556 0.10240056
000020 b6 3d d7 3d da 6f 21 3d a3 7c e7 3d a4 84 58 be
       0.10509817 0.03941331 0.113030694 -0.21144348
000030 f2 78 42 3e ad 12 8a be 44 dd 8a 3d 4d d9 12 3d
       0.1899145 -0.26967373 0.06780484 0.035851765
000040 bf bc 7e bd 69 48 49 3e 99 a2 4d be 1f e7 39 be
       -0.06219172 0.19656529 -0.20081557 -0.18154572
000050 dc fa 6a 3e f0 8a d0 be 09 e5 8f 3d 7f 8a 0e be
       0.22947258 -0.40731 0.07026107 -0.1392002
000060 2b a0 30 be f1 3f 84 bd e5 0d 40 bd 1f 41 9a 3d
       -0.17248599 -0.06457508 -0.04688825 0.07531952
000070 ad f1 3b 3e f4 0c 16 bd 44 92 63 be f9 df a4 be
       0.1835391 -0.036633447 -0.22223765 -0.32202128
000080 16 a7 23 3e 44 14 05 3e 7d a1 dd bd 78 13 a4 3c
       0.15981707 0.12996012 -0.10821817 0.020028815
000090 3f 7f 43 3d 68 3b f9 3b f8 d2 07 3e 1d 8c c8 be
       0.047728773 0.0076059587 0.13264072 -0.39169398
0000a0 5f e7 5d 3e 7a 32 86 3d b0 6c 37 3d 3f ae d1 3d
       0.21670292 0.065525964 0.044781387 0.10238313
0000b0 de ea 9a be 8e e7 06 be c8 f9 48 be 48 d3 72 bd
       -0.30257314 -0.13174269 -0.19626534 -0.059283525
0000c0 c6 77 98 3d 2f 77 eb 3d 2d 36 ce 3a b4 9d 25 3e
       0.0744472 0.11497342 0.0015732698 0.1617344
0000d0 4e 32 a3 be 84 3d 42 be 7c ad 50 3e 52 eb 0d 3e
       -0.31874317 -0.18968779 0.20378679 0.13859299
0000e0 6a 7e 32 3e 1c 08 99 bd 11 c6 70 bd 5e 5a f8 bd
       0.17431036 -0.0747225 -0.05878264 -0.12126611
0000f0 92 9d 78 3e 58 26 a3 3c 5c d8 31 3e 88 1c 45 3e
       0.24278858 0.019915745 0.17367691 0.19249165
000100 37 28 85 be 1e 87 d1 bc ea 97 18 be c3 a1 69 bb
       -0.26007244 -0.025577124 -0.149017 -0.0035649396
000110 cf 91 21 bd 5c c7 53 bc 8b 0f a0 be 8c 77 57 3e
       -0.039445695 -0.012925949 -0.31261858 0.21041697
000120 d9 79 14 be 26 47 76 bd 6c 08 6f bd 2f 6d 65 3e
       -0.14499606 -0.060126446 -0.05835764 0.22404931
000130 cc 8e 19 be a6 89 e0 be b0 e4 a7 be b2 a8 c0 bd
       -0.14995879 -0.43855017 -0.32791662 -0.09407176
000140 f6 d1 a3 be ca f1 0a 3e be 6e 41 bd a4 48 97 be
       -0.31996125 0.13568798 -0.047224753 -0.29547608
000150 01 16 1b 3e 7f 51 93 be 1c ef 54 be 23 25 2a 3d
       0.15145113 -0.28773114 -0.20794338 0.041539323
000160 7f d1 0b 3e d9 7e 03 3e 29 1b 01 bd e8 aa 6b 3e
       0.13654135 0.12841357 -0.031520043 0.23014414
000170 8d 88 4d 3e 6d 8a 5e 3e 92 97 c2 be 3b 27 98 be
       0.20071621 0.21732493 -0.38006264 -0.2971743
000180 a2 a5 c9 bd 86 8e 0d 3d 68 5f 96 bd a9 5d 8d be
       -0.09846045 0.03455975 -0.07342416 -0.2761052
000190 ce 44 81 be 8e 36 a4 ba d9 c6 ed 3d 69 d9 2a 3e
       -0.25247806 -0.0012528466 0.11610193 0.16684498
0001a0 ac ee 0a 3d 93 4b 4b be 03 87 0a be 89 16 ef 3d
       0.03391902 -0.19853048 -0.13528065 0.1167422
0001b0 23 87 39 be 5d 77 c6 be f9 c5 89 3c ed c6 f2 bd
       -0.18117957 -0.38762942 0.016818034 -0.11854348
0001c0 75 d8 35 be de 8b 30 3e 32 a1 cd 3d 4c 3d c2 3d
       -0.17758353 0.17240855 0.10040511 0.09484348
0001d0 e8 5f ff 3d 81 da d1 be a4 4d f2 3d 70 ac 09 bd
       0.124694645 -0.40987018 0.11831215 -0.033611715
0001e0 cf f6 b1 3d 31 fb 89 bd 08 cd 31 3e 6c ae 2f 3e
       0.08689653 -0.06737364 0.1736337 0.1715638
0001f0 1d 2c 59 bd 60 d8 95 3d f5 25 0b bd f7 d7 0a bc
       -0.053020585 0.07316661 -0.033971746 -0.008474342
000200 59 9f e8 bd 1c 96 d1 3d 1b 1c ca bd c9 13 40 bd
       -0.11358518 0.10233709 -0.09868642 -0.04689387
000210 90 a9 7f be a5 18 a1 bd 85 95 49 bb 50 ed 5e 3c
       -0.24967027 -0.07866029 -0.0030759287 0.013606384
000220 cc 26 85 3e 82 a8 4d 3e cf f2 7c bd 22 68 83 be
       0.26006162 0.20083812 -0.061754998 -0.25665385
000230 9a 9e 94 3e 93 23 17 3e c2 8e 88 be b5 01 c9 bd
       0.29027253 0.14759664 -0.26671416 -0.09814779
000240 66 4c 6b be d8 25 a0 3e dc 74 03 be be 99 f8 3d
       -0.22978362 0.31278872 -0.12837547 0.12138699
000250 70 4f ef 3c 2b d1 8f bd bf 33 fd bd 54 3a c5 bd
       0.029212683 -0.070223175 -0.123633854 -0.09630266
000260 82 e3 2d be 92 51 a1 bd 12 9b 06 be 63 72 77 3e
       -0.16981319 -0.078768864 -0.13145092 0.24164729
000270 e6 12 5a be 2c 44 f8 bd b7 b5 f6 3d 23 f7 58 be
       -0.21296272 -0.12122378 0.12046378 -0.21188025
000280 6e 1b 04 be 34 8c 09 be fc 13 4c be 1d 46 5d 3d
       -0.12901089 -0.1343239 -0.19929498 0.054021943
000290 90 9e 0d 3e 83 73 8d be b3 50 38 3c 59 0d e4 3d
       0.13830018 -0.2762719 0.011249709 0.11135358
0002a0 5e 26 dd be 16 32 3c 3e 15 00 ab bd c8 f2 a8 bc
       -0.43193334 0.18378481 -0.08349625 -0.02062358
0002b0 af b0 76 be cd 43 40 bd a4 ce e8 3d 38 fd 37 3e
       -0.24090837 -0.04693966 0.113675386 0.17967689
0002c0 11 38 0a 3e 6f 1b 3b 3d c8 fa 38 bd dc 2a 9e be
       0.1349795 0.04568046 -0.04516104 -0.30892074
0002d0 19 27 d2 be be 4d 85 be 01 6b 45 be 4c d2 08 be
       -0.41045454 -0.26035875 -0.192791 -0.13361472
0002e0 ff 61 d5 3d 5f d8 55 3d d8 90 c6 be f0 65 d6 3d
       0.10419082 0.0522083 -0.38782382 0.10468662
0002f0 dd fa bf 3d b3 99 b1 3d 1f a5 28 3e 42 8f be 3d
       0.0937402 0.08671894 0.16469239 0.09304668
000300 c0 dd 12 3e 48 bc 63 be 4d 24 31 be 35 4f 19 be
       0.14342403 -0.22239792 -0.17299004 -0.14971621
000310 38 37 11 3e ac f0 2b be 9b 14 e3 3d cb 68 ba bd
       0.1418122 -0.16791028 0.110879146 -0.09102019
000320 11 15 c7 3d b5 8f 79 bd a4 4b d1 bd 88 2a ee 3c
       0.09720815 -0.060928065 -0.102195054 0.029073015
000330 fd 36 90 bd d0 71 4f 3e 32 d2 0c be 52 a9 b0 be
       -0.07041738 0.2025826 -0.13752058 -0.3450418
000340 a8 3c d5 bd d1 70 39 3e 2c cd 79 be de c9 8a 3d
       -0.1041196 0.18109442 -0.24394673 0.06776784
000350 3a e4 c3 bd 27 33 be 3d 77 13 01 3c f2 eb 3b 3c
       -0.09565015 0.092871 0.007878176 0.011469828
000360 16 77 77 3e 9f 07 c7 3d cc 4a c4 be f3 8f b8 bd
       0.24166521 0.097182505 -0.38338315 -0.09011831
000370 7c 2a ec 3d 63 3f 8e be 65 3e 40 3e b9 11 32 3e
       0.11531541 -0.27782735 0.18773802 0.17389573
000380 8f 09 ea bd 14 4a 75 be c9 77 aa bd 15 20 ba bb
       -0.114276044 -0.2395404 -0.083236285 -0.005680094
000390 0a 46 17 3e 30 93 c8 3d dd 6d a5 be bb 61 bb 3c
       0.14772812 0.09793699 -0.32310382 0.02287375
0003a0 13 69 d1 3d 43 fb fe 3d 2c 6f 4b be 11 f1 bc be
       0.102251194 0.12450268 -0.19866627 -0.3690267
0003b0 af a7 6c be 94 c8 00 3e 71 3e 7d 3d 95 e5 27 bd
       -0.23110841 0.12576514 0.061827127 -0.04099043
0003c0 32 8e 26 3d 78 27 48 3e ed 2d 8c be 58 b8 b5 be
       0.04066295 0.19546306 -0.2737879 -0.35492206
0003d0 07 6d 1d be bd 1b 14 be 81 73 d1 bd e6 bf 82 3d
       -0.15373622 -0.14463706 -0.10227109 0.06384258
0003e0 89 c4 55 3d 00 4a db 3d cd 19 8f 3e f9 43 72 bc
       0.052189384 0.10707474 0.27949372 -0.014786714
0003f0 18 97 9c 3d ad cb 19 bd 66 70 46 be 12 02 96 3d
       0.07646006 -0.037547756 -0.19378814 0.07324614

sequential/dense_1/BiasAdd/ReadVariableOp:0 f4 [10]
000000 bc c4 f7 bd 9c a0 6c bd 40 fc 0d bc 36 8b b4 3b
       -0.12098071 -0.057770357 -0.008666098 0.0055097593
000010 3b 25 67 bd 4c 80 26 bd 93 14 f6 bc c8 8f d5 bc
       -0.05643199 -0.040649697 -0.030039107 -0.026069537
000020 14 c3 2e 3e 0a 89 5a 3d
       0.17066604 0.053353347

sequential/dense/MatMul/ReadVariableOp:0 f4 [256, 128]
000000 10 a1 9e 3a eb ec 21 be 54 2d ec bd 12 c1 95 3d
       0.0012102444 -0.15813033 -0.11532083 0.07312216
000010 cb 39 1c be 0b e2 91 be 7a 6c 02 bd e4 77 74 be
       -0.15256421 -0.2849277 -0.031841733 -0.2387386
000020 ae f1 57 be 11 b9 89 3e dc f6 8c 3e c2 71 a1 3b
       -0.21088287 0.26899007 0.2753209 0.004926891
000030 e3 fc fa bd 47 b6 1f bd 58 70 56 be ec d0 e7 bd
       -0.122552656 -0.038992193 -0.20941293 -0.113191456
000040 34 94 c0 bd 5a f9 ec bd 79 be fb bd 28 06 57 bd
       -0.094032675 -0.115709975 -0.12292189 -0.052496105
000050 bc 79 c7 bd 22 63 c7 3d d8 72 1b 3e 15 11 7e 3e
       -0.09740016 0.09735705 0.15180528 0.24811204
000060 51 27 86 3d 32 c4 21 bd 62 27 db bc 14 b0 4c 3d
       0.06550468 -0.039493747 -0.026752178 0.04997261
000070 de c7 6f 3d 49 de e5 3c 79 a0 65 3e 86 28 01 be
       0.058540218 0.028060095 0.22424497 -0.12613115
000080 2c ea 33 3e 80 41 c2 3d 4c 6d 1c 3d 0b 82 0c be
       0.17569798 0.094851494 0.03819017 -0.13721482
000090 b0 a4 10 3e e4 46 cb bd 4d eb f1 3d 1c b9 1f bd
       0.14125323 -0.09925631 0.11812458 -0.038994893
0000a0 74 6c db b9 d2 bb 43 be 12 bd 17 3e 79 8a 42 bd
       -0.0004185174 -0.19114617 0.14818218 -0.04749534
0000b0 3e 4b ae bc 77 37 e1 bd 6f cf f8 bc 2c 33 82 3e
       -0.021276113 -0.10996907 -0.03037235 0.25429666
0000c0 18 5a af bd ad d1 13 3e 57 07 ac bd f6 c4 83 bc
       -0.08562106 0.14435454 -0.083998375 -0.01608513
0000d0 61 45 86 3d c4 ef f3 3d 96 7d 84 3c 82 1f e3 bc
       0.06556202 0.11910966 0.016173165 -0.027724985
0000e0 9e bc 9d 3d 39 bd fc bd 33 96 cd bb ea 9c 16 3e
       0.077019915 -0.12340779 -0.0062740087 0.14708295
0000f0 59 f9 a2 be a2 4a 2c bd 41 0d 01 be cc 9c bc 3d
       -0.31830862 -0.042063363 -0.12602712 0.09209594
000100 8b 0b f0 3d b0 ac 7d bc c2 50 50 be 76 4c af 3d
       0.11720952 -0.015483066 -0.20343307 0.08559506
000110 47 ff 90 be 0a 7a 8c bc b1 87 5a bd 24 a7 b6 3d
       -0.2831976 -0.017148037 -0.05335206 0.08918598
000120 f3 76 7e be 66 b5 be bc 7a 4d 6e bd c2 99 a8 3c
       -0.24850063 -0.023279857 -0.058179356 0.02058113
000130 9a 33 9b be a0 4e 99 3d 4e 0e 33 3e 5a 0b 0a bd
       -0.30312806 0.074857 0.17485926 -0.033702232
000140 a4 5c bb ba 62 6e 12 be f8 12 b5 3d cf d4 4b 3c
       -0.0014294577 -0.1429992 0.088415086 0.012440874
000150 79 f9 e0 bd f4 61 86 3d 21 c8 84 be 84 34 df 3d
       -0.10985083 0.06561652 -0.25933936 0.108986884
000160 53 cf 33 be ac b5 20 be 95 0a af 3d de e5 ed bc
       -0.17559557 -0.15694302 0.0854694 -0.029040273
000170 46 64 03 3e 72 83 eb 3d b2 b7 f9 bc 97 7f 63 bd
       0.1283122 0.114996806 -0.0304831 -0.0555416
000180 68 40 bd be dc b2 a5 bd b0 69 b8 3c 39 e9 fa bd
       -0.369632 -0.08090755 0.022511333 -0.12251515
000190 db 60 51 bd 52 61 1f be 0b 75 15 be f5 4b 92 bd
       -0.05111776 -0.15564469 -0.1459543 -0.07143394
0001a0 c4 e6 ad bd 02 5b 6d bd 68 61 73 bd bf 12 0d 3e
       -0.08491281 -0.05794812 -0.059419066 0.13776682
0001b0 45 35 52 3e 6d 72 88 bd 40 ae 49 bc 8f 79 88 3d
       0.20528133 -0.0666245 -0.012309611 0.066638105
0001c0 70 51 90 3c 7c 1f b4 bb e6 b3 b8 bd 60 d6 b4 3d
       0.017616957 -0.0054969173 -0.09018688 0.08829951
0001d0 e8 77 2a be 3e 95 0e 3e 56 d2 03 3e b4 d3 83 be
       -0.16647303 0.13924119 0.12873206 -0.25747454
0001e0 fd bc 29 bd 01 87 58 3e 69 6d c2 3e 11 22 f0 3d
       -0.04144 0.2114525 0.37974098 0.11725248
0001f0 36 f7 d2 3d b4 84 67 bd 82 c2 e3 bc ea 2b 5c be
       0.10301058 -0.05652304 -0.02780271 -0.21501127
000200 03 3b 55 3e 2d 34 10 bd a4 ec 12 3d 51 67 ea bc
       0.20823292 -0.03520601 0.03587021 -0.028613718
000210 d0 fc a3 3d 99 d4 46 be 75 a3 44 be 85 98 a3 be
       0.080072045 -0.19417037 -0.19202979 -0.319523
000220 09 78 7d 3d 1a b4 56 bd 73 22 73 be 57 82 03 3e
       0.061882053 -0.052417852 -0.2374361 0.1284269
000230 0c 9f fc bd 4b 1f 09 be 26 32 e8 bd 56 37 c1 3b
       -0.12335023 -0.13390844 -0.1133769 0.005896489
000240 c5 de a2 bc a7 a2 20 be a2 45 16 bd f0 3b 0e 3e
       -0.019881615 -0.15687047 -0.0366875 0.13890052
000250 1a 52 14 be fa 76 5c be f5 d8 23 3e cc 85 c1 3d
       -0.14484444 -0.21529761 0.16000731 0.09449348
000260 18 50 ab be 03 ec c3 bd ae f9 a8 bd b2 d1 85 bc
       -0.33459544 -0.095665 -0.082507476 -0.016335342
000270 af b2 f9 3c 3e a1 b1 bd ef f8 bb 3d 47 2f b7 be
       0.03048071 -0.08673333 0.0917834 -0.35778257
000280 e7 5d b2 be 5e 7b 03 be 62 b3 3c ba 96 c8 18 3d
       -0.34837267 -0.1284003 -0.0007198361 0.03730067
000290 68 22 5a 3d 06 70 2f bd 6c af 24 be 68 b8 4e be
       0.05325547 -0.042831443 -0.16082543 -0.20187533
0002a0 85 1d 0b 3c 85 48 2e be 49 7d 00 be f6 55 ac bd
       0.008490925 -0.17019852 -0.12547792 -0.08414833
0002b0 2b 36 62 3e 04 c3 45 3e 57 47 37 be 56 82 00 3e
       0.22090976 0.19312674 -0.17898308 0.12549719
0002c0 65 42 50 be 6a 4d aa bd 63 50 a6 3d 23 d8 1a be
       -0.20337828 -0.08315547 0.08120801 -0.15121512
0002d0 bf 9f e9 bb 03 f4 f4 3c 91 f2 46 3d d4 26 07 be
       -0.007129639 0.02990151 0.048571173 -0.13198406
0002e0 7b c8 b7 bc e3 0e 06 be 4f 1f 99 3d 1e 9b 16 bd
       -0.022434464 -0.13091616 0.07476675 -0.036769025
0002f0 f3 3a 6b 3d cf 1d a7 bd a6 0a d6 3b 99 5d aa be
       0.057429265 -0.081599824 0.006532031 -0.33274534
000300 25 57 d1 bd 8d b7 19 be f6 40 67 3d 04 41 28 3d
       -0.102216996 -0.15011425 0.056458436 0.04107763
000310 0e ef e0 3b 40 b6 0e bd 6c e1 2f 3d 55 2f 08 3e
       0.006864435 -0.034841776 0.04293959 0.13299306
000320 c9 f3 2f be 15 b1 89 bd 42 7e 95 bc 0e b7 40 3d
       -0.1718284 -0.06723229 -0.018248681 0.047049575
000330 0e 34 1e 3b 96 cc ca 3b 9a ec 34 3d 56 d9 26 bd
       0.0024139914 0.0061889393 0.044170953 -0.04073461
000340 e2 01 1e bd d0 45 14 be 6d e6 e5 bc fe 9e d8 bd
       -0.038576014 -0.14479756 -0.028063977 -0.105772
000350 5b 7f 35 bd 42 64 3c bd 32 0f 1b 3d 1f 2d 7d bd
       -0.04431091 -0.04599405 0.03785629 -0.06181061
000360 8e 9d e7 bd d7 70 45 bd f7 a7 51 3d e8 82 23 3d
       -0.11309348 -0.048203316 0.051185574 0.039919764
000370 e8 44 09 3e f8 91 28 3d d8 b4 0a be 6c 32 21 3d
       0.13405192 0.04115483 -0.13545549 0.039354727
000380 0e 4f 49 bd f6 86 bc 3d a9 2b 5a 3c 90 8e 5c bd
       -0.049147658 0.09205429 0.013316073 -0.053846896
000390 37 f8 b0 3c b0 fe 7c 3d dc f6 b8 3c e1 3a 48 3e
       0.021602733 0.061766326 0.02257865 0.1955371
0003a0 5e e4 16 3d ba 4e 26 be fc 88 d3 bd 04 de e1 3d
       0.03683888 -0.1624097 -0.10328862 0.11028674
0003b0 a8 b4 1e 3e fe f2 06 be 9c 44 39 3c a3 d3 90 bd
       0.15498602 -0.13178632 0.011307862 -0.070716165
0003c0 f0 05 46 be 47 37 c5 3b 3a 8b 36 be 21 e7 30 be
       -0.19338202 0.0060185525 -0.17826548 -0.17275669
0003d0 fc fd 6c bd f5 18 79 3e 3b fa fd 3d c2 6c da bb
       -0.057859406 0.24325927 0.12401243 -0.006665797
0003e0 2b bb f8 3c aa 9c 17 be 7f 41 24 be 8c 4b a4 3d
       0.030362686 -0.14805856 -0.1604061 0.08022222
0003f0 1a 76 eb 3d bb e0 58 bc ac ac 63 bc ba 0e 03 be
       0.114971355 -0.013237174 -0.013896149 -0.12798586

sequential/dense/BiasAdd/ReadVariableOp:0 f4 [128]
000000 c4 3d a9 3b bb 26 2e bd 7a f9 09 bd 93 9a 12 bc
       0.0051648337 -0.042517405 -0.033685185 -0.008947986
000010 a2 c9 cb 3c bc 52 86 bc b7 fc d3 bc 12 bb c7 bc
       0.02487642 -0.016396873 -0.02587734 -0.024381194
000020 39 7d e5 3c ce e7 f5 bb 46 be 22 bd a5 8a f5 bb
       0.028013812 -0.00750444 -0.03973224 -0.0074933344
000030 5c 73 6b bc dc 3d 16 bd 5e b6 1d bd 90 3b 0f bc
       -0.014370766 -0.036680087 -0.038503997 -0.008742228
000040 7b 46 8e 3c 52 02 8e 3c e2 e6 2c 3d e1 03 d6 3c
       0.017367592 0.01733509 0.042212375 0.026124896
000050 ad 08 2a bc 78 09 2d bd 36 e8 34 bc 44 20 91 bc
       -0.010378045 -0.04224536 -0.0110416915 -0.01771558
000060 1e 25 80 ba ec 08 51 bc fd f9 fa 3c c7 e2 21 3c
       -0.0009776687 -0.012758475 0.030636782 0.009880728
000070 8c 24 6f bd ae 63 8c 3c 41 87 1a ba d0 36 32 bd
       -0.058384463 0.017137375 -0.0005894788 -0.043509305
000080 c7 ec af bc a0 0b 23 bd 11 66 4c bd 0a 4a 1e bd
       -0.021475209 -0.03980601 -0.049902026 -0.038644828
000090 35 d1 9d bd 31 4a b6 bd 9b 0f 6c 3b f3 2b 0a 3d
       -0.07705919 -0.0890087 0.0036020044 0.03373332
0000a0 3c b8 dc 3c 75 71 33 3d 1c 89 5a bd f9 76 87 bc
       0.026943319 0.043809373 -0.053353414 -0.016536223
0000b0 03 02 69 3d 4a 99 b7 3d 69 50 d8 bc 80 85 e3 b9
       0.056886684 0.089647844 -0.02640553 -0.0004339628
0000c0 60 31 12 ba b8 ba 94 3c 7d 5d 1f 3c 96 5b be bc
       -0.00055768155 0.01815544 0.009726879 -0.023237031
0000d0 9d 5f 0d bd aa 0c fd 3c 46 c0 ca bc 1e ef 8c bb
       -0.034515012 0.030889828 -0.024749886 -0.004300966
0000e0 ac 0e e8 bc 0a b3 a2 3b 1d 60 2b bd 05 ee 85 bc
       -0.028327309 0.004965191 -0.041839708 -0.016348848
0000f0 24 d2 28 3b b7 62 da 3b 2f 95 a7 bd d8 9e 78 bd
       0.002576002 0.0066645998 -0.081827514 -0.06069836
000100 e4 a0 8c bd e6 4f 30 bb 5a de 25 bd ac 53 4f bc
       -0.06866625 -0.0026903092 -0.040495254 -0.012654226
000110 2f 94 42 3c ba cf 13 bc 21 a3 4d bd f2 52 6d 3b
       0.01187615 -0.009021694 -0.0502044 0.003621277
000120 47 b9 bf bc 49 da 16 bd 84 0d a8 bc e2 c3 2a bc
       -0.023403777 -0.036829267 -0.020514257 -0.010422679
000130 98 da 5e bb af 53 65 bc 6c 6c cf bc 56 0c 2b bd
       -0.0034004804 -0.0139970025 -0.025320254 -0.04175981
000140 57 cd 41 ba 6d 53 3f bd 18 37 47 bd 7f b4 ef b9
       -0.0007392964 -0.04671042 -0.048636526 -0.00045720112
000150 67 42 80 bb 97 7e 02 bc d8 6d 38 3d f6 74 4e bd
       -0.003914166 -0.007964752 0.04502663 -0.05040451
000160 52 97 84 bd 03 0c 1f 3d c5 25 b4 bc ae c3 b6 3c
       -0.064741746 0.038829815 -0.021990666 0.022310104
000170 29 0a 59 bc b7 b1 07 bc 4e 94 94 bc d6 bb ab bc
       -0.013247051 -0.008282117 -0.018137123 -0.02096359
000180 22 9f 1c bc c9 98 1b bd 14 4e bb bc cb 3f 9d bc
       -0.009559425 -0.037987504 -0.022864379 -0.019195458
000190 fa 2d b5 ba ab 8d d7 3c f3 86 54 bd 7e 9a 76 bb
       -0.0013822906 0.02631267 -0.05188651 -0.0037628706
0001a0 cb 46 2d bd 03 3a a4 bc eb bb 14 bd d8 c3 0e 3a
       -0.04230384 -0.020047193 -0.036312025 0.0005446053
0001b0 9a 73 61 bc 43 9d b3 bc 46 fc 68 3d d2 99 24 bd
       -0.013760472 -0.021925574 0.05688121 -0.040185757
0001c0 a8 59 2e b9 eb fa 1e bd e0 39 1c bd 5a 53 48 bd
       -0.00016627333 -0.038813513 -0.03814113 -0.048907615
0001d0 a8 86 0f bb 71 8e a6 3c df e0 75 bd 30 01 15 3d
       -0.002190033 0.020331593 -0.060028907 0.036378086
0001e0 65 55 35 bd 82 4f ab ba 52 70 7e 3a 6e 2e 71 bb
       -0.04427089 -0.001306996 0.0009706068 -0.0036801356
0001f0 6e 0d 60 bb 3c 7f 38 bd f3 61 28 bd 96 ee a9 bc
       -0.0034187692 -0.045043215 -0.041109037 -0.02074365

sequential/conv2d_1/Conv2D/ReadVariableOp:0 f4 [16, 8, 5, 5]
000000 fb a0 3b 3e 89 04 82 bc 5a 84 73 3e 76 cc 27 3c
       0.18323128 -0.015871303 0.23780957 0.010241618
000010 06 6c 9a 3d 8f c1 32 3e 92 0b 74 3b 42 ba 9c 3e
       0.07540135 0.17456649 0.0037238342 0.30610853
000020 ad 55 2c 3e e7 19 7d bc 7c 7e 2d be 45 0e 6e be
       0.16829558 -0.01544807 -0.16942781 -0.23247631
000030 33 d1 3e be dd 1c 51 be 23 b6 a1 bd 21 d8 55 3c
       -0.1863449 -0.20421167 -0.07896068 0.013052017
000040 27 28 d7 bd 67 16 92 be 12 0c 74 bb f5 a0 b9 3d
       -0.10505705 -0.28532717 -0.003723864 0.09063903
000050 72 47 85 3c b3 a5 7f 3c 8a 41 e6 bd e4 39 a3 bd
       0.01626942 0.015603471 -0.11242969 -0.07970026
000060 1f 17 e6 3d 96 54 34 bb 63 e8 0e bd 06 a7 83 3d
       0.11234879 -0.0027516237 -0.03488959 0.064283416
000070 21 7c d3 3d a1 ec aa bd c8 84 e1 bd 37 7d 21 3e
       0.1032641 -0.08345915 -0.11011654 0.15770422
000080 34 10 10 3e 4a c5 c3 3d 65 44 0e 3d 1e a9 b3 bd
       0.14068681 0.09559114 0.034733195 -0.08772491
000090 8a 46 bc bd 10 68 0c 3e c6 f1 3c be e1 e5 ad bd
       -0.09193142 0.13711572 -0.18451604 -0.084911115
0000a0 f3 d8 b3 3d e1 b4 04 be 78 3b 56 be 38 8a 6d bd
       0.08781614 -0.12959625 -0.20921123 -0.057993144
0000b0 2e e8 a4 3d f8 23 28 ba 09 d9 d4 ba 29 07 49 be
       0.08052097 -0.0006414051 -0.0016238998 -0.19631638
0000c0 69 37 88 3c d1 be eb 3d 9f df d9 bc 2c 2e 5b 3e
       0.016627984 0.11511005 -0.026595889 0.21404332
0000d0 08 49 52 3e b1 87 3c 3e d7 79 7a 3d fd 74 e9 bd
       0.20535672 0.18411137 0.06115135 -0.11399267
0000e0 63 15 fc bd 58 3e 1f bd 4c 23 9c be b3 0b 89 be
       -0.12308767 -0.038877815 -0.3049568 -0.26766738
0000f0 1d 97 03 3e cf eb 66 3e 25 73 d0 bd c1 52 96 3c
       0.12850614 0.22550891 -0.10178212 0.018350007
000100 f1 ff 12 bd 2b df 49 bd 9c a6 96 3d 74 64 37 be
       -0.035888616 -0.049285095 0.07355997 -0.17909414
000110 1b 80 90 bc b2 d1 a2 bd a2 2f d6 bd a3 b2 e2 bd
       -0.01763921 -0.079501525 -0.10458304 -0.110692285
000120 6f 51 39 be 27 b4 85 be c2 b1 7c be 77 f7 e1 3d
       -0.1809747 -0.26114008 -0.24677184 0.11033528
000130 76 d6 a9 3c 23 33 ef bd 2c d4 55 bd cd 74 1c bd
       0.020732146 -0.116796754 -0.052204296 -0.038197327
000140 29 ce b9 3c 5b db 3b bd 14 0d 75 bd ec 26 c8 bc
       0.022681313 -0.04586349 -0.059826925 -0.024432622
000150 07 c5 0f be a7 ea 8c bd 78 0a 8c 3d a9 81 c0 bb
       -0.14040004 -0.06880694 0.06837934 -0.0058748317
000160 d3 75 ba bd 9d 84 e4 bd 6a bc 70 bd 9d 86 3e 3e
       -0.091045044 -0.111581065 -0.058773436 0.18606038
000170 11 b1 f8 bd ec e7 c7 be 90 85 32 be e4 0e af bd
       -0.12143148 -0.3904413 -0.17433763 -0.08547762
000180 82 ba bb 3d 8f b5 0f bd a2 c3 4f be 36 27 cb bd
       0.09166433 -0.035085257 -0.20289472 -0.09919588
000190 5e e7 83 3c ad 0b 59 3d 98 b4 f7 bc 76 6f b8 bd
       0.016101535 0.05298965 -0.030237481 -0.090056345
0001a0 7f 5a 57 be ec b5 ee 3b b2 85 29 3e 43 53 07 3c
       -0.21030615 0.0072848704 0.16554907 0.008259597
0001b0 51 40 ca bc ac 64 82 3c 51 3d 1d 3e 87 42 b6 bc
       -0.024688872 0.015917145 0.15355422 -0.02224852
0001c0 05 61 ca bb 89 36 1c 3d 3a 31 43 bd 49 1d 93 3c
       -0.0061761164 0.038137946 -0.047654368 0.0179583
0001d0 1e c9 bc 3c eb 50 85 be 4d 40 16 bd 4e 15 e0 bd
       0.023045119 -0.26038298 -0.036682416 -0.109415635
0001e0 37 3e 61 bd c0 6f f9 bc 14 5a 23 be e6 0d d6 3d
       -0.054990973 -0.030448794 -0.15952331 0.1045187
0001f0 e6 7d 09 3d d8 fe 10 bd 37 c1 31 3e 59 9a 11 be
       0.03356733 -0.035399288 0.17358862 -0.14219035
000200 7c 52 d3 bd 62 c6 42 be 33 8b a4 3d ed a1 91 3e
       -0.10318467 -0.1902099 0.08034363 0.28443852
000210 4f 0c 9d 3e 1f 07 a1 3e 1e a3 16 3d b5 86 5c be
       0.30673453 0.31450745 0.036776654 -0.21535762
000220 f3 93 b8 3d e5 fa 1d 3e fa 48 dc 3c 98 9d 7f be
       0.09012594 0.1542774 0.026890267 -0.24962461
000230 45 3d 56 be 50 16 31 be 1b a4 97 be c9 00 27 be
       -0.2092181 -0.17293668 -0.2961739 -0.16308893
000240 8e dc 9f 3d 23 f3 a4 3d 23 93 a4 bd 54 3d c9 bd
       0.07805739 0.08054187 -0.080358766 -0.098261505
000250 b8 bb 01 3e 87 13 82 3d 62 73 c2 3a 5f 25 ff 3c
       0.12669265 0.06351381 0.0014835412 0.03114575
000260 6d 7e 71 3d 4f 84 5e 3e d4 f5 5b 3e 5b 86 5f bd
       0.05895846 0.21730159 0.21480495 -0.05457149
000270 ca 3c b1 3d 4a bb 1a 3e d0 aa 40 3e a4 64 30 3e
       0.08654173 0.15110508 0.1881516 0.17225891
000280 95 c7 77 be 93 99 5b be 9a d9 72 be b4 97 24 be
       -0.24197228 -0.21445303 -0.23715821 -0.16073495
000290 72 77 86 be be fa 40 3a 61 fe bb bd 9a ce 7a bd
       -0.26263005 0.0007361582 -0.09179378 -0.061232187
0002a0 26 cb c6 bc 35 41 9f 3d 60 30 be 3d be 91 65 bd
       -0.02426679 0.07776109 0.092865705 -0.056047194
0002b0 55 a1 90 be fc 7c 6b bd d2 f3 31 3d b6 cf f6 bc
       -0.28248087 -0.05749224 0.043445416 -0.030128341
0002c0 da 62 dc 3d 9c b8 10 3e 41 47 f6 3b ef be 17 3e
       0.10761042 0.14132923 0.0075158183 0.14818929
0002d0 17 a7 31 3d 80 ec 9f bb c7 72 ad 3e da db 9a 3e
       0.04337224 -0.004880488 0.3387663 0.30245858
0002e0 88 74 46 3e bd ed 3b be 92 a2 26 be 26 11 86 3d
       0.1938039 -0.18352409 -0.16272953 0.065462396
0002f0 dd 26 92 bd 77 37 40 be 84 c9 5c bd ce 96 ee bd
       -0.07136319 -0.18771158 -0.053903118 -0.116498575
000300 cc 91 b9 bd dc 62 07 38 c9 2a bf 3d 34 e7 0a bd
       -0.09061012 3.2278578e-05 0.093343325 -0.0339119
000310 29 66 8b bd 81 55 91 bd b4 ba 1e be dc 7a 10 bc
       -0.06806595 -0.07096387 -0.15500909 -0.008818354
000320 85 e1 34 3c a6 8e 87 bd 92 f1 68 3c 1b d5 6f bc
       0.011040096 -0.06619005 0.014217751 -0.014638211
000330 7c c5 34 be 55 9a f1 bd 91 09 12 be 08 54 1c be
       -0.1765346 -0.117970146 -0.14261462 -0.1526643
000340 f1 01 b7 bd 1c 0a bc 3d 16 4c 1a be ba 99 e9 bc
       -0.08935917 0.09181616 -0.15068087 -0.028515685
000350 ae ba 62 bd c5 ea 7e bd ea 7b 4b 3d 8d 79 b5 3d
       -0.055353813 -0.062235612 0.04967872 0.088610746
000360 f5 5b 3f bd 20 8b d2 3c da 7b 3f 3e cb 2d f2 3d
       -0.046718556 0.025701106 0.1869959 0.118251406
000370 9d 3b 88 bd 53 d0 68 3e ca 4e 55 3d 6d fb 37 bd
       -0.06651995 0.2273572 0.052077092 -0.044917513
000380 db 8f 81 3b 10 6f 3d 3d 37 a2 e4 3d 39 56 80 be
       0.0039539165 0.046248496 0.111637525 -0.25065783
000390 7c 43 af 3d 9b 82 e4 bc 95 65 c8 bd 3c cf 9b bd
       0.085577935 -0.027894309 -0.09785 -0.07607886
0003a0 95 6b 29 be 3a 86 75 be 59 cb 85 bc 01 e5 02 be
       -0.16544946 -0.23976985 -0.016332315 -0.1278267
0003b0 06 f5 3a be ab 18 ac bd b1 15 eb bc 43 e2 f0 bb
       -0.18257532 -0.084031425 -0.028696867 -0.0073511912
0003c0 90 06 18 3c 13 6e 63 bd 25 f7 e8 3d d4 c7 a8 3b
       0.009278908 -0.055524897 0.11375264 0.0051507745
0003d0 2f eb ec bd 0d a8 39 3e f3 63 18 3e 6b 7c e4 bd
       -0.11568295 0.18130513 0.14881878 -0.11156543
0003e0 9b 3a 80 bd 31 72 07 3c dd 95 b1 bd b7 33 99 be
       -0.06261178 0.008266971 -0.08671162 -0.29922268
0003f0 d0 f8 98 be 30 9d 41 be b8 08 b6 bd 7c 7f 73 3d
       -0.2987733 -0.18907619 -0.08888382 0.05944775

sequential/conv2d_1/BiasAdd/ReadVariableOp:0 f4 [16]
000000 f6 fe c2 3c 0d 5c 03 be c1 76 8a bd 35 83 8b bd
       0.023803215 -0.12828083 -0.06760932 -0.06812135
000010 b3 e3 af bc 28 f7 f3 bd 84 0b c8 bd dd 27 75 3c
       -0.02147088 -0.11912376 -0.097678214 0.014963117
000020 39 98 89 3c 80 9f 25 be 64 58 e7 bd 7b 46 b8 3c
       0.016796218 -0.16174126 -0.11296156 0.022494545
000030 96 6b ad bb 36 74 0b be a8 32 4e 3d 8c 66 36 be
       -0.0052923663 -0.1361855 0.05034128 -0.17812556

sequential/conv2d/Conv2D/ReadVariableOp:0 f4 [8, 1, 5, 5]
000000 8c 95 4f be 76 37 6f 3e aa 05 8c 3d dc 6d 64 3e
       -0.20271891 0.23361 0.06837018 0.22307533
000010 02 15 2e bd 44 3a 27 3c d2 1f bb 3e 3b fa c9 3d
       -0.042500503 0.010206763 0.36547714 0.09862181
000020 51 f8 c1 bd 25 28 90 be ff 25 a6 3d ad 1f 06 3e
       -0.09471191 -0.28155628 0.08112716 0.13098021
000030 78 e6 66 be cb 38 00 3f bf 73 cc 3e 0d c3 a2 3c
       -0.22548854 0.5008666 0.39932057 0.019868398
000040 7c 13 8e bd b2 33 51 be 57 16 36 3e b9 ac 61 3e
       -0.0693731 -0.20429876 0.1778196 0.22038545
000050 67 0d d1 bd e4 4d 3b bd ea 53 86 bd 24 bb a2 be
       -0.102076344 -0.04572858 -0.06558974 -0.31783402
000060 2d 62 60 be 6d 25 db 3e 83 0d ef 3d 7d f2 94 bd
       -0.21912451 0.4280199 0.11672499 -0.072728135
000070 8b 0c a9 be da a7 23 be 01 c2 36 bd 57 7a 17 3e
       -0.33017382 -0.15981999 -0.04461861 0.14792763
000080 23 c8 54 3e 27 a7 d2 3e 38 e6 4c be 42 d9 ff 3c
       0.20779471 0.41143152 -0.20009696 0.031231526
000090 f8 b7 98 3e 49 fa fb 3e db b3 9b 3e 53 11 6b bc
       0.29827857 0.4921439 0.30410656 -0.014347392
0000a0 18 f3 82 be 67 67 4c be e0 57 8d 3e 17 99 a2 3d
       -0.2557609 -0.1996132 0.27606106 0.07939356
0000b0 8b ea 66 be 98 56 cf be d2 0e 83 be 0a 09 c6 3d
       -0.22550409 -0.40495753 -0.25597245 0.09669693
0000c0 70 4c ed 3e d0 19 f1 bd e6 03 81 bc 8b c5 3c 3d
       0.4634738 -0.117725015 -0.01574893 0.04608683
0000d0 d8 b4 17 be 20 2b c9 be 4b d1 92 3d 3e 48 a9 bb
       -0.1481508 -0.39290714 0.07168826 -0.0051660826
0000e0 0d 14 79 be b7 8d 0a bf 7a 0e ea be d9 56 aa be
       -0.24324055 -0.5412249 -0.4571417 -0.33269385
0000f0 df ab 46 3e 9f 8d 86 3e 42 8d 23 be 30 4e fd be
       0.19401501 0.26279923 -0.15971854 -0.49473715
000100 b7 c2 1f bf d2 b4 43 3e c5 62 e3 3e 4b c7 08 3f
       -0.62406486 0.19111946 0.44411293 0.53429097
000110 33 f3 c8 3e 54 a9 ea bd a9 36 36 3e c7 ae 47 bd
       0.39248046 -0.11458078 0.17794289 -0.048750665
000120 8d 87 9e 3e f0 24 36 3f e8 83 d1 3e 5a 08 ed 3d
       0.30962792 0.7115011 0.4092095 0.115738586
000130 50 35 23 bd ea 4c 9f 3e 36 b6 80 bd ca 11 a2 3d
       -0.039845765 0.31113368 -0.06284754 0.07913549
000140 e3 f1 32 3e 3c 8e 2a 3e f1 2a 42 3e 6e cf 4d 3e
       0.17475085 0.1665582 0.18961693 0.2009866
000150 2e d2 0d bf 65 da f7 3d 92 a3 eb 3d 4c 74 71 3e
       -0.55398834 0.12102202 0.11505808 0.2357952
000160 82 fc de be e4 77 0b bf bf 54 a8 3e 8d fa 01 3f
       -0.43552023 -0.54479814 0.32877156 0.50772935
000170 58 f3 f3 3d 37 e0 b6 be 72 46 ec bc 14 93 49 3e
       0.119116485 -0.35717937 -0.028842185 0.19685012
000180 5b fa af 3e 9c b6 01 3e bc b5 03 bf 82 0a eb be
       0.34370694 0.12667316 -0.5144918 -0.45906454
000190 2d 01 0a bf 88 72 01 bf 78 37 24 be 58 3e cf 3e
       -0.53908044 -0.50565386 -0.16036785 0.40477252
0001a0 37 7a 03 3f d2 fb a8 be fd 26 a8 be e1 c6 a1 3d
       0.5135836 -0.33004624 -0.32842246 0.07899261
0001b0 11 26 73 bd 36 8d 01 3f 72 23 78 be db 8d bd be
       -0.059362475 0.50606096 -0.24232271 -0.3702229
0001c0 0b 21 95 be 6c 82 15 bc 76 7e 71 3e 8e 4d 92 3d
       -0.29126772 -0.009125333 0.23583397 0.07143699
0001d0 a6 36 53 3e 1b 12 16 bb 9e c8 c3 3e a5 27 1d bd
       0.20626315 -0.0022898975 0.38238996 -0.038367886
0001e0 76 b2 c8 bb 77 d3 9d 3d 86 bf e2 3d 83 e5 9a 3e
       -0.00612479 0.07706349 0.110716864 0.3025323
0001f0 14 51 c9 3d 3a 8f a1 be cf 21 f3 3d 7e 4d 4e bc
       0.098299176 -0.31554586 0.11871683 -0.012591718
000200 21 f5 fb 3e 88 6f 30 3e 34 ed 85 be a2 43 82 3e
       0.49210456 0.17230046 -0.26157534 0.25442225
000210 42 0b 5c 3e 1c 78 60 3e 62 d7 a0 3e 2f f6 a0 bb
       0.2148867 0.21920818 0.31414324 -0.00491216
000220 19 d5 23 bd a2 7a 87 3c 7f 9f 21 3e c6 bf 1d 3e
       -0.039998148 0.016537968 0.15783499 0.15405187
000230 b8 85 02 bf c2 98 56 3e 43 7d 10 be ef 6c 0a bf
       -0.5098529 0.2095671 -0.14110284 -0.5407247
000240 f1 89 0b bf 33 76 aa bd 30 fa bc bc 0b 73 51 be
       -0.54507357 -0.08323326 -0.023068517 -0.20454042
000250 f6 87 d4 be b3 e5 31 be 00 bb 38 be e5 47 a7 be
       -0.4150998 -0.1737278 -0.18040085 -0.3267204
000260 ec 32 7c be 9c 15 a5 3e 36 1b 2e 3e c7 c3 f0 bd
       -0.246288 0.3224305 0.17002568 -0.117560916
000270 34 d5 00 3d c1 cd 2a 3e 45 c5 28 3e 03 4b ad bd
       0.031453326 0.16680051 0.16481502 -0.08461573
000280 75 77 b0 ba e2 58 13 3f 82 94 0e 3e d9 95 09 3f
       -0.0013463335 0.575575 0.13923839 0.53744274
000290 93 10 0d 3e cc 7d 0c 3f 94 1b ba 3e b9 ec 94 be
       0.13775854 0.5487945 0.36349165 -0.29086855
0002a0 a1 3e 25 3d 15 49 2a 3e f7 e4 e4 be 96 c0 11 bf
       0.04034293 0.16629441 -0.44705936 -0.5693449
0002b0 ff bc 21 bf e7 13 02 bf 47 2e 3b be e3 18 c5 be
       -0.6317901 -0.5081162 -0.18279372 -0.3849555
0002c0 69 76 21 bf fe 84 27 3d 0d b3 37 be d9 f5 10 3e
       -0.63071305 0.040898316 -0.17939396 0.14156283
0002d0 81 6e 6e 3e 0e 72 21 3e 57 4a f6 3e 22 b3 52 3e
       0.23284341 0.15766165 0.48103592 0.20576146
0002e0 d3 27 03 3f f2 53 c8 bc ba e7 b6 3e 4d f7 c4 3e
       0.5123264 -0.02445409 0.35723668 0.38469926
0002f0 99 cd ce 3d cc 2b 13 3d 00 23 40 3e 98 d0 6e bc
       0.100978084 0.03593044 0.18763351 -0.0145761
000300 34 c7 b6 3d 6a 38 60 bb 4b 64 a1 be 3c bb 84 3d
       0.08924714 -0.0034213313 -0.3152183 0.064810246
000310 89 4c ca be 39 b4 a4 be 67 af fd be 0f 0f fc be
       -0.39511517 -0.3216875 -0.49547884 -0.4923024

sequential/conv2d/BiasAdd/ReadVariableOp:0 f4 [8]
000000 41 45 ab bd d6 5d 7b be 7e cf f3 3c 32 3a ea bc
       -0.083628185 -0.24547514 0.029762026 -0.028592203
000010 6e 96 6f be 33 f5 b6 3c 62 ab 26 bc 8c e3 a1 bb
       -0.23397228 0.022333717 -0.010172697 -0.004940456
