models/model32.onnx (onnx, 67381 bytes, 6 tensors)

sequential_1/dense_1/MatMul/ReadVariableOp:0 f4 [256, 10]
00000000: 95cb 8ebd 4929 9cbe 1ef5 84bd bf4b 06bf
00000010: 06ec 11be e5ce 6b3e 284b 97be d69d 36bf
00000020: 7867 a93e 5348 be3e 6b6b 75bd 2f07 603f
00000030: 7f32 3dbf f0ea afbf 3e86 043e 6fc7 263e
00000040: 0527 153f f5b3 ecbe a045 c8be 817e 83be
00000050: f246 973d 5c32 34bf 38ff d1bb 5f94 77be
00000060: 52b8 f0be 6bb3 3b3d 1ef7 efbe 7da0 373d
00000070: ff59 a63e a91b 723e 1c1f 9fbd 2ffd 3abd
00000080: 30a8 a8bd 0da7 93be 3280 6cbe 7316 94bd
00000090: 61fe 09be 2aea 4cbe 1531 623d 5adb 0f3e
000000a0: c0dd 22be 8fd6 8e3e 6dbd ddbe f39c 29bf
000000b0: 1fac c53e 5873 2e3d 7b95 933e 77f1 9c3e
000000c0: 3b3e efbd b915 00bf 500c aebe f4b2 003f
000000d0: 42f1 c4bd 3c79 2cbd 1501 003f cb76 a23e
000000e0: add7 21be 3a7a 0f3c bd26 13be e3eb 8dbf
000000f0: 586d cabe f547 153e 8300 43be fc11 62be
00000100: 2aa9 543e 59b7 a2be b423 0fbf b1fa de3e
00000110: 9715 413d 14e5 34bf 940b b2bc bbae 1cbf
00000120: ed29 cf3e 3e9c 963e 062c 9dbe 5511 44be
00000130: 0988 f7be 21d0 273e cfae 01bf ee3e 00be
00000140: 1645 2bbe 1a76 783d c72d 2cbe f438 4bbf
00000150: 504f 2ebe 8c26 1fbe 42db 653e d87d 60be
00000160: 457b 233d 734b 153c da7c debe 9fe9 aa3d
00000170: 2460 fdbe 8240 c2be c7bd e43e 1052 4ebe
00000180: 921d b63c 6437 d1bd 2459 1e3e 631e f9bc
00000190: b37f 13bf 5b3b 8dbe c184 eabe d632 5fbe
000001a0: d619 35be e260 d63e aa40 febe fe49 7e3d
000001b0: f7b1 ca3c a631 803e a4c9 c8bd 846c 91bd
000001c0: 046f a13e cb85 d93d 5749 a4be f796 23bb
000001d0: 83d8 3e3d 9322 b0be f552 36be b062 f93d
000001e0: c26d 8fbe 91e0 5e3d a4ed 433e c304 4b3e
000001f0: 15b4 1abf 4538 2ebe acf1 45be b5c3 a33e
00000200: 04c3 9bbe 3979 48bf 30f7 7ebe e1d8 5cbe
00000210: c7ad 23be 99a6 023f 63e1 bdbe 3eaf 263e
00000220: 4b90 3dbf 47e8 723e cba4 72be aff3 20be
00000230: 4375 5cbf 9364 3abf e6c6 883e 31b0 8c3e
00000240: 884a bebe e5bc 1cbf 55a7 d1be 7f94 a33e
00000250: d1dc d5be 2f73 8ebe 71c2 57be 4f64 a3be
00000260: f8cf 123f 9a9e 45bf b971 3f3e 2846 093f
00000270: 3c90 7a3e 55ae 91be f8b4 7bbe 45c4 fabf
00000280: fcfb 25bf 64b8 1ebf afa6 90be 461a 59be
00000290: e1fb 02be bbbe ad3e 1c81 b1be 73bd 59bf
000002a0: 5dc2 963e 7e61 063f b3ac 3fbf 19b2 af3e
000002b0: bf2e a5be 6994 77be b063 f93d 82a3 09bf
000002c0: f062 133f 9ae2 9cbe 5f7d 9dbc bb70 5ebf
000002d0: 48df 823e a86d f6bd 0aa1 fc3c 3999 83be
000002e0: b41b 94be 62f0 fe3d 5cfd 6ebe 60a6 80bd
000002f0: ae8d 8a3d f6a2 2e3e 418d 263d 51f8 d2bd
00000300: 9af0 b3bd 8ed0 9bbe 9f07 e9be 8419 943d
00000310: 27ad 95bd c38c aabc cd1d 123d fcb8 023d
00000320: 6cab 82be 61dd 0b3e 3002 c3be 3f89 10bf
00000330: ca55 07be 476c 1cbd 3ce2 b63d 5009 c6be
00000340: 68e8 b9bd 25ee 4fbe ed43 483e d7f4 35bd
00000350: 960e aabd aeee 38bd 7cc9 563e 53ee 4bbd
00000360: 5aac 3bbe b011 94be ba3b ec3d 862d cbbc
00000370: c59b a7be a74a 503e e94a df3c dc4a 083e
00000380: 79eb bdbd 5110 a2be 0f7c 1cbf 9ac6 713e
00000390: 3488 0bbe 2f70 66bf 7dcd cbbd f6a4 dfbe
000003a0: 1f3f 573e 30ac ca3d 72bd f1be 3d5a e5bd
000003b0: 8439 b6be d2cf 62be f3d1 a1bd 118c b93d
000003c0: f4b2 23be 59f4 0c3e 4f15 f7bd d5cd a4bf
000003d0: d164 11be bb7e 483e 5c5f e23e d238 3ebe
000003e0: 07a7 aebd 20d1 4cbc 3cf6 12be ebc5 603e
000003f0: 4632 c43e c0d4 15be 2924 563e 815f d0bd
-0.06972424 -0.30500248 -0.06492065 -0.5245933 -0.14250192 0.23028143 -0.29549527 -0.7133459
0.33086753 0.37164554 -0.059916895 0.8751096 -0.73905176 -1.3743572 0.12941834 0.16287015
0.58262664 -0.46231046 -0.3911562 -0.25682452 0.073865786 -0.7038934 -0.0064085983 -0.24177693
-0.47015625 0.045825403 -0.46868223 0.044830788 0.32490537 0.23643364 -0.077696055 -0.04565161
-0.08235204 -0.28838387 -0.23095778 -0.07230844 -0.13475944 -0.20011202 0.05522259 0.1404852
-0.15904903 0.2789807 -0.43308583 -0.6625511 0.3860788 0.04259047 0.28824982 0.30652973
-0.116817914 -0.50033146 -0.3399377 0.5027306 -0.09616329 -0.042107806 0.5000165 0.31731257
-0.1580493 0.008757168 -0.14370246 -1.1087612 -0.39536548 0.1457823 -0.19043164 -0.22077173
0.20767656 -0.31780508 -0.55913854 0.43550637 0.04713973 -0.70662045 -0.021734037 -0.6120412
0.40461674 0.29416078 -0.3069765 -0.19147237 -0.48345974 0.16387989 -0.5065736 -0.12524006
-0.16725573 0.060659505 -0.16814338 -0.7938378 -0.17022443 -0.15542048 0.22446921 -0.21923006
0.03991248 0.009112227 -0.4345463 0.08345341 -0.49487412 -0.3793984 0.4467604 -0.20148492
0.022230897 -0.10215643 0.15463692 -0.030409997 -0.5761673 -0.27584347 -0.45804408 -0.21796736
-0.17685637 0.4187079 -0.4965871 0.062082283 0.024743063 0.2503788 -0.09804085 -0.07100776
0.3153001 0.10621222 -0.32087204 -0.0024961808 0.0465932 -0.34401378 -0.17805083 0.12177026
-0.28013426 0.054413382 0.19133621 0.19826035 -0.60431033 -0.17013653 -0.19330472 0.3198525
-0.30422223 -0.7830997 -0.24898982 -0.21567108 -0.1598426 0.5103546 -0.3708602 0.16277787
-0.740483 0.2372142 -0.23695676 -0.15717958 -0.8611643 -0.72809714 0.26714247 0.27478173
-0.37166238 -0.6122573 -0.40947977 0.3194923 -0.41770032 -0.27822253 -0.21070267 -0.31912467
0.57348585 -0.7719513 0.18695726 0.53622675 0.24469084 -0.28453317 -0.24580753 -1.9591147
-0.6483762 -0.6200011 -0.2825217 -0.21201429 -0.12791397 0.33934578 -0.34668815 -0.850547
0.29445162 0.5249251 -0.74872893 0.34315565 -0.32262227 -0.24177708 0.12177217 -0.5376512
0.5757284 -0.30641633 -0.01922482 -0.86890763 0.25560975 -0.12032634 0.030838508 -0.25702837
-0.28927386 0.12448193 -0.23338836 -0.062817335 0.067653045 0.17054352 0.040662054 -0.10301269
-0.087861255 -0.30432552 -0.45513627 0.07231429 -0.07308417 -0.020819074 0.03567295 0.031914696
-0.2552141 0.13658668 -0.38087606 -0.5645942 -0.1321632 -0.0381892 0.089298695 -0.3867898
-0.09077531 -0.20305689 0.19557162 -0.04442295 -0.08303563 -0.045149498 0.20975298 -0.04978783
-0.18327466 -0.28919744 0.115348294 -0.02480198 -0.3273603 0.20340978 0.0272574 0.13309807
-0.092734285 -0.31653073 -0.611268 0.23610917 -0.13626176 -0.9001493 -0.09951303 -0.43680543
0.21020173 0.098961234 -0.47214848 -0.11198852 -0.35590756 -0.2214959 -0.07901373 0.09059919
-0.15986234 0.13765086 -0.12064611 -1.2875315 -0.14198615 0.19579594 0.44213378 -0.18576363
-0.08527952 -0.012501031 -0.14351743 0.219505 0.38319606 -0.14631939 0.20912232 -0.10174466

sequential_1/dense_1/BiasAdd/ReadVariableOp:0 f4 [10]
00000000: 0279 0fbe f523 303f 6975 dbbe 79fa 10bd
00000010: 1e75 173e 658e 30be 5a1a 51be 6b25 883d
00000020: 0979 6c3e 4cdf 12be
-0.14011005 0.68804866 -0.42863014 -0.03539512 0.1479077 -0.17241819 -0.20420209 0.06647762
0.23093046 -0.14342993

sequential_1/conv2d_3/Conv2D/ReadVariableOp:0 f4 [16, 32, 5, 5]
00000000: 41dd 9bbd 3f93 12be f75b bebc d433 553e
00000010: 04c6 bb3d 8bd6 6dbe 6c8c c0bd cbbf 323c
00000020: e128 8e3d 9122 303c 6433 4abe c6f8 13be
00000030: 29c1 01be 3664 77be 2854 b0bd 54a2 57bd
00000040: 89dc f3bd 3563 103e 3c6f 4a3e abc5 a23d
00000050: 71c4 283e 37db 8fbc fa4e 283d e4eb 0c3e
00000060: 5887 2abb 6627 c7be ad6e e3be f13c 683e
00000070: d125 283f 2b75 293e 20ec 543e 5fa7 3a3e
00000080: 4349 e3bd 6e53 85bd 5ac9 b9bb 62c1 713e
00000090: bed4 a6be 49be 98bf 2411 22bf 25ed 543e
000000a0: 0d14 853b a92c b0ba 1b5c d4bd 9f99 6bbd
000000b0: a2ef f63d 5f40 713d 70c4 c93e 7c8d 163f
000000c0: 0818 013e e4cd 593e c279 d33d a33a 843e
000000d0: 09ae 023e a4af dbbe 8a8b aebd a2d4 55be
000000e0: 45a3 903d d006 a1be 9c23 2fbf 9019 c8be
000000f0: 9ead 58be 35db 95bc bf00 ba3d 5b45 0c3e
00000100: 9153 da3e c967 04be 5e31 9d3c 644f 373e
00000110: 806d 5e3e 1986 f0bd 6103 b1be 4fa9 99bf
00000120: e136 14bf df6d f43d 284d a83d 45a7 0abe
00000130: 3b58 b7be d428 c4be f585 923e f5b2 c13e
00000140: ddb8 e33d cc92 0ebe 6d7f 9dbd b8cd c4bd
00000150: 9ca9 2e3e d3f3 ac3b ff03 2fbe a78d c33e
00000160: e402 583e a8fa b73e 2a19 773e fffa 2ebd
00000170: 7fba 3f3e 8bfc 473d bae5 b93d fe49 113f
00000180: 4e11 e6bd e30c 87bd 8e53 f83d 8d9b 663d
00000190: 189e bf3e 683d 923e b441 45bd 5cb2 a53a
000001a0: 9026 cebd 14d4 c83e 0223 d73e adcc 673e
000001b0: 0be0 23be f7f6 a53d efd0 153e e10c c53e
000001c0: 4852 613e 6d92 d4be 6e26 09bf 954a b13d
000001d0: 5309 68be f22b c03d a4c8 34bd 4767 e3be
000001e0: 1a63 c83e 1c87 11bf 964c 9dbe 1434 ff3c
000001f0: 5efc a63e 4f65 d03e 8c68 2a3e ae3e d53d
00000200: 423f 49bd cb5d 16be b0d1 0d3e 10c9 26bc
00000210: ada9 bcbb 6150 173f b712 7cbd 975d 383e
00000220: b96c 29bf c460 aabd b445 013e fa44 383d
00000230: 0ff6 80bd 4c8f 70be b1cc c9be 49ad b2be
00000240: de0c db3e d395 c03e e9fe 653d 09b2 0bbe
00000250: 4b82 5abf db85 383e ebe1 8bbc 1e53 5bbd
00000260: e71d ddbd dedd 153d 8e68 fa3d 736b 46be
00000270: ecdb b13c 9728 863d 85b1 fc3c 2a4f d83d
00000280: 395d 16be fe82 d9bd b7fe 00be 980d a43b
00000290: 8075 a8bd 2f92 36bd 3d04 6abc ed50 b13d
000002a0: 3964 e93d 3944 203e 8d9a 2a3e 37ee c2bd
000002b0: ec3d a7bd 3de4 143e ec93 883d ae27 9e3e
000002c0: b32b ed3e 6a97 0f3e 43d9 1fbf 8b9f 9bba
000002d0: 33aa 573e b3f1 c63e b35f da3d 9391 50bf
000002e0: c210 ba3e a361 4dbb bf20 c33e d09f e73d
000002f0: 18f8 613e 1adf f53e c473 ad3e e692 083f
00000300: d19f aa3d cee2 1e3e ff78 bf3c 719a e9be
00000310: ada2 f2be b483 09bf 9e3a 51be 49a6 7e3d
00000320: 0d7e c53e 6525 613d bc5b 9bbe 5d5d 383e
00000330: 41d5 08be d963 8c3e 50df d6be f819 b5bc
00000340: c1a9 633e 40fa 30bf 0f52 983e 3a73 39bf
00000350: 78f7 113f 611e f93e b2cc ccbd dded 4a3e
00000360: 12a5 75be d266 b23e cd2c 0d3f 1133 063f
00000370: 3ff2 b3bd 48bf 38bf 2848 12bf 9f42 a4be
00000380: edd6 d03e 2236 78be 043e eb3d d8c4 373e
00000390: 7199 103f e66d fd3e 3305 71be fdf5 d3bd
000003a0: be78 9bbe e22c e5be da92 70bf 2439 b93e
000003b0: 5b3a 92be ffc6 87bf e913 0bbf d361 b9be
000003c0: 31c8 473f 9b04 8c3e 08a2 80be 1f68 77bd
000003d0: ac9b bb3e bb5a 2e3f 285a 373f 29bc b93d
000003e0: 193a 92be b65b 33bf 3eda f93e 5185 ef3e
000003f0: 49d0 923e d2fd f1bd 02f2 87be bca7 253e
-0.0761056 -0.14313982 -0.023237212 0.20820552 0.09168628 -0.23226373 -0.09401783 0.010909985
0.06941391 0.010750429 -0.19746166 -0.14450368 -0.12671341 -0.24159321 -0.086098015 -0.052645043
-0.11907298 0.14100344 0.19768995 0.079478584 0.16481186 -0.017560584 0.041090943 0.1376186
-0.0026020613 -0.38897246 -0.44420376 0.22679497 0.65682703 0.16548602 0.207932 0.1822791
-0.11097958 -0.065100536 -0.005669755 0.23608926 -0.32584184 -1.193307 -0.63307405 0.20793588
0.004061228 -0.0013441044 -0.1036913 -0.05751955 0.12057425 0.05889928 0.39407682 0.5880964
0.12606823 0.21269947 0.10325958 0.25825986 0.12761702 -0.4290744 -0.08522709 -0.20881894
0.07062391 -0.3145051 -0.6841371 -0.39082003 -0.2115998 -0.018293003 0.090821736 0.13698332
0.4264188 -0.12930216 0.01918858 0.17901379 0.21721458 -0.11744327 -0.3457289 -1.2004794
-0.5789624 0.11935019 0.082178414 -0.13540371 -0.35809502 -0.383124 0.28617826 0.37831846
0.11119244 -0.13923186 -0.0769032 -0.0960955 0.17056888 0.0052780895 -0.17091368 0.3819401
0.21094853 0.35933423 0.24130693 -0.042719837 0.18723486 0.048824828 0.0907702 0.5675353
-0.11233769 -0.06594255 0.12125312 0.05630069 0.37425303 0.28562474 -0.048158363 0.0012641656
-0.10065949 0.39224303 0.42018896 0.22636671 -0.16003434 0.081037454 0.14630483 0.38486388
0.22004044 -0.41517964 -0.53574264 0.086568035 -0.22659807 0.09383382 -0.04413666 -0.44414732
0.39138108 -0.56846786 -0.30722493 0.031152762 0.32614416 0.40702292 0.16641444 0.10412346
-0.049132593 -0.14684217 0.1384952 -0.010179773 -0.0057575316 0.59107023 -0.061541285 0.18004452
-0.6618152 -0.08319238 0.12624246 0.044987656 -0.06296932 -0.23492163 -0.3941398 -0.3489783
0.42783254 0.37614307 0.056151304 -0.13642134 -0.8535506 0.18019812 -0.0170755 -0.053546064
-0.10796719 0.036588542 0.122269735 -0.19376926 0.021711312 0.06550711 0.030846367 0.10561974
-0.14683999 -0.10620688 -0.12597166 0.0050065033 -0.08225536 -0.044573005 -0.014283237 0.086580135
0.11396069 0.15651025 0.16660519 -0.09518092 -0.081661075 0.14540191 0.06668839 0.30889648
0.46322402 0.14022604 -0.6244089 -0.0011873109 0.2106102 0.38856277 0.106627844 -0.8147213
0.3634091 -0.0031338714 0.3811092 0.11309779 0.22067297 0.48021775 0.33877385 0.5334915
0.08331264 0.15516207 0.023373125 -0.45625642 -0.47389737 -0.5371659 -0.20432517 0.0621703
0.38572732 0.054967303 -0.30343425 0.18004365 -0.133626 0.27419928 -0.4196725 -0.02210711
0.22232725 -0.6913185 0.29750106 -0.72441447 0.5701823 0.4865599 -0.0999998 0.198173
-0.2398875 0.3484407 0.55146486 0.5242167 -0.08786439 -0.7216687 -0.5714135 -0.32082078
0.40788975 -0.242394 0.11486438 0.17946184 0.56484133 0.49497908 -0.2353714 -0.10349653
-0.30365556 -0.44760805 -0.9397408 0.36176407 -0.28560147 -1.0607604 -0.54327255 -0.36207446
0.7803984 0.27347264 -0.2512362 -0.060402032 0.36642206 0.68107194 0.7162194 0.09069092
-0.2855995 -0.70061815 0.48799318 0.467814 0.28674534 -0.118159905 -0.26551825 0.16177267

sequential_1/conv2d_3/BiasAdd/ReadVariableOp:0 f4 [16]
00000000: ed5a 84be c4be 8a3e 410d 9fbe f7d5 5ebe
00000010: 9cd4 18bd 6d47 9b3e 9e0f d6be 9ae9 bcbe
00000020: 70fd 49be 6175 febe 8862 5ebe 78d9 8cbd
00000030: 0ef6 b9be f621 95be 2526 43be 38f5 06be
-0.2585062 0.27098668 -0.310648 -0.21761309 -0.037312135 0.3032793 -0.4180879 -0.36896974
-0.19725585 -0.49698928 -0.21717274 -0.06877416 -0.36320537 -0.29127473 -0.1905752 -0.13179481

sequential_1/conv2d_2/Conv2D/ReadVariableOp:0 f4 [32, 1, 5, 5]
00000000: 2a1d 8cbd 47e2 d7bd a0ae 5c3d a855 7ebd
00000010: 7d85 98be 808f 1f3c dc01 a8bd d74e a6bd
00000020: 3f94 0ebe fc8e 93be 05f1 6b3d a825 a2bd
00000030: 57c1 0b3e c446 15bc 995e b0bd 3bc7 8fbd
00000040: 8dfa 89bc a460 cabd 6680 333d 0038 06bc
00000050: ae67 da3c c65b 1abc 60d1 61be f093 8cbd
00000060: c419 9e3d b1ad a3be 2001 e3be 9f0b 91be
00000070: 4821 e0bc 00b4 b5bd 30a6 423e 6057 903e
00000080: 279f b93e 4378 0d3e d252 63be cb38 de3e
00000090: 373d b43e 7b31 123e c893 a3bd 59fe f6be
000000a0: b6c3 2abe 944d acbe a461 3abe 82b5 d63d
000000b0: 84d7 b7be 7996 f7be 7605 44bf 00ab 33bf
000000c0: 6341 08bf c0c5 5ebf 6a03 b9be 1434 cfbd
000000d0: 85e0 77be 8957 88be 6aa4 c23e 54dc 69be
000000e0: 02ce 33bc a210 c43c 1a00 15bf b3bd 87be
000000f0: 6204 7dbe d1b4 4d3e 73b8 fb3e f118 493d
00000100: ef73 9fbe 5ad5 25bf a21e 15be 8713 d53e
00000110: ae41 873e 399d 8c3c 30d3 2cbf 4f52 f2be
00000120: 0b39 a7be e03b 963c 28c1 863e d8ee ecbb
00000130: 1475 a1be 9b3d 98be ab82 1abe a816 7ebe
00000140: d6b4 a53e eff8 cb3e 499d d53e e5ce 813e
00000150: 3f10 223e 04ec 3fbe 2a0c 3abd ee59 e2bd
00000160: 271c bdbd 4183 f33d b50b 2dbf 2f9f 13bf
00000170: 5f38 a4be a613 60be f4ff 17be e02c fa3d
00000180: 5cb0 96be 55f7 4dbe dda7 85be 135b f2bd
00000190: d63e 013e 58d9 583e b374 883e 53d5 603e
000001a0: b2ad 3b3e f644 213d 0a5d 14be 115b 60be
000001b0: 48d0 a9bd 10c9 2b3e 0e6e be3d d583 32be
000001c0: 2883 8bbe 916c 3ebd 1199 3e3e 4eb0 f83d
000001d0: 0c81 c4bd 3010 04bf fad0 d7bd 17f9 963e
000001e0: e6e0 663d 6a1f 6dbb ce69 d5be 509a dabe
000001f0: 9660 253e 03ab 04bc e1ee 85be 780f 243e
00000200: f5fe 9c3e d2a0 adbe 75c0 c1bd e784 e7be
00000210: 16a6 6e3e 2b3b 323e b78d 17bf 1873 26be
00000220: 4464 1f3e 2c84 f63e 8cc6 63bd dfee 2fbf
00000230: 77f4 583e aae2 513e 8c81 d83d cd80 9bbe
00000240: ce3e 4bbf 4eda 20be c2f4 dbbe 20c3 edbe
00000250: 4d58 14bf 0966 02bf 72df 14bd 80a0 eabc
00000260: 3fc2 a5bd 7848 4ebe 92f1 62be 864d 73bc
00000270: 326a 1f3d 4419 e0bd 20df f7bd d15a f23c
00000280: bfc8 8fbd 3cc2 8f3a b5f5 29bd e0f6 d13d
00000290: c7b3 d0bc 8478 ac3c 9e69 ce3c 0641 c8bd
000002a0: bc86 963c 9519 31bd c09d 97ba 58f4 e4bd
000002b0: 5187 acbd fc8d 01be 44bb 83bc b34f 6a3d
000002c0: 846b 863e 4e3d 453e ab5e febd 45ae aebe
000002d0: 7ea2 e6bc 34a7 0e3e 3cc5 f33e e4ee ed3c
000002e0: c9c1 0cbf 7c37 81be a0cd 4ebe 78fd b93e
000002f0: 2bfc 1d3e 5b60 a0be 4971 a8be 325f b4be
00000300: ed5b 7d3d d292 8b3e 4423 a8bd b6d8 463e
00000310: 80d9 dabe 14f7 76bd 11d5 783e 40f4 8d3d
00000320: 2468 1fbf 2ec6 d7be 6ff1 023e 6af6 97be
00000330: 8e0b 34bf 9f27 0abf 6041 7f3d a5b1 ac3e
00000340: 1765 e9bd 8435 cabe e4cc 15bf c76b 3f3e
00000350: 131f 8c3e 5798 63bd 38ba a6be 97b0 c7be
00000360: f5c0 a13d 4786 1b3c e8f4 42be fa02 6abe
00000370: 81c7 81bd b686 933e 01c1 583e 1660 7fbe
00000380: b645 72bd cd11 92bd b5e4 b3bd 8978 22bf
00000390: 2010 92bf 5a8a 9fbe b0bb 793e 5c43 3a3e
000003a0: d8f4 9dbe a597 f1be fb3f a4be 9a7d 75be
000003b0: 5e95 43bf 0987 b8bf 1cfd dbbf 77d9 f1be
000003c0: 27ed ccbe 5a37 c9be e383 b3be 58ee 20bf
000003d0: 9a0c b6be c228 853e d64a 343e 5bb9 693e
000003e0: 7760 a83e 196e b33e 5668 ec3c 2507 973d
000003f0: e2c6 343e 4116 78be cf53 19bf d1f0 273e
-0.068415 -0.10541206 0.053877473 -0.062093407 -0.29789343 0.009738803 -0.0820348 -0.08120506
-0.13923739 -0.28820026 0.0576029 -0.079173386 0.13647972 -0.00911111 -0.08611793 -0.07020422
-0.016843105 -0.09881714 0.043823622 -0.008192062 0.026660766 -0.009421295 -0.22052526 -0.06864154
0.07719758 -0.31968454 -0.44336796 -0.2832918 -0.02735962 -0.08872223 0.19008708 0.28191662
0.36254236 0.13815407 -0.22199562 0.43402705 0.35202953 0.14276688 -0.079871714 -0.48240927
-0.1667622 -0.33652937 -0.1820131 0.104838386 -0.35906613 -0.4835699 -0.7657083 -0.701828
-0.5322477 -0.8702049 -0.36135417 -0.10117355 -0.24206741 -0.26629284 0.38016063 -0.22837955
-0.010974409 0.023933712 -0.5820328 -0.26511917 -0.24708703 0.20088507 0.4916416 0.04909605
-0.31143138 -0.64778674 -0.14562467 0.4161646 0.26417297 0.017164813 -0.67509747 -0.4732842
-0.32660708 0.018339097 0.26319242 -0.007230621 -0.31534636 -0.297345 -0.15088908 -0.2481333
0.3236453 0.3983836 0.41721562 0.2535316 0.1582651 -0.18742377 -0.045421757 -0.11052309
-0.09233885 0.11890269 -0.6759599 -0.5766477 -0.32074258 -0.21882495 -0.14843732 0.122155905
-0.29431427 -0.20113881 -0.26104632 -0.11833777 0.12621626 0.2117666 0.26651534 0.21956377
0.18327978 0.039372407 -0.14488617 -0.21909739 -0.082916796 0.16775918 0.09298335 -0.17433102
-0.27248502 -0.046490256 0.18613078 0.121430025 -0.09594926 -0.515872 -0.10537906 0.29486915
0.056366824 -0.0036182054 -0.41682285 -0.42695856 0.16150126 -0.008097413 -0.26158813 0.16021526
0.30663267 -0.3391176 -0.094605364 -0.45218584 0.23305544 0.17405383 -0.59200615 -0.16254842
0.15565592 0.48147714 -0.05560927 -0.68723863 0.21187006 0.20496622 0.10571584 -0.30371705
-0.7939271 -0.15708277 -0.42960173 -0.4643793 -0.57947236 -0.50936943 -0.036345907 -0.028640985
-0.0809369 -0.20144832 -0.22162464 -0.014850026 0.038919635 -0.10942319 -0.121031046 0.02958432
-0.07020711 0.001096792 -0.04149409 0.10252166 -0.02547635 0.02105356 0.025196847 -0.09778027
0.018374793 -0.043237288 -0.0011567399 -0.11179417 -0.08424247 -0.12651819 -0.016080506 0.057204913
0.26253903 0.19261667 -0.124204 -0.34117332 -0.028153654 0.1393097 0.47611415 0.029044576
-0.5498319 -0.25237644 -0.20195627 0.36326194 0.15428226 -0.31323513 -0.3289893 -0.35228878
0.061855245 0.27260453 -0.082098514 0.19418606 -0.42744064 -0.060294226 0.24300028 0.069313526
-0.6226828 -0.42143387 0.12787412 -0.29680187 -0.7033013 -0.53966707 0.062318206 0.33729282
-0.113962345 -0.39493954 -0.58515763 0.18693458 0.27367458 -0.055565204 -0.3256395 -0.39001915
0.07898132 0.009492463 -0.19038737 -0.22852698 -0.063368805 0.28813714 0.21167375 -0.24938998
-0.059148513 -0.071323015 -0.08783857 -0.6346517 -1.1411171 -0.3116024 0.24388003 0.18189758
-0.30850863 -0.47186008 -0.32080063 -0.23973694 -0.7639979 -1.441621 -1.7186618 -0.47236225
-0.40024683 -0.39300042 -0.3506156 -0.62863684 -0.3555649 0.26007658 0.17606673 0.22824614
0.32886097 0.35044935 0.028858345 0.073744096 0.17653993 -0.24227239 -0.59893507 0.16400458

sequential_1/conv2d_2/BiasAdd/ReadVariableOp:0 f4 [32]
00000000: cbcd 7abe a9ac 16bc b1cc 98be a81c 5bbe
00000010: 7962 10bf fb65 2bbd 3715 35be afc1 7dbe
00000020: 68aa 0fbd 5079 43bd 387d 15bf c548 40be
00000030: ee97 d3be ef64 36bf 71b8 b6bd da3e f0bd
00000040: ab1e 5fbe 346c 25bf dde7 15bf 557f 963d
00000050: 4075 43be 44d6 1fbd d698 3cbe 77be 6dbd
00000060: 3031 39bd 6d1d 88bd 71d1 d7be 9213 58be
00000070: 52e5 3ebd 5266 02be 4f63 40bf 5f5f f1bd
-0.24492566 -0.009196439 -0.29843667 -0.2139765 -0.5640026 -0.041845303 -0.17683874 -0.24780916
-0.03507462 -0.047723114 -0.58394194 -0.1877776 -0.4132685 -0.7124776 -0.08921898 -0.11730738
-0.21789043 -0.6461823 -0.5855692 0.073485054 -0.19087696 -0.0390227 -0.18417677 -0.05804297
-0.045212924 -0.066462375 -0.4215198 -0.21101215 -0.046605416 -0.12734345 -0.7515153 -0.11785769
