models/model11.onnx (onnx, 818396 bytes, 10 tensors)

sequential/dense_2/MatMul/ReadVariableOp:0 f4 [150, 10]
000000 84 47 a0 be 6c 8e 57 3d a4 37 4b be e7 24 0e be
       -0.31304562 0.05262606 -0.19845444 -0.13881265
000010 a4 1a 4c 3d 3e ee b0 be e3 a9 69 be e3 9f 06 3e
       0.049830094 -0.34556764 -0.22818713 0.1314693
000020 7c db 37 3e ad ec 1b 3e de 84 b3 3d a0 15 ef 3a
       0.1795482 0.15227003 0.08765577 0.0018240698
000030 12 28 fb bd 34 39 45 3e 02 88 79 be 01 25 03 3e
       -0.12263502 0.19260103 -0.24368289 0.12807085
000040 5d ef 49 be 68 1c 1b be f9 4b 89 bd cf 9e 67 be
       -0.19720216 -0.15147555 -0.06703944 -0.22619174
000050 71 e7 a2 3d a5 25 92 be 9a 84 8f bd 30 4d 60 be
       0.079543 -0.28544345 -0.070077136 -0.21904445
000060 c0 56 77 bd 5c 46 41 3e 3e cc 3e 3e f1 15 98 3d
       -0.060385466 0.18874496 0.186326 0.0742606
000070 37 22 46 bd c9 b5 b2 3c 7b f3 55 3e f6 b3 36 be
       -0.048372474 0.021815198 0.20893662 -0.17842087
000080 9e f3 11 3e 83 62 b5 bd 2c ad a7 3d 96 d2 8a bd
       0.14253089 -0.0885668 0.08187327 -0.06778447
000090 7f cc fd 3d 6a e9 88 be b9 2d 1f 3e ec 6d 18 3e
       0.1239252 -0.2674058 0.15544786 0.14885682
0000a0 3e ed 79 be 09 a5 85 be 9a a8 35 be 28 10 23 3d
       -0.24406907 -0.26102474 -0.17740098 0.03981033
0000b0 49 0d 17 3e df 87 21 3d f6 7d 3f 3d b7 aa cd 3d
       0.14751162 0.039436217 0.046750985 0.10042327
0000c0 18 7f 23 3e 10 2f 41 be 16 d9 8a be 73 2d 43 3b
       0.15966451 -0.18865609 -0.27118748 0.0029781729
0000d0 e5 5d 0a 3e c7 80 74 3e 38 fe 25 bd 17 99 ad 3d
       0.1351238 0.2387725 -0.040525645 0.08476465
0000e0 e3 fe 17 be 94 55 16 3e 04 37 86 be 1d c5 85 be
       -0.14843325 0.14681083 -0.2621385 -0.26126948
0000f0 f0 a7 97 be 08 2d 3b 3e 98 0e f8 3d 51 46 eb 3c
       -0.29620314 0.18278897 0.121121585 0.028720053
000100 b7 3a e9 bd d5 ec 3d be d6 8f 6a bd 7b a7 13 3e
       -0.11388152 -0.18547376 -0.05726608 0.14419357
000110 26 15 54 be ca 68 60 be 4e b9 d3 3d ee 2f b8 3d
       -0.20711192 -0.21914974 0.103380784 0.08993517
000120 0d 0f 9b 3d 7b 83 da bd 70 94 dc 3d 91 47 86 be
       0.0757123 -0.10669609 0.107705 -0.26226476
000130 15 f7 0b 3c 4c 09 96 be 43 e0 1e bc eb 86 da 3d
       0.008542796 -0.29303968 -0.009697023 0.10670265
000140 14 83 dc 3d 18 95 fd 3a e8 e1 2a be 71 e6 69 be
       0.10767189 0.0019346802 -0.16687739 -0.22841813
000150 e0 1f a3 3d be 55 92 3b c0 32 7f bb d2 5f 44 bd
       0.07965064 0.0044657877 -0.0038940161 -0.047942944
000160 9a e8 04 3d 4a 4f c8 bd e7 1c 5b 3e 34 a7 49 bd
       0.03244839 -0.09780748 0.21397744 -0.049231723
000170 f1 79 e4 3d 9a e8 1e be 2c 48 d9 bd 16 fe 4e be
       0.11156071 -0.15518418 -0.10609469 -0.20214114
000180 53 b2 11 3e 8e 5d c5 be 3b 53 39 be 31 df 06 be
       0.14228182 -0.3854794 -0.18098156 -0.13171078
000190 40 ee 09 3e d2 35 10 ba fc d8 7f be c8 00 e3 bc
       0.13469791 -0.0005501184 -0.24985117 -0.027710333
0001a0 2b b6 36 3e eb 52 5e be 50 e3 cb bc e2 7b b2 be
       0.17842929 -0.21711318 -0.024888664 -0.3486014
0001b0 30 92 e8 bd e0 c3 fc bd 74 c4 f3 3d 45 1b f0 bc
       -0.11356008 -0.12342048 0.11902705 -0.029309878
0001c0 f5 ab 1d 3d 28 da 28 bd 01 f5 00 be de e3 2f 3e
       0.03849407 -0.041223675 -0.12593462 0.17176768
0001d0 51 00 c1 bd dc 42 c3 bc ea e9 2b 3e 9a eb 50 be
       -0.094238885 -0.023835592 0.1678845 -0.20402375
0001e0 e2 ff 41 3d bb cf f8 bc 47 b2 dd 3d f1 db 36 3d
       0.04736317 -0.030372491 0.10825019 0.044643346
0001f0 3a ee 30 be 6f a4 8a 3d 69 35 d7 3c 8d 08 62 be
       -0.17278376 0.067696445 0.026270585 -0.22073574
000200 00 30 0a 3e 48 1a 50 3c 41 43 72 3d 20 c1 6b bd
       0.13494873 0.012701578 0.05914617 -0.057557225
000210 d3 c9 b7 3c 27 6f 97 bd 5f 22 e5 3c 9b 69 b5 3d
       0.022435104 -0.073942475 0.027970491 0.08858033
000220 b7 1f 51 3c 2f 73 53 3c 8b 25 4b be 6e 16 4b 3e
       0.012763909 0.01290588 -0.1983854 0.19832775
000230 3f 53 60 3e 6e 64 32 be 73 82 3e 3e 59 16 e6 3d
       0.21906756 -0.17421123 0.1860445 0.11234731
000240 2f 0e 03 3d 44 fc b6 3d 3e 02 55 3d 2c 74 88 be
       0.03199595 0.089348346 0.05200409 -0.26651132
000250 64 30 03 be 01 7a 92 bd f9 8e ae be f8 fa 9f be
       -0.12811428 -0.07152177 -0.34093454 -0.3124616
000260 fe e8 f0 bc 18 5a 55 3d 00 2b 8e 3d 80 01 38 3d
       -0.029407974 0.052087873 0.06941795 0.044923306
000270 56 9c 8f be de 91 e1 bc b5 40 e4 3d 5b 2e 55 3d
       -0.28048962 -0.027535375 0.111451544 0.05204616
000280 ac 8c 00 be da 90 3a 3d 8b c5 1e 3e 63 f7 8a bd
       -0.12553662 0.045548297 0.15505044 -0.067854665
000290 b8 cb 04 bc 64 bd 09 3e 00 e6 3a 3e 96 b5 a0 be
       -0.008105211 0.13451153 0.182518 -0.3138854
0002a0 a5 0f 60 bd 40 e1 35 be d9 66 5a 3e 60 a5 2e 3e
       -0.05470242 -0.17761707 0.21328296 0.17055273
0002b0 f0 02 45 3e 93 f4 06 be e9 9d 3b 3e 91 4d f2 bd
       0.19239402 -0.13179235 0.18321957 -0.11831201
0002c0 ce 23 b1 3d c9 6e 82 be cc 12 67 3e 7a ea a2 be
       0.08649407 -0.25475147 0.22565764 -0.31819516
0002d0 b0 fe 73 be 33 45 27 3e 7d a7 0c 3e 6f 21 16 be
       -0.23827624 0.16334991 0.13735767 -0.14661191
0002e0 cb 84 48 be f9 05 ff 3d fe 81 27 3d 13 47 9d 3b
       -0.19581906 0.12452311 0.040895455 0.0047997325
0002f0 13 11 c2 bd d7 fa 7b be a0 c4 10 3e 01 32 85 be
       -0.09475913 -0.24607407 0.14137506 -0.26014712
000300 e3 1e 57 3d 10 89 4e bd c4 3f ca 3d c3 8a 17 3c
       0.05251969 -0.05042368 0.098754436 0.009249392
000310 bf 62 01 3e a0 75 9e be b1 b0 ee 3d c7 53 a0 bd
       0.12635325 -0.30949116 0.11654795 -0.07828479
000320 68 08 a1 be 7c 5d 39 be 59 d2 f7 bd 19 19 7a bd
       -0.31451726 -0.18102068 -0.121006675 -0.06105909
000330 fa d9 bd 3d f4 94 1a 3e 66 40 65 be 3f dd d1 3d
       0.09270091 0.15095884 -0.22387847 0.102472775
000340 e0 19 f8 bc 92 bb 36 3c 30 a9 28 be c6 91 1a 3e
       -0.030285776 0.011153119 -0.1647079 0.1509467
000350 0a fc 42 be 91 ed 98 3d 3a 86 d4 bd 4a 53 c1 3d
       -0.19041458 0.07467187 -0.10377164 0.09439714
000360 2d 72 3f 3d 27 5a 7f be f1 41 63 be bb b4 a5 3d
       0.046739746 -0.24936734 -0.22193123 0.08091112
000370 68 dc d2 3d d1 06 35 be 8f 5e 1e 3e 12 23 4b 3d
       0.102959454 -0.17678382 0.15465759 0.049593993
000380 df 88 7c be d4 7f a3 3d f1 19 b9 3d 65 de 34 be
       -0.24661587 0.07983366 0.09038151 -0.17662962
000390 2b 41 4f bd ac af 8b be f9 07 63 bb 33 93 b0 3d
       -0.05059926 -0.27282465 -0.0034642203 0.08621826
0003a0 bf ad ca 3d 50 b9 27 3d 61 77 0c 3e f6 af 86 be
       0.09896421 0.040948212 0.13717414 -0.26306123
0003b0 e8 b9 8c 3c 90 2b 0c 3d 42 ba 02 bc 4f da 67 be
       0.01717849 0.034221232 -0.007978978 -0.22641872
0003c0 be 2e f2 3d ca 0a 32 3e 80 d1 44 3e c0 c7 bc bd
       0.118253216 0.17386928 0.19220543 -0.09217787
0003d0 45 94 e6 3d ab 1d c3 be 38 15 8f be b2 ab 22 3e
       0.11258749 -0.38108572 -0.27945876 0.15885809
0003e0 37 2c 0c 3e 58 fd 25 3e c5 97 af 3c 2b 12 3a bd
       0.13688742 0.16209924 0.021434674 -0.045427483
0003f0 50 ea 14 3d 4e b5 d6 3d 6f cf ce 3a d2 c6 85 be
       0.03635627 0.104838 0.0015778373 -0.2612825

sequential/dense_2/BiasAdd/ReadVariableOp:0 f4 [10]
000000 ac 2a 45 bc ea f5 47 bc 37 37 e2 bc ce c4 f4 3c
       -0.0120341 -0.012204627 -0.02761422 0.029879
000010 40 90 e4 bc dd 91 45 bd 86 90 a2 bd 94 13 d2 3b
       -0.027900815 -0.04823481 -0.07937722 0.0064110253
000020 99 b0 ce 3d 36 ee 00 3d
       0.10092277 0.031477176

sequential/dense_1/MatMul/ReadVariableOp:0 f4 [375, 150]
000000 98 d7 69 bc 10 a6 40 bc 60 95 92 3c 55 01 00 3d
       -0.014272593 -0.011758342 0.017893493 0.03125127
000010 05 ff 05 be f8 10 80 bd 7d 3e 17 bd be fe 95 bb
       -0.13085563 -0.062532365 -0.036924828 -0.004577487
000020 65 05 90 3d cf 89 08 bc b3 98 1b be 21 5c 1d bc
       0.07032279 -0.008333637 -0.15194969 -0.009604485
000030 a9 f0 17 3e b3 ec f9 3d 7d 79 61 3e e6 27 db bd
       0.14837898 0.1220335 0.22019 -0.107009694
000040 94 d6 1f 3e 21 72 fe 3d 56 d2 f0 3d 9e 62 c5 3d
       0.15609199 0.12424112 0.117588684 0.0963795
000050 2d f3 94 bc f4 15 8a bc fa 8d 0f 3e 6c c2 38 3d
       -0.018182361 -0.016856171 0.14019004 0.04510729
000060 6c d2 33 bc a5 24 14 3d 58 b6 61 bc 39 42 52 bd
       -0.010975461 0.03616776 -0.013776384 -0.051332686
000070 74 c9 34 bc 1b 36 09 3d 29 00 2a 3e f0 e1 41 3d
       -0.011034358 0.033498865 0.16601624 0.04733461
000080 e6 31 89 bd cd c2 20 3d 0e 49 e0 bc 5a cc 3f 3d
       -0.066989705 0.039248277 -0.027378585 0.046825744
000090 38 e4 2f 3c 6d e2 f1 3d 83 0a 72 3d a2 0c bf 3d
       0.010735564 0.118107654 0.059092056 0.093285814
0000a0 da fe 03 be 77 9a ea bd c0 e4 0a be 83 9e 9a 3c
       -0.12890187 -0.11455243 -0.13563824 0.018874412
0000b0 fe cb 55 bd ec d8 89 bb c9 6d d3 bd b2 80 a4 bd
       -0.052196495 -0.0042067673 -0.10323674 -0.08032359
0000c0 30 b2 1a 3d 89 43 53 3e df 09 fe 3c 9b 7b 03 be
       0.03776759 0.20631231 0.031010566 -0.1284012
0000d0 6d fc 07 3e 2c db ce 3c ec f9 f0 bd 6b 1b f4 3c
       0.13279887 0.025250994 -0.11766419 0.02979823
0000e0 55 d7 ce 3d bb 6f 7a bd a4 cb c0 3d bf 18 9a bd
       0.10099665 -0.06114171 0.09413841 -0.07524251
0000f0 8f 3d bf 3d 61 bc fe 3d 8c ce e3 bd 97 16 c9 3d
       0.09337913 0.12438274 -0.1112338 0.09818762
000100 dd 97 cf bd 9b c8 09 bd bb 06 a1 3c 66 46 ba 3d
       -0.101363875 -0.033638578 0.01965653 0.09095459
000110 42 df 5f bd e0 b7 e3 bd 04 6c f5 bd 0e 25 08 3e
       -0.054656275 -0.11119056 -0.11983493 0.13295385
000120 de da 61 3d 14 7c 73 bd b6 5f e5 bd ca dc d1 3d
       0.05514037 -0.059444502 -0.11199896 0.1024719
000130 9a 18 2a bd 6c b5 67 3c da 44 03 bd e9 e5 b7 3d
       -0.041527368 0.014142375 -0.032048084 0.08979399
000140 37 af 01 3e 73 25 d4 3b 0f 2f 5c 3d 01 be 8d bd
       0.12664495 0.006474191 0.053755816 -0.06921006
000150 61 a7 90 bd 61 47 1c 3e 38 b3 69 3b 98 9f 9a bd
       -0.07063175 0.15261604 0.0035659801 -0.07549971
000160 44 c8 07 3d b0 8d 98 3d c9 1b 27 3d 6c 95 90 3c
       0.033149973 0.074489 0.040797982 0.017649375
000170 6b 1c 66 3d 86 ee 20 3e 9f cd 71 be 93 84 5e bd
       0.056179445 0.1571599 -0.23613594 -0.05432565
000180 08 9a 01 be 56 a5 ab ba 26 e7 7c 3b 81 33 81 bc
       -0.12656415 -0.0013095539 0.0038589924 -0.01577163
000190 bc 98 82 3c 9e 58 de 3b 33 33 93 3d 6f 5f 30 bd
       0.01594197 0.0067854663 0.071875 -0.043059763
0001a0 82 f4 cd 3d 03 0e 30 3d 71 2a 9d 3d bd b6 5a 3d
       0.10056402 0.042982113 0.07674111 0.05339693
0001b0 28 f9 84 bc cf ea da 3b e5 08 17 bd 38 57 76 bd
       -0.016232088 0.0066808234 -0.036873717 -0.060141772
0001c0 42 23 1a bd 84 3a b9 bc da 56 07 be 45 ff 30 3d
       -0.03763128 -0.02261091 -0.13216725 0.043212194
0001d0 12 00 d6 3b cc 40 ca bd 13 de 2f bd c6 54 d3 3d
       0.00653077 -0.0987564 -0.042936396 0.103189036
0001e0 5a 1b f6 3a f1 eb 21 3e e7 d2 17 bc 62 b7 bc bc
       0.0018776462 0.15812661 -0.009266592 -0.023036662
0001f0 e4 d7 e8 bc 49 78 39 bc b5 ec a2 3d 87 e5 2d 3c
       -0.028423257 -0.011320182 0.079553045 0.010613806
000200 f5 e9 90 bd 42 bc 9f bd f8 c4 5e bd 69 d4 d4 bd
       -0.07075874 -0.07799579 -0.054387063 -0.103920765
000210 ee 67 07 3e 51 b3 0f 3d 1e b2 f3 3c 0b 39 33 3d
       0.1322324 0.03508312 0.029748019 0.043755572
000220 25 dc 8d 3c 07 99 8d bc 2d b7 dc 3c d5 e1 ad bd
       0.017316887 -0.017284883 0.026942814 -0.0849034
000230 3a 60 b1 3c e7 d9 26 be 71 58 57 3d b1 2f aa 3d
       0.02165233 -0.1629406 0.05257458 0.08309878
000240 a4 5a 8c 3c a7 97 b0 bd 84 e6 42 3d 60 ae 22 3e
       0.017133065 -0.086226754 0.047583118 0.15886831
000250 57 a6 10 3d f1 a1 d4 bd 0f 1d da bd 0a 12 96 3d
       0.035314884 -0.1038245 -0.10650074 0.073276594
000260 e9 2c 54 bd ed f8 08 3e d2 05 b4 3d 5d db f4 bd
       -0.051800642 0.13376208 0.08790173 -0.11955903
000270 95 d0 f8 3c 98 ce 30 bd ef 3d be 3d 9e 7c e4 3d
       0.030372897 -0.043165773 0.09289157 0.11156581
000280 6d 37 f6 bc 29 d7 3d 3d 67 fe 4d 3d f5 fd bb 3d
       -0.030055726 0.04634777 0.050291445 0.09179298
000290 8c 58 f8 3d f2 50 80 bd 93 2c 4e 3d e8 a4 72 bd
       0.12126264 -0.06265439 0.050335478 -0.059239298
0002a0 26 60 d3 bd 13 a5 41 3e 41 88 bc 3d 26 e0 68 bd
       -0.10321073 0.18910627 0.09205676 -0.05685439
0002b0 31 75 c8 3d 4f 22 28 3c 32 b2 47 3e c8 bf a0 3c
       0.097879775 0.010262086 0.1950157 0.019622698
0002c0 e1 d8 db 3d 6d 46 2b bc 66 35 ae bc 31 74 0f be
       0.10734726 -0.0104538025 -0.021265697 -0.14009167
0002d0 8d a9 9c 3d 7a 16 27 3d 8d 6a 06 3e c5 1e 4f 3d
       0.07649527 0.04079292 0.13126583 0.050566453
0002e0 1b 63 ac bd b2 d1 89 bd 55 4d 83 3e 6c be e7 bc
       -0.0841734 -0.06729449 0.25644937 -0.028289042
0002f0 e5 12 a4 bd c8 6b c5 3d 43 88 8e 3b 6e 02 aa be
       -0.08011416 0.09639698 0.0043497398 -0.3320498
000300 b2 11 fe bd 0e a4 c4 bd de 46 19 be 07 76 af 3c
       -0.12405719 -0.096016034 -0.1496844 0.021418585
000310 5c 85 b0 bd 11 61 3d 3e 07 85 00 be c8 18 3a bd
       -0.08619186 0.18494059 -0.12550746 -0.04543379
000320 2c 78 94 3d d4 55 83 3d ec e1 a7 bd 69 ff 4e be
       0.072494835 0.06412855 -0.08197388 -0.20214619
000330 62 8a 39 bd 38 df 46 be 8a c8 bf 3d c5 b2 98 3d
       -0.045297988 -0.19421089 0.09364422 0.074559726
000340 da 58 30 be 28 08 1b 3e f8 06 ae bd b1 5b c9 bd
       -0.17221394 0.1513983 -0.08497423 -0.09831942
000350 00 fd 02 be c7 47 a3 3d d9 9d 68 bd 1f 3f 3c 3d
       -0.12791824 0.07972675 -0.05679116 0.045958634
000360 5f 3f 38 be 82 59 fc 3c 84 05 95 be 7b 1d 95 bc
       -0.17992924 0.0308044 -0.2910577 -0.018202534
000370 ca 85 97 bd c6 a2 24 3e 8a bc 42 bd a7 13 1a 3e
       -0.07398565 0.16077718 -0.047543086 0.1504656
000380 b6 0e 0d 3c 80 69 91 3d b3 de 3a 3c f2 b8 23 3e
       0.008609464 0.07100201 0.011405635 0.1598852
000390 15 35 b6 3c 25 30 17 bc bc b5 24 3c c1 83 a4 3d
       0.022242108 -0.009227787 0.0100530945 0.080329426
0003a0 5d 1b 58 bc 75 b4 11 be c4 57 fd 3c 8c d1 74 bd
       -0.013190118 -0.14228995 0.030925639 -0.059770152
0003b0 ee 31 08 3e 1c 44 c8 3d ba 0b 7d be 2e 31 04 3c
       0.13300297 0.09778616 -0.24711505 0.008068366
0003c0 32 84 aa bd f0 77 9b 3d 74 14 2f 3d 67 db 18 3c
       -0.083259955 0.07591236 0.042744115 0.009329653
0003d0 cb 70 d2 bd 9b d1 e0 bc aa ff 01 3d 73 4f ff 3b
       -0.1027542 -0.027443698 0.03173796 0.0077914535
0003e0 32 a7 32 be 46 e8 37 3e ad 3e f7 bd fb 73 1a 3e
       -0.17446592 0.17959699 -0.12072501 0.15083306
0003f0 21 30 d3 bc bb 36 97 bd e8 e9 3a bd 38 32 0a bd
       -0.025779786 -0.07383486 -0.045633227 -0.0337393

sequential/dense_1/BiasAdd/ReadVariableOp:0 f4 [150]
000000 4d 75 e0 3d da 9e 34 3c 1f a0 2f bd e7 05 8a 3d
       0.10959873 0.011024201 -0.042877313 0.06739407
000010 85 60 31 3d 45 69 15 bc 74 07 2f 3d d8 b7 f2 3b
       0.04330494 -0.0091193365 0.042731717 0.00740717
000020 d4 4e f4 3c 04 e1 9b bb a1 e9 52 3b e4 99 6c 3d
       0.029822744 -0.0047570486 0.003218271 0.05776395
000030 f1 be 68 3d f3 50 8c bc 79 d4 92 3c 5c 7e 8f 3d
       0.05682272 -0.017128443 0.01792358 0.07006523
000040 9c 2a 79 bc b4 60 03 3d 5d b6 63 bc 8d 86 07 3d
       -0.015207913 0.032074645 -0.013898459 0.033087302
000050 0f 98 d4 bb 2d c4 92 bc 17 4c 53 bc d2 48 a6 3c
       -0.0064878534 -0.01791581 -0.012896559 0.020298395
000060 5b 1a e1 3d 81 db a1 3c 8a ec 8f 3c c0 bc 62 bd
       0.10991355 0.019757988 0.017568845 -0.055355787
000070 c4 e7 38 3c d8 28 a1 3c 8d 28 56 3d 3a 7c a6 3d
       0.011285726 0.019672796 0.052284766 0.08129163
000080 d6 7f 94 bc 97 58 2d 3c 88 9b 57 bd f4 a0 c7 3c
       -0.018127363 0.0105802035 -0.05263856 0.02436874
000090 ab de da 3c a2 4a 63 bc dd 15 88 bd 8c 33 00 bd
       0.026717504 -0.013872774 -0.06644795 -0.03129916
0000a0 7d 39 a8 bc 58 20 bf 3d 8a 95 be 3d b7 40 3b bd
       -0.020535225 0.09332341 0.09305866 -0.045716014
0000b0 52 b8 20 3d c3 5d 84 3d b1 70 6e bc 05 3d 11 bb
       0.03923828 0.06463196 -0.014553235 -0.0022161615
0000c0 5c b6 d6 3d 3e ab 0b 3a 3a 4b 4f 3d 01 a0 8b bc
       0.10484001 0.0005327946 0.05060885 -0.01704407
0000d0 55 e7 d0 bc 6f 64 52 3d ad 82 ff bc 72 95 08 3d
       -0.025500933 0.051365312 -0.03119024 0.033345647
0000e0 75 99 4e 3d a0 6a d9 3c 13 2a 21 3d ae f2 ef 3b
       0.050439317 0.0265401 0.039346766 0.007322631
0000f0 cc d3 a5 3d 99 66 b3 3c d7 12 19 3c 47 82 80 3c
       0.08097038 0.021899508 0.009342871 0.015687121
000100 af 68 64 3d 20 17 bf bc db 9e 79 3d 81 f3 9b bc
       0.055763897 -0.023326457 0.060942512 -0.01903701
000110 26 8a 80 3d 3f b1 45 bc b9 d6 2d 3c 7f e5 f8 3c
       0.0627635 -0.012066185 0.010610276 0.03038287
000120 12 dd 5f 3d 0d 32 9a 3d 3f b9 18 3d 85 cc 93 3d
       0.05465419 0.07529078 0.03728604 0.072167434
000130 f5 f5 7e 3d 67 ae 88 3c 6a be 3d bc d3 41 a5 3d
       0.06224628 0.016684724 -0.011581043 0.080691956
000140 f4 08 53 bb 63 cc 65 3c bc fe c6 bb 65 f3 02 3b
       -0.0032201381 0.01402578 -0.006072847 0.00199815
000150 e6 3a d3 3c 7d 48 09 3b a4 9f 39 3c 45 77 28 3d
       0.02578492 0.0020947747 0.011329565 0.04112937
000160 bc 69 34 3d f2 c8 1d 3d e9 36 9e 3d 89 e5 57 bb
       0.04404615 0.038521715 0.07725317 -0.003294321
000170 16 27 ad 3d 62 63 8d 3d e6 84 30 3d 4d 7d 76 3d
       0.08454721 0.069037214 0.04309549 0.06017809
000180 81 fc 1a bd 53 d6 29 3d 23 ef 2c 3b 73 6c 62 bd
       -0.037838463 0.04146416 0.0026387654 -0.055279206
000190 5b 41 7d bc a3 ee 04 bc 30 19 72 bb b6 6e 3c bc
       -0.0154574765 -0.008113536 -0.0036941282 -0.011501005
0001a0 db 66 1e 3d 67 b4 a9 3c 51 e0 af 3d 12 39 c3 3c
       0.03867231 0.020715905 0.08587707 0.023830924
0001b0 bd 62 80 bb a0 34 fb 3c b0 b6 6f 3d 35 bb f6 bc
       -0.0039180205 0.030664742 0.058523834 -0.030118564
0001c0 ae 28 2c 3d d5 53 2a 3d b2 ee b2 3a 3c 0c 84 3c
       0.042030983 0.041583855 0.0013651459 0.016119115
0001d0 e7 f5 37 3d 40 66 77 3c b3 a9 a4 bc 76 94 4c 3d
       0.044912245 0.015100062 -0.02010045 0.04994627
0001e0 84 bf 69 bd 9c 79 53 3d aa f6 27 3d 5e 8f 34 3d
       -0.05706741 0.051629648 0.04100672 0.044082038
0001f0 cc 82 f8 3c a7 0a 7a 3d ad 7b 19 3d c2 5a 46 3d
       0.030335806 0.061045315 0.037471462 0.048426397
000200 87 2e 66 bd b6 9b 10 bd b7 29 8b 3d 26 84 c9 3b
       -0.056196716 -0.035304748 0.06795066 0.0061497865
000210 27 21 3b bc fe 56 9c 3c 63 bb 4b 3d a3 b0 d0 3c
       -0.011421478 0.01908445 0.049739253 0.025474852
000220 f8 95 76 3d f7 09 b2 3d ed 41 2a bc 08 91 99 3c
       0.060201615 0.08693307 -0.0103916945 0.018745914
000230 55 0a da 3d cd fb d4 3d 17 08 b2 bc 52 fa 47 3d
       0.10646502 0.1039959 -0.021732373 0.04882271
000240 22 d8 b0 3d 2a f0 e3 3c 36 35 3c 3d 9e 1d 9d bc
       0.08634974 0.02782448 0.045949183 -0.019179162
000250 20 de 43 3c 68 fc 4c 3d
       0.011954814 0.0500454

sequential/dense/MatMul/ReadVariableOp:0 f4 [375, 375]
000000 79 53 82 3b 49 61 00 3e 77 03 aa b9 4b a3 04 bd
       0.003977236 0.12537111 -0.00032427508 -0.03238229
000010 bc ba ad 3d bf 92 88 bb 98 e7 10 be e0 b1 53 3c
       0.084828824 -0.004167884 -0.14150846 0.012920827
000020 c3 53 b8 bd c7 ef e7 3c d2 d4 3d 3b 14 a1 69 bd
       -0.09000351 0.028312577 0.0028965962 -0.05703838
000030 87 52 81 3e be 8a f6 3c 75 7b 53 3b 75 b7 11 3e
       0.25258276 0.030095454 0.003226963 0.1423014
000040 52 2c 3a be 1c d2 33 3d 61 7e 81 bd 52 43 6e bd
       -0.1818097 0.043901548 -0.06322933 -0.05816967
000050 2e 33 cd bd 6e 6c 00 be b9 a8 4f 3d 36 98 5c bb
       -0.100195274 -0.12541363 0.050698016 -0.003366006
000060 58 64 0a bd c8 95 70 3c e3 bc 8a bd 62 77 99 bd
       -0.0337871 0.014684148 -0.067743085 -0.074934736
000070 eb 64 1f be 15 85 35 bd bf be af 3d fc 06 48 be
       -0.15565841 -0.04431637 0.08581304 -0.19533914
000080 94 cd 16 be b2 f8 e0 bd 07 ed fc bc 3d f0 41 be
       -0.1472686 -0.10984935 -0.030874742 -0.189393
000090 a5 7e 0f be 92 4b c8 bd 89 ab 8c bd f2 c0 bc bd
       -0.14013155 -0.09780039 -0.06868655 -0.09216489
0000a0 a1 1b 02 3e fc ff bf bd e2 09 93 3d 82 76 92 be
       0.12705852 -0.09374997 0.07179619 -0.2860604
0000b0 88 fa 93 be 8f 3e 8f bc 0b 4f 94 3d ae e6 c7 bd
       -0.28902078 -0.017485885 0.07241639 -0.097607955
0000c0 27 06 7a bc 05 e6 1b bd 61 5d 67 bd 61 58 60 3d
       -0.015260256 -0.03806116 -0.056485537 0.054771785
0000d0 35 e9 a3 3b 17 e1 a1 bd 7a ca 5b bd 43 7f 36 bc
       0.0050021657 -0.079042606 -0.053659894 -0.01113874
0000e0 0c 1d 04 3e 6a 83 06 be 20 c7 52 bd 61 4c c4 bd
       0.12901706 -0.13136068 -0.05145943 -0.095848806
0000f0 fb b0 10 be 29 32 63 be 53 4f 93 bd 66 9c e7 3c
       -0.14130013 -0.22187103 -0.07192864 0.028272819
000100 4d 34 25 bd e4 d6 46 be 3e dd 86 bd 1a c2 3d bc
       -0.04033308 -0.19417912 -0.06585167 -0.011581922
000110 86 74 65 3d e4 11 86 3c 0f 63 56 3d bd d7 a3 bd
       0.05601933 0.016365953 0.052340563 -0.08000133
000120 d3 e8 f2 bd 24 d8 b8 bc 3a d5 73 bc 1a d6 a5 bd
       -0.11860814 -0.022564001 -0.01488238 -0.08097477
000130 e5 9c fc bc 4f 1a 7f be ec 8c 91 3d 1a cc cf be
       -0.030836532 -0.2491238 0.07106957 -0.40585405
000140 9d 73 ae 3d 8d 71 92 3d ff d4 a0 bd 9b 83 1b be
       0.08518145 0.07150564 -0.07853126 -0.15186922
000150 c7 17 19 be aa d2 f1 bd 4b ef 56 bc 7f 05 5e be
       -0.14950477 -0.11807759 -0.013118575 -0.21681784
000160 5a 5b 92 3d c7 9a 0b 3e 92 db f7 3c 14 57 59 3d
       0.0714633 0.13633262 0.030256066 0.05306156
000170 99 2e 33 bc 4a 5e ac bb 3c cc c2 3d 56 34 11 3e
       -0.010936403 -0.0052602636 0.09511611 0.14180121
000180 c1 5d 2b 3c 03 ce 97 3d b8 da 8a bd 3e 79 a8 bd
       0.010459364 0.074123405 -0.067799985 -0.0822625
000190 2c 7e a2 3d 41 e5 d4 3c 99 0b a3 bc 56 b3 7b bd
       0.079342216 0.025988223 -0.019902991 -0.061450325
0001a0 65 0a 28 3d f4 17 18 bd 98 15 b4 3d af 94 00 3d
       0.041025538 -0.03713222 0.08793181 0.031391796
0001b0 aa 60 f2 bd d5 71 32 bd 57 1d e9 bd 69 2a 48 3c
       -0.118348435 -0.04356559 -0.11382549 0.012217143
0001c0 ba f2 ae bc f7 dd c1 bc 5d ad 47 be 30 32 fd bd
       -0.021355975 -0.023665411 -0.19499727 -0.12363088
0001d0 de 36 6d be f7 dd a7 3d ef 9c aa 3d f7 4d 2b bc
       -0.23165461 0.08196633 0.08330714 -0.0104556
0001e0 b1 07 4d 3c e3 f3 5e bd 92 3b bc 3b 93 fa c2 bd
       0.012514041 -0.054431807 0.005744406 -0.095204495
0001f0 4c 92 68 3d 60 6f 49 3e d2 42 5d bb 0c 62 ab bd
       0.056780145 0.19671392 -0.0033761752 -0.0836831
000200 5a ca 7c bd 74 e5 4f bd 1c 6c cb bd 59 64 49 be
       -0.061716415 -0.050755933 -0.099327296 -0.19667186
000210 8e 16 39 bd d1 8f c3 3d e8 10 87 bc 6a 93 0b be
       -0.045187525 0.09548915 -0.016487554 -0.13630453
000220 c8 3f 9b be ce 16 5a 3d d3 42 16 be 1f 59 a0 bd
       -0.303221 0.053244404 -0.14673929 -0.078294985
000230 1d 19 c6 be 61 da 95 bc 2d b2 81 3e ed bd 56 be
       -0.38691035 -0.018292608 0.2533125 -0.20970888
000240 c9 2e 13 be 93 0e 3a bd 80 b3 39 be 30 b5 52 bd
       -0.14373316 -0.045424055 -0.1813488 -0.051442325
000250 db ed 9c bc 45 00 55 3b 77 d0 55 bd f5 1e 2d 3e
       -0.019156387 0.0032501381 -0.05220076 0.1690634
000260 cf bc 69 be 60 7f fc bb 68 89 e4 bd d6 db 61 bd
       -0.22825931 -0.007705614 -0.11159021 -0.055141293
000270 b7 85 59 3d c6 b5 ee bd 8b e6 54 3d ed f6 38 bd
       0.053106036 -0.11655764 0.051977675 -0.04515736
000280 c0 84 68 bc 99 63 9d 3c 67 bf fe ba 27 d9 b9 3c
       -0.014191806 0.01921253 -0.0019435704 0.022686554
000290 7d 48 b2 3c 33 ca a4 3d f0 fc 83 bd 63 85 90 3d
       0.02176308 0.08046379 -0.064447284 0.070566915
0002a0 93 3a fb 3b a8 fb f4 bc 0c bf dd 3d 73 c5 c8 3a
       0.0076668947 -0.029905155 0.10827455 0.0015317634
0002b0 16 a1 c0 bb f9 7c 09 bd 9e 7c 9b bd 3e 64 04 3e
       -0.005878578 -0.03356645 -0.07592128 0.12928864
0002c0 0d 57 75 be d9 65 ac bd de 26 3c bb 0a 8f f8 bd
       -0.23958988 -0.084178634 -0.002870969 -0.121366575
0002d0 88 31 f0 3b 50 c8 6d 3d 3f 15 73 bd 86 3d 50 bd
       0.0073301233 0.05805236 -0.059346434 -0.050839923
0002e0 68 14 13 bc c5 52 6a 3d d1 da f8 bc a5 5a 3e be
       -0.008977033 0.05720784 -0.030377777 -0.18589266
0002f0 d2 82 e5 3d b8 25 24 be e5 87 67 be 6c 26 48 3d
       0.112065926 -0.16030014 -0.22610433 0.048864767
000300 7c 08 63 3d d4 d3 b6 bd f1 1a bc bd fa 9b 7f 3d
       0.055428013 -0.08927122 -0.09184826 0.06240461
000310 36 24 93 3d ad 91 82 be 1e d3 b2 bd 7d 50 60 be
       0.07184641 -0.25501767 -0.08731674 -0.21905704
000320 f2 99 fd bd 10 89 3d 3e bc 2a 96 bd 0b 84 4a 3d
       -0.12382878 0.18509316 -0.0733237 0.049442332
000330 84 b2 be 3c dd 3a f7 bd 68 fe 2c 3d 14 ef a5 bd
       0.023278482 -0.12071774 0.04223481 -0.08102241
000340 31 15 b0 bd 21 76 f9 bd f1 95 3e bc 1a 6e 2e 3c
       -0.08597792 -0.121807344 -0.0116324285 0.010646367
000350 8e 24 94 bb 35 f2 a7 bd 46 4e b2 bd f0 b8 73 bd
       -0.004520959 -0.08200494 -0.08706336 -0.059502542
000360 81 35 8b 3b 19 64 a8 be 01 51 97 3d 78 1e 2a 3e
       0.0042483215 -0.32888868 0.07388497 0.16613185
000370 7d d1 cb bd 2d 84 4e be 59 6a 86 3d eb 09 7b bd
       -0.09952066 -0.20167609 0.06563253 -0.061288755
000380 1e 7f f2 3a ba 0d 4e bd 89 51 0b 3e 1e 65 aa 3d
       0.0018501019 -0.05030606 0.13605322 0.08320068
000390 60 9d 51 bd ca 15 30 be 23 c4 36 be 60 ef 74 3c
       -0.051175475 -0.17195812 -0.17848258 0.01494965
0003a0 75 07 81 3d 64 e0 71 3d 70 e1 98 3d 87 e4 54 bc
       0.063002504 0.059051886 0.07464874 -0.012993938
0003b0 11 5c 5f bd 1a ad cb bc 0f 1a a3 3d ed 18 fc bd
       -0.05453116 -0.024862815 0.07963955 -0.12309442
0003c0 e3 d1 33 3d 4c 0e b2 3d 92 59 d2 bc b8 a4 6c bc
       0.043901335 0.08694133 -0.025677476 -0.014443569
0003d0 72 82 ba bd 05 69 14 3e 27 54 1d be 83 01 03 bd
       -0.09106912 0.14493187 -0.15364133 -0.031983864
0003e0 04 1f ad bb 9f 79 78 bc ef 8a 33 be 9c 89 32 bb
       -0.0052832384 -0.0151657155 -0.17533468 -0.0027242666
0003f0 82 46 95 bd 3a 6f d5 bc 91 fe ad 3d f7 5b 0b 3e
       -0.07288839 -0.026054014 0.0849582 0.136093

sequential/dense/BiasAdd/ReadVariableOp:0 f4 [375]
000000 03 05 f7 bc 32 17 e3 3c f9 ea 63 3c 97 57 c4 bc
       -0.030153757 0.027721021 0.013911002 -0.023967547
000010 91 31 28 bd d9 46 fd bc f7 ba e4 bc 38 68 08 bc
       -0.041062895 -0.030917572 -0.027921183 -0.008325629
000020 79 a2 a0 bc 33 30 1c bd c8 73 f7 bb 18 58 8c 3c
       -0.019608723 -0.038131904 -0.007551644 0.01713185
000030 51 c2 89 bd 02 6e 05 3a e1 7b 99 bd 5e bf 86 bd
       -0.06726516 0.000508994 -0.07494331 -0.06579469
000040 c3 cb e7 3c 2b 9d 42 3b 76 b2 43 bd 0f 11 a5 3b
       0.028295403 0.002969573 -0.047777615 0.005037434
000050 95 39 b3 bc d2 c4 b3 bc bd e8 dd bc 62 2b dd bc
       -0.021878043 -0.021944437 -0.027088517 -0.026998226
000060 a6 c5 50 bd 40 e9 2d 3c 81 91 1b 3d b9 d6 c2 bc
       -0.050969742 0.010614693 0.03798056 -0.023784028
000070 f0 f1 25 bd 63 2a 06 bd 96 27 35 bc 4d 3e 79 3d
       -0.040513933 -0.032755267 -0.011056801 0.06085043
000080 57 69 b0 bc b4 25 af bc 5f c2 17 bd 18 b7 d3 bc
       -0.021534605 -0.021380283 -0.0370506 -0.025844142
000090 90 18 31 bc 09 3b 0e 3d f1 57 25 bd ae e5 92 bc
       -0.010809079 0.03472427 -0.04036707 -0.017931785
0000a0 83 a8 f1 bb 7c d9 61 bd 6e 0d 86 3b ba a7 26 3c
       -0.0073748245 -0.05513905 0.0040909564 0.010171825
0000b0 38 9b a7 3c 55 3c 2e bd 38 3b 27 bd 39 40 fb 3c
       0.020459756 -0.042538006 -0.04082796 0.030670272
0000c0 d2 d4 d4 bc b1 65 46 bd 2a da 88 bc e7 af 77 bc
       -0.025980387 -0.048436824 -0.016705591 -0.015117622
0000d0 fa 38 db bb 8e 6d 04 3d 80 27 c8 bc 0c 3d f9 3c
       -0.0066901417 0.032331042 -0.024432898 0.030424617
0000e0 35 70 33 bd 18 e2 b9 bc 55 06 96 bc 15 29 ae bc
       -0.04380818 -0.022690818 -0.018313566 -0.021259824
0000f0 82 db 7f bd 48 e6 61 bd c5 69 9e bc f3 1f ad bc
       -0.0624652 -0.055151254 -0.019337544 -0.021133399
000100 fe 9c 31 bc 66 01 95 3c 70 bc 11 3d e3 c1 da 3a
       -0.0108406525 0.018189143 0.0355801 0.0016689863
000110 0c 10 2e bd 9a 16 ae 3b 38 64 c4 3c c6 67 0f bd
       -0.042495772 0.005312753 0.02397357 -0.035011075
000120 18 19 81 bc 5a e1 d5 3c ad 41 25 3a e7 22 9a bc
       -0.015759036 0.026108433 0.0006304037 -0.01881547
000130 28 bb 09 bd 1f c0 d1 bc 95 83 b2 ba 28 c5 d0 3c
       -0.03362575 -0.025604306 -0.0013619537 0.025484636
000140 3d 7f a0 bc e8 d0 19 bd 63 19 63 bc 65 49 87 bc
       -0.019591922 -0.037552744 -0.013861033 -0.01651449
000150 ab 82 88 bc f0 96 af bc 6a b0 1c bd aa cf c9 3b
       -0.01666387 -0.021434277 -0.03825418 0.0061587887
000160 30 5c de bc 8a 57 2c bd 24 76 a4 ba 58 74 99 bc
       -0.027143568 -0.04207567 -0.0012547416 -0.018732235
000170 29 41 88 bd f6 38 48 bc b9 c4 4e bd 25 f1 24 bd
       -0.06653053 -0.012220612 -0.050480578 -0.040269036
000180 7f 04 17 bd ca a5 f6 bb 16 6f 87 bc e8 35 0b 3d
       -0.036869522 -0.007527088 -0.016532462 0.033986956
000190 e8 ef f0 3c 89 89 3f 3b da d5 1e 3b 45 e1 e4 3c
       0.029411271 0.0029226264 0.0024236352 0.027939448
0001a0 75 d2 12 bb ce 0f 8a bc bf 58 f9 ba df 71 07 bd
       -0.0022403274 -0.01685324 -0.0019023641 -0.03306758
0001b0 37 2e 88 bd 88 c0 b6 bc 3a 6d f8 bc b1 6b 2d bd
       -0.0664944 -0.022308603 -0.03032552 -0.04233903
0001c0 59 98 4d bd d8 d5 42 bc e6 93 e6 bc cb 53 25 3a
       -0.05019412 -0.011891805 -0.028146695 0.00063067366
0001d0 91 f8 74 3c 96 a2 98 3c e8 f3 be bb 97 0d 9a bc
       0.014951841 0.018632215 -0.0058274157 -0.018805308
0001e0 95 59 02 bd d5 81 1c bb 8c 4a 59 3c 24 32 35 bd
       -0.031823713 -0.0023881097 0.013262402 -0.04423727
0001f0 42 fa 80 bc 47 44 06 3c 1b 72 29 bd 61 26 84 ba
       -0.015744332 0.0081949895 -0.041368585 -0.0010082239
000200 fb 57 3a bd 5f 31 bb bc 4f 9b b6 bc 12 4c e3 bb
       -0.04549406 -0.02285069 -0.022290854 -0.0069365585
000210 76 d9 c2 3c c8 c0 21 bd ef 82 81 bd 0e b4 a8 b9
       0.023785334 -0.03949049 -0.06323802 -0.00032177608
000220 a6 44 64 bc 21 62 2a bd f3 5c 17 bd 97 58 fd bc
       -0.013932383 -0.04159749 -0.036953878 -0.030926032
000230 11 ca 0a 3b 40 69 90 bc e6 da d7 bb dd a0 b7 bc
       0.002117757 -0.017628312 -0.006587374 -0.022415573
000240 45 fe da 3c 90 e9 97 3a b2 9f 04 3d d1 f8 de bc
       0.026732573 0.0011589993 0.03237886 -0.027218254
000250 a6 01 aa 3c f4 9e 40 3c 60 20 49 bd 22 e5 8a bc
       0.02075274 0.011756647 -0.04910314 -0.016954962
000260 2e 2e 8b bc 7e 15 e1 bc f5 2f c1 3a 09 6e 05 3b
       -0.016989794 -0.027476069 0.0014739024 0.0020359776
000270 b5 3a a6 ba 1e 90 04 bd ed 72 18 bc db 3a 29 bd
       -0.0012682291 -0.032364003 -0.009304744 -0.041315895
000280 46 05 5f bd d8 62 64 bc 5c 46 00 3d 8b 3d f0 bc
       -0.05444839 -0.013939582 0.0313171 -0.029326221
000290 34 bd 03 3b 84 41 87 3b 64 4c 07 3d 7a b5 36 bc
       0.0020101788 0.004127683 0.033031836 -0.011151666
0002a0 0f ad ac ba d3 9c 2c bd 7d 5c 8d 3c 27 6f a7 bc
       -0.0013174134 -0.042141747 0.017256016 -0.020438744
0002b0 1c e9 3d bc 26 23 22 bd 7e bb c3 bc 52 37 01 bd
       -0.011591222 -0.0395843 -0.023893114 -0.0315469
0002c0 44 a4 85 bc 43 fa bc bc d1 07 c8 bc a3 27 5d bd
       -0.01631368 -0.023068553 -0.02441779 -0.05399288
0002d0 94 3f bb ba 46 79 17 bd 97 4b 10 bd 85 23 02 bd
       -0.0014285916 -0.03698089 -0.035228338 -0.031772155
0002e0 9b bb 6b bd 4d fc 88 bc 37 8a 61 bd 3c 3a 0c 3d
       -0.05755196 -0.016721869 -0.055063453 0.034235224
0002f0 a9 e3 d6 b8 e9 67 24 bd 58 b2 6e 3b 93 e1 99 bd
       -0.0001024672 -0.04013816 0.003642222 -0.07513728
000300 ba 68 29 3c aa e9 a0 bc 25 bf 91 bc bf 98 2c 3c
       0.01033991 -0.01964267 -0.01779134 0.010534464
000310 81 5f 83 bc cb 60 b4 3c 46 b7 1e 3d 49 b5 7e bc
       -0.01603675 0.02201881 0.038749002 -0.015546151
000320 b3 b3 14 bc 82 1d aa bc 5b 16 14 bd 78 c9 d2 bc
       -0.009076047 -0.020766024 -0.036154132 -0.025730833
000330 ff 1f 67 bd b3 c6 d7 3c ad f4 a7 bc b4 f9 0e bd
       -0.056427 0.026339864 -0.020502413 -0.034906104
000340 76 1a 51 ba de b3 17 bc 99 57 7c bd 2b fd 66 3c
       -0.000797666 -0.009259192 -0.061606977 0.014098446
000350 02 a9 b6 ba d1 ef 49 bc e7 21 d1 bc b5 a3 29 bd
       -0.0013935866 -0.012325243 -0.025528861 -0.04141589
000360 bf 6d 15 bd 89 f3 41 3c f9 57 16 bc c1 d7 2b bd
       -0.036481615 0.011837848 -0.009176248 -0.041953806
000370 34 a4 8b bc 21 d5 80 bc 10 d2 20 bd 9f 76 bf bd
       -0.017046072 -0.015726628 -0.03926283 -0.09348797
000380 b3 69 4a 3b 8c 5c ab bc 0c fd 7c bb 96 87 ca ba
       0.0030885756 -0.020918153 -0.0038602976 -0.0015451785
000390 04 6d fb 3b 0c a5 ab 3c 25 04 48 bc dd 41 cb bc
       0.007672908 0.020952724 -0.012208019 -0.02481168
0003a0 c6 15 5c bc 26 86 8c bc 02 ef 12 bd 3d 17 c8 3c
       -0.013432926 -0.01715381 -0.035872467 0.024425143
0003b0 fa 61 fb bc 98 d9 14 3c 68 d5 be bc 4a f0 08 bd
       -0.030686367 0.0090850815 -0.02329512 -0.033432283
0003c0 58 a1 0a bd 03 07 d3 3c 6f f2 48 bb 00 5a 5b bd
       -0.033845276 0.02576018 -0.003066208 -0.053552628
0003d0 4f 26 3e bc 11 83 2c bc 37 c5 92 bc 35 08 cc bb
       -0.011605813 -0.010529296 -0.017916305 -0.0062265643
0003e0 24 bf 8f 3c ee a4 d7 bc 11 71 c1 3b fa f4 1d bc
       0.017547198 -0.026323762 0.005903371 -0.0096409265
0003f0 9f bd 81 bd 40 75 07 3b 50 6f 09 bd d0 9a 32 b9
       -0.063349955 0.0020669252 -0.03355342 -0.00017033075

sequential/conv2d_1/Conv2D/ReadVariableOp:0 f4 [15, 30, 3, 3]
000000 71 77 59 3e c4 79 1c 3d c9 32 e2 bd eb 19 4f be
       0.2123697 0.038202062 -0.11044843 -0.2022473
000010 24 e1 a8 bd ec 87 92 be f4 d6 82 bd 64 43 ce bd
       -0.08246067 -0.28619325 -0.06388655 -0.100714475
000020 9b 15 37 bd c2 89 0d be 50 e6 e2 3d 1d 37 fb 3b
       -0.04469834 -0.13822082 0.11079085 0.007666482
000030 f5 2a 2f be 95 47 f6 bb 73 4b 55 3c 1e 40 63 bd
       -0.1710623 -0.0075158575 0.013018477 -0.05548107
000040 d1 f7 14 bc ff d1 15 bd 98 8d 04 bd e4 64 e4 3d
       -0.009092287 -0.03657722 -0.032361597 0.11152056
000050 4a d6 22 be ba c7 94 be 8a 2e f4 3c 3c e2 1b bb
       -0.15902057 -0.2905863 0.029807348 -0.002378597
000060 d7 76 8e 3d d5 9c 15 3e cc 00 15 bd e3 6c cd 3d
       0.06956261 0.14610608 -0.036377713 0.10030534
000070 f8 38 a5 3d 93 9b 1a bd 8e 42 15 3e 14 f4 09 bd
       0.080675066 -0.037746023 0.1457617 -0.033680037
000080 8b b6 3c be 79 0a 09 be c5 7e c4 bd a5 93 9a bd
       -0.1842901 -0.13382901 -0.09594492 -0.07547692
000090 bd 91 ce bd bb 75 a8 bd ed 64 17 be 5f a4 bd 3d
       -0.10086391 -0.0822558 -0.14784594 0.09259867
0000a0 c1 38 bf 3d d2 fd 95 3d d7 eb 96 3d d8 9c 35 3b
       0.09336997 0.07323803 0.07369202 0.0027711894
0000b0 7a 69 81 bd ff e1 1c 3e 02 aa 27 3d cc d9 ff bd
       -0.06318946 0.15320586 0.040933616 -0.12492713
0000c0 ec 39 9b 3c a7 98 5d be e8 c3 17 bc 16 30 05 bd
       0.018948518 -0.21640263 -0.009263016 -0.03251656
0000d0 43 55 94 bd a4 47 36 3d 7d 37 1f 3e 63 3b 12 3e
       -0.07242825 0.044501916 0.15548511 0.14280467
0000e0 ff 80 42 bd d7 81 e1 bd 9d 50 90 bd 7b 55 62 be
       -0.0474863 -0.11011093 -0.07046626 -0.2210292
0000f0 0a 69 19 3e 8e 41 ac 3d 43 1c 6d 3e 3c 5e 18 be
       0.14981475 0.08410941 0.23155312 -0.14879698
000100 6e 46 d9 bd 4d c0 8f 3e 5c ae 40 bd bb b9 05 3e
       -0.106091365 0.280764 -0.047041282 0.13059132
000110 86 82 a8 3d 20 f7 8f be 73 59 13 be 82 b3 0f be
       0.0822802 -0.2811823 -0.14389591 -0.1403332
000120 a7 18 88 bd 6e f9 07 3e 39 ad 60 bc c9 9c 66 be
       -0.06645327 0.13278744 -0.0137131745 -0.22520746
000130 ef 0d 8d 3d 67 f5 b5 3d 34 26 33 bc 3a 50 34 3d
       0.06887423 0.088846974 -0.010934401 0.044021823
000140 ec 6d b5 3d 61 2f d4 bd ee 00 90 bd b5 86 0a 3e
       0.088588566 -0.10360599 -0.07031427 0.13527949
000150 ae 34 a8 3e c7 b4 51 3e 35 63 62 3d 6f 27 80 3d
       0.3285269 0.20479117 0.055270392 0.06257521
000160 c4 a5 9f 3d 90 7d 03 3d ea 8d 22 3e ed 02 6d 3d
       0.07795289 0.032102168 0.15874448 0.05786412
000170 22 c6 b1 bd 90 0a 02 be d5 b4 a9 be 58 ad 56 be
       -0.08680369 -0.12699342 -0.33145776 -0.20964563
000180 7c 88 60 3a 93 fa 9e 3d 66 66 52 3d 91 de 01 be
       0.00085652596 0.07762637 0.051367186 -0.12682559
000190 7b 08 bc bb 94 32 44 bc 53 6b 09 3e 19 43 6d 3e
       -0.0057383156 -0.011974949 0.13419847 0.23170127
0001a0 9e c8 a9 bd 18 03 7f 38 ca 66 d0 bd c7 db e7 bd
       -0.08290218 6.079962e-05 -0.101758555 -0.11321216
0001b0 fc 01 62 be 70 e0 8d 3d 15 36 89 3d 97 e2 06 be
       -0.2207107 0.06927574 0.066997685 -0.13172375
0001c0 d7 44 bd bc 31 bc 4d be 4f 62 26 be bc 22 4f 3d
       -0.023104114 -0.2009132 -0.16248439 0.050570235
0001d0 4b c3 c5 bd 6b 20 16 bd d6 a6 96 be 7e a6 dc 3b
       -0.0965639 -0.03665201 -0.2942416 0.0067337146
0001e0 5c 42 17 be 5c da 0f bd 90 f1 40 3e 24 c0 29 be
       -0.14771408 -0.035120353 0.18842149 -0.16577202
0001f0 f9 8d 9c bd 52 a1 34 3c c0 e5 91 bd aa 5a 57 3d
       -0.07644267 0.01102479 -0.071238995 0.0525767
000200 48 56 a0 3d 09 29 f4 bd e0 f5 44 be 56 f5 55 bd
       0.07828957 -0.11921889 -0.19234419 -0.052235924
000210 12 aa 97 3a b2 19 be bd ea e0 92 3d 08 ea 4f bd
       0.0011571071 -0.09282245 0.07171805 -0.0507603
000220 43 20 2a 3e b8 41 d9 3d d0 fa 9c be 21 1e 1f be
       0.1661387 0.10608238 -0.30660105 -0.15538837
000230 a1 20 88 3d 43 23 1c 3e 3e ea b1 3d 2d 0c 28 3e
       0.066468485 0.15247826 0.08687256 0.16410895
000240 e6 84 4c 3e 37 48 19 be de e0 55 3e ff 9b fd bd
       0.19972572 -0.14968954 0.20886561 -0.123832695
000250 79 96 61 3d 8a 03 54 bc e9 f2 40 be 2a 23 81 be
       0.055075143 -0.012940297 -0.18842663 -0.2522214
000260 49 2b bb bd 9c e9 60 3d 3a 86 b7 3d b5 36 11 3d
       -0.09139115 0.054910287 0.089611486 0.035452563
000270 8f 4d 82 bd ea e7 94 bd d0 3c a9 bd 29 82 e3 3d
       -0.063624494 -0.072707966 -0.08263552 0.111088105
000280 1e 78 e1 3c f4 c6 56 3c ef e0 b2 3b 5f 15 e1 bd
       0.027523097 0.013108958 0.005458943 -0.10990404
000290 c4 58 bc be d3 11 5b 3d 0b 15 81 3c 32 af af bd
       -0.36786473 0.053483795 0.015757104 -0.08578338
0002a0 e9 16 7d 3c 4b a8 94 3d 2b be 2d 3d 50 92 02 3e
       0.015447357 0.07258662 0.042417686 0.12751126
0002b0 fa d6 08 bc 5c 1f 56 3c fe 20 8e bb 1f 95 20 bd
       -0.008352036 0.013069 -0.004337429 -0.039204713
0002c0 9a be fd 3d 17 1b f0 bc 40 e8 e0 3c 19 3b 34 3d
       0.1238987 -0.029309792 0.027454495 0.044001672
0002d0 81 c2 12 3e 06 0b e1 3c f8 42 a4 bc f2 71 91 3d
       0.1433201 0.027471077 -0.020051464 0.071018115
0002e0 a6 2d 58 bd 09 7d 37 be a2 f0 c3 bd 53 ab f5 bc
       -0.05277791 -0.17918791 -0.095673814 -0.02998892
0002f0 9a 8b c2 bc 93 28 30 be a7 33 44 3e 54 bd ae bd
       -0.023748208 -0.17202978 0.19160329 -0.08532205
000300 04 3d 44 be df 63 26 bd 49 c8 83 3d d4 0a 7d bd
       -0.191639 -0.04062259 0.06434686 -0.061777905
000310 e4 43 31 3e 9e c4 62 3d d2 97 90 3c e4 1f ca 3e
       0.17311054 0.05536329 0.017650519 0.39477456
000320 e7 fd b8 3e e6 9f d4 3e 7d 5e 6f 3e fc 96 ed bd
       0.36131212 0.41528243 0.23375888 -0.116010636
000330 ff 1c 2e 3e b7 9e 4b bd 40 28 78 bb e1 ce 89 3e
       0.17003249 -0.04971191 -0.0037865788 0.2691565
000340 96 9d 0b be ec a8 a8 be f5 a8 b3 be 07 74 0d be
       -0.13634333 -0.32941377 -0.3508984 -0.13813792
000350 03 a9 25 be 89 bd 6a bb 49 55 24 3d f8 38 6a bd
       -0.16177754 -0.0035818538 0.040120397 -0.057183236
000360 ca 24 71 be 9a 98 bf bd 7c f5 4f be 74 2e 84 be
       -0.2354919 -0.09355278 -0.20308489 -0.2581669
000370 f3 55 a2 bd 20 a5 41 3e a9 17 47 3c 07 58 b5 3d
       -0.0792655 0.18910646 0.012151637 0.088546805
000380 b2 94 0c 3e 41 60 4b 3e 2e 87 43 3d 6f 7b 1a be
       0.13728598 0.19860937 0.04773634 -0.15086149
000390 ff 7d e4 bc 56 06 7c 3d 76 70 44 be 03 59 ce be
       -0.02789211 0.06152948 -0.19183525 -0.40302286
0003a0 0e 6e 24 3e f6 28 08 be fa 94 2a 3b fc ff 10 3c
       0.16057608 -0.13296875 0.0026028738 0.008850094
0003b0 c3 07 d7 bd 47 77 6f 3d a8 e8 4f 3c 3d 2b 03 bd
       -0.10499527 0.05846336 0.012689747 -0.032023657
0003c0 c2 f3 e9 3c 1a f0 68 3c 23 60 75 3c 0b 3d 61 3e
       0.028558616 0.014217401 0.014976534 0.21995942
0003d0 91 81 8c 3e 7b d2 87 3d 03 42 21 3e dd 62 5e 3d
       0.274426 0.06631943 0.15747838 0.054293502
0003e0 b7 50 ac be 71 89 4f be 18 f2 d3 3d 93 46 4d 3e
       -0.3365533 -0.20267273 0.1034891 0.20046453
0003f0 fa 5f a3 bd ac 23 85 3c 8e 79 91 3d 08 41 6a bd
       -0.079772905 0.016252361 0.07103263 -0.057190925

sequential/conv2d_1/BiasAdd/ReadVariableOp:0 f4 [15]
000000 a8 0c ce bb ae 53 22 bd 69 38 0b 3b 28 9e 11 3c
       -0.00628813 -0.039630584 0.002124334 0.008887805
000010 35 4d 91 bc 72 32 a9 bc 8a dc b0 bc 4f 03 ad bd
       -0.01773701 -0.020653937 -0.021589536 -0.08447897
000020 d6 27 0b bd 71 c9 a6 3b 97 0e a7 bc d2 aa b7 bc
       -0.033973537 0.0050899317 -0.0203927 -0.02242032
000030 76 f7 85 3c e7 87 20 bd 74 a8 55 bd
       0.01635335 -0.039192107 -0.052162603

sequential/conv2d/Conv2D/ReadVariableOp:0 f4 [30, 1, 5, 5]
000000 c0 c1 38 3d 77 1d 0f be 21 e3 d6 bd 62 f0 3e be
       0.04510665 -0.13976084 -0.1049254 -0.18646386
000010 42 d9 0b 3e e7 8e f6 3d 39 b7 dd bc 0c 79 82 be
       0.13657096 0.12038975 -0.027064906 -0.25482976
000020 cb b6 70 be 20 de 03 be a5 f8 16 3e 19 25 74 3e
       -0.2350723 -0.12877703 0.14743288 0.23842277
000030 8e 90 53 3e 65 2c b0 3c 93 30 54 3d 85 27 66 bd
       0.20660612 0.021505544 0.051804136 -0.056190033
000040 fd 89 db 3d 5e e5 99 3d f4 ca a1 3d 84 1f b2 bd
       0.107196786 0.075144514 0.07900038 -0.086974174
000050 e9 03 06 be 8b b5 c4 bd e2 69 26 3d 74 11 26 3c
       -0.13087429 -0.09604939 0.04062832 0.010135997
000060 50 a2 90 bc fe 01 9c 3d 72 d5 c4 3d 79 f0 1e bd
       -0.017655522 0.076175675 0.09611024 -0.03880355
000070 71 e5 1b bc 8d 53 09 3e e2 65 21 3e 13 09 32 be
       -0.009515152 0.13410778 0.15761521 -0.17386274
000080 83 5b 67 be f4 e3 c8 bc b0 65 39 3d f6 5e 4d bd
       -0.22593503 -0.024522759 0.045262992 -0.05013939
000090 01 71 29 be a1 72 d7 3d 36 a1 29 3e 80 e6 c4 bc
       -0.16547014 0.105199106 0.16565403 -0.024035692
0000a0 29 23 41 3d 06 8d ed 3d c6 11 4f 3e c2 1c 8a bd
       0.047152672 0.11599164 0.20221624 -0.06743766
0000b0 d8 22 4f bd be 9c d6 ba a1 99 94 bc 8d 58 f8 bd
       -0.05057034 -0.0016373617 -0.018139662 -0.12126265
0000c0 b0 9d 03 be 25 9d 14 be c2 7d c4 3c 57 58 c0 ba
       -0.12853122 -0.14513071 0.023985747 -0.0014674765
0000d0 e0 ab 6b bd 3f 15 4d be f6 33 eb bd 02 84 71 bd
       -0.05753696 -0.20027636 -0.1148452 -0.058963783
0000e0 65 51 41 bd 0a 5a 50 3b b7 61 0a be c9 f2 a5 3d
       -0.047196764 0.0031791949 -0.13513838 0.08102948
0000f0 4a 9a 66 3d 00 a7 18 3e 75 c8 91 3d 9d ae 3d 3d
       0.056299485 0.14907455 0.07118312 0.046309102
000100 91 68 e5 3d e2 d5 e2 3c a0 2a 58 3d 04 31 c5 3c
       0.11201585 0.027689878 0.052775025 0.024071224
000110 14 d1 29 3e 0e 65 fe 3d bc 68 36 3c 75 45 33 bd
       0.16583663 0.124216184 0.011133369 -0.04376741
000120 5d 8c 0a be 93 23 58 3d 4a a7 77 3d a5 fb 61 be
       -0.13530107 0.0527683 0.060462274 -0.22068651
000130 8b 9e c4 bb 55 71 01 3e eb 61 29 3e b0 79 65 3e
       -0.006000345 0.12640889 0.16541259 0.22409701
000140 9a 1e b3 bd 96 75 47 bd cc 2a 12 bd 87 25 24 3e
       -0.08746071 -0.048696123 -0.035685346 0.1602994
000150 74 ac 3d 3e b6 7c 0a be 16 c7 30 be d3 01 ae bd
       0.18522817 -0.13524136 -0.17263445 -0.08496442
000160 8f cb 9e 3d 15 ed e2 3d 23 b8 86 bd 4e da 4e be
       0.077536695 0.11080376 -0.0657809 -0.20200464
000170 09 1c d6 bd e5 72 27 3c 17 d6 b0 3d cd 56 05 be
       -0.10454566 0.010220264 0.086345844 -0.13021393
000180 d2 ed 66 bd 5a 7d a1 bd 5a 98 8a 3c 08 c0 ca 3d
       -0.056379147 -0.07885237 0.01691835 0.09899908
000190 80 fc ed bd b4 d2 39 bd f3 85 92 3d 5f 47 13 3e
       -0.11620426 -0.045366958 0.07154455 0.14382695
0001a0 6f 06 1e 3d 08 5c 9e bd 1a f7 ae bd 02 54 80 3d
       0.038580354 -0.07732397 -0.08543225 0.06266023
0001b0 1a 35 d2 bc 02 d3 b8 3d 88 fd 73 be 3a 1f 45 be
       -0.025660086 0.090246215 -0.23827183 -0.19250193
0001c0 dd f3 62 3d 71 df 35 3d f3 84 10 3d 32 eb 9a be
       0.055408347 0.044402543 0.03528304 -0.30257565
0001d0 21 df 07 be 86 b5 07 3e 83 21 30 3e 99 8b a1 3d
       -0.1326871 0.1325284 0.17200284 0.07887954
0001e0 9d 8a 0f 3c 39 7b 5f bd ab 36 07 3e 1f 78 64 3d
       0.008761075 -0.054560874 0.13204448 0.05577862
0001f0 e3 5c 72 3c d2 59 93 bd ee 27 89 3d d9 d2 41 bd
       0.014792654 -0.07194866 0.06697069 -0.04732022
000200 eb 18 f5 bb 59 e9 a1 3d ea 26 03 3e a3 31 ee 3d
       -0.007479777 0.07905836 0.12807813 0.11630561
000210 a6 2e 99 bd 56 f2 24 be f2 dd 48 bd 15 6f 87 bc
       -0.074796006 -0.16108069 -0.04903979 -0.01653246
000220 c7 d0 97 bd 43 d5 45 3d cf 27 b4 3d 8f 3f 0c 3e
       -0.07412868 0.048299085 0.087966554 0.1369612
000230 70 7e 6b bd 6b 78 8b bd ca 22 ec 3d cd ab 23 3d
       -0.057493627 -0.06810077 0.11530073 0.039958764
000240 e3 82 ad bd 34 20 16 bd ea a0 91 3d 66 cd b4 3d
       -0.0847223 -0.036651805 0.0711077 0.08828239
000250 71 b6 32 be 0c 52 e5 bd ba 3e 6a 3d ad 0b 6f be
       -0.17452408 -0.1119729 0.057188727 -0.23344298
000260 a3 b0 8d be b9 3b 0c be 5d a4 1b bd 60 c8 b1 3d
       -0.27673826 -0.13694657 -0.037998546 0.086807966
000270 46 50 4a 3d 87 8e 86 bd 5a 2c 10 3d 9b e0 1d bc
       0.04939296 -0.06570154 0.035198547 -0.00963607
000280 f8 b7 3e 3e 5b 9c 70 3e 19 bd a0 3d 16 d8 22 3d
       0.18624866 0.23497145 0.078485675 0.039756857
000290 d9 1f 14 bc 45 e6 f3 bd 4f f1 e7 3d 48 0b 7f 3d
       -0.009040796 -0.11909155 0.11325323 0.062266618
0002a0 c5 9c 63 3c 8d c9 ec 3b 13 c0 82 be b5 21 ea bd
       0.013892357 0.007226175 -0.25537166 -0.1143221
0002b0 7e 40 2a bd e5 97 28 bc c9 a8 d5 3c 91 41 38 be
       -0.04156541 -0.010290121 0.02608146 -0.17993762
0002c0 30 73 b3 3a 45 44 48 3d 43 80 95 3d 0f bf ae 3d
       0.0013690945 0.048893232 0.072998546 0.08532535
0002d0 84 0b 8e 3d 4b bb 75 3e 18 d6 22 3e e7 aa ba 3d
       0.0693579 0.23997228 0.15901983 0.09114628
0002e0 11 32 0a be 23 c6 2b 3e be 36 00 3e 6e 91 e1 bd
       -0.13495661 0.16774802 0.12520882 -0.11014067
0002f0 1f 23 4a be 14 d1 c8 bd 54 27 d6 bc 7b 30 39 be
       -0.1973996 -0.098055035 -0.0261418 -0.180849
000300 17 89 7d be 31 1a a1 bd 16 59 95 3d 81 2e c7 bd
       -0.24759327 -0.07866324 0.072923824 -0.09725667
000310 27 dd b3 3d a1 95 76 3d c7 fd e6 3c 5d 7c d5 3c
       0.08782416 0.06020129 0.028197182 0.026060278
000320 c6 5e 0b 3c ea 59 b2 3a 98 b7 93 bd 46 4f 93 bd
       0.0085064825 0.0013607119 -0.07212752 -0.071928546
000330 43 f9 c7 bd eb b5 5a 3d 16 e7 eb bd bd c6 9d be
       -0.0976434 0.053396147 -0.115186855 -0.30815688
000340 64 77 39 be 5e d0 1b 3d 5d 52 8a bc 1a af 8e bd
       -0.1811195 0.03804051 -0.016884977 -0.06966992
000350 14 67 ca 3c 21 ad a4 3d b3 f2 36 3e 6a 4e e9 3d
       0.024707355 0.08040834 0.1786602 0.113919094
000360 69 dc 8a 3d 02 8a 40 3e e2 c0 dc 3d 3d e4 2b bd
       0.06780321 0.18802646 0.10778977 -0.04196571
000370 ab 18 47 3d 27 fb 3c 3d 10 ca 99 bd db b6 5b 3d
       0.04860751 0.046137955 -0.075092435 0.05364118
000380 a3 c9 07 be a5 4f 10 3e 63 b9 d8 3d 56 9f 53 3e
       -0.13260512 0.14092882 0.10582235 0.2066625
000390 c1 ed 6c 3e 92 cb 22 3e d3 46 01 bd cf 3d 7e bd
       0.23137571 0.15897968 -0.031561684 -0.062070664
0003a0 82 c8 ba 3d 93 05 35 3d 9b c1 0c 3d a3 ea cf bd
       0.09120275 0.04419477 0.034364324 -0.10152175
0003b0 ce fc e0 bd f0 7a ad be cc 12 95 be 48 6a aa bd
       -0.10985719 -0.33882856 -0.29115903 -0.08321053
0003c0 fe a2 27 3c ee 24 05 be ca 57 74 be 9c c8 4f be
       0.010231731 -0.13002369 -0.23861614 -0.2029137
0003d0 27 3f fd bd 95 71 84 3d 26 90 71 3d 9c 70 54 3e
       -0.12365561 0.064669766 0.05897536 0.20746082
0003e0 1d a6 5f 3e b4 57 01 3e 61 70 aa 3c ab d0 1e bb
       0.21840711 0.12631112 0.02080554 -0.0024233263
0003f0 49 64 37 bd 72 fd df bd fb 04 61 be aa 34 74 ba
       -0.044773374 -0.10937013 -0.21974556 -0.0009315709

sequential/conv2d/BiasAdd/ReadVariableOp:0 f4 [30]
000000 57 a0 1d bd 7f ba e7 bc 5c 7e ea bc af 30 8b bd
       -0.03848299 -0.02828717 -0.028624706 -0.06796395
000010 6a 7a c5 bb 79 a0 34 bd 6d ef 27 bd 8d b8 b1 bd
       -0.006026556 -0.04409835 -0.04099982 -0.086777784
000020 bb 82 cb bc fa 71 12 bd 7e cd ef bc 31 6f c3 3c
       -0.02484261 -0.035753228 -0.029272791 0.023856731
000030 f0 c8 d9 bd 90 c9 0c be 00 11 3e bd be 5d b0 bb
       -0.10634029 -0.13748765 -0.04640293 -0.0053822687
000040 58 82 6c bd 90 21 73 bc 41 29 9f bc 3b cb 4b bc
       -0.057741493 -0.014839545 -0.019428851 -0.012438591
000050 44 3f fd 3c 3a 75 13 bd 43 36 ca bb 7b cf 5f bd
       0.030913956 -0.036000468 -0.0061710193 -0.05464123
000060 fb 9d c1 3c dc 36 d8 bc 87 80 94 bd e5 18 c1 bb
       0.023634901 -0.026393346 -0.07251077 -0.0058928602
000070 78 16 bf bd 7e 13 80 bc
       -0.093304574 -0.015634295
