models/model5.onnx (onnx, 815746 bytes, 6 tensors)

sequential/dense/MatMul/ReadVariableOp:0 f4 [18432, 10]
00000000: 3fdd 383c 2f00 503c 9f41 083c fe48 5dba
00000010: 6398 78bc 7ca6 e1bb 1843 cb3c 4c30 3d3b
00000020: 23ca 3abb 8661 8fbc c6c3 2fbd 4a5b 07bd
00000030: e116 d0bb 7204 9abc 116c 0f3c f138 18bd
00000040: 843b b13c ff46 01bc 130b 6fbc f029 8cbc
00000050: a8c3 a33c f7a4 ca3c 221d b5ba 9c50 833c
00000060: a20c 76bd fb1f 26ba d9c7 8e3c 4ee3 b1bb
00000070: e497 2f3c 6f8a bfbc 07fe acbc 73a6 933a
00000080: 7cdb 493c 697d cabb a0cc 403a 19d5 0bbd
00000090: 5cf4 2f3b 662a 6ebc 1bd2 053c 71a5 693b
000000a0: 9288 4ebc d956 8d3b 10ee 46bc 9455 0fbc
000000b0: 5a99 6f3c 3a29 4f3c f9aa 76bc 6f4c a7bc
000000c0: 03dd f23b 4a9a 10bc 2d9f 933c 5a52 383c
000000d0: 7ba8 33bc e87f 253c dc0b a1bc 65c3 1c3b
000000e0: ae43 a139 1f76 113c 6184 b3bb e7bc 3d3c
000000f0: 3e85 b73a bea8 a43c 7250 013c 2b8d 6fbb
00000100: 3664 713c 3e13 1cbc b22b ed3b 9967 d2bb
00000110: e6a5 823c 7dbd a5bb b6c5 f93b 6fe6 1c3c
00000120: a68e b1bc 7004 6b3c 43fb a33b 08f1 d0bc
00000130: 3afa 103c a848 4bbc 42f9 413b 62a5 933a
00000140: c5cb 6abd 2a07 7ebc 9812 07bd f0c8 78bd
00000150: 0cc0 efbd 4dd9 8b3b 0f1d adbb bff3 003d
00000160: 2503 34bc 3362 433d 34de 613c 71ac 93bc
00000170: c03a 263a e0cd a33b 0652 c93b a62e a039
00000180: 2c4f 58bc 1065 a6ba 1e2f 243c a01b 86bb
00000190: 38ac 69bd 780b 773c eb15 95bd 1319 ed3b
000001a0: 51ba f13a b9e9 47bd a704 e33c a273 44bc
000001b0: d622 c9bd 19b2 063d f888 763b cce1 6cbc
000001c0: 34d5 50bb 3c27 733c d8fb 8cbc a094 1c3c
000001d0: 14fc e7bb b845 ef3b 7047 013b e097 c13a
000001e0: 10b7 2e3c 07db 4abc 7d1f 27bc f2db 5bbc
000001f0: 4ff8 083b 0531 133c 7468 5d3a 807a 53bc
00000200: d45a 503c bcbd 9a3b 0ce2 17bd b72c e1ba
00000210: f64a 4fbd 2bc0 0f3c bef4 743c c282 b8bd
00000220: d9ac f7bc 25cd 0abc a324 6c3c df23 95bc
00000230: d238 6fbc e29f 1cbc 6cbc 813b 6c2c 8bbc
00000240: b645 2dbc 6a27 6c3c fa16 833b 13cc 883c
00000250: eca4 403b 25a8 aabb b70f 0d3b 4cc5 123b
00000260: 4944 053d 8325 2dbd 4069 003c 22cb 103d
00000270: 7068 57bd 1122 18bd d3e5 bcbd 3aae 933b
00000280: 3f06 b8bb df88 df3c 60c7 09bd ca59 2b3b
00000290: f97e 9bbb 4f59 6c3b 582e 2cbc 923e 133c
000002a0: 43d2 36bc ba33 81bc 80d8 123c 2215 253c
000002b0: 0242 54bc a640 02bc 4cd9 d63b acf0 213c
000002c0: 94c5 0d3c 6085 fdba 6001 0eba 853a 91bc
000002d0: 1d4d b5bc d2d5 513c 0c62 6a3c 363a f63b
000002e0: b62d 83bd 4f59 e2bc b119 6d3d 7ff0 813c
000002f0: ea1a 413c af5d 9bbc 2a0f 2f3d 8608 80bc
00000300: 270d 71bc 38a9 0ebe 54e6 15bd 9bf4 5f3d
00000310: fc77 263d d578 e3bc d9ca 71bc 6cca 773d
00000320: 57a6 9bbc cf0e 283c 4959 8dbd 18a5 b1bc
00000330: 7782 053c 3280 98bd d767 3bbd 3258 943d
00000340: c156 e7bc 8725 e73c 5cb0 bf3c fb1d 763b
00000350: 7783 cbbb 1bc7 2e3c 8d2d c6bc b21a 0cbd
00000360: f81e 3abc 6417 a3bc 5529 adbb 6712 51bc
00000370: a0e7 0cbd 85de e0bc 2d0e d4bb 229d ee3b
00000380: 432e 54bd 486d 3fbc 246b 713b ace2 00bc
00000390: 576b 31bc 10b9 20bb 1ceb 10bd 02a1 9fbc
000003a0: dd99 20bd 5842 453d 154d 2d3d b77f 98bc
000003b0: 78bf fcbc ec49 5f3c 7f8a 80bd 767a 81bc
000003c0: c927 23bc 342c 713c 65d3 993c 9fd5 88bc
000003d0: 306f 9c3c 32d9 2b3c 381c 643c 9c89 a03b
000003e0: 70bf 12bc c138 a8bc 5449 4dbc 9b12 f7bb
000003f0: c602 e9bb 8444 cf3b 68a6 ff3b 46c0 183c
0.011283218 0.012695356 0.008316427 -0.00084413576 -0.015173051 -0.0068863016 0.024812266 0.0028867899
-0.002850183 -0.017502557 -0.042911313 -0.033046044 -0.0063503836 -0.018800948 0.008753792 -0.03716368
0.021634825 -0.007890462 -0.014590043 -0.017109841 0.019990757 0.024736864 -0.0013817886 0.016029648
-0.06007064 -0.0006337163 0.01742928 -0.005428708 0.010717366 -0.02338144 -0.021117223 0.0011264816
0.012320396 -0.006179501 0.000735471 -0.034138773 0.002684853 -0.014536476 0.008167769 0.003565159
-0.012605803 0.0043133316 -0.012141719 -0.008748431 0.014623964 0.0126441065 -0.0150554115 -0.020422189
0.0074116006 -0.008825848 0.018020237 0.011250103 -0.010965462 0.010101296 -0.019658975 0.0023920175
0.00030758738 0.00887826 -0.0054784273 0.011580682 0.0014001501 0.020099994 0.007892715 -0.0036552649
0.014733365 -0.009526072 0.007237875 -0.006421041 0.015948247 -0.005057989 0.007622446 0.009576424
-0.021674465 0.01434432 0.005004318 -0.025505558 0.008848721 -0.012407459 0.0029598032 0.0011264498
-0.057323236 -0.015504638 -0.032976717 -0.060738504 -0.11706552 0.0042678476 -0.005283005 0.031482454
-0.010987078 0.047701072 0.0137858875 -0.018026562 0.0006341152 0.0049989074 0.006143811 0.00030552334
-0.01320247 -0.0012694914 0.010020999 -0.0040926486 -0.057049006 0.015078418 -0.07279571 0.007235655
0.0018442367 -0.04880688 0.02771218 -0.01199046 -0.098210976 0.03288469 0.003761826 -0.014458131
-0.003186536 0.014840897 -0.017209932 0.009556919 -0.0070796106 0.0073020123 0.0019726418 0.0014769994
0.010663763 -0.012381322 -0.0102003785 -0.013419138 0.0020899957 0.008983855 0.00084460457 -0.012907624
0.012716968 0.004722325 -0.03708081 -0.0017179464 -0.050608598 0.008773844 0.014950929 -0.09009315
-0.030233787 -0.008471762 0.014413032 -0.018205581 -0.014600949 -0.009559603 0.003959229 -0.016988955
-0.010575702 0.014413694 0.0040005418 0.016698873 0.0029395176 -0.0052080327 0.002152426 0.002239543
0.032535825 -0.042272102 0.007837594 0.035349973 -0.052589834 -0.037141863 -0.09223523 0.0045068534
-0.005615979 0.027286945 -0.033637404 0.0026146048 -0.004745361 0.0036063974 -0.010509096 0.008987086
-0.011158529 -0.015771735 0.00896275 0.010075839 -0.012955191 -0.007949984 0.0065566655 0.009884041
0.008653063 -0.0019342117 -0.0005417075 -0.0177281 -0.022131497 0.012807326 0.014305603 0.0075142635
-0.06405203 -0.027630476 0.05788583 0.015861748 0.011786202 -0.01896557 0.04273907 -0.015629064
-0.014712608 -0.1393174 -0.03659661 0.054676633 0.04064177 -0.027767578 -0.014757835 0.06049578
-0.019000215 0.010257437 -0.069017954 -0.021685168 0.008148781 -0.07446326 -0.045753326 0.072433844
-0.02823961 0.028216137 0.023399524 0.003755449 -0.00621074 0.010667588 -0.024191642 -0.034205146
-0.011359923 -0.019908614 -0.005284468 -0.012760735 -0.034400582 -0.027449856 -0.0064714164 0.0072819153
-0.05180193 -0.0116837695 0.0036837542 -0.007866543 -0.0108288145 -0.0024524368 -0.035380468 -0.019485954
-0.039209235 0.048158973 0.04230984 -0.018615587 -0.030853018 0.013628464 -0.06276416 -0.015805464
-0.009958216 0.0147200115 0.018777559 -0.016703425 0.019095987 0.010488795 0.0139227435 0.004899217
-0.008956775 -0.020534875 -0.01252969 -0.0075400597 -0.0071109263 0.0063253064 0.0078018196 0.009323185

sequential/dense/BiasAdd/ReadVariableOp:0 f4 [10]
00000000: 598d 57bc 77ff c83d 6bbf b1bc c3e7 8abc
00000010: 9a6f aa3c 6302 c4bc 19c0 35bd ae8d 673c
00000020: 595b 4fbc 25e9 f13b
-0.0131562585 0.09814351 -0.02169772 -0.016956216 0.020805169 -0.02392692 -0.04437265 0.0141329
-0.012656056 0.0073825293

sequential/conv2d_1/Conv2D/ReadVariableOp:0 f4 [32, 64, 3, 3]
00000000: f4b3 dbbc 741c a7bd 9908 1d3d b54f 833d
00000010: f789 933a 3631 25bd df86 443d eb20 af3c
00000020: 89d8 4e3d f98a c9bd 762d 793b 24f4 bbbd
00000030: ffbc c4bc 1505 a2bd 4eb0 c4bd 0a7e a1bc
00000040: d094 d4bd 1ae3 73bd dde2 e03c 7ddf 213d
00000050: cf8e 86bc c022 d5bc a9ac 413d ee0c 213d
00000060: 6f64 c83c 132e 6bbd 71c9 11bb a39a 12bd
00000070: 3f9b 1ebc 6ba9 b2bd 19f4 8b3d c03b 44bd
00000080: cc25 213b ddbe 15bd a78b 653d 638f 36bb
00000090: 81b9 143d 2269 c4bd a804 4d3d 49fc 4bbd
000000a0: bf63 1b3d de03 183d 0c8c 1ebd d3cf 293d
000000b0: 5c1b 9fbd 1e39 57bb f1c0 973c e021 26bd
000000c0: d458 a33b 6467 36bd ad39 213c d7e7 56bd
000000d0: 444f 84bd b505 ffbc aeaf 06bc 7b14 2dbc
000000e0: f8c5 6f3d 9d65 113d e5a6 c43d 7d6d a1bd
000000f0: ff16 3b3d ad61 ffbc dc0e b3bd e050 08bd
00000100: b062 583c f9b0 6bbd 1cb3 a03d d6b3 53bd
00000110: 46cf 45bc d3e2 37bd a128 d7bc 2aae ba3c
00000120: 16a0 d2bc 34c4 2e3d 5e4f d13c 7b4b 6abd
00000130: 5ecc 9dbb 1e59 b6bd f3b7 8cbd 1d91 a43c
00000140: b144 723d 8d04 0a3d 5888 a6bd 2d15 b3bd
00000150: 1736 543d ca85 6bbc 6c2e 89bd ad1f 99bc
00000160: 428f 7bbd 3d1b 333d 5f96 4ebd 93ff 81bd
00000170: b94b 513d ea52 083d b29c 40bd 1dc3 1d3d
00000180: 4b9b b4bd 3837 913d da0d f73b 51b0 9abc
00000190: 1aaf 533d e514 49bc 75da b4bd d825 973c
000001a0: 593a c7bd 0041 e33c 3486 01bd a607 ef3c
000001b0: 70eb 90bc a51b 35bb ff70 a9bc 3910 b8bd
000001c0: 9c59 b2bd b6ff 833d 53b1 8bbd 2cdf 4cbc
000001d0: 80b4 8c3c e75e ed3c 50a8 99bd 644a ddbc
000001e0: be34 1abc 3ee1 823d 0040 acbd 8e54 b2bd
000001f0: fa67 a33d 0fd7 f9bd 6ed1 2dbd ddf5 e43c
00000200: f338 903c b07a 56ba 0f8d efbb 7503 52bc
00000210: b409 5dbd 0ea7 723d 7027 8ebc ba5b f4bb
00000220: 1d56 953c f0b1 8b3d 8ef7 5ebb cad1 2abd
00000230: ed6a 003d 646e 723d 96ff b2bd c2e2 82bd
00000240: b2ee 963c 9c18 0b3c 16d3 f4bc 073a 023d
00000250: 5042 89bd c309 393c 187f 0fbd 4d5a 0dbd
00000260: 8f38 2b3d 0db4 81bd c40b fd3c 90f2 7b3b
00000270: 7de6 a73b 869d adbd 4b56 9c3b 97c4 0b3c
00000280: 0afa 86bd fc2b aebd e8ef c23c c7e9 483d
00000290: d2ee 3fbd aa7b 80bb aa21 96bc 7e86 9abd
000002a0: 0ecf 473d c6e0 633d b08f 433d 0c0e 91bc
000002b0: 0b25 083b 8400 abbd 7aea b2bc 2d8c b03c
000002c0: b3ee 133d ad01 b2bd 14de 56bd 0226 d63c
000002d0: c452 90bd dd5a c5bd 3494 273c 0cfa 5d3d
000002e0: 26a1 c5bc 7d97 eeba 5aff bbbd 7298 c9bd
000002f0: 3bce 073d 84b2 473d 341d 16bd 0618 47bd
00000300: 6770 0abd 23c7 853c ad1d 69bd 7305 adbd
00000310: 9dbe df3c b46a 5ebd 5497 5c3b e02e bc3c
00000320: d7d9 583d dd57 30bb 4774 603d 1bea 69bc
00000330: 7ec2 8abd fc18 77bd 723f edbd f27e 67bd
00000340: ef39 883c 0fdc 78bd 0082 383d 1b7f 6f3d
00000350: 4949 9ebd cf12 4b3c 6787 ee3c aee2 9bbd
00000360: b525 7dbd 44e2 94bd 149f ccbd 179b 0e3a
00000370: 0a2c a0bc 1c89 1dbd fe99 41bc cce5 203c
00000380: 1f35 2cbd ae74 3e3c 7f7f bdbc 2e48 813b
00000390: a573 4e3d 023f b8bc e8bd a0bc 4786 84bd
000003a0: e41a 1d3d de9d 01bd 8a73 413d 869e 01bd
000003b0: 4059 a13b 998e 58bd a6ab d3bc 17b6 643d
000003c0: 1c81 a9bd 0fb3 883d bc89 b13d 8117 38bd
000003d0: a52d debd a5b3 8c3d ae1b 92bc 3680 e7bc
000003e0: 0cf1 1ebd 05a2 72bd 6d8c 71bd 0ad4 dcbc
000003f0: 0821 3abd f4ed 78bd bfaf 2aba 8811 2cbc
-0.026819207 -0.08159724 0.038338277 0.06411687 0.0011256327 -0.040330134 0.047980186 0.021378001
0.050499473 -0.0984096 0.0038021482 -0.091774255 -0.024015902 -0.079111256 -0.0960394 -0.01971342
-0.10379946 -0.059542753 0.027451927 0.039519776 -0.016425518 -0.026017547 0.047283802 0.03931897
0.024461953 -0.057416987 -0.0022245313 -0.035792004 -0.009680568 -0.0872372 0.06833667 -0.047908545
0.002458918 -0.036558975 0.056041386 -0.0027856461 0.036309723 -0.09590365 0.05005327 -0.049801145
0.037936922 0.037113063 -0.038707778 0.041457962 -0.0776889 -0.003284044 0.018524619 -0.04055965
0.0049849544 -0.044532195 0.009840411 -0.052467193 -0.06460431 -0.031130651 -0.008220596 -0.010563965
0.058538407 0.035497297 0.09602145 -0.07882211 0.045676228 -0.031174505 -0.087430686 -0.033280253
0.013207123 -0.05754182 0.078466624 -0.051685177 -0.012073344 -0.04489405 -0.02626449 0.022788126
-0.0257111 0.042667583 0.02555054 -0.05720089 -0.0048156222 -0.089037165 -0.06871023 0.020088727
0.05914754 0.033695746 -0.08131474 -0.08744273 0.051809397 -0.0143751595 -0.066983074 -0.018691862
-0.06141592 0.04372715 -0.050436374 -0.06347575 0.051097605 0.033282198 -0.047024436 0.038516153
-0.08818682 0.0709061 0.007539493 -0.018882902 0.05168066 -0.012273048 -0.0883073 0.018450662
-0.09727926 0.027740955 -0.031622127 0.029178452 -0.01769039 -0.0027634886 -0.020683764 -0.08987469
-0.08708498 0.06445257 -0.06820931 -0.01250438 0.017175913 0.028975917 -0.07502806 -0.027013011
-0.009411989 0.06390618 -0.084106445 -0.08707534 0.07978816 -0.12199222 -0.042436056 0.027949268
0.01760528 -0.0008181734 -0.0073105167 -0.012818207 -0.05396433 0.059241347 -0.01735279 -0.0074572237
0.018229539 0.06821048 -0.0034022066 -0.041703977 0.031351972 0.059187308 -0.087401554 -0.06390907
0.018424366 0.008489754 -0.02988581 0.03179362 -0.06702101 0.011293831 -0.035033315 -0.034509946
0.041801985 -0.0633317 0.0308894 0.003844414 0.005123912 -0.08477311 0.004771029 0.008530757
-0.0659066 -0.08504483 0.023796037 0.049051072 -0.046858616 -0.003920992 -0.0183266 -0.075451836
0.048781447 0.055634283 0.047744453 -0.017706893 0.0020774032 -0.08349708 -0.021840323 0.021551216
0.036116313 -0.08691726 -0.052457884 0.02614117 -0.07047036 -0.096364714 0.0102282055 0.05419354
-0.024124693 -0.0018203106 -0.09179564 -0.0984353 0.03315566 0.04875423 -0.036648944 -0.048606895
-0.0337986 0.016330307 -0.056913067 -0.08448305 0.027312571 -0.05430098 0.0033659535 0.02297157
0.052942123 -0.002690784 0.05479839 -0.0142770065 -0.06775378 -0.06032656 -0.11584367 -0.05651755
0.016629187 -0.06075674 0.045045853 0.058470827 -0.07728822 0.012394621 0.0291173 -0.07611595
-0.06180354 -0.07269719 -0.09991279 0.00054399803 -0.01955225 -0.038460836 -0.0118165 0.009820413
-0.042042848 0.011624498 -0.023132084 0.003945372 0.050403256 -0.022490982 -0.019621804 -0.06470924
0.038355723 -0.031644695 0.047229327 -0.03164532 0.0049239695 -0.052870367 -0.025838684 0.055837717
-0.08276579 0.06674778 0.08668849 -0.04494429 -0.1084855 0.06870202 -0.017835464 -0.028259378
-0.0388041 -0.059236545 -0.05897181 -0.026956577 -0.045441657 -0.060773805 -0.00065111736 -0.010502227

sequential/conv2d_1/BiasAdd/ReadVariableOp:0 f4 [32]
00000000: f9b2 f1bd 8954 a5bd de26 43bd b097 07be
00000010: 5bf3 babd 137b 12bd cc4e 97bd cec9 9abd
00000020: 0617 1bbd 13f8 d3bd 308c 0e3b 0923 f4bd
00000030: 12e7 e7bd 00bf 673c 3408 e6bd a307 7e3c
00000040: 2289 bfbd 4e88 efbd 9edb 68bd 0fd4 bd3a
00000050: bd62 433c 6ec8 86bd e29a c4bd c604 91bc
00000060: 0de4 d4bd cada 1dbd f869 363d 65f7 41bd
00000070: 1734 34bd b3b4 d03b 875f 8e3c 746b ccbd
-0.118017145 -0.080727644 -0.04764449 -0.13241458 -0.091284476 -0.035761904 -0.07388076 -0.075580224
-0.037863754 -0.10350051 0.0021751039 -0.11920745 -0.1132337 0.014144659 -0.11232033 0.01550475
-0.09352328 -0.1169592 -0.05685007 0.0014482754 0.0119253965 -0.06581198 -0.09599854 -0.017702471
-0.1039506 -0.03853873 0.044534653 -0.047355074 -0.04399499 0.0063691973 0.017379535 -0.099814326

sequential/conv2d/Conv2D/ReadVariableOp:0 f4 [64, 1, 3, 3]
00000000: 1b44 d4bd e05d 73ba a927 c2bd a22e 8bbb
00000010: bc6a 07bc e4db 18ba 4f9e 18bd eb2c 07be
00000020: df84 17bc 516c 9cbb ecb3 94bc f99a 49bc
00000030: 5c2e 18bd c09d 3f3d b540 04bd 060b 02bd
00000040: d476 68bd 728a f8bc 5b1a 72bd 6d8c 05be
00000050: 27cf 02bb 0ce4 8abd bb66 843c 7033 9dbd
00000060: 1339 5abd 2de7 883c 72e2 823c 377f 2ebd
00000070: 74c2 98bd 8015 3fbd 28f3 1bb8 00bc 97bd
00000080: 5002 bab9 9c53 81bd de5e 01bb fdad 93bc
00000090: 1d7c 323d 4eb3 05be 984e 67bc beed 66bc
000000a0: 6684 c73d 8b16 4a3d 2e90 e23c db2b 08bc
000000b0: 2a6f d5bd c208 383d 664b b43d 7809 75bd
000000c0: 7ab3 803d cdc6 5e3d 8e83 9fbc 85c3 55bd
000000d0: df52 363d e1bb 99bc af82 09bc 8478 67bd
000000e0: 0e46 a8bd 29c1 bfbd be82 06be 3968 3cbe
000000f0: 873b 01be 57be 233e e209 b1bd 1381 3bbd
00000100: 1858 dbbb b4d6 34be d031 663d 536f 80bd
00000110: 2b2d efbb 6a33 8a3c d7d3 903d 6d65 043d
00000120: 2117 22bd 6582 f1bd 8d0b 01ba fc4d 1e3c
00000130: aba9 eebd bb29 b5bc 960f bcbd 317c 31be
00000140: a852 0fbc d940 73bd aa4f cfbd ed99 8e3d
00000150: a2a8 00be eb60 04bd ccd6 90bd 3673 20bd
00000160: 6264 8c3d 8df5 44be 7be3 79bd 42a7 523d
00000170: 9b07 44bd edb4 94bc e069 0ebe ed12 64bc
00000180: 86f7 49bd aa04 f6bd f211 27be 705a 13be
00000190: b789 113d 744e 08be a1ae 973d 8239 a53d
000001a0: e307 b9bb 9092 96bd b073 8abd 9fe0 c9bc
000001b0: bcb5 89bd 11af c53c f542 f5bc 04d5 663d
000001c0: d9e2 83bd 204e 7cbd b06c bfbd 6f14 21bd
000001d0: 8ec4 a1bb 56a9 98bd eb01 b8bd 57ad 133d
000001e0: 5236 143e 7374 ccbd 8164 c33d 824e 26be
000001f0: 1bd8 3bbe 5bf6 8dbd bf67 02bc a367 d0bb
00000200: b4b9 7dbc 491e aabd 1bdd edbd 07c2 e2bb
00000210: 5650 9e3b 8d95 70bd 321b cfbb 9231 13bc
00000220: 9fa6 cebc 8acf 81ba 2c50 cebc c21d dfbd
00000230: ac59 5cbd 9e4c ccbd 75cb 13bb ed23 8abc
00000240: 7972 efbd e9ed b8bd 4852 00bc dd95 9eba
00000250: ecdc 883d 2225 c53c 8d1a 03be 842b 13bd
00000260: a273 973d 5f40 15ba 3b6d ecbd af4e 9cbc
00000270: 54d6 c7bc 3b89 473d 09bd 043d 0ed8 8abd
00000280: 8647 093c 4baf 11be f61a c7bc 17cd e63c
00000290: 891e 17bd d6f8 3dbd 00f4 85bd 26d5 053d
000002a0: 7b85 18bd 8a9c bbbc 8557 eabd b0a5 82bd
000002b0: 4c3d 7abd 482e e23c cd9b 02be 4e3a bdbd
000002c0: 643f 42be c588 77bd 24bb bbbd 1910 973b
000002d0: c807 53bd a708 6f3d 3b6f e9bd ba9c 44bc
000002e0: 5fd6 d1bd 4817 ccbd c7ac 02be 69fb 38be
000002f0: 27f0 85bb 12f5 c5bd ade3 57b9 9610 89bd
00000300: bc37 54bc 0558 24bd 64e7 02bd 7c27 a2bd
00000310: 4968 413d 4551 a5bd a25c b8bc 64c5 ab3c
00000320: 5e5c 0e3d 5007 a1bd 5acf 8fbb 38c5 00bd
00000330: 4b26 c9bd 676e 56bb e772 b63c f686 6ebd
00000340: 1228 c63c 6ebf 273d 9699 6f3d d5dd 153d
00000350: 155b a03c bc8a 893d 79ed 56bd d631 07be
00000360: a59e eebc a454 4dbe dbd9 c8ba f330 853d
00000370: f879 a9bd ceb8 1cbe 40ef 1dbd 9bc2 b4bc
00000380: 7485 1dbe 6621 24be da81 843d dbbc 9cbc
00000390: a01c 803d 48dd eb3d 6264 9c3c e2b5 39bb
000003a0: eeba 85bd 6623 3dbe 3054 da3c d17a 00be
000003b0: 462f e0bd d60a 983d 5514 9b3d 5915 b6bd
000003c0: faab 72bd ad9e a1bc f344 88bc b4a8 91ba
000003d0: b94b e1bc 1ce3 ecbd 1713 afbd 73dc 99bd
000003e0: 444f ddbd 4a61 7cbd 0ce3 a3bd c7ba bdbc
000003f0: e1dc 15be e916 2f3d d601 173d 71f4 d5bd
-0.103645526 -0.0009283703 -0.09480221 -0.0042475024 -0.008265194 -0.0005831106 -0.03726035 -0.13200729
-0.0092479875 -0.0047736545 -0.0181522 -0.012305015 -0.037153587 0.0467813 -0.032288272 -0.031748794
-0.05675395 -0.030339453 -0.059107166 -0.1304185 -0.0019959898 -0.06781778 0.016162267 -0.076758265
-0.053277086 0.016711796 0.015977118 -0.04260179 -0.07458964 -0.046651363 -3.7181337e-05 -0.07408905
-0.00035478408 -0.06314775 -0.0019740383 -0.0180273 0.043575395 -0.1305668 -0.014117859 -0.014094768
0.0974205 0.049337905 0.02765664 -0.008311237 -0.104215935 0.044930227 0.088034436 -0.059823483
0.062842324 0.05438881 -0.01947191 -0.052188415 0.044512626 -0.018766345 -0.008392974 -0.056511417
-0.08216487 -0.09363014 -0.13135812 -0.18399133 -0.12620364 0.15990578 -0.08644463 -0.04577739
-0.006693851 -0.17660028 0.05619985 -0.062712334 -0.0072990856 0.01687022 0.07071655 0.03232329
-0.03957284 -0.11792449 -0.00049226807 0.009662148 -0.11653455 -0.022114625 -0.0918266 -0.17332532
-0.008747734 -0.059388015 -0.101226166 0.06962953 -0.12564328 -0.03231899 -0.07072219 -0.039172374
0.06855084 -0.19234295 -0.061007958 0.05142904 -0.047858816 -0.018152678 -0.13907576 -0.013920528
-0.049308322 -0.12012608 -0.1631544 -0.14389968 0.035531726 -0.13311177 0.07406355 0.08067609
-0.005646692 -0.07352173 -0.06760347 -0.02464324 -0.06724116 0.02413133 -0.029939154 0.05635549
-0.06439752 -0.061597943 -0.09346902 -0.039326128 -0.004936761 -0.07454173 -0.08984741 0.03605398
0.14473847 -0.099831484 0.09540654 -0.16240886 -0.18344156 -0.06931754 -0.007959305 -0.0063600107
-0.01548617 -0.08306558 -0.11614438 -0.0069201025 0.004831354 -0.058736373 -0.0063203806 -0.008983986
-0.025225936 -0.000990377 -0.025184713 -0.10894348 -0.053796455 -0.09975551 -0.002255169 -0.016862834
-0.11691756 -0.09029753 -0.007832117 -0.0012099106 0.066827625 0.024065558 -0.12803097 -0.03593017
0.07395102 -0.0005693491 -0.115442716 -0.019080488 -0.024394192 0.048714858 0.03240684 -0.067794904
0.008378869 -0.14227025 -0.024304848 0.028173966 -0.036894355 -0.046379887 -0.0654068 0.032673977
-0.037236672 -0.022901792 -0.11442474 -0.06379259 -0.061093614 0.02760996 -0.12754746 -0.09239636
-0.18969494 -0.060433168 -0.091665536 0.0046100733 -0.051521093 0.05835786 -0.11398169 -0.012000257
-0.10245966 -0.09965378 -0.12761222 -0.18064655 -0.0040874663 -0.09665884 -0.00020588814 -0.06692617
-0.012952741 -0.040123004 -0.031958953 -0.07917687 0.047218595 -0.080721416 -0.022505108 0.020968147
0.034756057 -0.07862723 -0.004388732 -0.031438082 -0.09821757 -0.0032719614 0.022271587 -0.058234178
0.024189029 0.040954046 0.05849608 0.03658851 0.019574681 0.067159146 -0.052472565 -0.13202605
-0.029128382 -0.20051819 -0.0015323715 0.06503477 -0.08275217 -0.15304872 -0.038558245 -0.022065451
-0.1538294 -0.16028365 0.0647008 -0.019133022 0.0625546 0.115168154 0.019090835 -0.002833717
-0.06529795 -0.18470535 0.026651472 -0.1254685 -0.10946517 0.07423942 0.075722374 -0.088907905
-0.05924604 -0.019728983 -0.01663444 -0.00111129 -0.027501928 -0.11566755 -0.08548563 -0.075127505
-0.10806134 -0.06161622 -0.0800229 -0.023160351 -0.1463504 0.04274646 0.036866985 -0.10447014

sequential/conv2d/BiasAdd/ReadVariableOp:0 f4 [64]
00000000: 3250 96bd d871 193d c98c 13be 9a74 e6bc
00000010: 1819 58be 7439 283d d4f7 c9bb 0966 00be
00000020: 525d 06be 435a 5ebc 647d 99bd 1035 4ebd
00000030: 904f 2cbe 595b 3cbd 1a6c 8bbe 4287 8bbd
00000040: d9da ffbc d43b 2cbe e530 66be aea1 c4bc
00000050: 6477 c9bc edce 2fbe da32 80be 6e62 f8bd
00000060: 70db 1ebc d6bd dbbd 876d 8cbe 1988 1bbc
00000070: b74f 0abd 82bb 85bc dbb8 52be 2f8f 6cbc
00000080: 329d dabc a54d 5bbc 35ac 7fbc 243d 2dbd
00000090: 12d3 d0bd 2c83 f3bd 66dd 6fbb c0b3 73bd
000000a0: ec75 2cbd fef0 26bd c966 bebc dd0d 723d
000000b0: 013b c9bc c89a 99bb 330a 99bd 36d0 c3bd
000000c0: 1f8c 32be 9f34 0a3d 068e 56be ea50 dcbd
000000d0: 4960 80bd 49da 08bd dc06 a1bc dafd 04bc
000000e0: 6bcf 07be e160 82bd de66 9dbe 9eb6 33be
000000f0: c4fa 2dbd 271d 1abd 089f 98bb 4301 06ba
-0.07339515 0.037462085 -0.14409174 -0.028131772 -0.21103323 0.041070417 -0.0061635766 -0.12538923
-0.13121536 -0.013571325 -0.074946195 -0.050343573 -0.16827226 -0.045985553 -0.27230912 -0.06812908
-0.031232284 -0.16819698 -0.2247959 -0.024002876 -0.024593063 -0.1716878 -0.25038797 -0.12128149
-0.009695873 -0.10729568 -0.27427313 -0.009492897 -0.03376743 -0.016324762 -0.2057833 -0.0144384345
-0.026686285 -0.013385211 -0.015605022 -0.042294636 -0.101965085 -0.118902534 -0.003660047 -0.059497595
-0.042104647 -0.04075717 -0.023242371 0.059095252 -0.024564268 -0.004687641 -0.074726485 -0.095611975
-0.17436264 0.03374159 -0.20952615 -0.10757621 -0.06268365 -0.033411298 -0.019656591 -0.008117164
-0.13262717 -0.063661344 -0.30742544 -0.17550132 -0.042475477 -0.037625458 -0.00465763 -0.00051118823
