models/model38.onnx (onnx, 153271 bytes, 8 tensors)

sequential/dense_1/MatMul/ReadVariableOp:0 f4 [128, 10]
0	0x3c21c01a	0.009872461
1	0x3d93b909	0.07213027
2	0x3d52cea6	0.051466607
3	0x3e15888b	0.14602868
4	0x3dfc341a	0.12314625
5	0xbf191c1a	-0.59808505
6	0x3c8f506e	0.017494407
7	0xbebe5bab	-0.37179312
8	0xbe92ac54	-0.286471
9	0x3c04e27a	0.008110637
10	0xbde46377	-0.11151784
11	0x3dd53d3f	0.104120724
12	0xbe0ccf4f	-0.13750957
13	0x3dea2e0f	0.11434566
14	0xbda82b47	-0.082113795
15	0x3d68e39c	0.05685769
16	0xbe042d5d	-0.1290793
17	0xbd979b57	-0.074026756
18	0xbcad00a3	-0.021118468
19	0x3c7fcaf8	0.015612356
20	0xbd8682f3	-0.06567945
21	0xbf11922d	-0.5686367
22	0x3e081c8a	0.13292137
23	0xbcbcc702	-0.023044113
24	0xbc5905e0	-0.01324603
25	0xbf2d5b26	-0.67717206
26	0xbcb5c470	-0.022188395
27	0x3d63f56d	0.05565398
28	0x3e839d1d	0.25705805
29	0x3bd1800f	0.0063934396
30	0xbe403471	-0.18770005
31	0xbd20c3f1	-0.039249364
32	0x3d01eefe	0.03172206
33	0xbe10c8cd	-0.141391
34	0xbdaef313	-0.085424565
35	0xbd9f280b	-0.077713095
36	0xbd79774b	-0.060904782
37	0x3cbfe125	0.023422787
38	0xbe4d36e3	-0.20040469
39	0x3decd4ae	0.11564003
40	0xbd596873	-0.053078126
41	0xbe5052a1	-0.2034402
42	0xbeb7857d	-0.3584403
43	0xbe9a3f95	-0.30126634
44	0x3b86dcb1	0.004115664
45	0xbe91b03f	-0.28454778
46	0x3db3103b	0.0874333
47	0xbcfae722	-0.03062779
48	0x3ea30794	0.3184172
49	0xbd01e0f9	-0.03170869
50	0xbea0e1e7	-0.3142235
51	0xbea01eb7	-0.31273434
52	0xbe887832	-0.26654202
53	0x3e1987a4	0.14993149
54	0xbe85e41b	-0.26150593
55	0x3e014add	0.12626214
56	0xbd56f050	-0.052475274
57	0x3e073f43	0.13207726
58	0xbd36fde6	-0.04467573
59	0x3e0fc06c	0.14038247
60	0x3e23daaf	0.1600139
61	0xbf2cce7e	-0.6750258
62	0x3db939b6	0.090442106
63	0xbe8d5e75	-0.27611127
64	0xbe6d0bc8	-0.23149025
65	0xbc8d91bb	-0.017281404
66	0x3e458c16	0.1929172
67	0xbe36b29b	-0.1784157
68	0xbe48dac7	-0.19614707
69	0xbf011124	-0.5041678
70	0xbc92b900	-0.01791048
71	0xbed16c0c	-0.40902746
72	0xbcd86f3f	-0.026420234
73	0x3e035352	0.12824753
74	0x3de97c40	0.11400652
75	0x3d84ea60	0.06490016
76	0x3c865326	0.01639707
77	0xbdedb333	-0.11606445
78	0x3d555259	0.052080486
79	0xbee63a3f	-0.44966313
80	0xbec65ac7	-0.38741133
81	0xbea2b4bf	-0.31778523
82	0xbeb57f6c	-0.35448778
83	0xbf25bdeb	-0.64742917
84	0xbf19e5a1	-0.6011601
85	0x3d9c5a8a	0.076344565
86	0xbe900776	-0.28130692
87	0x3e15efb4	0.1464222
88	0xbf1eb345	-0.61992294
89	0x3e3777e0	0.17916822
90	0x3e208717	0.15676533
91	0xbf2a32a0	-0.664835
92	0x3e2a4c3e	0.16630647
93	0x3e2fc9f0	0.17166877
94	0xbe530eb8	-0.20611084
95	0xbdc1a9dd	-0.09456227
96	0x3de424df	0.11139845
97	0xbe2747df	-0.1633601
98	0x3e254460	0.16139364
99	0xbe17b6db	-0.14815848
100	0x3e1b8f1c	0.1519131
101	0xbc3791d6	-0.011204204
102	0xbe660e4b	-0.2246639
103	0x3e18df9b	0.14929049
104	0xbdd78108	-0.10522658
105	0xbecbd3fb	-0.39810166
106	0x3e285153	0.16437273
107	0xbecb7f9c	-0.39745796
108	0xbe1d3e9f	-0.1535592
109	0xbea03f1c	-0.3129815
110	0x3e87670f	0.26445815
111	0xbe87c2a7	-0.26515695
112	0xbde8eb3d	-0.11372993
113	0xbec623f1	-0.38699296
114	0x3c74a6ed	0.014932376
115	0xbe86312b	-0.26209387
116	0xbe28a446	-0.16468915
117	0xbe8fe10c	-0.28101385
118	0x3e0559ac	0.13022488
119	0xbdf0f8bf	-0.117661946
120	0xbe6aaf45	-0.22918423
121	0xbe9c201e	-0.30493253
122	0xbcad30bb	-0.0211414
123	0x3c7875a0	0.015164763
124	0xbe891ed5	-0.26781335
125	0x3e2b93fd	0.16755672
126	0xbe365982	-0.17807582
127	0x3e4cadde	0.199882
128	0x3e1e1c16	0.15440401
129	0x3e10071c	0.14065212
130	0x3dacd286	0.08438592
131	0xbf05f604	-0.52328515
132	0xbcc9ce2f	-0.024634449
133	0xbe0aa780	-0.13540459
134	0x3e41ebfa	0.18937674
135	0xbd1cfa3d	-0.038324583
136	0x3dc80458	0.097664535
137	0x3dce0598	0.10059661
138	0xbea39917	-0.31952736
139	0xbe59541d	-0.21223493
140	0xbdc47d3a	-0.095941976
141	0xbf14fa53	-0.58194464
142	0xbe023e3b	-0.12719052
143	0xbe11577a	-0.14193526
144	0x3e24bdaf	0.16087984
145	0xbdd41667	-0.103558354
146	0xbdd396be	-0.10331486
147	0x3e0dece3	0.13859896
148	0x3e837b96	0.25680226
149	0x3ded32c3	0.11581948
150	0xbe238396	-0.15968165
151	0x3e11c2eb	0.14234512
152	0x3e02a4e4	0.12758213
153	0x3e384117	0.1799358
154	0x3dce7189	0.10080249
155	0xbf1aadca	-0.6042143
156	0x3e2d8d76	0.16948494
157	0xbf0bee22	-0.54660237
158	0xbe4bfb80	-0.19920158
159	0xbede88fa	-0.4346388
160	0x3cb0ce75	0.021582821
161	0xbe5f8532	-0.21828154
162	0x3cb502ef	0.022096125
163	0xbc27f116	-0.01025035
164	0xbe1ac53f	-0.15114306
165	0xbd07478f	-0.033027228
166	0x3bbcfa80	0.0057671666
167	0xbd128b27	-0.035777237
168	0xbe0b74e1	-0.13618805
169	0xbe23307d	-0.15936466
170	0x3c325f8b	0.010887037
171	0x3e17a1db	0.14807837
172	0x3d8d4cf6	0.06899445
173	0x3ddde4a2	0.10834624
174	0x3e0798ed	0.1324193
175	0xbf50f23a	-0.8161961
176	0xbdcb134c	-0.0991579
177	0xbefc6dc3	-0.49302492
178	0x3d8c29df	0.06843924
179	0xbf1379a6	-0.57607496
180	0xbe89c950	-0.26911402
181	0xbd662a2e	-0.05619257
182	0xbbdfda14	-0.006831417
183	0x3e166082	0.14685252
184	0x3e25be72	0.1618593
185	0x3e3d124a	0.18464008
186	0xbce4d551	-0.027933748
187	0x3d75b318	0.05998525
188	0xbd9abe4c	-0.075558275
189	0xbea8d28d	-0.32973137
190	0xbcc86a24	-0.024464674
191	0xbf2e3a76	-0.68057954
192	0xbee4f9a8	-0.44721723
193	0xbe057c82	-0.13035777
194	0xbef512ad	-0.4786581
195	0x3e79100b	0.24322526
196	0xbd8e98db	-0.069627486
197	0x3e7292e0	0.23688841
198	0xbee67bda	-0.45016366
199	0xbc854d13	-0.016272103
200	0x3e845a8d	0.25850335
201	0xbe98dd73	-0.29856452
202	0x3e447126	0.19183788
203	0xbe15ccdb	-0.14628927
204	0xbe6f4cc4	-0.23369128
205	0x3cd4e619	0.025988625
206	0xbe462a33	-0.19352035
207	0x3dfc94e3	0.123330854
208	0x3df9c649	0.12196023
209	0xbefa4a6a	-0.48884898
210	0xbe55f45f	-0.20894001
211	0x3e4b1834	0.19833452
212	0xbd6e348b	-0.058155578
213	0x3e03a15c	0.12854522
214	0x3d68f3fa	0.0568733
215	0x3d831d02	0.06402017
216	0xbe3d03b2	-0.18458441
217	0x3e191f64	0.14953381
218	0x3e3026dd	0.17202325
219	0xbe9e8343	-0.3095952
220	0xbe8d3ae2	-0.27583987
221	0xbec3563f	-0.38151738
222	0xbea9273e	-0.33037752
223	0xbf0c3f2d	-0.547839
224	0xbf054392	-0.5205623
225	0x3e877819	0.26458815
226	0xbf01bb4e	-0.5067643
227	0x3e83deff	0.2575607
228	0xbe88c5e7	-0.26713488
229	0xbc9c2c14	-0.019063987
230	0xbd82e693	-0.06391635
231	0xbd97a0f1	-0.07403744
232	0x3d65eb85	0.056132812
233	0x3c145774	0.009054054
234	0xbe3d357e	-0.18477437
235	0x3d4f6722	0.050635464
236	0x3d0a9b23	0.033839356
237	0xbd83b478	-0.06430906
238	0xbd53f0f7	-0.051743474
239	0xbd1d4a3c	-0.038400874
240	0x3e05b6ec	0.1305806
241	0x3d38a4be	0.045078985
242	0xbe1da1b3	-0.15393715
243	0x3dfaa6bb	0.122388326
244	0x3dd0a079	0.10186858
245	0xbd82f7be	-0.06394909
246	0x3df77a65	0.12083892
247	0xbf100773	-0.56261367
248	0xbd265fc7	-0.040618684
249	0xbf24344b	-0.6414229
250	0xbe20ba1e	-0.15695998
251	0x3dec3c6c	0.11534962
252	0xbf1cb9c0	-0.6122093
253	0x3d9b1a5b	0.07573386
254	0xbec4ee3e	-0.38463014
255	0x3c93eb0b	0.018056413

sequential/dense_1/BiasAdd/ReadVariableOp:0 f4 [10]
0	0xbddb016f	-0.10693633
1	0xbee43dfa	-0.44578534
2	0x3e03f51f	0.12886475
3	0x3e445b41	0.19175436
4	0xbe783c46	-0.24241742
5	0xbe9ebe59	-0.310046
6	0x3e6e0d9a	0.23247376
7	0x3e7cb849	0.24679674
8	0x3e3298af	0.17441057
9	0xbe54a665	-0.207666

sequential/dense/MatMul/ReadVariableOp:0 f4 [256, 128]
0	0xbf09539d	-0.5364321
1	0xbd83a14a	-0.06427248
2	0x3eb72f7e	0.3577842
3	0x3d0ec25d	0.034853328
4	0x3e81ae2a	0.2532819
5	0xbc91e1ec	-0.017807923
6	0xbe04ed50	-0.12981153
7	0x3dc1869f	0.09449505
8	0xbf24f08b	-0.6442954
9	0x3eb7430a	0.35793334
10	0x3e1e5309	0.15461363
11	0x3d82fd70	0.063959956
12	0xbe9b660f	-0.30351302
13	0xbed4527a	-0.41469175
14	0xbdefda45	-0.117115535
15	0x3d1a4ec0	0.037672758
16	0xbd6649a2	-0.056222565
17	0x3cb7164c	0.0223495
18	0xbde4f7d4	-0.11180082
19	0xbf0c38fe	-0.54774463
20	0x3e4aba22	0.19797567
21	0xbe22151e	-0.15828368
22	0xbf08d48f	-0.5344934
23	0xbdefd8cf	-0.11711275
24	0x3e4ddefb	0.20104592
25	0x3b8ffc2a	0.004394074
26	0xbea1fcef	-0.31638286
27	0x3dd09ba1	0.10185934
28	0xbe4fc6a6	-0.20290622
29	0xbec3899a	-0.3819092
30	0x3d4b50d6	0.049637638
31	0xbecd70f2	-0.40125233
32	0x3f03dda8	0.51510096
33	0x3e0600c6	0.13086233
34	0xbea277b2	-0.31731945
35	0xbe3f1d64	-0.18663555
36	0x3dde1205	0.10843281
37	0xbd98ed37	-0.0746712
38	0xbdcf6a1e	-0.10127662
39	0xbe85c5f3	-0.26127586
40	0xbee652af	-0.44984958
41	0xbe8db9a0	-0.27680683
42	0xbde10a6b	-0.10988315
43	0xbe08953b	-0.13338177
44	0xbe0c5c7c	-0.13707155
45	0xbecc73cc	-0.39932096
46	0x3ed19516	0.40934056
47	0xbdf1f9ba	-0.1181521
48	0x3e69007b	0.2275409
49	0xbdafa55b	-0.08576461
50	0xbddfc038	-0.10925335
51	0x3deb4e16	0.11489503
52	0xbbb161d8	-0.005413275
53	0xbd4ca0c8	-0.04995802
54	0xbd87e468	-0.06635362
55	0xbdb9761d	-0.090557314
56	0x3e4900ce	0.19629213
57	0xbe129bb4	-0.14317209
58	0x3ea66453	0.32498416
59	0xbc9020ef	-0.017593829
60	0xbe03c118	-0.12866628
61	0x3d543876	0.051811658
62	0xbe787a52	-0.24265411
63	0x3e50990b	0.20370881
64	0x3d555ded	0.052091528
65	0x3dc9a489	0.09845836
66	0xbdd7ada0	-0.10531163
67	0x3e9cf640	0.30656624
68	0xbdc27541	-0.09495021
69	0x3e082d63	0.13298564
70	0xbddcfd3e	-0.107904896
71	0x3e111eef	0.14171956
72	0x3c3e3fc0	0.011611879
73	0x3e723e86	0.23656663
74	0x3de17265	0.11008147
75	0x3ea3b590	0.3197446
76	0xbce77698	-0.028254792
77	0x3d47e846	0.048805498
78	0xbbda0e14	-0.0066545103
79	0xbe3f296c	-0.18668145
80	0x3daf9ad1	0.08574451
81	0x3e23f0e1	0.16009857
82	0xbd57aab1	-0.05265302
83	0x3e42086f	0.1894853
84	0xbe7423ba	-0.23841754
85	0xbe6a3750	-0.22872663
86	0x3e9bc6e4	0.3042518
87	0xbd8a53c8	-0.06754261
88	0xbba85ec2	-0.005138249
89	0xbd1e5c53	-0.038662266
90	0xbd92293d	-0.07136772
91	0x3e955ff6	0.29174775
92	0x3e6a9bff	0.2291107
93	0x3bd0b204	0.0063688774
94	0xbef21ad4	-0.47286093
95	0x3d6a0f1b	0.057143312
96	0xbc8529fc	-0.016255371
97	0x3da764d7	0.081735305
98	0x3cc9bcc5	0.024626145
99	0x3e86d39c	0.2633332
100	0x3ea30859	0.31842306
101	0xbda2375a	-0.07920714
102	0xbe679ad8	-0.22617662
103	0xbc850c3b	-0.016241184
104	0xbe32493f	-0.17410754
105	0xbc193573	-0.009351122
106	0xbe976bb5	-0.2957436
107	0x3e0d2016	0.13781771
108	0x3d4c13a5	0.049823422
109	0x3d6037b9	0.05474064
110	0xbdf39ddc	-0.11895344
111	0x3db30055	0.08740298
112	0xbe5c994f	-0.21542858
113	0xbe18091b	-0.14847223
114	0xbd38a98d	-0.04508357
115	0xbf096376	-0.5366739
116	0x3e0c2aef	0.13688253
117	0x3e85b7d4	0.26116812
118	0x3dbf438f	0.09339058
119	0xbda5cf42	-0.08096172
120	0xbe8315cd	-0.2560257
121	0x3e9b2ec6	0.30309123
122	0xbe5549ac	-0.20828885
123	0xbdbe90d8	-0.093049705
124	0x3ea09259	0.31361654
125	0xbe9ebbb4	-0.3100258
126	0x3badcca2	0.005303935
127	0xbeadf995	-0.33979478
128	0xbe395b39	-0.18101205
129	0x3d9c8815	0.07643143
130	0x3d4c94da	0.049946643
131	0xbcb89c99	-0.02253561
132	0xbea461b8	-0.32105803
133	0xbde39d28	-0.111139596
134	0x3d6112f5	0.05494972
135	0x3d7ebc7b	0.062191468
136	0x3d72f528	0.05931583
137	0x3e7270a6	0.23675784
138	0x3e4af24d	0.19818993
139	0xbeaa69dc	-0.3328389
140	0xbd1d0563	-0.038335215
141	0xbe39a9be	-0.18131158
142	0xbe433fc4	-0.19067293
143	0x3e535e49	0.20641436
144	0x3d00fc77	0.03149077
145	0x3e33b0ab	0.17547862
146	0xbdba5e95	-0.09100071
147	0x3da052d4	0.07828298
148	0xbc3a636e	-0.011376245
149	0x3e3092ca	0.17243496
150	0x3da84458	0.082161605
151	0x3d8eae54	0.06966844
152	0xbd8887bf	-0.066665165
153	0xbebbd280	-0.36684036
154	0xbed8d37b	-0.42348847
155	0xbe10925f	-0.14118336
156	0xbba322fa	-0.0049785348
157	0xbe7e0345	-0.24805935
158	0xbd66950d	-0.05629449
159	0xbeb943f1	-0.36184648
160	0xbd6a04ab	-0.057133358
161	0x3ccc4039	0.024932967
162	0x3d668a9b	0.05628453
163	0xbc7ee3e8	-0.015557267
164	0x3d675283	0.056475174
165	0x3df032ab	0.11728414
166	0xbcf79476	-0.030222159
167	0xbdeba9dd	-0.11507008
168	0xbdd4be4e	-0.1038786
169	0xbe34c8ca	-0.1765472
170	0xbe0192d4	-0.12653667
171	0xbd744e83	-0.059645187
172	0xbd956edd	-0.07296536
173	0xbe58b8f5	-0.21164306
174	0x3d1059c0	0.035241842
175	0xbc83bdd9	-0.016081737
176	0x3dcef65b	0.10105582
177	0xbdb616ad	-0.08891044
178	0xbd6e5e3d	-0.05819534
179	0xbd848ea3	-0.06472518
180	0xbd406f71	-0.04698128
181	0xbe319f88	-0.17346013
182	0x3c0229a8	0.007944502
183	0x3d13be69	0.03607026
184	0x3b86b68b	0.0041111163
185	0xbd1505c4	-0.03638245
186	0x3d82b0d3	0.06381383
187	0x3e3b9c52	0.1832135
188	0x3e127f90	0.14306474
189	0xbea6183d	-0.32440367
190	0xbe6f7230	-0.23383403
191	0x3e568798	0.20950162
192	0xbe9bcb44	-0.30428517
193	0x3e1013a7	0.14069997
194	0xbdde70b5	-0.10861341
195	0x3df54bd2	0.11977352
196	0x3da5a47b	0.08088013
197	0x3d70a353	0.058749508
198	0x3cf4abdd	0.029867107
199	0xbd681a92	-0.056665964
200	0xbeb34943	-0.35016832
201	0xbe69baff	-0.2282524
202	0xbd2ff92b	-0.042962234
203	0x3ebab5cb	0.36466822
204	0xbe268308	-0.16260922
205	0x3dae62f9	0.08514971
206	0x3d0c108f	0.03419548
207	0x3e3be849	0.18350329
208	0xbe1ee02e	-0.15515205
209	0xbdee94dd	-0.11649487
210	0x3be25bfe	0.006907939
211	0x3d7c283d	0.06156181
212	0x3d3ee954	0.046609238
213	0xbdc28717	-0.094984226
214	0x3e276565	0.16347273
215	0x3e47af89	0.19500555
216	0x3e415b17	0.18882404
217	0xbdbf3cdd	-0.093377806
218	0x3d21897f	0.039437767
219	0x3e2bed48	0.16789734
220	0x3d559e5b	0.052152973
221	0x3da24c32	0.07924689
222	0x3d12fc53	0.035885166
223	0x3df25d97	0.11834257
224	0x3cf38a52	0.029729042
225	0xbe288c03	-0.1645966
226	0xbc1471f8	-0.009060375
227	0x3e216f72	0.1576517
228	0x3c58ac60	0.013224691
229	0x3e557804	0.20846564
230	0xbe1068a1	-0.14102413
231	0xbe398f5e	-0.18121096
232	0x3cf02cf4	0.02931831
233	0x3d5bd837	0.053672995
234	0xbda3eb61	-0.08003879
235	0xbdf8d15b	-0.121493064
236	0x3e00ff12	0.12597302
237	0x3d8c30ae	0.068452224
238	0xbc75ef26	-0.015010631
239	0xbe41917e	-0.18903157
240	0x3d783a00	0.060602188
241	0x3ddcbbe0	0.10778022
242	0x3cf159df	0.0294618
243	0xbe782557	-0.24232994
244	0x3e690785	0.22756775
245	0x3e0e179f	0.13876198
246	0xbd67f9a3	-0.056634557
247	0x3db0c5ff	0.08631515
248	0xbedccd0e	-0.43125194
249	0x3dcbe095	0.09954945
250	0x3d829659	0.06376333
251	0x3e81b136	0.25330514
252	0xbca5569e	-0.020182904
253	0x3cfd20aa	0.030899365
254	0x3c7c2af9	0.015391105
255	0xbc164883	-0.009172562

sequential/dense/BiasAdd/ReadVariableOp:0 f4 [128]
0	0xbb9ec4c1	-0.0048452322
1	0xbc8d1346	-0.017221104
2	0x3ec6ffce	0.38867038
3	0xbd472d65	-0.048627276
4	0xbd2389d2	-0.039926358
5	0x3e5a2480	0.21302986
6	0x3dec9aed	0.11552987
7	0xbd83d914	-0.06437889
8	0x3e1f9f7e	0.15588185
9	0x3ee81509	0.4532855
10	0x3e07ac49	0.13249315
11	0x3e0343a7	0.12818776
12	0x3dee3cc9	0.116326876
13	0xbd82bb51	-0.06383384
14	0x3bd650dc	0.006540401
15	0x3e833c58	0.25631976
16	0xbc29cfee	-0.010364516
17	0x3d307e01	0.043088917
18	0x3d88d439	0.06681103
19	0x3d58f1aa	0.052964844
20	0x3e621bdd	0.22080941
21	0x3d87a0de	0.0662248
22	0x3da57f69	0.08080942
23	0xbcc2576c	-0.023723327
24	0xbd14acaf	-0.036297496
25	0x3e1afd41	0.15135671
26	0xbe3419c2	-0.17587951
27	0x3ea772b1	0.3270469
28	0xbde3d5b9	-0.11124749
29	0xbe56ebd3	-0.20988397
30	0x3e57e49e	0.21083304
31	0x3c3d46b6	0.011552503
32	0xbc28036e	-0.010254724
33	0x3eac1940	0.33613014
34	0xbde2ce9d	-0.110745646
35	0x3e06654b	0.13124578
36	0xbd45584c	-0.04817991
37	0xbd6bd6a4	-0.057577744
38	0x3e14543b	0.14485256
39	0x3d5a37a1	0.053275708
40	0xbd384573	-0.044988107
41	0xbe04fae3	-0.1298633
42	0xbd49bc23	-0.049251687
43	0xbcbaa12d	-0.022781933
44	0xbd46be35	-0.04852124
45	0x3d650aa9	0.05591837
46	0x3ebf52d2	0.37367874
47	0xbc81ca32	-0.015843485
48	0x3e565947	0.20932494
49	0x3d810dfc	0.063014954
50	0xbe72e0e8	-0.23718607
51	0xbdfb4fae	-0.12271057
52	0xbd1e18e5	-0.03859796
53	0xbd65cfd3	-0.0561064
54	0xbd6a5851	-0.05721313
55	0xbd1d9d09	-0.03847984
56	0x3d7441d1	0.05963308
57	0x3c679d84	0.014136676
58	0x3ed0e0f2	0.4079662
59	0x3e0f2beb	0.13981597
60	0x3e913b2d	0.2836546
61	0xbdaa04db	-0.08301707
62	0xbdc0ea71	-0.09419716
63	0x3e61de1a	0.22057381
64	0x3d8e057a	0.06934638
65	0x3e141a54	0.14463168
66	0xbc791a30	-0.0152039975
67	0x3ea3c672	0.3198734
68	0x3e265341	0.16242696
69	0x3e55a4be	0.20863625
70	0x3d1f6867	0.038917925
71	0x3e0c4537	0.13698278
72	0xbca907d7	-0.020633621
73	0x3e90c25f	0.28273293
74	0x3da7cc24	0.081932336
75	0x3e60ac83	0.21940808
76	0x3dfe6110	0.12420857
77	0x3ddd0895	0.107926525
78	0x3e565a26	0.20932826
79	0x3d908de6	0.07058315
80	0x3e49f850	0.1972363
81	0x3dd672ff	0.104711525
82	0x3e932209	0.28736904
83	0x3c9cd8ea	0.019146401
84	0xbd8dfe4a	-0.069332674
85	0xbc9eccc1	-0.019384744
86	0x3dc86e69	0.09786684
87	0x3e3793ae	0.17927429
88	0x3dae3b8b	0.08507451
89	0xbd99c754	-0.07508722
90	0x3e7a8363	0.24464183
91	0x3ea1b01e	0.3157968
92	0x3e04ea45	0.12979992
93	0x3e60e499	0.21962203
94	0x3d3f1849	0.04665402
95	0xbdcbda8d	-0.09953795
96	0xbca90122	-0.020630423
97	0x3d434884	0.04767658
98	0x3e93f6a8	0.2889912
99	0x3eac8ac1	0.3369961
100	0x3e4dbab7	0.20090757
101	0x3b96e597	0.004605006
102	0xbd946d82	-0.072474495
103	0x3d4d5ef4	0.050139382
104	0x3e45af57	0.19305168
105	0x3e8299cf	0.25507972
106	0xbd942e52	-0.072353974
107	0x3dc95dc5	0.09832338
108	0x3da573bb	0.080787145
109	0x3d9c4336	0.07630007
110	0xbe24a682	-0.16079143
111	0x3e257265	0.1615692
112	0xbe503de3	-0.20336108
113	0x3d09a265	0.033602137
114	0xbe87e98a	-0.26545364
115	0xbbb30d3c	-0.005464224
116	0x3e9bc467	0.3042328
117	0x3eae3260	0.34022808
118	0x3cab48e0	0.020908773
119	0xbdef5cbb	-0.11687609
120	0xbe0f877f	-0.14016531
121	0x3e3d9e09	0.18517317
122	0x3d9b7104	0.075899154
123	0x3e8521fb	0.26002488
124	0x3e9a2d82	0.30112845
125	0xbd2ef87d	-0.042717446
126	0x3d364148	0.04449585
127	0xbccd3e76	-0.025054198

sequential/conv2d_1/Conv2D/ReadVariableOp:0 f4 [16, 8, 5, 5]
0	0xbded64d4	-0.11591497
1	0x3d0217c5	0.03176095
2	0xbe8574df	-0.26065728
3	0xbe9354bf	-0.28775594
4	0x3db55129	0.08853371
5	0xbe96e4b2	-0.29471356
6	0x3e5d8197	0.21631466
7	0xbe1fa7b2	-0.15591314
8	0xbb89aeec	-0.0042017605
9	0xbdd4e29a	-0.10394783
10	0xbe284923	-0.1643415
11	0x3d8dc82c	0.069229454
12	0xbdb0a57f	-0.08625316
13	0x3e38cd4f	0.18047069
14	0xbe010635	-0.12600024
15	0xbd559833	-0.0521471
16	0xbe134cfe	-0.14384839
17	0xbdfdc1f2	-0.12390508
18	0x3e99cf25	0.3004085
19	0xbdbbab9c	-0.09163591
20	0xbd05b29c	-0.03264104
21	0x3cd1b704	0.025599964
22	0x3ca63430	0.020288557
23	0x3c153e79	0.009109133
24	0x3ca500ff	0.020142077
25	0xbebfe771	-0.37481263
26	0x3e38cc71	0.18046738
27	0x3ced1234	0.028939344
28	0xbe28a05b	-0.16467421
29	0xbd9650aa	-0.07339604
30	0x3ce51996	0.027966302
31	0x3e0377ae	0.12838623
32	0x3babe92d	0.0052463026
33	0x3e9115a7	0.28336832
34	0xbe7126c9	-0.23549952
35	0xbd84e0b7	-0.064881735
36	0x3e3bbe90	0.18334413
37	0xbd87e7ae	-0.06635986
38	0xbdea852a	-0.1145118
39	0x3d3eeaf4	0.046610788
40	0xbd202ade	-0.03910338
41	0x3e51c290	0.20484376
42	0x3dffaec0	0.12484503
43	0x3d294a2d	0.041330505
44	0xbd35ab72	-0.044352956
45	0xbd03bd71	-0.032163087
46	0x3ea5ed7b	0.32407746
47	0x3e2b6f8d	0.16741772
48	0x3dd0c31c	0.10193464
49	0x3e5e07b9	0.21682633
50	0xbe06e8c8	-0.13174736
51	0x3b60f64f	0.00343265
52	0xbe88594c	-0.26630628
53	0x3e23167b	0.15926544
54	0xbd49f8fa	-0.04930971
55	0xbe01be7e	-0.12670323
56	0x3db93034	0.09042397
57	0x3c4b4164	0.012405727
58	0xbdf75a3b	-0.12077757
59	0xbd973524	-0.07383183
60	0xbe92988a	-0.28632003
61	0x3da7dd20	0.08196473
62	0x3cbfb9a8	0.023403957
63	0xbd94fe92	-0.07275118
64	0x3eaee6b5	0.3416039
65	0xbdf64e9d	-0.12026713
66	0xbd88f4f3	-0.06687345
67	0xbe86a3e9	-0.2629693
68	0xbd44a747	-0.04801109
69	0xbd56c463	-0.052433383
70	0xbd06fb68	-0.032954603
71	0x3d6e8f21	0.058241967
72	0xbeaba58b	-0.33524737
73	0x3be6d886	0.0070448546
74	0x3e65ef72	0.22454622
75	0x3daeddde	0.085384116
76	0x3a8c7f55	0.00107191
77	0xbc82b5e9	-0.015955882
78	0xbe4399f1	-0.19101693
79	0xbe30f986	-0.17282686
80	0x3c0304ae	0.007996721
81	0xbc61f953	-0.013792354
82	0xbcfa9891	-0.030590327
83	0x3d34f8e4	0.044182673
84	0xbe3ed3ea	-0.18635526
85	0xbdb8970b	-0.09013184
86	0x3b5aca1e	0.0033384631
87	0x3ddfc324	0.10925892
88	0xbd21a365	-0.039462466
89	0x3d05f863	0.032707583
90	0xbc868908	-0.016422763
91	0xbc06e98c	-0.008234393
92	0xbdb3d788	-0.08781344
93	0x3cf6efff	0.030143736
94	0x3e264ea5	0.16240938
95	0x3e34c684	0.17653853
96	0xbcaffc7d	-0.0214827
97	0xbd9a46eb	-0.07533058
98	0x3d37009d	0.04467832
99	0xbb093f7e	-0.0020942385
100	0xbdad9f01	-0.08477593
101	0xbe100468	-0.14064181
102	0x3e50938f	0.20368789
103	0xbe66e6c5	-0.22548969
104	0xbdd71311	-0.105016835
105	0x3e1f56d1	0.15560462
106	0xbe08ce83	-0.13360028
107	0x3e66aafe	0.22526166
108	0x3cf94da2	0.030432526
109	0x3d0d2aae	0.03446453
110	0x3e3259ea	0.17417112
111	0xbe01bd9c	-0.12669986
112	0x3dc41a30	0.09575307
113	0xbd0beb50	-0.03415996
114	0xbbaa959b	-0.0052058226
115	0x3e3a8d0f	0.18217872
116	0xbe4372df	-0.19086789
117	0xbdee7cc1	-0.11644889
118	0xbd8dc800	-0.069229126
119	0x3dd362ac	0.103215545
120	0x3e804bfe	0.25057977
121	0xbd2beff7	-0.041976895
122	0xbda3fb7c	-0.08006951
123	0xbc0a8d38	-0.008456521
124	0x3afdbeb2	0.00193592
125	0xbd05b1c1	-0.032640222
126	0xbd793be1	-0.06084812
127	0xbdb78410	-0.08960736
128	0x3dd76ce5	0.10518817
129	0x3f005101	0.501236
130	0xbcae5617	-0.021281285
131	0x3d6f04f9	0.05835435
132	0xbda0682f	-0.078323714
133	0xbbd00ab8	-0.006348934
134	0xbc4fa706	-0.012674099
135	0x3e07894e	0.13235971
136	0x3dc51306	0.09622769
137	0xbe1f685f	-0.15567158
138	0xbd88f439	-0.06687207
139	0x3d352a12	0.044229575
140	0x3dfc881a	0.12330647
141	0x3c793b9a	0.015211964
142	0xbee85aa0	-0.4538164
143	0xbd450560	-0.04810083
144	0x3d5ece97	0.05439624
145	0xbeb945c2	-0.36186033
146	0xbc78207d	-0.015144465
147	0xbe9713f2	-0.29507405
148	0xbdfde92c	-0.1239799
149	0x3d073d25	0.033017296
150	0xbcf112f2	-0.02942798
151	0x3e9ff7ce	0.31243747
152	0xbea6235f	-0.3244886
153	0xbea0e01a	-0.31420976
154	0xbdd0fdba	-0.102046445
155	0x3e3bc9a8	0.18338645
156	0x3e0de6a3	0.13857512
157	0xbe5ce1ea	-0.21570554
158	0xbe09c84e	-0.13455316
159	0x3d678205	0.05652048
160	0x3e1693a1	0.14704753
161	0x3e10896e	0.14114925
162	0xbd9161bb	-0.07098719
163	0xbdadd9f3	-0.08488836
164	0xbca6d482	-0.020365003
165	0xbcac1449	-0.021005766
166	0x3d5faac6	0.05460622
167	0x3dacc264	0.084355146
168	0x3d138bdc	0.036022052
169	0x3c5d46bc	0.013505634
170	0x3d29a82a	0.04142014
171	0x3eaec800	0.34136963
172	0xbe272cf7	-0.16325746
173	0xbcc95d57	-0.02458064
174	0x3e1ad253	0.15119295
175	0xbf000c4e	-0.50018775
176	0x3e6ea95e	0.23306796
177	0xbb1d1994	-0.0023971545
178	0xbd8e44fa	-0.0694675
179	0xbe2947e4	-0.1653133
180	0xbd5ae445	-0.05344035
181	0xbd41f774	-0.04735513
182	0x3e556e43	0.20842843
183	0x3baafc14	0.0052180383
184	0xbdd9b533	-0.10630264
185	0x3cf25c58	0.029585049
186	0xbd554d73	-0.052075814
187	0x3e0a4a15	0.13504823
188	0xbdab37fc	-0.083602875
189	0xbe0b7948	-0.13620484
190	0x3de5e260	0.11224818
191	0xbdb6fac4	-0.089345485
192	0x3e1f537d	0.15559192
193	0x3d334550	0.043767273
194	0xbdc1fa4d	-0.09471569
195	0x3ed3e850	0.41388178
196	0x3b818b79	0.003953394
197	0x3e93c6e0	0.28862667
198	0x3e3c3f4e	0.18383524
199	0x3cd0dd79	0.025496231
200	0x3e1408d9	0.144565
201	0xbe299cf9	-0.16563787
202	0x3dfccf9b	0.12344285
203	0xbcf23690	-0.029567033
204	0xbe8f3bb9	-0.27975252
205	0x3e2e1a20	0.17002153
206	0x3e66a575	0.22524054
207	0x3e99a8ff	0.30011746
208	0xbdf5baf6	-0.119985506
209	0xbea45418	-0.32095408
210	0x3c886a39	0.016652213
211	0x3cac893c	0.021061532
212	0x3dfa975b	0.122359
213	0x3e82d382	0.25551993
214	0xbe5fa4d0	-0.21840215
215	0x3dcdeefe	0.1005535
216	0x3dc2ad9c	0.095057696
217	0x3cc2566b	0.023722848
218	0x3dbdcfe7	0.0926817
219	0x3db6d222	0.089267984
220	0x3dd58112	0.10425009
221	0x3e0e41bb	0.13892262
222	0xbed09f78	-0.40746665
223	0xbc702605	-0.014657502
224	0x3e8954c9	0.26822498
225	0x3e318517	0.17335926
226	0xbde6fb26	-0.112783715
227	0x3cc7aa71	0.024373265
228	0xbd966b68	-0.07344705
229	0xbd940873	-0.07228174
230	0x3d7017b0	0.05861634
231	0xbe45ac1f	-0.1930394
232	0x3e174946	0.14774045
233	0xbebb1fb2	-0.3654762
234	0xbd80452a	-0.06263192
235	0x3de8fd8b	0.113764845
236	0x3e0b7541	0.13618948
237	0x3e39895e	0.18118808
238	0x3d1b958f	0.037984427
239	0x3ebc3b85	0.3676416
240	0x3dda162d	0.10648761
241	0xbcbf5d0b	-0.023359796
242	0xbe2b9e37	-0.16759573
243	0xbc0b984d	-0.008520198
244	0x3ec80adb	0.39070782
245	0x3d5bae90	0.053633273
246	0xbdfcd817	-0.12345903
247	0xbe331634	-0.17488939
248	0xbca4b792	-0.020107064
249	0x3e5e6b48	0.21720612
250	0x3cbc3028	0.022972181
251	0xbebbf0cb	-0.36707148
252	0x3de9f022	0.11422755
253	0xbe32869f	-0.17434166
254	0x3edc3911	0.43012288
255	0x3d86b343	0.0657716

sequential/conv2d_1/BiasAdd/ReadVariableOp:0 f4 [16]
0	0x3d8fbb13	0.070181035
1	0x3cf17de6	0.029478978
2	0x3e52c371	0.20582367
3	0x3cd5fd1d	0.02612167
4	0x3e1e14ed	0.1543767
5	0x3eaf3552	0.34220368
6	0x3e877ee0	0.26463985
7	0x3e04657e	0.12929341
8	0x3b456e36	0.0030125505
9	0x3e9e536d	0.30923024
10	0x3db4e79c	0.088332385
11	0xbd4b5263	-0.049639117
12	0x3c42c1d6	0.011887034
13	0xbe351746	-0.1768466
14	0x3e6442f2	0.22291163
15	0xbe27197d	-0.16318317

sequential/conv2d/Conv2D/ReadVariableOp:0 f4 [8, 1, 5, 5]
0	0xbf06a431	-0.52594286
1	0xbd058a80	-0.032602787
2	0x3e467923	0.19382147
3	0x3ea6341a	0.32461625
4	0x3e12a411	0.14320399
5	0xbe7111fb	-0.23542015
6	0xbe823785	-0.25432983
7	0x3e5c1651	0.21492888
8	0x3e2bbb1f	0.167706
9	0xba73d01c	-0.0009300725
10	0xbe8a07a7	-0.26958963
11	0xbd99e9b6	-0.0751528
12	0x3e9b9df5	0.3039395
13	0x3e53fe93	0.20702581
14	0x3df15160	0.11783099
15	0xbeadc48d	-0.3393902
16	0xbe61b36d	-0.22041102
17	0xbe1659e5	-0.1468273
18	0x3ecb830f	0.39748427
19	0x3efb04ac	0.49027002
20	0xbeac4eb7	-0.33653805
21	0xbea43396	-0.32070607
22	0xbd96acee	-0.073572025
23	0x3dddad95	0.10824124
24	0x3e913520	0.28360844
25	0x3eb0ce61	0.34532455
26	0xbec64db0	-0.38731146
27	0xbe34825f	-0.17627858
28	0x3e597db0	0.21239352
29	0xbe7c5625	-0.24642237
30	0x3f104120	0.5634937
31	0xbed5115b	-0.41614804
32	0xbcd352f0	-0.025796384
33	0x3e87937d	0.26479712
34	0xbd78213b	-0.060578566
35	0xbe05ee16	-0.13079104
36	0xbe2062fb	-0.15662758
37	0x3e42d526	0.19026622
38	0x3d85f49d	0.06540797
39	0x3ea8dcaa	0.32980853
40	0xbd62315d	-0.055222858
41	0xbef6a951	-0.48176053
42	0x3ec967a3	0.3933688
43	0x3da20719	0.0791151
44	0x3da7190e	0.08159076
45	0xbe587905	-0.21139915
46	0xbea06ddd	-0.3133382
47	0x3e2ea135	0.17053683
48	0x3c39cc63	0.0113402335
49	0xbd60f030	-0.05491656
50	0x3ed9581e	0.4245004
51	0x3e51c2e1	0.20484497
52	0x3ec1dc41	0.37863353
53	0x3f0f266f	0.5591802
54	0xbe3715cf	-0.17879413
55	0x3e51eb25	0.20499857
56	0x3e841108	0.25794244
57	0x3dfc5624	0.123211175
58	0xbd7a3f0a	-0.061095275
59	0x3ebf5400	0.37368774
60	0x3e081243	0.13288216
61	0xbe8a13c6	-0.2696821
62	0xbefb5f18	-0.49095988
63	0xbe60e6cc	-0.21963042
64	0x3ded9205	0.11600117
65	0xbea6b557	-0.32560226
66	0xbedfe198	-0.43726802
67	0xbe6fc945	-0.23416622
68	0xbcc9b99e	-0.024624642
69	0x3e1e8828	0.15481627
70	0xbed9cfb6	-0.42541283
71	0xbe932702	-0.28740698
72	0xbe0f1b95	-0.13975365
73	0xbe0a9ab3	-0.13535576
74	0x3d8e781a	0.06956501
75	0x3d83d4f8	0.06437105
76	0xbdecb123	-0.11557224
77	0x3d16a745	0.036780614
78	0x3d0c94a1	0.03432143
79	0xbe7c36f7	-0.24630342
80	0xbd5d1e8b	-0.053984206
81	0x3e2dfadc	0.16990227
82	0xbcf8b4f0	-0.030359715
83	0xbe92f913	-0.28705654
84	0x3e73b32f	0.23798822
85	0x3e3adb64	0.18247753
86	0xbe0c54ef	-0.13704275
87	0xbe313795	-0.17306359
88	0x3dcc37ea	0.09971602
89	0x3e85f0b9	0.2616022
90	0x3d536106	0.0516062
91	0x3b900ef4	0.004396314
92	0xbcab9d41	-0.020949008
93	0xba0561af	-0.00050881034
94	0x3e91f7cf	0.28509375
95	0xbe4f78f3	-0.20260982
96	0x3dc2d2d5	0.09512869
97	0x3ebbf8ec	0.3671335
98	0x3d5c3809	0.053764377
99	0x3e016aee	0.12638447
100	0xbd1a5b0a	-0.037684478
101	0x3dd1a2c0	0.1023612
102	0x3d850bba	0.06496377
103	0xbf018f38	-0.5060916
104	0x3d6b56de	0.05745589
105	0xbd52791c	-0.05138503
106	0x3f346538	0.7046695
107	0xbedb9815	-0.42889467
108	0xbe957e68	-0.29198003
109	0xbf028e12	-0.5099803
110	0x3e550ce9	0.20805706
111	0x3e54942b	0.20759647
112	0xbd017f82	-0.03161574
113	0x3c74df6e	0.014945848
114	0xbda0d3ae	-0.07852875
115	0x3ebfbbfa	0.37448102
116	0x3ed609bd	0.41804305
117	0x3dcca4fb	0.09992405
118	0xbe50fd6e	-0.20409176
119	0xbebdf2e5	-0.37099376
120	0xbee8a86e	-0.45441002
121	0x3ed785a6	0.42094153
122	0x3eda536e	0.42641777
123	0x3d4f1cf9	0.05056474
124	0xbdeabd70	-0.114619136
125	0xbeeb1a01	-0.45918277
126	0xbf181ead	-0.5942181
127	0xbfd547c0	-1.6662521
128	0xbf89cb2a	-1.0765126
129	0xbe251226	-0.16120204
130	0x3e80a091	0.25122502
131	0xbefd6a65	-0.49495235
132	0xbf041a6a	-0.51602805
133	0xbecddb85	-0.40206543
134	0x3e8d8d96	0.27647084
135	0x3d3dc5d1	0.04633123
136	0xbe0c4bc1	-0.13700773
137	0x3ea750a5	0.32678714
138	0x3e94d4b0	0.29068518
139	0xbdf63de6	-0.12023525
140	0x3e914895	0.28375688
141	0x3e530376	0.20606789
142	0x3e666ed5	0.22503217
143	0x3e058ead	0.13042708
144	0xbb8153f6	-0.0039467765
145	0x3d657c69	0.05602685
146	0x3ec1ec59	0.3787563
147	0xbe47c848	-0.19509995
148	0x3d93b2ec	0.07211861
149	0x3f06dc55	0.5267995
150	0x3e53e341	0.20692159
151	0xbb8f1c00	-0.0043673515
152	0x3e099f8c	0.13439769
153	0x3d045299	0.032305334
154	0x3e0c5bdf	0.13706921
155	0xbebfa10d	-0.3742756
156	0xbe3e90ce	-0.18609926
157	0xbdd415d0	-0.10355723
158	0x3e5fdc8d	0.21861477
159	0x3d31df40	0.0434258
160	0x3e29302a	0.1652228
161	0x3d66c421	0.056339387
162	0xbed9f5cb	-0.42570338
163	0x3e4dbec8	0.20092309
164	0xbe152f71	-0.14568879
165	0x3c8751e5	0.016518543
166	0x3d3f85b0	0.046758354
167	0xbdf59486	-0.11991219
168	0x3ee2a90a	0.44269592
169	0xbe431b51	-0.19053389
170	0x3d3438ed	0.0439996
171	0x3d25fedf	0.040526267
172	0xbf1f70f9	-0.6228176
173	0x3f234ece	0.6379212
174	0xbe851a35	-0.25996557
175	0x3dcd7e17	0.10033815
176	0x3eb843a2	0.359891
177	0x3dbbb900	0.09166145
178	0xbe4a712c	-0.19769734
179	0xbf190d94	-0.59786344
180	0xbea0d6b3	-0.31413803
181	0x3e5eb6a0	0.21749353
182	0x3e55a294	0.208628
183	0x3e9ec4ee	0.3100962
184	0x3e6f7ddb	0.23387854
185	0xbe4a3a94	-0.19748908
186	0x3e013548	0.12617981
187	0xbe39bd72	-0.18138674
188	0x3c610d08	0.013736017
189	0x3e52de33	0.20592575
190	0xbf244c4d	-0.64178926
191	0x3eb2881d	0.3486947
192	0x3e31a864	0.17349392
193	0xbdca1ce0	-0.09868789
194	0xbda1a7fe	-0.0789337
195	0xbec86902	-0.39142615
196	0xbcf77b0a	-0.030210037
197	0x3e846634	0.25859225
198	0x3c1daa27	0.009623087
199	0x3d0e165f	0.034689303

sequential/conv2d/BiasAdd/ReadVariableOp:0 f4 [8]
0	0x3c33d673	0.010976422
1	0xbb9cd9b5	-0.004786695
2	0x3e068087	0.13134967
3	0xbda06db0	-0.07833421
4	0x3c93ad2c	0.01802691
5	0x3e50a26c	0.20374459
6	0xbc096c88	-0.008387692
7	0xbc12cab4	-0.008959461
