models/model23.onnx (onnx, 380198 bytes, 18 tensors)

sequential_1/myDense2/MatMul/ReadVariableOp:0 f4 [128, 10]
0	0xbe3f4daa	-0.1868197
1	0xbe553749	-0.20821871
2	0x3dfcff63	0.12353399
3	0xbec3b690	-0.38225222
4	0xbce4eaa0	-0.02794391
5	0x3e805431	0.25064233
6	0x3e477b1e	0.19480559
7	0xbeba519f	-0.36390397
8	0x3c141482	0.009038093
9	0x3e16a09c	0.14709705
10	0xbe7637b2	-0.24044684
11	0xbc90c369	-0.017671304
12	0x3ea09a56	0.3136775
13	0xbeac7aaa	-0.33687335
14	0xbe87ad32	-0.26499325
15	0xbe2402f9	-0.16016759
16	0x3e47ae5b	0.19500105
17	0x3e8d96ad	0.2765402
18	0xbe8a5f4d	-0.27025834
19	0x3cb67baa	0.022275764
20	0x3eb3187c	0.34979618
21	0xbe7b68a8	-0.24551642
22	0xbe52d16a	-0.20587698
23	0x3e3ad1c6	0.18244085
24	0xbe9f0ec9	-0.31065968
25	0x3e51c023	0.2048345
26	0x3df0a0ec	0.117494434
27	0xbbf03410	-0.007330425
28	0xbeb2c1a5	-0.34913364
29	0x3e86125e	0.26185888
30	0x3e790373	0.24317722
31	0x3e302391	0.17201068
32	0xbe9b187e	-0.30292124
33	0x3cbfee1a	0.023428965
34	0x3e919d56	0.2844035
35	0xbca152b6	-0.01969276
36	0xbdb48981	-0.08815289
37	0x3da8274c	0.0821062
38	0xbec10e6d	-0.37706318
39	0x3d904693	0.07044711
40	0xbe47a736	-0.1949738
41	0x3d004c21	0.031322602
42	0xbe4d4ae3	-0.20048098
43	0xbe2f4e1d	-0.17119642
44	0x3dae8867	0.085221104
45	0xbe990305	-0.29885116
46	0xbe066a1b	-0.13126414
47	0xbd4f4566	-0.050603293
48	0x3eabdc32	0.33566433
49	0x3da6223f	0.08112001
50	0x3e33649e	0.17518851
51	0xbd74adca	-0.05973605
52	0x3c916f45	0.017753253
53	0xbdc51dfb	-0.09624859
54	0xbe6aedee	-0.22942325
55	0x3e5a2445	0.21302898
56	0x3e3df0c3	0.18548875
57	0xbe9cc8b6	-0.3062188
58	0xbea4c3c8	-0.3218062
59	0x3e7aaac7	0.24479209
60	0x3e31bb35	0.1735657
61	0xbe49d6fb	-0.19710915
62	0xbe89ced3	-0.26915607
63	0xbe1648f0	-0.14676261
64	0xbe1e7b39	-0.15476693
65	0x3da024de	0.07819532
66	0xbe114fec	-0.14190644
67	0xbe265bfd	-0.16246028
68	0x3d0234da	0.031788684
69	0xbe4c2801	-0.19937135
70	0xbe844e6c	-0.2584108
71	0xbe7162b5	-0.2357281
72	0xbe5f4a91	-0.21805789
73	0x3e220d4f	0.1582539
74	0xbe36a78f	-0.17837356
75	0x3e55b997	0.20871578
76	0x3e6df1af	0.23236726
77	0xbdd4473a	-0.10365148
78	0xbe4dd381	-0.20100214
79	0xbe554653	-0.20827608
80	0xbdb28675	-0.08717052
81	0xbc03841c	-0.008027103
82	0xbe299c14	-0.16563445
83	0x3e7bc9e0	0.24588728
84	0xbe82ecf7	-0.25571415
85	0x3e64c5e9	0.22341122
86	0x3e4c8da1	0.19975902
87	0xbe637ad2	-0.22214821
88	0xbe8779fe	-0.2646026
89	0x3e6b3050	0.22967649
90	0xbe41c3e2	-0.1892238
91	0xbeb96960	-0.36213207
92	0xbe945d3c	-0.28977382
93	0x3e84525d	0.25844088
94	0xbe1277dd	-0.14303537
95	0x3e28d211	0.16486384
96	0x3e415f8e	0.18884107
97	0x3e0256b1	0.12728383
98	0x3ea327ad	0.31866208
99	0xbe277f2c	-0.16357106
100	0xbec8c430	-0.3921218
101	0xbc3c803f	-0.011505186
102	0x3d5e45c3	0.05426575
103	0x3e3940ed	0.18091173
104	0xbe3f3679	-0.18673123
105	0x3e802fc1	0.25036433
106	0xbe759863	-0.23983912
107	0xbe8ec5e7	-0.27885363
108	0x3e458818	0.19290197
109	0xbea8b7b1	-0.32952645
110	0x3ec7eb53	0.39046726
111	0x3e7f817e	0.24951741
112	0xbea3efdf	-0.32018945
113	0x3cdfdc11	0.027326616
114	0xbed8450d	-0.42240182
115	0x3dce9385	0.10086731
116	0xbe171baa	-0.14756647
117	0xbe880dfb	-0.26573166
118	0x3dde0690	0.108410954
119	0x3e9be870	0.30450773
120	0xbd9f7b4f	-0.07787191
121	0xbe4b596f	-0.19858335
122	0x3e89cb6e	0.26913017
123	0xbd5dc8e2	-0.054146655
124	0x3ea2a518	0.31766582
125	0x3e52d5ae	0.20589325
126	0x3e1602f6	0.14649567
127	0xbe645d4a	-0.22301212
128	0xbc9b4c25	-0.018957207
129	0xbe80df10	-0.25170183
130	0xbe9f7af1	-0.31148484
131	0x3e465749	0.19369234
132	0x3e94e85d	0.2908353
133	0x3d59c622	0.05316747
134	0xbeca9b65	-0.39571682
135	0xbe8cd824	-0.27508652
136	0xbce9a94b	-0.028523108
137	0x3dca2e2d	0.098720886
138	0x3da283dd	0.07935307
139	0x3e00ad7d	0.1256618
140	0xbe6e34a6	-0.23262271
141	0xbe870563	-0.26371297
142	0x3e27ff36	0.16405949
143	0xbe4eba43	-0.2018824
144	0x3de41149	0.111361094
145	0xbeacba54	-0.33735907
146	0xbe1b502e	-0.15167305
147	0xbd5268f7	-0.051369634
148	0xbd3117c4	-0.043235555
149	0x3e5cbe28	0.21556914
150	0xbe9949e2	-0.2993918
151	0x3e5d9fe0	0.21643019
152	0x3ddacf4d	0.10684071
153	0xbe7e29d1	-0.24820639
154	0x3ebb0122	0.36524302
155	0xbe521f26	-0.20519695
156	0xbea36bd1	-0.31918195
157	0xbebdc08b	-0.3706096
158	0xbe7a7001	-0.24456789
159	0x3dc1723b	0.09445616
160	0x3e7789db	0.24173681
161	0x3df069af	0.117389075
162	0x3e2b3237	0.16718374
163	0xbe6b2480	-0.22963142
164	0x3e223823	0.15841727
165	0xbed398c0	-0.41327477
166	0x3e41428c	0.18873042
167	0xbeaca995	-0.3372313
168	0x3e6d6f01	0.23186876
169	0x3cbf611f	0.02336174
170	0xbe1ff5f5	-0.15621169
171	0xbdecec17	-0.11568468
172	0xbe18eee3	-0.14934878
173	0xbde6ab92	-0.11263193
174	0x3dc70819	0.097183414
175	0x3c8f331c	0.017480426
176	0xbd29b6fd	-0.041434277
177	0xbdee0f9c	-0.11624071
178	0xbdbce904	-0.09224132
179	0x3c409e27	0.011756456
180	0x3e81b9d2	0.25337082
181	0x3d6a2f4b	0.05717401
182	0x3ea82384	0.32839596
183	0x3cf84b3e	0.030309316
184	0xbdcd9d74	-0.100397974
185	0xbe76ef31	-0.24114682
186	0xbdd3d172	-0.10342683
187	0xbeb7e822	-0.3591929
188	0x3e22e375	0.1590708
189	0xbebc2f46	-0.36754817
190	0xbe81b859	-0.2533596
191	0x3e6fa427	0.23402463
192	0xbe6dfefd	-0.23241802
193	0xbe1d9c80	-0.15391731
194	0x3e946c57	0.28988907
195	0xbddd8316	-0.10816018
196	0x3e1f68ab	0.15567271
197	0x3e7cd89a	0.24692002
198	0xbece284d	-0.40265122
199	0x3d1ad940	0.037804842
200	0xbe16992e	-0.14706871
201	0x3e6b59d7	0.2298349
202	0x3ea7a8d6	0.32746
203	0x3d8f98b6	0.07011549
204	0xbede9e24	-0.43480027
205	0xbe6e42b4	-0.23267633
206	0xbe895579	-0.26823023
207	0x3d8affee	0.06787096
208	0x3e6ef98c	0.23337382
209	0xbdec0d73	-0.11526003
210	0xbd2dc751	-0.04242641
211	0xbe683512	-0.22676495
212	0xbe9a4fa6	-0.30138892
213	0x3d807ea1	0.062741525
214	0x3e41e426	0.18934688
215	0x3e5a1d10	0.21300149
216	0xbe1f02c7	-0.15528403
217	0xbe80b8be	-0.25140947
218	0x3ead654b	0.33866343
219	0xbdb12566	-0.08649711
220	0x3ddd3edb	0.10803004
221	0xbe9323e5	-0.28738323
222	0x3eb11340	0.34585
223	0x3de2df2f	0.11077725
224	0x3e658ea5	0.22417696
225	0xbebec3c2	-0.37258726
226	0xbc9e45df	-0.019320427
227	0x3dcdcaa8	0.10048419
228	0x3d062aa4	0.03275551
229	0x3e92caa0	0.28670216
230	0xbe6ddbf8	-0.23228443
231	0xbe39c45c	-0.18141311
232	0xbe8f5803	-0.27996835
233	0x3e565adc	0.20933098
234	0x3e8090bf	0.25110433
235	0x3ddb952b	0.10721811
236	0x3e1a25e7	0.15053521
237	0xbbc78a80	-0.0060895085
238	0xbea72dbf	-0.3265209
239	0x3e99e41e	0.30056852
240	0x3c12c4a1	0.008958013
241	0xbdb1f9e7	-0.08690243
242	0x3cf8283d	0.030292625
243	0xbe183393	-0.14863424
244	0xbdce1485	-0.100625075
245	0xbd246f33	-0.04014511
246	0xbd8a2586	-0.06745438
247	0xbdf5d176	-0.12002842
248	0xbe725ecc	-0.23668975
249	0xbddb299f	-0.10701298
250	0xbea07717	-0.31340858
251	0x3cc5b604	0.024134643
252	0x3e8757f6	0.26434296
253	0xbe6095e3	-0.21932177
254	0xbea5fa2b	-0.32417426
255	0xbdf5afb7	-0.119964056

sequential_1/myDense2/BiasAdd/ReadVariableOp:0 f4 [10]
0	0xbdc61276	-0.0967149
1	0xbc6bbc9d	-0.014388231
2	0x3ca4953e	0.020090695
3	0xbbce53bd	-0.0062966035
4	0xbc29ad26	-0.010356223
5	0x3c1a2ae3	0.009409639
6	0xbd5cb29e	-0.05388128
7	0xbb6cf793	-0.0036158308
8	0x3d87f120	0.06637788
9	0x3cdf02f0	0.02722308

sequential_1/myDense1/MatMul/ReadVariableOp:0 f4 [512, 128]
0	0xbb6256b0	-0.0034536533
1	0xbd5e55a1	-0.05428088
2	0xbd8e5cfc	-0.06951329
3	0xbcc3e391	-0.023912223
4	0xbb34be91	-0.0027579407
5	0xbd1e4c9d	-0.038647283
6	0x3d83aa37	0.0642895
7	0xbe846b93	-0.25863323
8	0xbdd72a10	-0.1050607
9	0x3dad9556	0.08475749
10	0xbddfe16a	-0.10931666
11	0x3cfbe194	0.030747212
12	0xbda2bcae	-0.07946144
13	0xbd502c1d	-0.05082332
14	0xbd434732	-0.04767532
15	0xbe0c957c	-0.13728899
16	0x3c0a7715	0.008451243
17	0xba1bf144	-0.0005948732
18	0x3da1a292	0.07892336
19	0x3e027c13	0.12742643
20	0x3d0bc2c2	0.034121282
21	0xbdc8c189	-0.09802539
22	0x3e052709	0.13003172
23	0xbc77b21a	-0.015118146
24	0x3d553f23	0.052062165
25	0x3e08360b	0.13301866
26	0xbd8a7ae2	-0.06761719
27	0x3dd91613	0.105999134
28	0x3dd947a5	0.10609368
29	0x3dd5ca34	0.10438958
30	0x3d7c310c	0.061570212
31	0x3d5114a6	0.051045083
32	0x3e307889	0.1723348
33	0xbda29bc3	-0.079398654
34	0xbda48591	-0.08033288
35	0x3d1a0871	0.037605707
36	0x3d3769bb	0.044778567
37	0xbda55938	-0.08073658
38	0x3d9484ef	0.072519176
39	0x3dd26745	0.10273603
40	0xbdac7090	-0.08419907
41	0x3c6ef75b	0.014585341
42	0xbd869f9d	-0.065734126
43	0x3d0314c4	0.032002226
44	0x3d4e442f	0.050357994
45	0xb80e81a5	-3.397618e-05
46	0xbd8cd220	-0.06876016
47	0xbcb7422a	-0.022370417
48	0xbd9f4779	-0.07777304
49	0xbcc2744f	-0.0237371
50	0x3a2e4f26	0.0006649367
51	0x3de00f08	0.10940367
52	0xbd96d9c8	-0.07365757
53	0x3cbed356	0.023294132
54	0xbcc11483	-0.023569351
55	0x3d87b423	0.06626155
56	0x3dd54172	0.10412873
57	0xbd51ecaf	-0.05125111
58	0xbd299fdb	-0.041412216
59	0xbd235e30	-0.039884746
60	0xbe131454	-0.14363223
61	0x3d61acd6	0.05509647
62	0xbd9a2b81	-0.07527829
63	0x3d589b12	0.05288226
64	0xbca6fd78	-0.020384535
65	0xbdd44f02	-0.10366632
66	0xbca3ca05	-0.019993791
67	0x3e13f8f7	0.14450441
68	0x3dfb2f81	0.1226492
69	0xbd5c2af8	-0.053751916
70	0x3cef3fdd	0.029205257
71	0xbe1adf5a	-0.15124264
72	0xbd85ec8b	-0.065392576
73	0xbd04d4cf	-0.032429513
74	0xbce4da5e	-0.027936157
75	0xbd9fd886	-0.078049704
76	0xbd128406	-0.03577044
77	0xbda0f19f	-0.078585856
78	0x3bf8cc90	0.007592745
79	0xbd409df9	-0.047025654
80	0x3de7e434	0.11322823
81	0x3e07b178	0.13251293
82	0x3dd7adac	0.10531172
83	0xbccffbdf	-0.025388656
84	0x3e0e41bb	0.13892262
85	0x3d79bce3	0.060971152
86	0x3dafdedc	0.08587429
87	0xbd6ac066	-0.05731239
88	0xbded42cf	-0.11585008
89	0x3dc76e40	0.097378254
90	0xbbeabe32	-0.0071637863
91	0xbd2b304c	-0.041794106
92	0x3d9a7da0	0.07543492
93	0xbd1bd4f8	-0.0380449
94	0x3d7cae8b	0.061689895
95	0xbe151fe2	-0.14562944
96	0xbbfaa34e	-0.007648862
97	0xbd0154e3	-0.031575095
98	0xbd98e667	-0.07465821
99	0x3d11b9a6	0.03557744
100	0x3cac64d1	0.021044167
101	0x3d91a38d	0.07111273
102	0x3e2b7d91	0.16747119
103	0x3c6cad7f	0.014445662
104	0x3d257f0e	0.040404372
105	0xbc783b34	-0.015150834
106	0xbaaf562b	-0.001337712
107	0xbe089c6d	-0.13340922
108	0x3d5f1faa	0.054473557
109	0x3c09079f	0.008363633
110	0xbd58ebc6	-0.052959226
111	0x3dcfaed2	0.10140766
112	0x3c5df7ed	0.01354788
113	0xbd1ec424	-0.038761273
114	0xbc739821	-0.014867813
115	0xbe1fa029	-0.1558844
116	0xbe08b16a	-0.13348928
117	0x3c6dffbf	0.014526307
118	0xbe0f808a	-0.14013878
119	0x3e1cfc6e	0.1533067
120	0xbdd6cf4a	-0.10488756
121	0x3dfae032	0.12249793
122	0x3d1aadd9	0.03776345
123	0x3cfe8f3e	0.031074163
124	0x3d4002ce	0.046877675
125	0xbe001588	-0.12508214
126	0x3e07a94a	0.13248172
127	0x3c9b32f5	0.018945197
128	0xbe7d6b1c	-0.2474789
129	0x3daeccea	0.08535178
130	0xbc697c55	-0.0142508345
131	0xbcfaa981	-0.030598404
132	0x3c6cfcdc	0.014464583
133	0x3c4060db	0.011741842
134	0x3bfcee4b	0.0077188364
135	0xbd5f7cc6	-0.054562353
136	0xbd702bb2	-0.05863542
137	0x3d18afee	0.037277155
138	0xbde26e0d	-0.11056147
139	0x3c9bcdc0	0.019019008
140	0x3d123e95	0.035704214
141	0xbd9b660d	-0.07587824
142	0x3b3653b3	0.0027820885
143	0xbdf7dacf	-0.12102281
144	0x3dc6fee4	0.09716585
145	0xbcf6a6fc	-0.030108921
146	0xbda2f36a	-0.07956584
147	0xbd7b5770	-0.061362684
148	0xbdded06c	-0.10879597
149	0xbd01671f	-0.031592485
150	0x3c50e726	0.012750423
151	0xbcba299f	-0.022724925
152	0x3d1a2cf9	0.037640546
153	0xbd50918d	-0.050920058
154	0xbd8335f4	-0.06406775
155	0xbb7a628b	-0.003820571
156	0xbd80fad5	-0.062978424
157	0x3d7b8369	0.06140462
158	0x3d469c40	0.048488855
159	0x39a858ad	0.00032109526
160	0xbe298636	-0.16555104
161	0xbc8217b9	-0.015880452
162	0xbde7f323	-0.113256715
163	0xbe028196	-0.12744746
164	0xbce0f2fc	-0.027459614
165	0x3d4beda2	0.04978717
166	0x3cd15f3b	0.025558105
167	0x3cd16614	0.02556137
168	0xbd679f3d	-0.056548346
169	0x3c7aa9fc	0.0152993165
170	0x3d8d7f3e	0.06909035
171	0x3d7d8343	0.06189276
172	0xbd9ef162	-0.07760884
173	0xb9befbd8	-0.00036427262
174	0xba5a3266	-0.000832355
175	0xbe28d469	-0.16487278
176	0xbdf8a675	-0.12141124
177	0x3d865dcc	0.06560859
178	0x3d4ddcaf	0.05025929
179	0x3dd27cca	0.10277708
180	0xbc6d205d	-0.014473048
181	0xbdb28f61	-0.087187536
182	0xbc99b8f3	-0.018764948
183	0xbe06e533	-0.1317337
184	0xbd2a5728	-0.041587025
185	0xbce378fe	-0.027767655
186	0xbcd1d31e	-0.025613364
187	0x3d0e2122	0.034699567
188	0xbd81e70c	-0.06342897
189	0xbd236626	-0.03989234
190	0x3d58112e	0.05275076
191	0x3c05e1b5	0.0081714885
192	0xbc1e212f	-0.009651466
193	0x3db61d9f	0.088923685
194	0xbcff7c9c	-0.031187348
195	0x3d8be878	0.06831449
196	0x3be8a85f	0.0071001495
197	0x3dc37358	0.095434844
198	0xbcb473bf	-0.022027848
199	0xbca0ce0e	-0.019629505
200	0xbdfb3657	-0.12266224
201	0xbdc6ab87	-0.09700685
202	0x3d77cec1	0.06049991
203	0xbde134f7	-0.1099643
204	0xbd9404a2	-0.07227446
205	0xbbe2fdbe	-0.006927221
206	0xbd992e77	-0.074795656
207	0xbdc9af86	-0.098479316
208	0x3ca3c57f	0.019991634
209	0x3ba6f68c	0.0050953086
210	0xbc4f96da	-0.012670243
211	0xbc9fd5cc	-0.019511126
212	0x3dea101d	0.114288546
213	0x3cfc2d05	0.030783186
214	0xbd62cbe5	-0.05537023
215	0x3c4d0d91	0.0125154415
216	0xbd86ae50	-0.06576216
217	0x3d84a24c	0.06476268
218	0xbd00efed	-0.03147881
219	0x3d14cff3	0.03633113
220	0xbe0a5f8d	-0.13513012
221	0x3deff8fc	0.11717412
222	0xbd169dc5	-0.036771554
223	0x3e055f6b	0.1302468
224	0xbcc04f73	-0.023475384
225	0xbcdf5688	-0.027262941
226	0x3da3e5ef	0.08002841
227	0x3e0dc900	0.13846207
228	0x3c98c2c6	0.018647563
229	0xbd93a690	-0.07209504
230	0xbd076bfa	-0.03306196
231	0x3d8ca656	0.068676636
232	0x3cb29207	0.021798147
233	0xbe098a01	-0.1343155
234	0x3b9c5c83	0.0047717704
235	0xbd66ded0	-0.056364834
236	0x3df50e00	0.11965561
237	0xbd064515	-0.032780726
238	0x3d6bc35d	0.05755936
239	0x3d396ade	0.045267932
240	0xbce0a4fc	-0.02742242
241	0xbd28e679	-0.04123542
242	0xbdc41e56	-0.095760986
243	0x3d7bc5e9	0.06146804
244	0xbdc43a11	-0.09581388
245	0x3d0ab87b	0.03386734
246	0xbd433b65	-0.047664065
247	0x3d7c173c	0.061545596
248	0x3c6223bd	0.013802466
249	0xbcbc8711	-0.023013623
250	0x3d3f2c8e	0.04667335
251	0x3ce3db41	0.02781451
252	0xbe0500a0	-0.1298852
253	0x3deb8614	0.11500183
254	0xbc7bc3a4	-0.015366469
255	0xbd8616bd	-0.06547306

sequential_1/myDense1/BiasAdd/ReadVariableOp:0 f4 [128]
0	0x39f651ce	0.00046981726
1	0x3c757048	0.014980383
2	0x3ca1d561	0.019755067
3	0x3ccdac00	0.02510643
4	0xbcd84dee	-0.026404347
5	0xbc918884	-0.017765291
6	0xbd87bbf4	-0.06627646
7	0xbae98cab	-0.0017818412
8	0xbc9a8bca	-0.018865485
9	0x3d563c9c	0.052303895
10	0x3d5945ad	0.053044964
11	0xbcda38bb	-0.02663838
12	0xbc855df0	-0.016280144
13	0x3c1adf16	0.009452602
14	0xbd6db962	-0.058038123
15	0x3d2ff3ee	0.04295724
16	0xbcb33e82	-0.021880392
17	0xbd26127c	-0.04054497
18	0xbc372521	-0.011178286
19	0x3b8ec149	0.0043565375
20	0x3d9288b0	0.07154977
21	0x3d2b35c8	0.041799337
22	0x3c8658eb	0.016399821
23	0x3d990a75	0.07472698
24	0x3cd643a7	0.026155306
25	0xbc843f7e	-0.016143557
26	0x3d51e506	0.051243804
27	0x3d3b7e33	0.04577465
28	0x3c467fab	0.012115399
29	0xbc3c10a5	-0.011478578
30	0xbc45d599	-0.012074851
31	0xbd385994	-0.045007303
32	0xbc6dceb8	-0.014514618
33	0x3d73214b	0.059357923
34	0x3bc1915c	0.0059072208
35	0xbd5bae33	-0.053632926
36	0xbc55bf8d	-0.013046158
37	0x3b4e57b5	0.0031485383
38	0x3cd650ec	0.026161633
39	0xbd09b8f1	-0.03362364
40	0x3badbb66	0.0053018807
41	0x3d2fd535	0.04292794
42	0x3d1f9374	0.03895898
43	0xbc7f6436	-0.015587857
44	0xbc914161	-0.01773137
45	0x3c952450	0.018205792
46	0xba52c1f0	-0.0008039763
47	0x3ad854ef	0.0016504804
48	0xbc735a1e	-0.014853029
49	0x3dbe59d6	0.092944786
50	0xbd2cbd22	-0.04217256
51	0x3db0d1d8	0.086337745
52	0xbca07b26	-0.019589972
53	0xbd017799	-0.031608198
54	0xbd09b3c7	-0.033618715
55	0xbb8cbe2a	-0.0042951303
56	0xbd076807	-0.033058193
57	0x3be624d1	0.007023432
58	0x3c2402b5	0.010010411
59	0x3c2f0603	0.010682586
60	0xbccbf19d	-0.024895484
61	0x3ce1117e	0.027474161
62	0x3bb04594	0.005379388
63	0x3c5cbed3	0.01347323
64	0x3d6b4d04	0.057446495
65	0x3d383fc7	0.044982698
66	0x3b1ea9e8	0.0024210159
67	0xbc54f3f5	-0.012997617
68	0x3cd3dd59	0.025862383
69	0xbcdc1c24	-0.026868887
70	0x3b8f110c	0.004366046
71	0xbcc3d84a	-0.023906846
72	0xbc3a13f4	-0.011357296
73	0x3d06ebed	0.03293984
74	0xbc9c1bf3	-0.019056296
75	0x3b9d9dba	0.0048100622
76	0xbc2e7c91	-0.010649816
77	0xbc907a2e	-0.017636385
78	0xbc344ef2	-0.01100515
79	0xbd2432bf	-0.040087458
80	0xbd352910	-0.044228613
81	0xbc2f9f06	-0.0107190665
82	0xbca8f1af	-0.020623056
83	0xbd28addd	-0.041181434
84	0x3aa0c55e	0.0012265851
85	0x3d2fa51a	0.042882062
86	0x3cb5cc3f	0.022192119
87	0xbba0fc48	-0.004912887
88	0xbcc91d51	-0.024550112
89	0xbbe07b38	-0.0068506263
90	0x3c9f3b21	0.019437375
91	0x3c4738c2	0.012159528
92	0x3d4ca00d	0.049957324
93	0x3c627fcd	0.013824415
94	0xbc9f5695	-0.019450465
95	0x3d35563c	0.044271693
96	0xbdc26c9b	-0.09493371
97	0x3d51d0d9	0.051224563
98	0xbd4b7b68	-0.049678236
99	0x3c1a5bee	0.009421332
100	0x3b0eceaf	0.0021790673
101	0x3d2b93cd	0.041889
102	0x3d7add3d	0.061246146
103	0x3d0e0492	0.034672327
104	0xbb6f68e5	-0.0036531028
105	0x3d2d305a	0.04228244
106	0xbc965e04	-0.018355377
107	0x3b1ed333	0.0024234771
108	0x3db8310c	0.0899373
109	0xbcff78df	-0.031185566
110	0xbb775a60	-0.0037743077
111	0xbcddf74e	-0.027095463
112	0x3c3e6284	0.011620168
113	0x3bf4f28d	0.0074752034
114	0x3c0c3ae8	0.008558966
115	0xbd2dfcb7	-0.042477336
116	0x3d801a67	0.06255036
117	0x3c61fd88	0.013793357
118	0x3ca5c76d	0.020236695
119	0xbc19aa7b	-0.009379025
120	0xbbe60e96	-0.0070207817
121	0x3d4f1807	0.050560024
122	0x3d73d05c	0.05952488
123	0xbcc42893	-0.023945129
124	0x3bd1dc25	0.006404417
125	0x3d366e78	0.044538945
126	0x3c8f6f9b	0.017509272
127	0xbcadb2b0	-0.021203369

sequential_1/myConv2/Conv2D/ReadVariableOp:0 f4 [32, 32, 5, 5]
0	0x3df68a05	0.12038044
1	0x3bb0b2b5	0.0053923973
2	0x3dc0a3ae	0.094062194
3	0xbc25bb0a	-0.010115394
4	0xbc69b4ee	-0.014264328
5	0x3d5420dd	0.051789153
6	0xbd86640e	-0.06562053
7	0xbbe80d98	-0.0070816986
8	0xbc9c3d05	-0.019072065
9	0xbe307420	-0.17231798
10	0xbe125a91	-0.14292361
11	0xbd49ec0f	-0.04929739
12	0xbdca98f9	-0.098924585
13	0xbb8a6130	-0.0042230114
14	0xbda7ef27	-0.081999116
15	0x3de65e0b	0.11248406
16	0x3e03ebd1	0.12882926
17	0x3d16e65e	0.03684079
18	0xbd808f07	-0.0627728
19	0xbc8df8ea	-0.017330606
20	0x3e24ea8b	0.16105096
21	0xbdd2fb9c	-0.10301897
22	0x3e14c024	0.14526421
23	0xbcb22763	-0.021747297
24	0x3da76cd1	0.08175052
25	0x3d17f00f	0.037094172
26	0xbc75090d	-0.014955771
27	0x3c55cd43	0.0130494265
28	0x3d3ae071	0.0456242
29	0xbdb156e7	-0.086591534
30	0x3ddcea22	0.10786845
31	0x3dc238bd	0.09483478
32	0xbcba1f2b	-0.02271994
33	0xbd50fb09	-0.051020656
34	0x3db4821c	0.08813879
35	0x3cf566d6	0.029956263
36	0x3d004834	0.03131886
37	0x3cbe69b5	0.023243764
38	0xbd3fc773	-0.04682107
39	0xbc2f29ba	-0.010691101
40	0xbcdabed1	-0.026702316
41	0xbda4958e	-0.08036338
42	0x3d441c47	0.04787853
43	0x3d1d9111	0.038468424
44	0x3d55840a	0.052127875
45	0xbcc11fce	-0.023574736
46	0xbd946565	-0.07245902
47	0x3c7a8392	0.015290158
48	0xbd3a0a3f	-0.045419928
49	0x3b88688c	0.0041628536
50	0x3d6c15b0	0.05763787
51	0x3de5cb48	0.112204134
52	0x3cd55237	0.02604018
53	0xbd109d61	-0.03530634
54	0x39c5d0e6	0.0003773041
55	0xbdbab323	-0.09116199
56	0x3cf7145f	0.03016108
57	0xbd9db7cb	-0.07701071
58	0x3bee8638	0.0072791837
59	0xbca73474	-0.020410754
60	0xbe0c59a5	-0.13706072
61	0xbe19524d	-0.14972802
62	0xbd6ea219	-0.058260057
63	0xbdc40373	-0.095709704
64	0xbd9c6c52	-0.07637848
65	0xbde85320	-0.1134398
66	0xbd1b0bb7	-0.03785297
67	0xbd44c682	-0.048040874
68	0xbdc8ebdc	-0.098106116
69	0xbd8f1720	-0.069868326
70	0x3e1946df	0.14968441
71	0x3dc35ead	0.09539542
72	0x3dca258d	0.098704435
73	0x3dafcecf	0.085843675
74	0x3d815dfa	0.06316753
75	0xbe063b03	-0.13108449
76	0xbe281ae9	-0.16416515
77	0xbe1c675c	-0.15273803
78	0xbd566570	-0.052342832
79	0xbdb12f81	-0.08651639
80	0x3d3ef996	0.046624742
81	0xbc80c4f4	-0.015718915
82	0xbcf594e8	-0.02997823
83	0xbd56da4c	-0.052454278
84	0x3ce10b30	0.027471155
85	0x3d0eb78a	0.034843005
86	0x3d2188dd	0.039437164
87	0x3d006ba5	0.031352658
88	0x3d08c393	0.03338964
89	0x3d202bb0	0.039104164
90	0x3d8ea5e9	0.069652386
91	0x3d10f5c0	0.035390615
92	0x3d40147f	0.046894547
93	0x3c84f253	0.01622883
94	0x3d8087b9	0.06275887
95	0xbd87bab6	-0.06627409
96	0xbca50b4c	-0.020146988
97	0x3d7400c1	0.05957103
98	0xbbf2b5fa	-0.007406947
99	0x3a971b94	0.0011528605
100	0x3d09b6f9	0.033621762
101	0x3c0fe974	0.008783687
102	0xbbf5643c	-0.0074887555
103	0xbd9e4b60	-0.077292204
104	0xbe0fd8a4	-0.14047486
105	0x3db1e351	0.08685935
106	0x3dc03f75	0.093871035
107	0xbd86a936	-0.06575243
108	0xbdd18227	-0.10229903
109	0xbda89f96	-0.082335636
110	0xbd8104f0	-0.0629977
111	0x3e10f1d1	0.14154746
112	0x3dcef579	0.10105414
113	0xbcae71d5	-0.021294514
114	0x3ca31f29	0.01991232
115	0x3d410e94	0.047133043
116	0x3a55c012	0.0008153926
117	0x3d621849	0.05519894
118	0x3d9ae697	0.07563513
119	0x3c1f9200	0.009739399
120	0xbe099c66	-0.13438568
121	0x3cee1bd0	0.029065996
122	0xbcbca049	-0.023025649
123	0xbdb1bbea	-0.0867842
124	0xbe0338f0	-0.12814689
125	0x3d0b481b	0.034004312
126	0xbdb58dc5	-0.08864931
127	0xbddac603	-0.10682299
128	0xbd9ef0bb	-0.077607594
129	0xbd666071	-0.056244317
130	0xbc98bf6c	-0.018645965
131	0xbd281115	-0.041031916
132	0xbd5d13f7	-0.053974118
133	0x3dbdeadf	0.09273314
134	0xb8aa19e2	-8.111053e-05
135	0x3d95e3e3	0.073188566
136	0x3d8a3394	0.06748119
137	0xbd01073c	-0.03150104
138	0xbcb9fd11	-0.02270368
139	0x39419e60	0.00018464914
140	0xbcc8bbc2	-0.024503592
141	0xbe0c4572	-0.13698366
142	0xbd3359ee	-0.043786936
143	0x3d519c6c	0.051174566
144	0xbd453151	-0.048142735
145	0xbd9c40ca	-0.07629545
146	0xbd009b67	-0.031398203
147	0xbbfc4912	-0.0076991403
148	0x3d856c66	0.06514816
149	0xbd5da4ee	-0.054112367
150	0x3d9936fd	0.07481191
151	0x3c84438f	0.016145496
152	0x3b87e687	0.004147354
153	0x3d05ba2e	0.032648258
154	0xbdd9433a	-0.106085256
155	0xbb8ad5d6	-0.004236917
156	0xbd526c7a	-0.051372983
157	0xbd2a3851	-0.041557614
158	0xbdae389c	-0.08506891
159	0x3c31f04a	0.010860512
160	0xbd51eb98	-0.05125007
161	0xbe0edfdd	-0.13952585
162	0xbd04777a	-0.032340504
163	0x3c81a1b5	0.015824178
164	0xbe058238	-0.13037956
165	0xbca1cc93	-0.019750869
166	0xbe2214b4	-0.1582821
167	0xbd9cf59e	-0.07664035
168	0x3d06951c	0.032857046
169	0x3dc0c38a	0.09412296
170	0xbd4fa3d7	-0.05069336
171	0xbd445105	-0.04792883
172	0x3d7240c9	0.059143815
173	0x3dd97811	0.10618604
174	0xbd03c59f	-0.032170888
175	0x3dddaebc	0.108243436
176	0x3db087f1	0.08619679
177	0x3d0512be	0.032488577
178	0x3df44c7b	0.1192865
179	0x3d648a36	0.05579587
180	0x3cd24e27	0.025672032
181	0xbe6350e0	-0.2219882
182	0x3cad9c04	0.021192558
183	0xbd5b1ecb	-0.053496163
184	0x3bcf6660	0.0063293427
185	0xbbff97fb	-0.0078001
186	0xbe416efd	-0.18889995
187	0x3c979fa0	0.018508732
188	0xbd797416	-0.060901724
189	0x3d996c13	0.07491317
190	0x3d25608a	0.04037527
191	0xbd9ef2cb	-0.07761153
192	0xbd15274c	-0.03641443
193	0xbc9a8dab	-0.01886638
194	0xbca4445e	-0.020052131
195	0xbc1eae52	-0.009685116
196	0x3d861a82	0.06548025
197	0xbca86a5b	-0.020558527
198	0xbd42b542	-0.047536142
199	0xbe056ef8	-0.13030612
200	0x3d859690	0.06522858
201	0x3c27191a	0.010198856
202	0xbc7ce6b9	-0.015435868
203	0x3d3e0a9a	0.04639683
204	0xbc7c846a	-0.015412429
205	0xbdabe0a1	-0.08392454
206	0x3ce49c3e	0.027906533
207	0x3c5403f5	0.012940397
208	0x3da2f411	0.07956708
209	0xbd6d24c4	-0.05789639
210	0xbe319c13	-0.17344694
211	0x3d298dae	0.041394882
212	0xbd54c8c2	-0.05194927
213	0xbd95d85f	-0.0731666
214	0xbd7af75a	-0.06127105
215	0xbd4c4d47	-0.049878385
216	0xbc37ca82	-0.011217715
217	0x3d345f18	0.044036
218	0x3d1515b1	0.03639764
219	0x3d974b1d	0.073873736
220	0x3e160767	0.14651261
221	0x3d2c45e4	0.04205884
222	0x3e1d68a1	0.15371944
223	0x3cc3198b	0.02381589
224	0x3d0cff8f	0.034423407
225	0x3d515013	0.051101755
226	0x3d4e8539	0.05042002
227	0x3da1b3b8	0.07895607
228	0x3dcbdc65	0.09954146
229	0xbd8a0087	-0.06738382
230	0x3d0b6f8b	0.034041923
231	0xbc73155d	-0.014836636
232	0x3a639459	0.00086814683
233	0xbd9173b2	-0.07102145
234	0xbe3e764e	-0.18599817
235	0x3b43cda5	0.0029877212
236	0xbe2a50c2	-0.16632369
237	0x3dc52f04	0.09628108
238	0xbd6b2bce	-0.057414822
239	0xbd9a2ce6	-0.07528095
240	0xbca3cf00	-0.019996166
241	0xbcdfa5ea	-0.027300794
242	0xbde0d309	-0.10977752
243	0x3da885b6	0.08228628
244	0xbd73c612	-0.059515066
245	0x3df12fb8	0.1177668
246	0xbd246bde	-0.040141933
247	0xbd2444f0	-0.040104806
248	0xbdcd72c6	-0.10031657
249	0xbdc2b210	-0.09506619
250	0x3d5a728b	0.053331893
251	0x3c57dbd4	0.01317497
252	0x3c2f744d	0.010708881
253	0x3d8bda3e	0.06828736
254	0x3daf87f1	0.08570851
255	0xbc0fd4de	-0.008778779

sequential_1/myConv2/BiasAdd/ReadVariableOp:0 f4 [32]
0	0xbd0854c5	-0.033283968
1	0xbdba39dd	-0.09093068
2	0xbde19347	-0.11014419
3	0xbcd8352b	-0.02639254
4	0xbdee7e3c	-0.11645171
5	0xbc719653	-0.014745313
6	0xbdce57ab	-0.10075315
7	0xbd35c264	-0.04437484
8	0xbcc41e92	-0.023940358
9	0x3d93f547	0.07224517
10	0xbdae3ad8	-0.08507317
11	0xbd6c3fc9	-0.057678018
12	0xbd15e03f	-0.03659081
13	0xbd850569	-0.064951725
14	0xbe351f15	-0.17687638
15	0x3d29b9bf	0.041436907
16	0x3cfa4b85	0.030553589
17	0xbdb8ed2f	-0.09029614
18	0xbd2db6fe	-0.042410843
19	0xbdc441a8	-0.095828354
20	0xbda706b2	-0.08155574
21	0xbce0700e	-0.027397182
22	0xbddf0248	-0.10889107
23	0xbd8e6f26	-0.06954794
24	0xbd902720	-0.070387125
25	0xbd99480d	-0.07484446
26	0xbda15c75	-0.07878963
27	0xbe177132	-0.14789274
28	0x3d45b91e	0.048272245
29	0xbcfd4797	-0.030917926
30	0xbbf4fb42	-0.0074762413
31	0x3b8e44d6	0.004341702

sequential_1/myConv1/Conv2D/ReadVariableOp:0 f4 [32, 1, 5, 5]
0	0x3ddabd49	0.106806345
1	0xba9622c8	-0.0011454457
2	0xbc6a8f98	-0.014316462
3	0xbe229099	-0.15875472
4	0x3dedccdf	0.11611342
5	0xbda8ab7f	-0.08235835
6	0x3dccc83a	0.09999128
7	0x3cb24471	0.021761151
8	0xbd459bf7	-0.048244443
9	0x3cac2278	0.02101253
10	0xbdbc8e06	-0.09206776
11	0x3e120c8b	0.14262597
12	0xbd7d31fc	-0.061815247
13	0xbe118568	-0.14211047
14	0x3d013d8e	0.031552844
15	0xbd85b5e2	-0.06528832
16	0x3dbc787d	0.09202669
17	0x3de452cc	0.11148605
18	0xbdb07971	-0.08616913
19	0x3db5eed5	0.08883444
20	0xbdee9259	-0.11649007
21	0xbd978d73	-0.07400026
22	0x3d43151f	0.047627565
23	0x3ad579aa	0.0016286869
24	0xbd0c1a69	-0.034204874
25	0x3d04bfa0	0.03240931
26	0xbc6e56b2	-0.014547037
27	0x3d34bd37	0.04412576
28	0x3da37819	0.07981891
29	0x3de7bbc6	0.11315112
30	0xbc758956	-0.014986357
31	0x3d7317db	0.059348922
32	0x3dc0ad0c	0.09408006
33	0x3d606845	0.05478694
34	0x3b506215	0.0031796743
35	0xbde6ab60	-0.11263156
36	0xbe0ee0a3	-0.1395288
37	0xbd56aa53	-0.052408528
38	0xbdcdbe5a	-0.10046072
39	0x3a23eef6	0.00062535645
40	0xbdad4799	-0.08460922
41	0xbd90704f	-0.07052671
42	0xbe5cd515	-0.2156566
43	0xbe40dc7b	-0.18834107
44	0xbde7e3c5	-0.113227405
45	0x3da4b208	0.08041769
46	0x3dcb3d77	0.09923833
47	0x3df9bd98	0.12194365
48	0x3d878a10	0.0661813
49	0x3c22817a	0.009918565
50	0x3d90cc69	0.07070238
51	0x3dd11e76	0.10210888
52	0x3cfd8c14	0.030950584
53	0x3c4547c1	0.012041033
54	0x3c826d77	0.015921338
55	0xbc79730a	-0.015225181
56	0xbcdf6cda	-0.027273584
57	0x3bab24bb	0.0052228845
58	0x3a5acc1b	0.0008346454
59	0x3ca264ef	0.01982352
60	0xbd9ed026	-0.07754545
61	0x3dd8265b	0.10554191
62	0x3dd46a89	0.103718825
63	0x3d30f768	0.043204695
64	0x3d8c9053	0.06863465
65	0xbd828af6	-0.06374161
66	0xbb414c83	-0.0029495067
67	0xbe0773f7	-0.13227831
68	0xbcd41819	-0.025890397
69	0x3d8857c9	0.06657369
70	0xbd6469b3	-0.055764865
71	0xbe326c4f	-0.17424129
72	0xbd40ddf0	-0.047086656
73	0xbc8815f9	-0.01661204
74	0xbd95372a	-0.07285912
75	0x3b454d22	0.003010579
76	0x3d61db92	0.05514104
77	0x3d7af130	0.06126517
78	0xbe106c72	-0.14103869
79	0xbe17c749	-0.14822115
80	0x3c518941	0.012789072
81	0xbd948b5a	-0.07253142
82	0xbdeec943	-0.116594814
83	0xbda85d06	-0.08220868
84	0xbdad1f3e	-0.084532246
85	0xbcb5c6dd	-0.022189552
86	0xbb8db175	-0.004324133
87	0xbd94e4c1	-0.07270194
88	0x3e0d5e40	0.13805485
89	0x3e255eb9	0.16149415
90	0x3d812508	0.06305891
91	0x3de3b49b	0.11118432
92	0x3db4123e	0.08792542
93	0x3d905b59	0.07048673
94	0x3d4e7f48	0.050414354
95	0xbd82d8b7	-0.06388991
96	0x3dab0a47	0.083515696
97	0x3cf3b238	0.029748067
98	0xbc5c4db9	-0.013446265
99	0xbd8612c4	-0.06546548
100	0xbbdd5b40	-0.0067552626
101	0xbd0aebb3	-0.033916187
102	0x3dc6e41d	0.09711478
103	0x3da378a9	0.079819985
104	0xbd401017	-0.046890344
105	0xbba77a10	-0.0051109865
106	0xbd7aeda1	-0.061261777
107	0xbd691b73	-0.056910943
108	0x3d213ca1	0.03936446
109	0x3e07a217	0.13245426
110	0xbd272175	-0.04080339
111	0xbde19e17	-0.11016481
112	0xbd990612	-0.07471861
113	0xbdcd6458	-0.10028905
114	0x3d659a0d	0.056055117
115	0x3ded0ea8	0.11575061
116	0x3c8182cf	0.015809445
117	0xbe1af2a8	-0.15131629
118	0xbe091aea	-0.13389173
119	0x3d5bf048	0.053695947
120	0x3d55a278	0.052156895
121	0x3e1682c8	0.14698327
122	0x3dcfc0fd	0.101442315
123	0xbd9593d9	-0.0730359
124	0xbc85e6f8	-0.016345486
125	0x3dc2c739	0.09510655
126	0xbc00b688	-0.007856019
127	0xbccf0f25	-0.025275776
128	0xbe7a70f0	-0.24457145
129	0xbd73f45f	-0.059559222
130	0xbd44cd87	-0.04804757
131	0x3d71bedb	0.059019905
132	0xbd3919bb	-0.045190554
133	0x3ddd6386	0.10809998
134	0x3e00a586	0.12563142
135	0xbd19f8cb	-0.037590783
136	0xbcfeb8a7	-0.031093908
137	0xbe0c3eca	-0.13695827
138	0x3d57652d	0.052586723
139	0xb959f5f1	-0.00020786353
140	0x3ce723ac	0.028215252
141	0x3d14a3a1	0.03628886
142	0x3d619451	0.055073086
143	0xbd2b380e	-0.041801505
144	0xbdd3865f	-0.103283636
145	0xbde853c5	-0.11344103
146	0x3def393a	0.11680837
147	0x3b924f80	0.0044650435
148	0x3c69f3e9	0.014279344
149	0xbc8f6433	-0.017503833
150	0xbd8ae957	-0.06782787
151	0xbde15705	-0.11002926
152	0xbc1c7427	-0.009549177
153	0x3d32bd25	0.043637414
154	0xbbc4fd8f	-0.006011672
155	0xbe2473bc	-0.16059774
156	0xbcc19fce	-0.023635771
157	0x3dc2f39e	0.095191225
158	0x3dac17f8	0.08403009
159	0x3d18eecd	0.037337113
160	0xbe0d2f05	-0.13787468
161	0xbdc9b441	-0.09848834
162	0xbcb340ac	-0.021881424
163	0x3d296c59	0.041363094
164	0x3d9576ba	0.07298036
165	0xbda48416	-0.08033006
166	0xbe419f55	-0.18908437
167	0xbe0a54be	-0.13508889
168	0xbcd9d07f	-0.026588676
169	0x3d74c1a5	0.059754986
170	0x3d905682	0.0704775
171	0xbc2df872	-0.010618316
172	0xbded9d83	-0.116023086
173	0xbdfaa306	-0.122381255
174	0xbdc48a62	-0.09596707
175	0xbdd026c9	-0.10163648
176	0xbde49248	-0.111607134
177	0x3d1a23cd	0.0376318
178	0x3d0e2f72	0.034713216
179	0xbcdcc5e1	-0.026949825
180	0xbdaa378a	-0.083113745
181	0x3d942847	0.07234245
182	0x3e2384c9	0.15968622
183	0xbd813852	-0.0630957
184	0xbd768836	-0.060188495
185	0xbd5d3f44	-0.054015413
186	0x3deb12ba	0.11478181
187	0x3cee11c6	0.02906121
188	0xbddeb4bf	-0.10874318
189	0xbdfe5f26	-0.12420492
190	0x3ca1338a	0.019677896
191	0x3d6306ef	0.055426534
192	0xbc52d3f7	-0.012867919
193	0xbe1d9f24	-0.15392739
194	0xbe7bbb03	-0.24583058
195	0x3da43718	0.08018321
196	0xbd4ee8e8	-0.050515085
197	0x3bed97e8	0.0072507747
198	0x3d91db84	0.071219474
199	0x3b4085fe	0.002937674
200	0x3d87feb0	0.06640375
201	0xbdc3c25e	-0.09558557
202	0x3d59e51b	0.053197008
203	0x3c6e9fd4	0.014564473
204	0x3db8461c	0.08997747
205	0x3d987441	0.07444049
206	0x3df24221	0.11829019
207	0xbc8f4cc5	-0.017492661
208	0x3d956742	0.072950855
209	0x3d251290	0.040300906
210	0xbc6ce411	-0.014458672
211	0x3d8804d0	0.06641543
212	0xbc8c69dd	-0.017140323
213	0xbde0ccc2	-0.109765545
214	0x3b52e819	0.0032181798
215	0xbe3751b7	-0.17902265
216	0x3c993678	0.01870273
217	0x3d3588d3	0.04431994
218	0xbdc86684	-0.09785178
219	0xbd75e0dc	-0.060028896
220	0xbd90c015	-0.07067887
221	0xbdae265a	-0.08503409
222	0xbcb83917	-0.02248816
223	0xbdbcb797	-0.092147045
224	0xbe117a0a	-0.1420671
225	0xbd8c1b0d	-0.06841097
226	0x3c99de7b	0.018782845
227	0x3cffa2ef	0.031205622
228	0x3dbc891c	0.09205839
229	0xbcac36c1	-0.021022202
230	0xbe1c55d6	-0.15267119
231	0xbb8be64f	-0.0042693983
232	0x3b9549d5	0.0045559206
233	0xbc9cb1cf	-0.019127754
234	0xbe2446a7	-0.16042577
235	0xbe86a763	-0.2629958
236	0xbd320ae2	-0.04346741
237	0x3e3c4f7a	0.18389693
238	0x3d183174	0.037156537
239	0xbe387175	-0.1801203
240	0xbe0a9082	-0.13531688
241	0x3cbaa897	0.022785468
242	0x3e07775f	0.1322913
243	0x3d8289af	0.06373917
244	0xbce2b2fb	-0.027673235
245	0xbde0c616	-0.10975282
246	0xbd47ae1e	-0.048750035
247	0x3d285716	0.041098677
248	0x3d08848b	0.033329528
249	0xbc4cb405	-0.012494092
250	0xbdf2021a	-0.11816807
251	0x3c05e53b	0.008172329
252	0x3dd37026	0.10324125
253	0x3dbbec32	0.0917591
254	0xbcd24b85	-0.025670776
255	0x3dee36b4	0.116315275

sequential_1/myConv1/BiasAdd/ReadVariableOp:0 f4 [32]
0	0xbd005e03	-0.031339657
1	0x3cc8f97e	0.02453303
2	0x3dd88096	0.10571401
3	0x3cd1bb7b	0.025602093
4	0x3b679334	0.0035335543
5	0xbd0c57f7	-0.034263577
6	0x3c91b526	0.017786574
7	0xbdac3fdb	-0.08410617
8	0x3c252891	0.010080473
9	0xbd65006e	-0.055908613
10	0xbcc1a92f	-0.023640243
11	0x3caf29ad	0.021382177
12	0x3b8f75d0	0.004378058
13	0x3cfd3f56	0.03091399
14	0xbd2cd804	-0.042198196
15	0xbca80dc8	-0.020514384
16	0x3d295e6c	0.041349813
17	0x3c16f917	0.009214661
18	0xbd36867f	-0.04456186
19	0x3b99dad9	0.004695278
20	0x3df5698c	0.11983022
21	0xbd0f38e4	-0.034966365
22	0xbcec9e1b	-0.028883984
23	0xbd312f4e	-0.043258004
24	0x3c4ea517	0.012612603
25	0xbaf6f49f	-0.0018841213
26	0x3c18de1d	0.0093303
27	0xbc9d8e64	-0.019232936
28	0xbda7ee55	-0.08199755
29	0xbb59e902	-0.0033250456
30	0xbdae5433	-0.085121535
31	0xbca86a9f	-0.020558653

sequential_1/myBN3/batchnorm/sub:0 f4 [128]
0	0xbf6c3666	-0.92270505
1	0xbf5bb887	-0.8582844
2	0xbfa640a8	-1.2988482
3	0xbf82abb3	-1.0208648
4	0xbed0c58c	-0.40775716
5	0xbf84f98c	-1.0388656
6	0xbeaaa889	-0.33331707
7	0xbf4003c4	-0.75005746
8	0xbf6785fd	-0.90438825
9	0xbfaa7e1b	-1.3319734
10	0xbf853ceb	-1.0409216
11	0xbf59301d	-0.8483904
12	0xbf27a788	-0.6549001
13	0xbf631185	-0.8869861
14	0xbe88b7b8	-0.26702666
15	0xbf499e93	-0.7875759
16	0xbf330f27	-0.69944996
17	0xba825def	-0.0009946207
18	0xbf3907dc	-0.7227762
19	0xbf53a136	-0.82667863
20	0xbf5c87cf	-0.8614473
21	0xbf621688	-0.8831563
22	0xc0130330	-2.2970695
23	0xbffc065e	-1.9689443
24	0xbe9ccb41	-0.3062382
25	0xbf2ebd80	-0.68257904
26	0xbfa9bdb8	-1.3261023
27	0xbf978870	-1.1838512
28	0xbf7fc49c	-0.9990938
29	0xbf255fe7	-0.6459946
30	0xbf42c9a8	-0.76088953
31	0xbc644fd9	-0.013935053
32	0xbf0e719f	-0.5564212
33	0xbf5b6307	-0.8569798
34	0xbf4ea512	-0.8072063
35	0xbf3b3344	-0.731251
36	0xbf7c86ff	-0.9864349
37	0xbf409f14	-0.75242734
38	0xbf5232c6	-0.82108724
39	0xbee12e4b	-0.4398063
40	0xbfcd05cd	-1.6017395
41	0xbedcddd9	-0.43138006
42	0xbf847755	-1.0348917
43	0xbf50d26a	-0.81571066
44	0xbf243e53	-0.641576
45	0xbf8af95b	-1.0857347
46	0xbf74cf59	-0.9562889
47	0xbf756673	-0.9585945
48	0xbf204f40	-0.62620926
49	0xbf9844ce	-1.1895998
50	0xbf08b392	-0.53399
51	0xbfddfe0f	-1.7343158
52	0xbfbe4699	-1.4865295
53	0xbef5e562	-0.48026568
54	0xbf0fd5e8	-0.5618577
55	0xbf2e62e6	-0.6811966
56	0xbf61b045	-0.8815959
57	0xbf3d083e	-0.738407
58	0xbf29edf1	-0.66378695
59	0xbef88eda	-0.48546487
60	0xbf255f82	-0.6459886
61	0xbf867571	-1.050459
62	0xbf54ca83	-0.8312151
63	0xbf4373f4	-0.76348805
64	0xbf9040cd	-1.1269776
65	0xbf67f5b4	-0.9060929
66	0xbf517d0e	-0.81831443
67	0xbf90c213	-1.1309227
68	0xbf9a8410	-1.2071552
69	0xbf29cc60	-0.66327477
70	0xbf3c698a	-0.7359854
71	0xbf0a710a	-0.54078734
72	0xbec3e370	-0.3825946
73	0xbf91a511	-1.1378499
74	0xbf804881	-1.0022126
75	0xbf12299c	-0.5709474
76	0xbef421f0	-0.47682142
77	0xbef65af4	-0.48116267
78	0xbf1c8111	-0.6113444
79	0xbf71a5d3	-0.9439365
80	0xbfc96890	-1.5735035
81	0xbf5aca55	-0.85464984
82	0xbf4edd26	-0.80806196
83	0xbefe467e	-0.49663156
84	0xbf64d4e6	-0.8938736
85	0xbfa508b9	-1.2893287
86	0xbf5eed03	-0.870804
87	0xbf6a9cdf	-0.91645616
88	0xbf5881dc	-0.8457315
89	0xbf8f8761	-1.1213189
90	0xbf807f1d	-1.0038792
91	0xbf43b4ac	-0.7644756
92	0xbf679266	-0.9045776
93	0xbf215976	-0.6302713
94	0xbeede678	-0.46464896
95	0xbf4b7145	-0.7946971
96	0xbf0b5995	-0.54433566
97	0xbf1b712a	-0.6071955
98	0xbefa57f0	-0.48895216
99	0xbeff5f71	-0.49877504
100	0xbee65530	-0.44986868
101	0xbf9f8adf	-1.2464255
102	0xbfb4a929	-1.4114124
103	0xbfc1d294	-1.5142388
104	0xbf3fef25	-0.7497428
105	0xbfbc4fe8	-1.4711885
106	0xbfabca1e	-1.3421056
107	0xbf46fac7	-0.77726406
108	0xbfd2777d	-1.6442715
109	0xbf37f0b2	-0.71851647
110	0xbf6a9cb2	-0.9164535
111	0xbf94b613	-1.1618065
112	0xbf607fb9	-0.8769489
113	0xbf16e679	-0.58945423
114	0xbeef8ff3	-0.46789512
115	0xbf11d46a	-0.56964743
116	0xbfb5f387	-1.4214944
117	0xbf63cd67	-0.88985294
118	0xbf37c8ce	-0.7179078
119	0xbf78f8ed	-0.9725483
120	0xbf0106db	-0.50401086
121	0xbf789d0f	-0.9711465
122	0xbf7902ae	-0.97269714
123	0xbf642fb7	-0.8913531
124	0xbf85229b	-1.0401186
125	0xbf84fa39	-1.0388862
126	0xbf86fa22	-1.0545084
127	0xbf4443c7	-0.7666592

sequential_1/myBN3/batchnorm/mul:0 f4 [128]
0	0x3ee80bc0	0.45321465
1	0x3f1e4fb2	0.61840355
2	0x3ebd2757	0.36944076
3	0x3f0db055	0.55347186
4	0x3fa5afa2	1.2944224
5	0x3f182190	0.5942621
6	0x3f6e6699	0.931253
7	0x3ef50f58	0.4786327
8	0x3ec20bb8	0.37899566
9	0x3ecf0862	0.40436083
10	0x3ee3a304	0.4446031
11	0x3f4790e0	0.77955437
12	0x3f13363d	0.57504636
13	0x3f16a4f6	0.5884546
14	0x3f90b0e7	1.1303986
15	0x3f05d74a	0.5228163
16	0x3f602455	0.8755544
17	0x41f79758	30.948898
18	0x3f36771d	0.712755
19	0x3f3a2c84	0.72724175
20	0x3f098c9a	0.53730166
21	0x3ee38822	0.444398
22	0x3ec7c412	0.39016777
23	0x3eab14c1	0.3341427
24	0x3f68d5ae	0.9095105
25	0x3f0b57de	0.5443095
26	0x3f02a266	0.5102905
27	0x3ece65f8	0.4031217
28	0x3ef07e56	0.46971387
29	0x3f1befe2	0.6091291
30	0x3f31597d	0.69277173
31	0x41f5a4b0	30.705414
32	0x3f8a60e3	1.0810817
33	0x3ed74653	0.4204584
34	0x3ecdcea4	0.40196717
35	0x3f2d19e0	0.6761761
36	0x3f34355f	0.7039394
37	0x3eef777f	0.46770856
38	0x3f008e2b	0.5021693
39	0x3f956003	1.1669925
40	0x3eacfa26	0.33784598
41	0x3f536f5a	0.82591784
42	0x3ed2f4b5	0.41202322
43	0x3f1004cc	0.5625732
44	0x3f68ead8	0.90983343
45	0x3f0ff219	0.56228787
46	0x3ee3e5d3	0.4451128
47	0x3edf62a2	0.43629938
48	0x3f362508	0.71150255
49	0x3f019baf	0.5062818
50	0x3f69110a	0.91041625
51	0x3ec79b8f	0.3898587
52	0x3ecee91f	0.40412232
53	0x3f73c0ac	0.9521587
54	0x3f1fc167	0.62404484
55	0x3f10b2ea	0.56523
56	0x3f1aeb02	0.60514843
57	0x3f4b7aaa	0.79484046
58	0x3f19599f	0.59902376
59	0x3f4f843a	0.81061137
60	0x3f61f1ac	0.88259387
61	0x3edf0464	0.43558037
62	0x3f1b4721	0.6065541
63	0x3f21f06f	0.632575
64	0x3ed1d6b2	0.40984112
65	0x3eeaf278	0.45888114
66	0x3f14b23b	0.5808446
67	0x3ef0b6d8	0.470145
68	0x3ef4faf0	0.478477
69	0x3f4104fe	0.7539824
70	0x3f2100bb	0.6289174
71	0x3f446103	0.7671053
72	0x3f82f74a	1.0231717
73	0x3ea35738	0.3190248
74	0x3ef2f8c1	0.4745541
75	0x3f1b7108	0.60719347
76	0x3f8680b8	1.0508032
77	0x3f9626ee	1.173063
78	0x3f29269c	0.6607454
79	0x3eef4c7c	0.4673804
80	0x3ebf5dca	0.37376243
81	0x3f030d50	0.5119219
82	0x3f09ab7b	0.53777283
83	0x3f95887e	1.1682279
84	0x3ec680c0	0.38770103
85	0x3eac47e9	0.33648613
86	0x3f02f684	0.51157403
87	0x3f139197	0.5764403
88	0x3f12b5b8	0.5730853
89	0x3ee1c790	0.44097567
90	0x3f08c974	0.53432393
91	0x3f459279	0.77176625
92	0x3eec9522	0.4620753
93	0x3f0130d8	0.50465155
94	0x3f85fe66	1.0468261
95	0x3ef32bad	0.4749426
96	0x3f331864	0.6995909
97	0x3f118735	0.56846935
98	0x3f482233	0.78177184
99	0x3f67c257	0.90530914
100	0x3f32c6bd	0.698345
101	0x3e8e4408	0.2778628
102	0x3ea82837	0.32843181
103	0x3e99ce98	0.3004043
104	0x3f1d5fcd	0.61474305
105	0x3ec095e9	0.37614372
106	0x3eaf20c2	0.3420468
107	0x3ee2f24e	0.4432549
108	0x3ec39af1	0.38204148
109	0x3f5c1ec7	0.8598446
110	0x3f243c21	0.6415425
111	0x3ea306bc	0.31841075
112	0x3edecee8	0.43517232
113	0x3f38cd87	0.7218861
114	0x3f667dbf	0.90035623
115	0x3f43eac0	0.76530075
116	0x3ebab884	0.364689
117	0x3f17e4b8	0.5933337
118	0x3f05ad69	0.5221773
119	0x3efad08f	0.48987243
120	0x3f8902de	1.0704
121	0x3ee41e43	0.44554338
122	0x3ef67c6e	0.48141807
123	0x3ee5a9b3	0.44856033
124	0x3ef36a88	0.47542214
125	0x3f07d1b6	0.5305437
126	0x3f162fb0	0.58666515
127	0x3efebd12	0.49753624

sequential_1/myBN2/ReadVariableOp_1:0 f4 [32]
0	0xbd84067f	-0.064465515
1	0xbe38f6bd	-0.18062873
2	0xbd7ae06d	-0.061249185
3	0xbe5f8511	-0.21828105
4	0xbd323ad4	-0.043513134
5	0xbdb10e13	-0.086452626
6	0xbdd6287e	-0.10456942
7	0xbdf599f2	-0.11992253
8	0xbd4c9071	-0.049942438
9	0xbe2df99c	-0.1698975
10	0xbdc56d5e	-0.09640001
11	0xbe30772e	-0.17232963
12	0xbe072835	-0.13198932
13	0xbccac181	-0.024750473
14	0xbd92ae69	-0.07162172
15	0xbde11b53	-0.1099154
16	0xbe0e05f3	-0.13869457
17	0xbd837ca7	-0.0642026
18	0xbdbee71e	-0.09321426
19	0xbe06f86f	-0.13180707
20	0xbd856d7d	-0.06515024
21	0xbe0436d3	-0.12911539
22	0xbe014bc9	-0.12626566
23	0xbdaae0fa	-0.08343692
24	0xbe00ac0e	-0.12565634
25	0xbd8eaffc	-0.0696716
26	0xbda47ce3	-0.08031633
27	0xbe009850	-0.12558103
28	0xbdcb1c7c	-0.09917542
29	0xbdcd9e6c	-0.10039982
30	0xbdc6b227	-0.097019486
31	0xbdb5af89	-0.08871371

sequential_1/myBN2/ReadVariableOp:0 f4 [32]
0	0x3f79ae38	0.9753146
1	0x3f60f6f8	0.87876844
2	0x3f767530	0.96272564
3	0x3f755754	0.9583638
4	0x3f91a545	1.1378561
5	0x3f848983	1.0354465
6	0x3f82ee87	1.0229043
7	0x3f64ab72	0.89324105
8	0x3f89960f	1.0748919
9	0x3f4f0701	0.8087006
10	0x3f61ff89	0.8828054
11	0x3f68254c	0.9068191
12	0x3f7ffe80	0.9999771
13	0x3f8d3e95	1.1034724
14	0x3f6e30b6	0.93043077
15	0x3f6c6571	0.9234229
16	0x3f82a3bc	1.0206218
17	0x3f8b9f1c	1.0907931
18	0x3f7d2202	0.98880017
19	0x3f6192ce	0.8811463
20	0x3f873e7d	1.0565945
21	0x3f807245	1.0034872
22	0x3f7d3498	0.98908377
23	0x3f84ef1a	1.0385468
24	0x3f85c84b	1.045175
25	0x3f8471b0	1.0347195
26	0x3f8b5e63	1.088818
27	0x3f8c7757	1.097392
28	0x3f6d653f	0.92732614
29	0x3f6afc73	0.91791457
30	0x3f82db5a	1.0223191
31	0x3f82df3d	1.0224377

sequential_1/myBN2/FusedBatchNormV3/ReadVariableOp_1:0 f4 [32]
0	0x40cbf686	6.373843
1	0x4148ad1c	12.542263
2	0x4015a1dc	2.338004
3	0x4092d03b	4.5879188
4	0x4002a67c	2.0414114
5	0x3ff56f38	1.9174566
6	0x40de37a5	6.9442925
7	0x40967aa1	4.7024693
8	0x40808821	4.0166173
9	0x40bea853	5.9580474
10	0x4116e9c7	9.432075
11	0x40f91c33	7.7846923
12	0x41246b80	10.276245
13	0x409f02fe	4.9691153
14	0x3ff058a8	1.8777056
15	0x40a1ea5d	5.059859
16	0x404e0005	3.2187512
17	0x4074a5bb	3.8226154
18	0x404bcd5c	3.1844091
19	0x41016dd9	8.089318
20	0x4083586a	4.1045427
21	0x40fad844	7.8388996
22	0x40ab4b1f	5.35292
23	0x40c53f72	6.163995
24	0x411ac1e3	9.672336
25	0x40bb6125	5.8556085
26	0x406c08e0	3.6880417
27	0x4096aeef	4.708854
28	0x41510ed8	13.066124
29	0x40cb3422	6.350114
30	0x4112eb86	9.182501
31	0x415c9ba5	13.787999

sequential_1/myBN2/FusedBatchNormV3/ReadVariableOp:0 f4 [32]
0	0x3f96a468	1.1768923
1	0x404c7dd3	3.1951797
2	0x3f11db99	0.56975704
3	0x3fa50bd4	1.2894235
4	0x3ed1e796	0.40997
5	0x3f013a89	0.5047994
6	0x3fdbd2f1	1.7173749
7	0x3f8abfb3	1.0839752
8	0x3f673b6c	0.90325046
9	0x3fdf6c4a	1.7454922
10	0x3ffdb704	1.9821477
11	0x4001ad54	2.026204
12	0x400d57e5	2.2084897
13	0x3f56c327	0.8389153
14	0x3ef7e596	0.48417348
15	0x3f94a5c0	1.1613083
16	0x3f5d9d23	0.86567897
17	0x3f6506e3	0.89463633
18	0x3f3793f1	0.71710116
19	0x40010bd9	2.0163481
20	0x3f82edaa	1.0228779
21	0x3fdd4315	1.7286097
22	0x3f8bfdcf	1.0936831
23	0x3fb86d02	1.4408267
24	0x40093453	2.1438186
25	0x3f8ec1a0	1.115284
26	0x3f3fd079	0.7492748
27	0x3f85ad3c	1.0443492
28	0x40370c46	2.860124
29	0x3fbce7af	1.4758204
30	0x400481a9	2.0704138
31	0x40138066	2.3047118

sequential_1/myBN1/ReadVariableOp_1:0 f4 [32]
0	0xbe28c952	-0.16483048
1	0x3cf0e1c1	0.029404523
2	0x3e0b8dd9	0.1362833
3	0xbcc59681	-0.024119617
4	0x3cf7db17	0.030255837
5	0x3cf30eff	0.029670237
6	0xbdb3ed45	-0.0878549
7	0x3c22ecd7	0.009944162
8	0x3dab8d5f	0.08376574
9	0x3cd4bd91	0.025969299
10	0x3e125e3c	0.1429376
11	0xbd5f05b8	-0.054448813
12	0x3c31833b	0.01083451
13	0xbd2c47db	-0.042060714
14	0x39e85bac	0.0004431879
15	0x3e089f25	0.13341959
16	0xbd08e53a	-0.033421732
17	0xbd299d22	-0.04140962
18	0x3d85c4ed	0.06531701
19	0x3e2bd15f	0.16779087
20	0x3dd1e023	0.10247829
21	0xba032a14	-0.00050035235
22	0x3d9ee303	0.07758143
23	0xbaa2d49b	-0.001242298
24	0x3d53ab62	0.051677115
25	0xbcb722d6	-0.022355478
26	0x3d67a49f	0.05655348
27	0xbcf4c9e8	-0.029881433
28	0xbe13fedd	-0.14452691
29	0x3b424ccb	0.0029647823
30	0xbd762d66	-0.06010189
31	0x3d380c23	0.04493345

sequential_1/myBN1/ReadVariableOp:0 f4 [32]
0	0x3f844cc3	1.0335926
1	0x3f8d3efb	1.1034845
2	0x3f4fae99	0.8112579
3	0x3f6dd21c	0.92898726
4	0x3f8b016c	1.0859809
5	0x3f6d2be2	0.92645085
6	0x3f87ff9f	1.0624884
7	0x3f89277b	1.0715173
8	0x3f730685	0.94931823
9	0x3f8c9949	1.0984279
10	0x3f83466b	1.0255865
11	0x3fb04aba	1.3772805
12	0x3f82c423	1.0216106
13	0x3f5dfb71	0.86711794
14	0x3f7e4dd5	0.9933751
15	0x3f82b552	1.0211585
16	0x3f3e820f	0.74417204
17	0x3f8cc101	1.09964
18	0x3f4dbdbf	0.80367655
19	0x3f92e468	1.1475954
20	0x3f325d0d	0.69673234
21	0x3f78e489	0.97223717
22	0x3f829b4b	1.0203642
23	0x3f6ff1db	0.9372842
24	0x3f8ac8e7	1.084256
25	0x3f95beec	1.169889
26	0x3f6f9e2e	0.9360074
27	0x3f9443cd	1.1583191
28	0x3f7a57d2	0.97790253
29	0x3f6bb6a5	0.9207557
30	0x3f78d233	0.9719574
31	0x3f3a9eb1	0.72898394

sequential_1/myBN1/FusedBatchNormV3/ReadVariableOp_1:0 f4 [32]
0	0x3a549b68	0.00081103155
1	0x3badfee0	0.0053099245
2	0x3c0745f4	0.008256424
3	0x3c29473b	0.010331924
4	0x3b744949	0.0037275127
5	0x39a316b8	0.0003110671
6	0x3ab5dbd2	0.0013874716
7	0x3a93f196	0.0011287208
8	0x3b85256e	0.0040633
9	0x3b04dc18	0.0020272788
10	0x3a2cdd41	0.00065942487
11	0x3a74808c	0.00093270163
12	0x3a121f1f	0.00055740954
13	0x3bc8201b	0.006107343
14	0x3a922b94	0.0011151903
15	0x3ac6053f	0.0015107765
16	0x3b81273f	0.003941446
17	0x3a90762b	0.0011021545
18	0x3bdc3761	0.006720469
19	0x3ae7a9bd	0.0017674487
20	0x3be9de0e	0.0071370667
21	0x3b56b697	0.003276264
22	0x39ecd0f9	0.00045169124
23	0x3b894f24	0.0041903425
24	0x3ac9477b	0.0015356386
25	0x3a7eb464	0.00097162114
26	0x3bd44c03	0.006478788
27	0x3af60698	0.0018770276
28	0x3b33bdb1	0.0027426297
29	0x3a5f6df1	0.00085231574
30	0x3a913fd9	0.001108165
31	0x3c788e75	0.015170683

sequential_1/myBN1/FusedBatchNormV3/ReadVariableOp:0 f4 [32]
0	0x3c02e14a	0.007988283
1	0x3d2a2da4	0.041547433
2	0x3deb3acf	0.11485826
3	0x3d7b7cd3	0.06139834
4	0x3cf2d240	0.02964127
5	0x3b895880	0.004191458
6	0x3c8b1b62	0.01698083
7	0x3bd6c8e3	0.0065547093
8	0x3ce40aa2	0.027837101
9	0x3c0a8123	0.00845364
10	0x3bbf2c05	0.005834105
11	0x3c8b8b41	0.017034175
12	0x3bf480f5	0.007461662
13	0x3d631997	0.055444326
14	0x3c206762	0.009790273
15	0x3c308f58	0.010776363
16	0x3d7852cc	0.060625836
17	0x3c3d8843	0.011568132
18	0x3d0cf1b8	0.03441021
19	0x3c66bfe2	0.014083834
20	0x3e1739a6	0.14768085
21	0x3c8fbf8c	0.017547391
22	0x3b864dd2	0.0040986324
23	0x3cb43b17	0.022000832
24	0x3c83fcf5	0.01611183
25	0x3bd32f6f	0.0064448635
26	0x3d27bddb	0.040952545
27	0x3c1b7a1e	0.009489564
28	0x3c78f025	0.015193974
29	0x3bd84c8b	0.0066009215
30	0x3c133300	0.008984327
31	0x3d6d8603	0.05798913
