models/model29.onnx (onnx, 474843 bytes, 6 tensors)

sequential/dense_2/MatMul/ReadVariableOp:0 f4 [128, 10]
00000000: b6ae 3b3e 815b 76be 8c4d 7dbe e8d7 e1bd
00000010: 15f2 873e daf9 51be 4410 123e b2ea d2bc
00000020: 0498 99b9 fb27 383e 6dcf 523e c48a d3bc
00000030: 2232 7c3e fe78 b33d e6c5 adbe cfc9 063e
00000040: f500 533e 5d18 be3c f33e 173e 80b1 36be
00000050: 3b37 903e f262 853e 2228 ec3d 94cc c1bd
00000060: 842b 62be 4cf3 87be 7e90 fdbd 6c79 3bbe
00000070: a6a1 403e 3396 e53d 55ad 853e 0444 94be
00000080: 165d 463e d4ca 133d b70c debd 342e d7bd
00000090: 7167 1c3e 9e25 8cbc 9903 49be 96b4 07be
000000a0: 725d 213e 23ed e6bd 7bc1 833e 2824 30bd
000000b0: 8685 5d3e eea2 383c 4915 75be a77e 753d
000000c0: 83ad dcbe eb7e 56be b00d efbd 6c61 4abe
000000d0: c953 a53d 396d a0bd 76f2 033d f09f 333e
000000e0: 291e 07be b42d 8abc 1d74 ef3d d679 b2be
000000f0: a4d5 a0be dd27 36bd 11e7 d9be 0e29 783e
00000100: fba8 313e 35a8 303e 19b3 483e ba7d 84be
00000110: 2c76 eb3d ede6 bfbb 31e3 93be 9a11 273e
00000120: 8b41 15be 6f24 b03d 3d7e 88be 7c95 4ebc
00000130: 0fbb 0c3e ab4b 14be fee1 033d ca5d 5a3d
00000140: 9b3b 0e3d e466 853d 8a63 063e dfaa 473e
00000150: 6753 38bd f981 08be 5c66 083d f9d8 82bd
00000160: cbe1 ac3d fcbe 023e 8258 103e be24 b33c
00000170: 4356 203e c53c 8bbe 61cf 583e 9f5b 233e
00000180: db8c 553e 82d1 88be f63d 62be 4329 7dbd
00000190: ff20 643e 8bd3 b6be 0f8b 9f3c fdef 0abe
000001a0: 9926 e53d f383 c83b 0821 373e d46c d4be
000001b0: 3593 363e bacf 203e 7a12 3e3e fa4b 90be
000001c0: 226d e63d aa44 483e 046a 383e 14a4 83be
000001d0: c301 99be c5dd 353e d8c2 12be c3b2 cf3d
000001e0: da29 073e 70bb b1be 9321 ad3d 3a7a db3d
000001f0: 53db 713e acdc 5dbe 0118 333e bd4e 97be
00000200: f91e 963e 5c0e 503e b558 b33c f10c 19bd
00000210: cfd6 86be b986 883d 3fe7 013e 2e38 803e
00000220: 3000 45be 5624 29be 5e4f b03d 812e 8a3c
00000230: 7260 513e 0f16 8f3e 6687 71be 18a9 a9be
00000240: ef4b 70be 6eee 8c3d 857b 1abe 489a bd3e
00000250: e47c 10be 59ff 4dbe 2688 923e fd7e 92bd
00000260: fe89 8abe 2dac 823c c648 a1be 6304 c23d
00000270: 17ff 0a3e 4e5c 98be bbc8 033e 23e1 4a3d
00000280: c6cd 2e3e dd9b 1f3e fd8e 75be 586b 64bd
00000290: 7232 6b3e e76a 13be a6e2 483e 5da6 0e3c
000002a0: 582b c53c 0442 01be f62a d13c 953f 9cbe
000002b0: c2a2 afbd fe28 9dbe 6420 cb3c 571a 5f3e
000002c0: 1388 463e 0a31 54be 937a 3d3e 2462 2c3e
000002d0: a679 743d ed8e 8e3d 9d86 4abe 0f7d acbe
000002e0: e6b1 983d fb75 09be 30b9 aabe 2359 b73d
000002f0: a894 89bd a6bb 633e 7959 54be df40 873e
00000300: d28c f1bd 8c67 063e 8487 c03d 3686 20bb
00000310: 1c8a a6be 1865 a8be 43a1 3ebd b2a5 9c3e
00000320: 5a07 40be acd0 813e 4bda d0bd 5375 123e
00000330: 7312 debd 57d5 10be 3e84 d0be febe 033e
00000340: d9dc f33d 6638 3c3d 8698 623e 7761 63be
00000350: 74df 51be 5446 8d3e 3eeb b23d ac23 bc3c
00000360: 367d 0a3e ec9f a4be 8370 d0be b3d8 aabe
00000370: be38 a9be 5351 253e e1d8 7a3e 60d4 0dbe
00000380: 328e 2e3e 7abd 023e 6f5c 053e 7a3d 6ebc
00000390: 2ca8 1c3e 7d94 acbe 83e8 8cbe 5f67 9a3e
000003a0: 33a9 8cbe ef0e 23bd 1786 69be 0655 c83d
000003b0: b6d9 b23e eeeb 53be 54ec 27bb 2306 b5be
000003c0: 498e 9abe ce12 3bbe b9f4 47be 407e 3b3b
000003d0: cfee a83e 3f98 01bb a35c aebe eb3d 623e
000003e0: bdb3 b9bd 1af5 9b3d df0e 173e c33f 26be
000003f0: 21c7 4b3e cd10 aebe 3e3b 113e 0fc9 373b
0.18328366 -0.24058343 -0.24736613 -0.11027509 0.2655188 -0.20505467 0.14264017 -0.025746677
-0.00029295695 0.17984001 0.20586939 -0.025823005 0.24628499 0.08763312 -0.33940047 0.13162921
0.20605834 0.023204977 0.14770107 -0.17841148 0.28167138 0.26052052 0.11531092 -0.09462848
-0.22086912 -0.26552808 -0.12381075 -0.18308038 0.18811664 0.11210289 0.26108804 -0.28958142
0.19371447 0.036082104 -0.10842269 -0.105068594 0.15273835 -0.017107781 -0.19630279 -0.13252482
0.15758303 -0.11275699 0.2573355 -0.04300323 0.21632966 0.011269314 -0.23933901 0.05993524
-0.4310113 -0.20946853 -0.116725326 -0.19763726 0.080726214 -0.078333326 0.03221365 0.1754148
-0.13195099 -0.016867496 0.11692069 -0.34858578 -0.31412995 -0.04447161 -0.42559102 0.24234411
0.17349617 0.17251666 0.1959957 -0.25877172 0.11497149 -0.005856386 -0.2888427 0.16315308
-0.14575784 0.08600699 -0.26658812 -0.012608882 0.13743232 -0.1448199 0.032197945 0.0533121
0.034724813 0.065137655 0.13123909 0.19498776 -0.045001414 -0.1333083 0.033300743 -0.063890405
0.08441504 0.12768167 0.14096263 0.021868106 0.15657906 -0.271948 0.21172859 0.1595292
0.20854513 -0.26722342 -0.22093949 -0.06180693 0.22278212 -0.3570827 0.019475488 -0.13568111
0.111890025 0.006119245 0.17883694 -0.4148928 0.17829593 0.15704241 0.18561736 -0.28182966
0.11251284 0.19557443 0.18009192 -0.2571112 -0.29884157 0.1776038 -0.1433214 0.10141518
0.13199559 -0.34713316 0.084536694 0.10716672 0.23618822 -0.21666211 0.17489626 -0.2955226
0.29320505 0.20317978 0.021892885 -0.037365858 -0.2633576 0.06666321 0.1268587 0.25042862
-0.19238353 -0.16517767 0.08608888 0.016867878 0.20446947 0.27946517 -0.23586807 -0.3313682
-0.23466466 0.06881414 -0.15086181 0.3703177 -0.14110142 -0.20116939 0.28619498 -0.07153127
-0.27058405 0.01595124 -0.31500834 0.09473493 0.13573872 -0.29757923 0.12869541 0.049531113
0.17070684 0.15586801 -0.23980327 -0.055766433 0.22968462 -0.14396249 0.1961771 0.008706656
0.02406852 -0.12622839 0.02553318 -0.3051726 -0.085759655 -0.30695337 0.024795718 0.21787392
0.19387846 -0.20721832 0.1850379 0.16834313 0.059686325 0.06960855 -0.19777913 -0.33689162
0.074558064 -0.13423912 -0.33344412 0.08952548 -0.06717807 0.22239551 -0.20737256 0.2641668
-0.117944375 0.13125437 0.094008476 -0.0024494058 -0.32527244 -0.32889628 -0.04654051 0.30595165
-0.18752804 0.25354517 -0.10197886 0.14302568 -0.10843363 -0.14143883 -0.40725893 0.12865826
0.11907358 0.045952223 0.22128496 -0.22205149 -0.20495397 0.2759272 0.08736275 0.022966228
0.13524327 -0.3215326 -0.4071084 -0.33368453 -0.33051103 0.16144304 0.24496795 -0.13850546
0.1704643 0.12767592 0.13023542 -0.014541024 0.15298527 -0.33707038 -0.27521142 0.3015699
-0.2747284 -0.039809164 -0.22805057 0.09781842 0.34931725 -0.20695469 -0.002562304 -0.35356244
-0.3018668 -0.18268892 -0.19526948 0.0028609186 0.32994696 -0.0019774584 -0.3405505 0.22093932
-0.090674855 0.07615109 0.14751767 -0.1623526 0.1990018 -0.33997193 0.14182755 0.0028043424

sequential/dense_2/BiasAdd/ReadVariableOp:0 f4 [10]
00000000: 7fce 77bc c601 8239 d7d8 32bd c216 0abd
00000010: 71d9 2f3d a11a bc3b 15d1 29bd 92cc 24bd
00000020: 3766 413d 9278 0e3d
-0.015124916 0.00024796854 -0.043663826 -0.03371311 0.042931978 0.005740479 -0.04145916 -0.040234156
0.04721662 0.034782954

sequential/dense_1/MatMul/ReadVariableOp:0 f4 [128, 128]
00000000: 45f7 1d3e 0155 e63d 965b ddbd b72c d2bd
00000010: f4a5 b9bb 2553 edbb 0753 e8bc 541c 8dbd
00000020: 9c45 f23d f1a5 89bb f33d f1bb 98be 873d
00000030: aaf7 ed3d 8ae4 d8bd 8031 273e d532 583e
00000040: eb67 003d 8ffe d53d 3e4e bfbd 98b8 923d
00000050: 9ea6 e33c aa25 4dbe 3639 0a3d 0bd4 a8bd
00000060: 8ffb b03d 4824 ffbc 41c4 333e 41b8 723b
00000070: 9658 8fbe e1b2 c93c e049 bc3d 1ed7 62be
00000080: b5be eb3d f220 bc3d ac2b 0abe a61f 8a3c
00000090: 2ed4 a8bc 5f21 053e fbbf 183b 5e32 81bc
000000a0: 63f7 a5bc a948 a4bd 5d97 2ebe 71df a63d
000000b0: 83e7 d0bc ff47 903d 84ae 0b3c 21cd 143e
000000c0: b2e3 80bd 067a cb3d 3a83 8bbc 88e8 b3be
000000d0: 9fcf 39bd 6566 febd 6937 4ebe 0f06 113e
000000e0: 8f1a 08be 36e2 053e c141 d2bd 8979 b83c
000000f0: d1a1 e9bd fb88 e03d 2e31 333d a243 02be
00000100: e150 f2bd 5255 ce3d d4b3 b4bd 165a 23be
00000110: d8bc b1bd cf8b 30be 03f8 08be b47a 6ebc
00000120: 80d9 4fbe 5c1f 8f3d 9ceb 493d 120c 40bd
00000130: e9df 593e 00d0 133e c1a1 d33d 6cfe 41be
00000140: 90b1 c8bd 1a94 c1bd bf61 eebd 8e3d 8dbb
00000150: 9896 2d3e 6c25 003c 77d5 033d 7f71 0a3c
00000160: 3b9a 9ebd 2db1 3e3e dbd3 0fbe d22b 693d
00000170: 6eed c63d 74fc f33d 2a17 693d 7dd6 b6bd
00000180: 94ef 903d e7e1 a0bc 772e 06bd caa6 1cbe
00000190: 2497 af3c f4f8 e93b e380 123e 7051 c73a
000001a0: 3e27 85bd 714d b7bc a206 1dbd 991d 2d3e
000001b0: 0aa1 16be 047a 12be 3be7 ce3c bdb4 63be
000001c0: 8778 103e e7c2 93bc f021 803d 8851 933c
000001d0: 8cf9 3b3e 85ba 55bc 058e 633e 131b fe3d
000001e0: 6de4 193d fc43 eebd d78c 0fbe 0760 bbbd
000001f0: 0528 12bd cc97 16bd 886b ffba 4d68 f43d
00000200: 5dd1 87bd dbe6 d43c 2574 573e a934 9fbe
00000210: 3b85 17be 664f e7bd 4c36 053e 7cf3 913d
00000220: 115d c23d 6fbf 2dbe 0993 773d b195 21be
00000230: 9810 1dbd 447c ec3d 3f2f f3bd fc6e 933d
00000240: 0529 3abe 6800 a6bd caad 8a3e 43ff 1f3e
00000250: 4ae3 9e3e 48ab b9ba 5cb2 84be 8559 183e
00000260: 5ce6 833b e0eb e43d e935 0dbe 5679 3b3e
00000270: 5324 1f3d 0c6e 833d ebd4 74be 8ea5 ed3d
00000280: 412c d83d e6c5 803c c6a2 fb3c 600a 9c3e
00000290: dec4 e13d c543 a6be aea1 b33d 5973 f1bd
000002a0: 1231 7ebc b89b 03be 9867 f33d d866 6e3e
000002b0: b2f3 e3bc c682 2e3e 9a11 a03d b004 72be
000002c0: 862a 83be 1b29 783d 09f2 053e 8c19 4d3d
000002d0: 2b4a ba3d 7ca1 823e 76ce 9b3e 5aa0 adbe
000002e0: 4852 e8bc 04ca 6d3e ab9b 1f3e 0ca2 9a3d
000002f0: 3b01 263c c5a9 7ebd b0d1 6c3d cfb4 583d
00000300: 8d08 5fbe 1cd7 4d3e f88c 3d3c c5e5 de3d
00000310: c3e0 c03d 2e8a cc3d a39a dabb 91a7 44be
00000320: 5741 c1bd b287 263d bd44 eb3a 393f aa3d
00000330: af96 9cbb 1800 bdbc 7c8a 023e 0bc1 7b3e
00000340: bcb3 9f3d 7945 923c b96a 743e 226d 9bbc
00000350: e21a 8d3e 0797 42be 8d7c 29be 7f92 483e
00000360: b363 00be f2e7 163e a8db 663c 77ad 9abd
00000370: cc93 7a3d e5cb 96bd 72e1 afbe db02 043e
00000380: ad7d db3d 09d8 99bc 8973 1bbe e91c 77bd
00000390: 3f62 0b3e 1022 2ebe 503c 97be 2f74 69be
000003a0: 73aa 82bd 0644 d23d b617 81be b4b9 5f3e
000003b0: 4872 04be b138 91bc f04f a53c 7e5d f43d
000003c0: 66c0 013e c156 d33c 8584 723e 331c aebe
000003d0: 0e59 20be 0f1b d13d b529 b23c 226b 2cbe
000003e0: c3ea b6bd 68d3 a53c 27d5 17be 1b38 55bd
000003f0: 8327 a9bd 9700 baba bfa7 ffbc 14f3 57be
0.15426357 0.11246682 -0.10808484 -0.10262435 -0.005665535 -0.0072425776 -0.028359903 -0.06890169
0.11829683 -0.00420069 -0.0073621213 0.0662815 0.11619504 -0.10590465 0.16327477 0.21113141
0.031349104 0.10448944 -0.093410954 0.07164115 0.02778941 -0.20033899 0.033745967 -0.08243569
0.08641731 -0.03114523 0.17555334 0.0037036093 -0.27997273 0.024621429 0.09193778 -0.22152373
0.11510984 0.09185971 -0.13493222 0.016860794 -0.020608988 0.13001011 0.0023307789 -0.015771087
-0.020259565 -0.08021671 -0.17049928 0.08148087 -0.025501018 0.07044982 0.0085254945 0.14531375
-0.062934294 0.099353835 -0.017030347 -0.35138345 -0.04536402 -0.12421874 -0.20138325 0.14162467
-0.13291381 0.13074574 -0.10266448 0.02251889 -0.11407817 0.10963627 0.043748073 -0.12721112
-0.11831833 0.10074867 -0.08823362 -0.15952334 -0.08678597 -0.17240833 -0.13375859 -0.014555622
-0.20297813 0.06988403 0.04929696 -0.04688651 0.21276821 0.14434814 0.103335865 -0.1894471
-0.09799492 -0.09452076 -0.11639737 -0.0043103164 0.16951978 0.007821422 0.032185998 0.008449911
-0.07744261 0.18622275 -0.1404566 0.056926556 0.09713255 0.11913386 0.056906857 -0.08927629
0.07076946 -0.019638969 -0.032759156 -0.15298 0.021434374 0.007140273 0.14306979 0.0015206765
-0.065016255 -0.022375794 -0.038336404 0.16905822 -0.14709869 -0.14304358 0.025256744 -0.22236915
0.14108478 -0.018037273 0.06256473 0.017983213 0.18356913 -0.013044958 0.22222145 0.12407508
0.03757136 -0.11634061 -0.1401857 -0.09149175 -0.035682697 -0.03676586 -0.0019487003 0.11933956
-0.0663173 0.025988987 0.210404 -0.31094864 -0.14796917 -0.11294441 0.13008994 0.07126519
0.09490407 -0.16967557 0.060442958 -0.15779759 -0.038345903 0.11547139 -0.11874246 0.07198903
-0.1817971 -0.08105546 0.27085716 0.15624718 0.31032783 -0.0014165426 -0.25917327 0.14877899
0.0040252637 0.11177802 -0.13790096 0.18308005 0.038853 0.06417474 -0.23909347 0.11603843
0.10555316 0.015719365 0.030717265 0.30476665 0.110238776 -0.3247358 0.08771072 -0.11789579
-0.015514629 -0.1285237 0.11884993 0.2328142 -0.027826164 0.17042074 0.07815857 -0.236346
-0.2561838 0.060586076 0.1308061 0.05007319 0.09096178 0.25513828 0.30430955 -0.339114
-0.028359547 0.23221594 0.15586726 0.07550439 0.010132129 -0.062173624 0.05781716 0.052906808
-0.21780606 0.20101589 0.011569254 0.10883669 0.0941787 0.09987293 -0.006671266 -0.19204547
-0.09436291 0.040656753 0.0017949563 0.0831284 -0.004778705 -0.023071334 0.1274814 0.24585359
0.077979535 0.017855393 0.23868836 -0.018972937 0.27559572 -0.19002925 -0.16551419 0.19587134
-0.12538032 0.14736918 0.014090456 -0.07552617 0.061176106 -0.073631085 -0.3435169 0.12891714
0.1071733 -0.018779771 -0.15180792 -0.060330305 0.13611697 -0.17005181 -0.29538202 -0.22798227
-0.06380167 0.10266881 -0.25213403 0.21848184 -0.1293422 -0.017727228 0.020179719 0.11931895
0.1267105 0.025798203 0.23683365 -0.3400589 -0.15658972 0.10210239 0.021748403 -0.16837743
-0.08931496 0.020242408 -0.14827405 -0.05205546 -0.082594894 -0.001419085 -0.031207917 -0.2108882

sequential/dense_1/BiasAdd/ReadVariableOp:0 f4 [128]
00000000: ba64 1b3d d1c5 e0bc 6657 243d a58d 4abd
00000010: 2c5b a23c ce9a 3c3d a22d 413c 896b 833b
00000020: d046 bebc 5462 163d e034 cf3d c428 4cbc
00000030: e052 be3d 4433 8f3d 8905 783c cf86 773d
00000040: 4051 373d b195 503d 79e2 753d dbad f93c
00000050: 1e0c 5f3d e07f 2cbc 9bd2 7c3d 5f5e c2bb
00000060: 207f f23d 7d3f 403d ce5f 083c 9522 ce3d
00000070: 9fb3 3fbc aa42 8dbc 11e0 1ebd 96bf 863d
00000080: f724 cebc c7fb 2dbd ece1 363d 8127 413d
00000090: 30fc 843d f497 353c d0a5 2ebc 8053 87bd
000000a0: 4325 80bc 502c 9e3d e6bd 0d3d 215e 7bbd
000000b0: 4802 27bd d3e8 9f3d a4ab 213c 424b bfbc
000000c0: 2548 cd39 ab2e 443b 3fd7 3c3d adef 3b3b
000000d0: 606c f137 83d7 f93c c4f1 b83c 3144 9abb
000000e0: 0919 efbb 22aa 893d 1c36 513d 8330 533d
000000f0: dcff 613b 649a 2abd 7a1d ab3c 4d45 27bd
00000100: 9522 3ebd 49ba 343d c1ec dfbc 40ef 01bb
00000110: 64ce 65bd 05dd b23c 257d 863d 2aef 993b
00000120: 8701 53bc 2aca 91bc a8aa f93b e32b 863c
00000130: a684 7abc 3f4d 23bc 93ca 143c cf45 f23c
00000140: ce21 8e3d ca73 8abc e7f0 9ebb 6764 6cbc
00000150: b679 0e3d 9656 0c3d 0b8f 463d 0d88 c23c
00000160: e20d b9bc ebb0 583d f425 3c3d 44c9 09bd
00000170: de78 06bd 7bb7 1e3c 6177 9e3c d117 8bbd
00000180: a61f 9c3c 2cf0 5a3d 4d62 183b c264 fbbc
00000190: dd13 e53c 7d42 93bc b585 43bc 389f 10bc
000001a0: 4735 383d 6cc4 babc bcec 1a3d f2be 963d
000001b0: df87 18bc 507c 84bc 23a0 0e3d ba60 5a3d
000001c0: aa60 8e3d 3eed 353c 293f 283d 8b66 b23c
000001d0: e6ff 4fbc a32e af3d b36d eebc 6fc6 c43b
000001e0: b0d7 a6bc 4492 1f3c 663a 873d 3dd9 0bbc
000001f0: ec02 ef3c abb4 f53c 15c9 493d c639 b2bb
0.037937857 -0.027438076 0.040122412 -0.04945149 0.019818865 0.04604607 0.011790665 0.004010622
-0.023227125 0.036714867 0.10117507 -0.012460891 0.09293151 0.069922 0.015138038 0.060431298
0.04475522 0.050924007 0.060030434 0.030478409 0.054454915 -0.010528535 0.061724287 -0.00593166
0.118406534 0.046935547 0.008323623 0.1006519 -0.01170054 -0.017243702 -0.038787905 0.06579511
-0.02516411 -0.04247644 0.04464905 0.047156814 0.064934134 0.011083592 -0.01065965 -0.06607723
-0.015642768 0.07723296 0.03460493 -0.061369065 -0.04077366 0.078080796 0.0098675825 -0.023351315
0.000391544 0.0029935043 0.046103712 0.0028676793 2.8779905e-05 0.030498272 0.02257622 -0.004707836
-0.0072966856 0.067219034 0.051076993 0.051559936 0.003448478 -0.041651145 0.020888079 -0.040837575
-0.0464197 0.044122968 -0.027334573 -0.0019826442 -0.056105033 0.021833906 0.06566838 0.0046977
-0.012878782 -0.017796595 0.0076192208 0.016378349 -0.015290415 -0.009967147 0.009081501 0.029574303
0.069400415 -0.016900916 -0.004850495 -0.014428235 0.03478404 0.034262262 0.04847626 0.023746515
-0.022589628 0.052903097 0.045934632 -0.033639207 -0.03283011 0.0096873 0.019344034 -0.06791652
0.01905806 0.053451702 0.0023251951 -0.030687694 0.027963573 -0.01797604 -0.011933734 -0.008827023
0.044972684 -0.02279874 0.037823424 0.07360639 -0.009309738 -0.016172558 0.034820687 0.053314902
0.06952031 0.011103926 0.04107586 0.021777412 -0.012695288 0.08553817 -0.029105043 0.0060051004
-0.02036652 0.009739462 0.066029355 -0.00853568 0.029176198 0.029993376 0.049264032 -0.005439016

sequential/dense/MatMul/ReadVariableOp:0 f4 [784, 128]
00000000: 59e8 89bd 2bda 9b3d 306b e43c 197a 99bd
00000010: b91e 4cbd 9c17 f4bc a682 5abd f171 13bd
00000020: b8bb 143c 2eb7 433d 423e 753d 80cb 303b
00000030: b981 22bd 00f3 c0bc 7860 1e3d fa26 5b3d
00000040: 8248 203d 16c3 99bd 3c8f e43c 9529 9ebd
00000050: 8879 74bd 3550 6abd 50d8 0b3c 68c8 1cbc
00000060: 3a96 26bd 2b38 0fbd 0235 acbc 3afd 413d
00000070: 6757 62bd 8646 84bd 4677 0c3d 4163 a2bd
00000080: 004a 53ba c021 5d3c 0a2e 593d a7ea 94bd
00000090: 235e 92bd 7c2e 5bbd ac4d e33c 74f8 1f3d
000000a0: 7710 5abd aea1 d7bc 9476 b5bc 180c 6ebc
000000b0: 6f5d 95bd 9629 5d3d 3fb5 85bd 9105 31bd
000000c0: 6d3f 9f3d 0cea 01bd 8bc5 8e3d f05a dd3c
000000d0: 0ab8 413d 520b 693d c090 a83a e26d 6b3d
000000e0: c21d 643d 5a4a 783d 7ca1 55bd 0b50 833d
000000f0: 2279 683d 10b2 1e3d d5d9 9a3d eec4 603d
00000100: 26e6 473d be52 263d ad2b 82bd 3067 1a3c
00000110: a3e7 9a3d 706e 6c3c 8e54 19bd 27fa 8c3d
00000120: 2f8e 873d 205f a13b c41d d93c ee5d 49bd
00000130: 28f4 843c 30bf 52bc 806c 7e3b 4c31 13bd
00000140: 1235 0f3d 8332 6cbd 3871 94bd ccd8 edbc
00000150: 0477 34bd c195 a53d a863 453c 808b 853b
00000160: 0083 69ba 9a2f 493d b8d2 99bc 8171 803d
00000170: ec22 213d 9ab6 3abd 409f 9fbb ed6a 883d
00000180: 054b 9cbd 9463 c73c 1f24 66bd ecaf b53c
00000190: 5054 68bd a8b0 a43c 8098 c53b c075 60bb
000001a0: 6850 4b3c a109 24bd 4026 82ba 3a01 343d
000001b0: c3b2 8abd 8d91 943d f4d3 63bd 707b a2bc
000001c0: d927 8e3d 79dd 813d f623 753d 90ab b5bb
000001d0: 5d88 32bd 9493 87bd 18b5 8a3c 40c9 843a
000001e0: 7aa0 6fbd da86 553d a24b 99bd 727f 2f3d
000001f0: f687 163d 6276 453d 8932 30bd 8804 163c
00000200: e001 5d3c f422 d33c 2e8a 0d3d 227e 713d
00000210: 42c9 3b3d c08f 5d3b e620 423d 0aea e7bc
00000220: a4f3 8c3c 4a6c 463d 4478 9abc d3ef 813d
00000230: f480 a73c d4fa 0abd 2cb9 7abd 58f3 693c
00000240: 5556 84bd 420d c8bc 5000 913c 2444 d8bc
00000250: 8022 44bb a0b0 5bbc 213b a33d be86 593d
00000260: efe9 2abd 23ab a5bd 4c55 6dbd 34f2 c53c
00000270: 8562 933d 7070 73bd 2af1 713d d8b8 1bbc
00000280: 0b05 0abd 9e92 403d 72e9 06bd 24dc e6bc
00000290: ca7b 40bd 6e29 543d 50c2 fcbc 98a6 833c
000002a0: 33c9 813d f647 353d 5cfb 243d e6b1 93bd
000002b0: e6d9 773d 282a 163d eda8 853d 7186 16bd
000002c0: fc49 85bc d87d e13c c442 63bd 7779 6cbd
000002d0: 9093 b6bb e02c 723c a02f bf3c c1f2 88bd
000002e0: 5c2e fc3c 7a7a 99bc 5d51 a43d 70b0 cb3b
000002f0: 0530 903d 0ac8 febc 1fd9 0dbd 3ade 453d
00000300: 88f0 de3c 2a69 13bd 8052 433b eaac 623d
00000310: 4cf6 0c3d 527a f4bc f81d 293c 929b 333d
00000320: c0b5 a1bd 5668 093d cd37 a4bd 1659 4f3d
00000330: 0dd3 8fbd ee5d d0bc 042d 6cbd 1bfc 4ebd
00000340: 6ecd 9dbc f05a 3d3c cabb cfbc 833e 97bd
00000350: c0ad 9a3b 0901 913d 5444 83bc 7e57 3c3d
00000360: 07f9 8f3d 75a0 883d 0580 8f3d c031 d93c
00000370: deaa 6e3d a832 bd3c 6a06 a6bc 0053 38ba
00000380: f78a a1bd 0a40 333d d0ba 52bd 80c0 e43b
00000390: 6765 a33d dec5 cbbc e9fd 2abd c0f6 2bbc
000003a0: 0e09 8fbd 2ce1 8abc c3a8 813d ee67 093d
000003b0: 8eb8 4e3d 96a8 7abd f904 90bd cae4 d2bc
000003c0: 64f2 60bd 9c26 8ebc a89a ebbc f0a9 c2bb
000003d0: 7e36 483d c9be 4ebd f040 0d3c 6062 90bd
000003e0: 583d 3b3c c076 70bb dff3 a1bd 7414 a3bc
000003f0: ea4c 443d 66f6 573d f08a b6bb d68c 583d
-0.0673377 0.076099716 0.027883142 -0.074939914 -0.049833987 -0.029796414 -0.053347252 -0.035997335
0.009077959 0.047782116 0.059873827 0.0026976764 -0.039674494 -0.023553371 0.03866622 0.053503968
0.03913165 -0.07507913 0.02790033 -0.07722775 -0.059686214 -0.057205398 0.00853546 -0.009569265
-0.04067061 -0.034965675 -0.02102137 0.047360636 -0.055259135 -0.06458764 0.034293436 -0.079290874
-0.0008060038 0.013496816 0.053022422 -0.07271319 -0.071468614 -0.053511128 0.027746998 0.039055303
-0.05323836 -0.026322212 -0.022151269 -0.014529251 -0.07293212 0.053994738 -0.065287106 -0.0432182
0.077757694 -0.031717345 0.06971272 0.027020901 0.047294654 0.05689556 0.0012860522 0.05747784
0.05569244 0.060617782 -0.052155957 0.06411751 0.056756146 0.038744032 0.075610794 0.054875307
0.04880347 0.040606253 -0.06355987 0.009424016 0.075637124 0.014430627 -0.037434153 0.0688365
0.06618916 0.00492467 0.026503451 -0.049161844 0.016229704 -0.012862965 0.0038821995 -0.035935685
0.03496272 -0.05766536 -0.07248157 -0.02903404 -0.044058815 0.08085204 0.012047686 0.0040754676
-0.0008907765 0.049117662 -0.018777236 0.06271649 0.039339945 -0.0455843 -0.004871279 0.066610195
-0.07631496 0.024339475 -0.05618679 0.022178613 -0.05672103 0.020103768 0.0060301423 -0.0034249872
0.012409307 -0.040048245 -0.0009929612 0.043946482 -0.06772377 0.07254324 -0.055622056 -0.01983425
0.06941194 0.06341071 0.05984875 -0.0055441335 -0.043587077 -0.06619945 0.016932055 0.0010130778
-0.05850265 0.052130558 -0.07485129 0.04284615 0.036750756 0.0482086 -0.043016944 0.009156354
0.013489217 0.025773503 0.034555607 0.05895818 0.04584623 0.0033807606 0.047394656 -0.02830984
0.01720602 0.048443116 -0.018856175 0.06344571 0.020447232 -0.033930615 -0.06121175 0.014279209
-0.06461779 -0.024420384 0.017700344 -0.02639968 -0.002992779 -0.01340881 0.07970262 0.053107016
-0.041727003 -0.08089282 -0.057942674 0.024163343 0.071965255 -0.0594334 0.059067883 -0.009504519
-0.033696216 0.047014825 -0.032937475 -0.028181143 -0.046993054 0.051797323 -0.030854374 0.016070649
0.06337204 0.04425808 0.040278777 -0.07211666 0.06051054 0.036661297 0.06526361 -0.036749307
-0.01627063 0.027525827 -0.055483595 -0.057733025 -0.00557179 0.014781207 0.023338139 -0.06686927
0.030783825 -0.01873516 0.08023331 0.0062161013 0.07040409 -0.031101245 -0.03463089 0.048307635
0.027214304 -0.035988964 0.0029803813 0.055340685 0.034414575 -0.029843483 0.0103220865 0.043849535
-0.07895994 0.033546768 -0.08018456 0.05062207 -0.070226766 -0.025435414 -0.057660118 -0.050533395
-0.019262996 0.011557326 -0.0253581 -0.0738497 0.0047204196 0.070802756 -0.016023792 0.045981877
0.0702992 0.0667123 0.0700684 0.02651298 0.05826842 0.023095444 -0.02026673 -0.0007031411
-0.078878336 0.043762244 -0.05144769 0.0069809556 0.07978325 -0.024874624 -0.041746054 -0.0104958415
-0.06984149 -0.016953073 0.06331017 0.03354638 0.050468974 -0.061195932 -0.070321985 -0.02574386
-0.05491866 -0.017352395 -0.02876027 -0.0059406683 0.048880093 -0.050474916 0.008621439 -0.070500135
0.0114282 -0.0036691874 -0.07907843 -0.019907214 0.047924913 0.05272522 -0.005570762 0.052868687

sequential/dense/BiasAdd/ReadVariableOp:0 f4 [128]
00000000: 3bbc 85bc 706e 0e3d 1cac a53c d1a3 883c
00000010: e36b 913d 1475 69bd 0e70 cebc ed77 6f3c
00000020: fb2d a33c 1ab9 77bc 3cbb bfbb 9e32 a3bc
00000030: a6ab 24bc b61b 003d 0d27 f0bc 07a0 b7bc
00000040: 24fd 2f3c a095 f9bc f3f8 203d d043 a6bc
00000050: 5969 babc b0ab 8a3b 58e9 a1bd efee e33c
00000060: 4170 20bc 8c72 5d3d bf77 4bbd 439b 4c3d
00000070: 809d 7bbd bb92 32bd 2d44 e4bc a742 d6bc
00000080: 3fa1 d33b a781 6e3d 74b6 943d c6b4 85bd
00000090: a0a6 8c3c a707 36bd 3483 7ebc 84ae b53d
000000a0: 2229 993c 5d0b a13c a818 8ebb 99b0 203d
000000b0: 7806 0b3d ee19 81bc b477 0a3c 439a 813c
000000c0: 9845 89bc 71bf 83bc 0699 1ebd baf8 563c
000000d0: 9122 4cbd bb32 3a3d bb9c 46bd 441e 403c
000000e0: be31 4cbc 3135 3d3d 5070 4abd 6883 473d
000000f0: b9fe 203d cd85 733b cd29 3a3c 3736 0b3d
00000100: 9b84 d3bc b096 ddbc 5a66 a73c 0673 ebbc
00000110: bc2f 85bd b07d d7bb 7369 303c 98c4 603d
00000120: e249 a03b f6bf c23c 9837 913c 1f1a 003d
00000130: 31b9 22bd 28ab f03c f214 5e3c 6385 7b3d
00000140: fedf d3bb e844 3e3c f94d 98bb 531b 363c
00000150: 8abb 55bc 9801 87bc 4d69 b73c 5919 af3c
00000160: 85f8 4fbb 23f7 02bd 68db 453d 5d1e 603d
00000170: fa77 d9bc dc4f 343d 2e8a 43bc 58aa 383c
00000180: a87d 8cbd c5cb 99bc 0cbb 40bb 1435 b3bc
00000190: 6398 ce3b 8e87 d5bc 043e 85bc ec48 583b
000001a0: bf93 dc3b f962 653d 20c5 21bd 2d86 ea3c
000001b0: 29e2 17bd 06ad 423d 901c 0abd b1f1 c93b
000001c0: baea 1a3c ab2f 0ebd bb18 7b3d d8ae 0d3d
000001d0: 8cfd 7abc ae84 653c 7612 0cbd 52ed 2c3d
000001e0: c13e 523d 2ae5 f73c 6820 e23c d548 84bb
000001f0: 5359 933c faf4 13bb b132 733c 4e3d c03b
-0.016325107 0.03477329 0.02022367 0.016679676 0.07100656 -0.05699642 -0.025199916 0.014615995
0.019919386 -0.015119815 -0.0058511775 -0.019921597 -0.01005069 0.031276427 -0.029315496 -0.022415174
0.010741506 -0.030466855 0.039299916 -0.020296007 -0.022755312 0.0042318925 -0.07905835 0.027823893
-0.009792388 0.05406432 -0.049674746 0.049952757 -0.0614295 -0.043596964 -0.02786454 -0.02615483
0.006458431 0.058229115 0.07261363 -0.065286204 0.017169297 -0.04444089 -0.015534211 0.08871177
0.018696371 0.019658739 -0.0043364353 0.039230917 0.033941716 -0.015759435 0.008451391 0.015820628
-0.016756818 -0.016082497 -0.038720153 0.0131208245 -0.049837653 0.045458537 -0.048489314 0.011725966
-0.012463031 0.046193305 -0.049423516 0.048709303 0.039305422 0.003715861 0.011362505 0.03398725
-0.025820067 -0.027049392 0.020434547 -0.02874137 -0.06503245 -0.0065762624 0.010767329 0.054874986
0.00489162 0.023773175 0.017726704 0.03127491 -0.039727394 0.029378489 0.013554798 0.061406504
-0.006465911 0.011613108 -0.004647967 0.011114913 -0.013045201 -0.016480252 0.022389079 0.021374391
-0.0031733823 -0.03197397 0.048304945 0.054716457 -0.026546467 0.044021472 -0.0119348 0.011271082
-0.068599045 -0.018773923 -0.0029408364 -0.021875896 0.006304787 -0.026065614 -0.016264923 0.003300245
0.00673148 0.05600259 -0.039494634 0.028628433 -0.037080918 0.04752829 -0.033718646 0.006162845
0.009455377 -0.03471343 0.06130288 0.034590572 -0.015319239 0.014008684 -0.034197293 0.042218514
0.051329378 0.030260641 0.027603343 -0.0040370026 0.017986929 -0.0022576437 0.014843629 0.005866683
