models/model39.onnx (onnx, 250018 bytes, 10 tensors)

sequential/dense_1/MatMul/ReadVariableOp:0 f4 [84, 10]
00000000: 14fb 8fbd 9125 ccbe 5721 e63e 24ca ba3d
00000010: 545d ab3e b36f c3be 1c65 90be 0f06 1dbe
00000020: 51f7 9d3e 3f2c 89be 900e 973e 6cb3 f43d
00000030: bd7c acbe 8ccb cbbe f216 8f3e d98d 343e
00000040: 3824 91bc ef37 803e 6484 8ebe 5d15 ec3e
00000050: ad26 8b3c ace6 20bd fa98 2dbd 7f48 0c3e
00000060: 7dc2 84be 2321 db3e 4840 c63e 5b7c 84be
00000070: b02e c7bc 35f6 b2be c744 cebd 689e c93e
00000080: fbd1 013f 75f0 58be 029a 22be 9b72 a6be
00000090: 53e7 8fbe d5e7 383d ec64 a7be de27 de3d
000000a0: dac6 213d 71fe 853e 827b b33e e900 55be
000000b0: fb0a afbe e7e0 57be 5b2e 783e 8fde c23e
000000c0: 35d4 c83e e2ad b7be 84ea 543e 7a98 9abe
000000d0: 5360 c8bd 7b7b 35be 3466 733e 1261 55be
000000e0: 2f5c ee3e 4b8b babe 9e82 833d 6bbe 13be
000000f0: f208 adbe e788 98be e986 b4be 925d 583e
00000100: 4138 d53e 5fc9 f93d 7288 853e 1419 80bd
00000110: cc51 103e af5e 81be 363a d2be 679f a73e
00000120: 0403 1cbd 5700 853d 1fb2 be3e b745 82bd
00000130: 297c 6abe 56e9 523e 845d 8d3d ebe2 273d
00000140: 0d0d 89be 66e4 60bd 97bb c4be cf1e 173e
00000150: d8b8 61be d753 d93e 2659 6cbe 6e62 533e
00000160: cb80 cf3d 1608 1ebe bbeb 883d 7e2d 8cbd
00000170: 2675 163e 616b b0be 25e6 8fbe 2564 2c3e
00000180: 6de4 053f 40e3 75be a6de b1bd 4f67 cb3d
00000190: ec18 b9bc 4962 e03e ebc7 dd3d 5496 2dbb
000001a0: 952d 34be 54e1 923e 8676 ad3e 64e8 983e
000001b0: 45e4 24bd 590e 98bd f44a d03d 8c1e 8abe
000001c0: 5627 9d3e 0b16 a2be 6b1a 9d3e a0bc 723e
000001d0: 9a90 afbe e630 afbd 4d43 72be fcef b23e
000001e0: f145 05bd a594 393e cf3d e9bd 77dd 80be
000001f0: 398e 873d 0ae9 61be 1b36 fcbd bfa8 c2be
00000200: 48c7 4bbe 051f 8e3e ad9b afbe 7a25 e73e
00000210: 0cbe 253d 45f4 b3be 6d93 24be 61c2 2f3e
00000220: 0f39 6d3d 196a a43e 7cb5 b4be 89a7 143e
00000230: acbd dc3d f978 7c3e 3ba1 443d edbe 1bbe
00000240: ce7a ca3e 8fee b9be a937 853e fee7 39be
00000250: 8f47 fd3e 6582 91be 9d7a 4a3d cb62 74be
00000260: b684 a63e 975b 98bd 1457 1e3e d46d bc3d
00000270: be9d a2bd 7ac0 b2be f879 15be 1807 44be
00000280: 2e4e 4abb 8d46 92bd d5cf d0bd b5c2 873e
00000290: a174 ab3e 0155 b23c 1fa3 663e 16de 0fbe
000002a0: 68b5 a1be 1e1f 56be 0bad ab3e bbd5 a0be
000002b0: f463 ce3e 358a d3be 5e68 a43e a3b5 49be
000002c0: 4f21 3c3e 7635 c23e ba57 2d3e e941 533e
000002d0: 03f8 9f3e acc1 5bbe 1456 913d 44ec 45bc
000002e0: 94f4 3d3b dbea b2be c0ef a63e a35a 42be
000002f0: 531e 92be 745f 663e bf5f f9be d983 d0be
00000300: 238a ffbd ee8e bd3e 98e4 5d3e d2d5 a8bd
00000310: 4a99 b83e b85b 98be 148e b13d 1538 a5be
00000320: 17bd 3a3e 4324 30be 2134 91be d2b9 39be
00000330: 09e3 e1bd 3cef 773e 8e16 8a3e 7583 313e
00000340: e2de a4be b52a dbbe 45c4 fc3e 15d3 70be
00000350: a195 90be 84f9 f83d bd42 8bbe 33e4 e33d
00000360: 0845 89be b20a 86bd 5b08 39be 33b5 a13d
00000370: 1924 873d 236e cf3e bc6d f33e a6a3 75be
00000380: 313b 393e f416 e3bc 59ec 633e bf0a d0be
00000390: dcae d1be 7e4b da3c 8609 b0be e739 823e
000003a0: 9070 7a3e ea7d bfbe 0e09 2c3e b5a5 b0be
000003b0: b692 a23d 38a0 08be 96a5 a53e e597 6dbe
000003c0: b37e f33e d48b 05be 5442 89be cee2 90be
000003d0: ddc6 60be 9b8a 3c3e a25d a4bd 3781 a13d
000003e0: 5573 46be 6ca6 a1be be23 c9bd 19c7 b53e
000003f0: 1d5f ecbe 25de cf3d d7e8 a9be 8a75 7a3e
-0.07030311 -0.3987241 0.4494731 0.091205865 0.3346964 -0.38171157 -0.2820214 -0.15334342
0.3085275 -0.2679157 0.29503298 0.119482845 -0.33688918 -0.3980373 0.27947193 0.17632236
-0.017717466 0.25042674 -0.2783538 0.4611005 0.016986215 -0.039282486 -0.042382218 0.1369953
-0.25929633 0.4279872 0.38720918 -0.25876126 -0.024314255 -0.34953466 -0.10071712 0.39378667
0.5071103 -0.21185477 -0.15879062 -0.32509312 -0.28106174 0.045142967 -0.32694185 0.10847448
0.03949628 0.26170686 0.35055166 -0.20801128 -0.34188065 -0.21081887 0.24236433 0.38060424
0.392244 -0.3587485 0.20792586 -0.30194455 -0.097839974 -0.17722885 0.23769456 -0.2083781
0.46554706 -0.36434397 0.064213976 -0.14428107 -0.33795887 -0.29791948 -0.35259178 0.21129444
0.4164448 0.121966116 0.26080662 -0.06254783 0.14093703 -0.2526755 -0.41060036 0.32738802
-0.038088813 0.064942054 0.3724527 -0.06360953 -0.22898926 0.20596823 0.06902602 0.04098789
-0.2676777 -0.054905318 -0.3842437 0.14757846 -0.22043169 0.42446777 -0.23080882 0.20643017
0.10131987 -0.15432772 0.06685587 -0.068446144 0.14693126 -0.34456924 -0.28105274 0.16835077
0.52301675 -0.2401247 -0.08685045 0.09931814 -0.022594891 0.43824986 0.10829147 -0.0026487308
-0.17595513 0.28687537 0.3387949 0.298648 -0.040256757 -0.074246116 0.10170546 -0.2697643
0.30694073 -0.31657442 0.30684218 0.23704767 -0.3429001 -0.085542485 -0.23658486 0.3494872
-0.032537404 0.1812311 -0.11388742 -0.25168964 0.06618924 -0.22061554 -0.12315007 -0.38019368
-0.19900239 0.2775804 -0.3429846 0.4514578 0.040464446 -0.351473 -0.16071863 0.17163993
0.057915743 0.32112196 -0.35294712 0.14517035 0.107783645 0.24655522 0.048005324 -0.15209551
0.39546818 -0.36314818 0.26019028 -0.18154904 0.49468657 -0.28419796 0.04943334 -0.23865812
0.32523125 -0.074393444 0.15462905 0.092006356 -0.07940243 -0.34912473 -0.14597309 -0.19143331
-0.0030869353 -0.07142363 -0.10195891 0.26515737 0.33487418 0.021769049 0.22523163 -0.14049563
-0.31583714 -0.20910308 0.3353046 -0.31413063 0.40310633 -0.4131638 0.32110876 -0.19698195
0.18372081 0.37931412 0.16927996 0.20630611 0.31243905 -0.21460599 0.07096496 -0.012080256
0.0028984891 -0.34944806 0.3260479 -0.18979888 -0.2853876 0.2249735 -0.4870586 -0.40725592
-0.12477519 0.3702311 0.21669233 -0.08243908 0.3605445 -0.29757476 0.086696774 -0.3226935
0.18236195 -0.17201333 -0.28360084 -0.18137291 -0.11029632 0.24212354 0.26970333 0.17335303
-0.32201296 -0.4280602 0.49368492 -0.23518021 -0.28239158 0.12156966 -0.27199355 0.1112751
-0.2681048 -0.06545009 -0.18069594 0.07895889 0.06598682 0.40513715 0.47544658 -0.23988208
0.18088986 -0.027720906 0.22258128 -0.406332 -0.4095372 0.026647326 -0.34382266 0.254348
0.24457002 -0.37400752 0.16800329 -0.34501424 0.07938139 -0.13342369 0.32352895 -0.23202474
0.475576 -0.13041621 -0.26808417 -0.28298038 -0.2195086 0.18412249 -0.080256715 0.07885974
-0.19379933 -0.31572282 -0.098212704 0.35503462 -0.46166316 0.101497926 -0.33185455 0.244589

sequential/dense_1/BiasAdd/ReadVariableOp:0 f4 [10]
00000000: 3d3c 88bd 783a b23d 99d9 a33d f5c3 b5bc
00000010: a923 dbbc e83c 7a3d 102b 75bd 6c9f 723d
00000020: f171 e1bd afef 94bb
-0.066521145 0.08702558 0.08000488 -0.022188166 -0.026750403 0.06109324 -0.05985552 0.059234068
-0.11008061 -0.004545174

sequential/dense/MatMul/ReadVariableOp:0 f4 [120, 84]
00000000: b24e 47bd c921 633d dafc ba3d 6ce5 4d3e
00000010: a548 ef3d 177e e4bc a899 3cbd cca4 1f3e
00000020: 2b61 dd3d fe56 e93d 57b1 853d 1450 203e
00000030: 10f2 033e 5af2 3a3e 1b8d 103d 2262 e43d
00000040: d786 f7bb 8033 85bd 6edb 04bd 5d85 ffbc
00000050: dee4 963b 0cba 743d e589 2e3e 0667 d23d
00000060: 8152 743e 9334 393e 0776 1cbe 2878 e13d
00000070: 3503 6b3e 4f59 18be 8bbf d23d 7dc7 883e
00000080: 6ec2 b53d 9815 123e 6c0d c43c bc4c a5bb
00000090: 3140 82be 160f 093e 1ad9 8d3c b145 893d
000000a0: 5d2c 11be 5df6 023e 611a 443e 2db5 9f3d
000000b0: f032 3a3e 78d2 6d3e d453 553d 7c99 2a3e
000000c0: 3dfc 893e bb9d 25be 8858 1e3e 21f5 18be
000000d0: 76b3 11bd 942f 953c 18a5 3a3e ec12 723d
000000e0: b4b6 8b3c fa5b 423b c372 563e aadd 343e
000000f0: 8d2b de3d 4ef0 80bc ec34 b53d e1b9 03be
00000100: 4c08 2cbe 6e4b f4bc d7b6 58be 210b abbb
00000110: 7fd9 09be 771d 1cbb 9570 503d aae5 043e
00000120: 0a5c 2bbe 1dd2 9d3d b3c1 eabd ebfe fd3c
00000130: 9cc9 013e 2df3 7dbd 8c8e 8fbc ce5a 02bd
00000140: 23da febd 5df2 fdbd 21f5 79bd 55b5 16be
00000150: 97a8 11be 5e9c 403e 9c7e 44bc 38ab f13d
00000160: 912d ca3d d119 e03d 8bda 6dbd 5a83 a2bd
00000170: 8909 8bbe b852 0f3e 1a47 4bbe d7f8 343e
00000180: 66e1 443e 2de1 41bd f6c2 2d3e 1870 aa3d
00000190: baf6 473e 9c07 333e 207c 973e 8e98 073d
000001a0: f1d2 363e 8946 0fbe a586 9d3d 1e64 f5bd
000001b0: 7605 f63d 94a9 60be 7f74 d1bd dc6a 0dbe
000001c0: 02b2 21bd d4b2 6e3e 5556 2d3c 6885 62be
000001d0: bf03 3fbe 4d75 2a3e db03 5a3e 77a1 3cbe
000001e0: e2ad 92bd 5a14 6bbd c0ab 343d f881 8cbd
000001f0: 85e2 ef3c 0b5e f7bd f3c7 b4bc 7418 183d
00000200: 3207 e2bd b4b1 e23d 5b76 4b3d e151 b8bd
00000210: 9a51 693c c0a4 013e cf6d 0d3d f4b9 753e
00000220: 6e02 6f3d c5e7 2ebe af0c 2e3e 2fb9 f43d
00000230: e6b4 8cba ff0a f8bc 1fa2 b0bd 66e8 4ebd
00000240: 4fd8 8fbd 0477 8ebe d0b9 4abe e685 69bd
00000250: 0e52 0d3e 7e75 533d 41b5 b8bd 8cee 9cbd
00000260: 3b34 1d3c 3c73 2c3e 236f a7bd 319f 25be
00000270: eb8f da3d c626 4939 e850 54be 2726 90bd
00000280: e925 3dbe fc0d 943d 6016 c13e 2100 3a3e
00000290: b347 30be 6ddd dd3d 28b3 063e a6e7 803d
000002a0: aec2 5c3d 8648 a7bd 2f36 6d3d 0964 bbbd
000002b0: cb9e 9fbd 0310 14be 1f36 10be 9ed7 d1bb
000002c0: 678e ce3e 1a60 d4bd 3685 a93d 3e85 a3bd
000002d0: 4c1e 6c3c 9750 6bbe 2ae8 3fbe cb17 fbbc
000002e0: 594e 81be 2047 48bd d50f 40be 3815 163d
000002f0: 1f72 8bbe d1da 1dbd 83fe b3be f469 96bd
00000300: 941a d8bd e43a 6f3e 15ec 8b3e bd00 793e
00000310: 94ff c63d 2ca3 373a 5c9f 823e 1728 2a3e
00000320: 8025 de3d e7d5 84bd d21a 8cbe ee50 043e
00000330: 3b39 f0bd b471 26bc 1d81 413d 17ad 33bc
00000340: a1b9 25be 61fa b43d 4ab4 c43c ea4e c93d
00000350: 6050 0c3a d8df d4bd 394f bebd f8ce dd3d
00000360: be76 d63c eaba 5abe 02ad a4bd 99ec 4d3d
00000370: 3f43 8bbc d178 2c3e 9077 58be dd11 813c
00000380: b054 20bd 528c 92bd 36ca 813b e80e 1d3e
00000390: 23d9 193e f796 00bd 9fa1 82bd 2c6d d3bd
000003a0: 9696 ef3d c89b 29bd 831b 2c3e 1696 3ebc
000003b0: 5ebb 31be 8827 043e e3e8 57be 3a28 cebd
000003c0: 4961 a13d b1f5 6e3c 58f2 813e 09ff 203e
000003d0: 7a44 febc cc40 8cbd 950c 64be 40d2 d93d
000003e0: 2938 583e 53ed ec3d 610b 553d 40f2 4cbe
000003f0: ae07 a1be 6536 a13e 4517 3bbd 4fa0 76be
-0.048659034 0.055452142 0.09130259 0.20107049 0.11683778 -0.027892156 -0.046044976 0.15590209
0.10809549 0.113935456 0.065279655 0.15655547 0.12885308 0.18256512 0.03529082 0.1115153
-0.007553916 -0.065039635 -0.032435827 -0.031191522 0.00460492 0.05974774 0.1704479 0.102735564
0.23859598 0.18086462 -0.15279399 0.11009246 0.22950442 -0.14877819 0.1029044 0.26714697
0.08874975 0.1426605 0.023932181 -0.005044548 -0.254396 0.13384661 0.017315436 0.06702746
-0.1417708 0.12789293 0.19150688 0.077982284 0.18183494 0.23224819 0.052081898 0.16660112
0.26950255 -0.1617345 0.1546346 -0.1493726 -0.035571538 0.018211164 0.18227041 0.059100077
0.017054893 0.0029656873 0.20942216 0.17662683 0.108481504 -0.015739586 0.08847985 -0.12863876
-0.1680004 -0.029821124 -0.21163498 -0.0052198325 -0.13461874 -0.0023821273 0.050888617 0.12978235
-0.16734329 0.077060916 -0.114627264 0.031005343 0.12674564 -0.06199949 -0.017524026 -0.03182488
-0.1244395 -0.12399743 -0.06102479 -0.1471761 -0.14224468 0.1880965 -0.011993077 0.118002355
0.09871972 0.10942424 -0.058069747 -0.079352096 -0.27155712 0.13996398 -0.19851342 0.1767305
0.19226608 -0.047333885 0.16968903 0.083221614 0.19527712 0.17483371 0.29586887 0.03310447
0.17853905 -0.13991751 0.07691697 -0.119819865 0.1201276 -0.21939689 -0.10227298 -0.13810295
-0.039476402 0.23310405 0.010579665 -0.22121203 -0.18653773 0.16646309 0.21290533 -0.18420969
-0.07162072 -0.057392456 0.044109106 -0.06860727 0.029282818 -0.12078484 -0.022068 0.037132695
-0.11036529 0.110690504 0.04967342 -0.08999992 0.014240647 0.12660503 0.03452855 0.23996717
0.058351927 -0.170806 0.16997026 0.119493835 -0.0010735064 -0.03027868 -0.08624672 -0.0505146
-0.070236795 -0.27825177 -0.19797444 -0.05701246 0.13800833 0.05162572 -0.090189464 -0.07662687
0.009594972 0.16840833 -0.081754945 -0.16174008 0.106719814 0.00019183298 -0.20733988 -0.07038527
-0.18471493 0.0722923 0.37712383 0.18164112 -0.17214851 0.10833249 0.1315428 0.062941834
0.0538966 -0.081681296 0.057913 -0.091499396 -0.07793959 -0.14459233 -0.14083146 -0.0064038774
0.4034302 -0.103698924 0.08277361 -0.07984398 0.01441152 -0.22979961 -0.18740907 -0.030650994
-0.25255087 -0.048895955 -0.1875604 0.03664133 -0.27235505 -0.038538758 -0.35155115 -0.07344428
-0.105519444 0.23362309 0.27328554 0.24316688 0.097167164 0.00070052105 0.25512207 0.16616856
0.10846996 -0.06486111 -0.27364212 0.12921497 -0.11729666 -0.010158945 0.047242273 -0.010966561
-0.16184093 0.088368185 0.02401175 0.09829505 0.0005352553 -0.10394257 -0.09292454 0.10830492
0.026179668 -0.21360365 -0.08040811 0.050274465 -0.016999839 0.16842963 -0.2113936 0.015755588
-0.039143264 -0.0715567 0.003960873 0.15337718 0.15024237 -0.03139397 -0.06378483 -0.10323557
0.11698644 -0.04140833 0.1680737 -0.011632463 -0.17356631 0.12905705 -0.21084933 -0.10066266
0.07879884 0.014584945 0.25380206 0.15722288 -0.031038512 -0.068482965 -0.22270425 0.10635805
0.21115173 0.115687035 0.052012805 -0.20014286 -0.31451172 0.31486812 -0.04567649 -0.2408459

sequential/dense/BiasAdd/ReadVariableOp:0 f4 [84]
00000000: c3d8 72bd d93d 283d 465e 233c 60cb 8f3c
00000010: c796 853b 916f b1bd cd6c 4cbd f970 f73c
00000020: ee5d 723c 740b 2abb d10d b63d bc73 ee3c
00000030: cc5f 18bd a855 c63d d5be 71bd 75d6 ccbc
00000040: 4a1d 89bc 40db 31b9 991b 7dbd bd98 8ebd
00000050: 2ff9 3b3d 7a96 2dbd 4e82 323d 1384 77bc
00000060: 5df7 743d 3ab6 803a 0a42 86bc 4e88 3f3c
00000070: f716 b33b 3023 d2bd 026e 6ebc a394 00bd
00000080: 40da c93d 082a 733d 7c9a 29bd 5c48 61bd
00000090: c0e5 8fbd 64bc b63d 1fbd 003d d2d8 463c
000000a0: 4db4 043d adc2 363d 94ba 48bd 1cea 48bd
000000b0: 9ebd 143d fd4b 7a3d 2581 a7bc 26b3 0ebd
000000c0: ce64 bcbc 5b91 d9bc d52c 113a 35c1 23bd
000000d0: aa1d 93bc 6724 7dbb 26df 413d 6dff f93b
000000e0: e1f6 26bd 034c ae3c 334c 35bd 9986 323d
000000f0: 609e 8dbc 34be 8cba f34b 9abc 0523 8ebd
00000100: c118 f7bd 63af 783d a6c0 94bc 0c07 2f3d
00000110: aa96 d23d 7429 2fbc e6db 4f3d 70e7 b83d
00000120: 7a53 c33c 9362 e23c 9467 87bc 909f 35bd
00000130: ec93 56bc 7921 0abd 2ddb 60bc e943 a1bd
00000140: 4fd1 8ebc 98c0 bdbd 743f b3bd 097b 6f3b
-0.05928875 0.041074608 0.009971207 0.017553031 0.004076812 -0.08663858 -0.049908448 0.030205237
0.014792902 -0.0025946768 0.08889354 0.02910792 -0.037200734 0.096843064 -0.059019882 -0.025004605
-0.016737599 -0.00016961712 -0.061793897 -0.06962726 0.045891937 -0.042379834 0.0435813 -0.015107173
0.059806217 0.0009819933 -0.016388912 0.011690212 0.005465384 -0.10260618 -0.014552595 -0.03139175
0.09856081 0.059366256 -0.041407093 -0.055000648 -0.07026243 0.089226514 0.03143036 0.012136655
0.03239851 0.04461925 -0.04900606 -0.04905139 0.036313646 0.061107624 -0.020447323 -0.034838818
-0.022997286 -0.026558569 0.00055379915 -0.03997918 -0.01795848 -0.0038626434 0.04733195 0.007629326
-0.040762786 0.02127648 -0.044262122 0.043585394 -0.017287433 -0.0010737837 -0.018835044 -0.06940273
-0.12065268 0.060714137 -0.018158268 0.04273133 0.10282643 -0.010691036 0.05074682 0.09028518
0.023843516 0.027634894 -0.016528882 -0.044341624 -0.013096791 -0.03372333 -0.013724131 -0.07874281
-0.01743379 -0.0926525 -0.08752337 0.003654184

sequential/conv2d_2/Conv2D/ReadVariableOp:0 f4 [120, 16, 5, 5]
00000000: 5afd 243d 327b ac3b 9519 5d3d 41ba d73d
00000010: 1262 30be 5c97 6d3a aa65 043d c99e c63d
00000020: f8d7 b23c 577a 8a3c 04ff dc3d 68a1 fd3d
00000030: 162b 62bd 85ff 3bbd d99a 1e3d e77b ae3d
00000040: 1560 a7bc 1133 99bd f875 1fbd d510 b3bd
00000050: 4a27 5bbe f451 85bc 75ba 76bd d47b 89bd
00000060: 9b36 333e b733 fabc 5eed 943d e34f ddbc
00000070: 6391 a6bd 9ddf 65bd c9e5 0bbd 9ba4 48bd
00000080: 7078 ffbd 37e3 14bc 51f9 d83c 40fc 48bd
00000090: 6ca3 0b3d 008f 913d 91d9 ad3d 388d 263e
000000a0: f89b 723d 3e77 0c3d b9d8 c53d 598d 86bd
000000b0: 7038 5b3d 971a 62bd 9685 96bd 9623 e03d
000000c0: 9394 8e3d 7534 ea3c ab32 c0bd da68 5ebd
000000d0: 69bd 3ebd 5e92 dbbc 973f 3a3e eb76 10bd
000000e0: 5cba 52bc 8d3d 74bd bdfb 13be 4d5c c4bc
000000f0: b0e6 3bbd 14a3 9cbd 6bee 23bd 137a 2fbd
00000100: 8742 473d 702d 9dba b6c6 e5bc ca5b 04bd
00000110: 979a 8dbc 07b7 a83d 8160 f43d 9288 01bd
00000120: 69ec 053d 9c1e 393e 04b3 b63d b86b 583b
00000130: d85b 64bd c1d3 413d 1d5a 1cbd d21f 3c3c
00000140: f549 7d3d 16e3 fbbb aebb 3dbd 7c9e 9bbd
00000150: 1441 99bd 1c5b 7e3d 8dcc e0bc c0e1 06bd
00000160: cc28 0e3e 9177 94bb ede9 1c3d b0f6 883c
00000170: a052 c33d ece1 323e 014e c33d f4e8 ff3d
00000180: f596 bf3d d5fe 493d c10b 383e 5d96 033d
00000190: 2d25 dcbd e3c3 84bd 4288 313d 223a acbd
000001a0: 8998 173d 93e4 c23c f833 0e3d 2a2e 92bd
000001b0: ca62 30bd 89e9 97bd 1d57 6d3d 3ccd f7bd
000001c0: aa27 a53d fb9e b63d d65e d83c 74dd 343d
000001d0: f67c c43c dab2 473e 72e9 9cbc 80df 293e
000001e0: 0a66 0f3e 75bf ee3d 14ca 06bd 9f52 443e
000001f0: 71cd 8ebb fb6f f1bc 0d41 813c bb6d 103d
00000200: e8e0 85bd 16d8 c53d cb68 b13d 2d7f 31bd
00000210: 470c 0dbd 1ba2 01be cd8a a9bd 7499 453c
00000220: 8030 11be f905 ad3b bc08 83bd e08c 9cbc
00000230: 81ca 9bbd d681 2dbe 861d e0bb dd0e 0fbe
00000240: 66cc 2e3d dc2c 4c3e 0e60 463d 2c08 a0bc
00000250: 296f 9e3d df11 903d 5b36 403c f9a7 0e3d
00000260: 3c5d bfbc dfbf 85bc 45f9 9fbd 0c79 e53c
00000270: 6486 353d 0164 44bd 3033 45be f4e2 81bd
00000280: dffb 1dbe 4d5c b7bd ad02 2ebd b111 b33d
00000290: 1005 c03d 5f11 a2bd 4318 58bd 3e14 633d
000002a0: 164e c13c f156 bf3d 9b5e 123e 7060 b53d
000002b0: f7df 973c f25a f23d d224 993d 71f3 b43d
000002c0: 9c53 33bd 725a 78bc 2419 573c 1b31 bdbd
000002d0: 90d6 03bd cc56 3cbd 27ff 4f3d 670f b93c
000002e0: ccb4 0bbe b21a 683d 4826 d53d 1989 b9bd
000002f0: 435c 91bc f0e2 06be 013b babd cdb9 2abd
00000300: 2ee1 67bd 9da7 433d 151a c7bc 2c84 55bd
00000310: 244e 823d 190f 19bd 4faa 8fbd ec2d 1f3d
00000320: 47b5 683d 5978 853c 8713 c9bc ac9c c43d
00000330: bfc3 923d 90f9 333d 7da3 813d e9ca 3c3d
00000340: cd53 823c e8ce 0b3e 2a2a 5f3e 9cb0 c03d
00000350: a802 c3bd 3000 87b8 51bd 04be 20ee 31b9
00000360: d91a 0c3e a20e 063d 91b2 ef3d f2ad 8ebd
00000370: 4dde 6dbd c69e 32bd bc42 9e3c eba9 9fbd
00000380: f361 a5bd a42b bf3b c5e0 283d 8f6e d1bc
00000390: ee88 603d 0db8 4dbd 6679 2e3d 4863 903d
000003a0: 120e 133e ff13 aa3d feb9 3c3e e9f3 593d
000003b0: 0262 183e 5f5e 083b 4fc7 5bbd d367 d6bb
000003c0: 6792 bf3b 362b 8ebd 2473 8cbd d2ab d0bd
000003d0: 7997 62bd 203c 34be 17ba f3bd bcf1 03be
000003e0: 0f80 20be 9699 d53d b6ce 83bc 8704 4c3d
000003f0: 1aba 7dbd 1d18 aebd 0599 81bc cf47 a8bb
0.040280677 0.0052637095 0.053979475 0.10533572 -0.17224911 0.0009063387 0.032323517 0.096982546
0.021831498 0.01690404 0.10790828 0.123843014 -0.05521687 -0.04589798 0.038721893 0.08519726
-0.020431558 -0.07480443 -0.038930863 -0.08743445 -0.21401706 -0.01627443 -0.060236413 -0.067130715
0.17501299 -0.030542238 0.07271837 -0.027015632 -0.08133199 -0.056121457 -0.034154687 -0.048985105
-0.124741435 -0.009087375 0.02648607 -0.04906869 0.034091398 0.07107353 0.08488763 0.16264808
0.059230775 0.034293406 0.09660477 -0.06569929 0.05352062 -0.05520114 -0.07349698 0.109442875
0.06961932 0.028589467 -0.09384664 -0.054299213 -0.046567354 -0.026803192 0.1818832 -0.03526966
-0.012861814 -0.059629012 -0.144515 -0.023969794 -0.045874298 -0.07648292 -0.040022295 -0.04284103
0.04864743 -0.0011991691 -0.028048854 -0.0323141 -0.017285628 0.08238035 0.11932469 -0.031624384
0.03269616 0.18078083 0.08920863 0.003302319 -0.05575165 0.047321085 -0.038171876 0.011482196
0.06183811 -0.007686983 -0.046321563 -0.07598588 -0.07483116 0.062098607 -0.027441287 -0.032930136
0.1388275 -0.004530855 0.038309027 0.016719192 0.09537244 0.17468995 0.095363624 0.12495604
0.09354965 0.049315292 0.17973234 0.03212582 -0.10749278 -0.06482675 0.043342836 -0.084095255
0.037010703 0.023790633 0.03471753 -0.07137711 -0.043062963 -0.0741759 0.057944406 -0.12099692
0.08064206 0.08917042 0.026412409 0.044156507 0.023985367 0.1950182 -0.019154284 0.16589165
0.14003769 0.11657611 -0.03290756 0.19172142 -0.0043579866 -0.029472342 0.015778089 0.035260897
-0.06537038 0.09660356 0.08662566 -0.043334175 -0.034435537 -0.12659495 -0.08278427 0.012060512
-0.14178658 0.005280253 -0.0639815 -0.019110143 -0.07606984 -0.1694406 -0.006839457 -0.13970514
0.0426754 0.19938987 0.04843145 -0.019535147 0.07736046 0.07034659 0.011731709 0.03482816
-0.023359887 -0.016326843 -0.07811216 0.028011821 0.044317618 -0.047946934 -0.19257808 -0.06342116
-0.15428112 -0.08953152 -0.04248302 0.08743609 0.093759656 -0.079134695 -0.052757513 0.055439226
0.023596805 0.09342755 0.14293902 0.088562846 0.018539412 0.11833753 0.07477726 0.08835495
-0.043780908 -0.015158283 0.013128553 -0.09237882 -0.032187045 -0.045981213 0.05078044 0.022590352
-0.13643187 0.056666084 0.10407692 -0.090593524 -0.01774419 -0.13172507 -0.09093285 -0.0416811
-0.056611232 0.04776727 -0.02430443 -0.052128002 0.063625604 -0.037367914 -0.07014906 0.038862154
0.056813505 0.016292738 -0.024545444 0.09600195 0.07166242 0.043939173 0.06330011 0.046091948
0.0159091 0.13653147 0.21793428 0.094086856 -0.09521991 -6.4373366e-05 -0.12962843 -0.00016968744
0.13682117 0.0327288 0.11703981 -0.06966771 -0.05807333 -0.04360845 0.01931893 -0.07796081
-0.08075323 0.00583406 0.041229982 -0.025565414 0.054818086 -0.050224353 0.042596243 0.070501864
0.14360836 0.08304595 0.18430325 0.053211126 0.14881137 0.0020808203 -0.053656872 -0.0065431385
0.00584631 -0.069418356 -0.06857899 -0.10189022 -0.055320237 -0.17601061 -0.11900728 -0.12885183
-0.1567385 0.10429685 -0.016089778 0.049809005 -0.06194506 -0.08500693 -0.015820036 -0.0051355134

sequential/conv2d_2/BiasAdd/ReadVariableOp:0 f4 [120]
00000000: 176e e33c a193 84bd eceb 33bb f24e 993c
00000010: 177b 16bd af9a b0bd 512d 253c e49f a6bd
00000020: 1941 dc3c 9ce0 92bb e4ee 453d 603d d73c
00000030: cd6f f73c efb8 013d 9451 edbb 024c 62bd
00000040: 32a2 28bd 9343 cabc f487 cdbc f735 3bbd
00000050: 617b cb3d dc44 033d 52ac 36ba 7bd9 883b
00000060: 30b3 babb 0084 7fbc 6548 4b3d eece eabc
00000070: e3fd d8bc 248e 9f3c 1351 ffbb 2a1a 9b3c
00000080: 4dc5 acbd 550c 80bd 0f7c c23b e127 723c
00000090: 5be5 36bd 3374 1e3d 4b62 cd3c 6078 fdbc
000000a0: 9f1a 0d3d 061b a73c 3b8d ccbc 8e7b 0b3c
000000b0: b155 8ebd 9739 cfbb fdf2 d53d a4da 783d
000000c0: 8f22 893c e8f8 3cbc 4123 843d f076 5b3d
000000d0: 743d 573c f312 96bd 0521 9e3b d385 bebd
000000e0: 0a47 29bd 4354 dcbc 0f35 06bd 2f32 d03d
000000f0: 8008 4cbd 32c6 fb3c dd50 a6bd efc6 3fbc
00000100: 8e47 123d 0b45 90bb 4b09 d53b c296 ffbb
00000110: d9d9 aa3d a01b a7bc ba94 21bd 33b1 ccbc
00000120: 038c 83bd 0734 9ebb f302 a9ba 671c 02bc
00000130: 79d7 72bd 8b75 a4bd 52cb 053d 39cf 56bc
00000140: a042 2a3d 7b5c 173d 88ae 233d 7c83 40bc
00000150: d85f acbd df5e f13c 68af f63b 3104 61bc
00000160: 1683 573d 529b 4bbd 606a 92bd e1aa 3bbd
00000170: 68c6 f93c d738 1fbd 7fd1 c4bc 1d8d 53bd
00000180: dcbd b03c 83c6 7d3d 610a fabc 4a0b ce3c
00000190: 6f91 443d 15d5 b83c 46c3 a93c 5de8 09bd
000001a0: a2dc 48bd 3f42 bbbb 88f8 973c 65ee 17bd
000001b0: 5a9b 74bd cc33 87bb 22c2 cebd 3cf7 123c
000001c0: 2795 853c f338 fe3c be93 bcbd b1d5 f93c
000001d0: 9e94 71bd ca01 083d 45a4 c6bc 2bc0 57bd
0.027762456 -0.064734705 -0.0027453853 0.018714402 -0.03673848 -0.086232536 0.010081605 -0.081359655
0.02688651 -0.004482342 0.048323527 0.026274383 0.030204678 0.031670507 -0.007242391 -0.055248268
-0.041170307 -0.024690425 -0.025089242 -0.04570576 0.09935642 0.03204809 -0.0006968427 0.0041763163
-0.0056976303 -0.015595436 0.049629588 -0.028663125 -0.02648825 0.019476958 -0.007791647 0.018933374
-0.0843607 -0.06252352 0.005935199 0.014780016 -0.044652324 0.038685035 0.025071284 -0.030941188
0.034449216 0.020398628 -0.024969688 0.008513344 -0.06949938 -0.006324004 0.10446737 0.060755387
0.016740112 -0.011533953 0.06452037 0.053580225 0.01313721 -0.07327833 0.0048257136 -0.09302869
-0.041327514 -0.026895648 -0.032765444 0.10165822 -0.049812794 0.030734155 -0.08120892 -0.011705144
0.03571277 -0.004402762 0.006501352 -0.007799954 0.083423324 -0.020398915 -0.039448477 -0.024986839
-0.064231895 -0.0048279795 -0.0012894556 -0.007941342 -0.059287522 -0.08030232 0.032664604 -0.013110929
0.041567445 0.03695343 0.039961368 -0.011750098 -0.08416718 0.029464183 0.0075282343 -0.013733909
0.052615248 -0.049708672 -0.07149196 -0.04581726 0.030490115 -0.038872566 -0.024025677 -0.051648248
0.021574907 0.061956894 -0.030522527 0.025151867 0.04799026 0.022562543 0.020722996 -0.033668865
-0.049038537 -0.0057146843 0.018551126 -0.037092585 -0.059718467 -0.0041260477 -0.10095622 0.008970078
0.016306473 0.031033015 -0.09207867 0.030497404 -0.058979623 0.03320483 -0.024248252 -0.0526735

sequential/conv2d_1/Conv2D/ReadVariableOp:0 f4 [16, 6, 5, 5]
00000000: fee4 e6bd f8a2 5fbd 9d8c 00be 9348 f0bc
00000010: 491d 48be 8bdf 173e 2784 c1bd 8b41 b9bb
00000020: 7592 babd 1a6e b83a cb3b 793d 2042 32bd
00000030: 60bf 8ebb 5234 f53d c239 583d 06f6 613d
00000040: 3d5c 223d 1a9d 5c3d 6347 b13d 4c02 183d
00000050: baea 5cbd dedc e93d de7f 1c3e 4c9b 5d3e
00000060: 5d92 363e bca6 ef3c 34f2 03be 0a6e f2bc
00000070: 69ad e9bd 04fb e2bd a90e b73d 2912 dabd
00000080: 2051 25be 16fe 72be 9e5a ebbd 0b0a 073e
00000090: d71f 533d 892d 90bd f148 4e3d 8f4d bdbc
000000a0: b696 81bd 33c9 0cbd 570d 313e f009 833e
000000b0: d32f 383c 09a3 bebd e22b abbc 6ccb 1d3e
000000c0: fe4b 503e c122 0d3e 2189 1c3c 19fc 063e
000000d0: 399a 28bc ff9c a93c cf5f 9c3d f286 303e
000000e0: d77e 063e f540 663e 6840 1b3e ca39 96bb
000000f0: 633e 113d c282 a23a 6e80 42bc b34b b2bd
00000100: 5273 43be e11f aa3d 2676 20be 5cb6 66be
00000110: d53a 6abb 51b8 b83d b1f5 1dbd 6ace 45be
00000120: 1704 1dbd 2959 d83d 73e6 cd3b 337f f9bd
00000130: 8dd7 55bd c108 a63d d15d 2e3d 7e1f 20b8
00000140: 1099 9a3d 1db2 9bbd f9f5 63be 0c12 80be
00000150: 1946 3abe f49a 113e d0b7 e53d 24b5 75be
00000160: 54e2 b2be e3f8 71bd 5e65 b63c 0861 243d
00000170: d798 b43d 355d 943d 0d36 813d 34d4 dfbd
00000180: 7be1 6c3e a45a c53d 06c3 fabc 91c6 0abe
00000190: df07 9e3d 12a4 d0bc ac8a 243d 9fc7 9a3c
000001a0: 5ab6 81bd 23f9 183e 2f02 063d 0c28 49be
000001b0: 072e 85be e54e 41be 07d1 dc3d a748 143c
000001c0: edd8 143c 3173 273d 0a3b 293e d948 e3bd
000001d0: f704 e1bb 140b 4d3e 5a23 9d3e ecef 083e
000001e0: 00d7 46be d7cb 003d b07c f63d af7c 4a3e
000001f0: 8a92 bc3c d69f 05be d1b3 a6bc da26 3d3d
00000200: 9819 c3bd 3b5e 24bd 475c 3fbe 9f9f 18bd
00000210: 5fdc f93d d72f 543e 92c2 d83d b729 c5bb
00000220: 5ec1 d43c 7ce0 38bc 1b17 d13d 6563 92bd
00000230: e6bc afbc 8f31 433d 3e97 1cbe 6f71 68be
00000240: 59d9 7fbe 8378 4a3e cd3d 21bb 191f 103c
00000250: 810f 1bbe c22e 903d cd0d ac3d 80e9 13bd
00000260: 83b8 6e3d 5027 1b3d a308 053e c2a6 63bc
00000270: 8491 d63c 8954 983d f71f b2bb d32e 6e3d
00000280: 6918 913d f1a2 983d 6d94 fa3d 2d95 5b3d
00000290: b55e 033e 70b8 063e 1c7e f03d 7e06 d93d
000002a0: 2b58 02bd b594 263d 6c6b 0e3d 4eae 89ba
000002b0: 42d7 b8bc 38bb f7bc 9ae8 99bc 3f9c 98bd
000002c0: a332 123e 4e0f e6bc 58d8 a53d 2b1e 833c
000002d0: abf9 f33d 2a09 cf3d 0a34 3fbd c8cd c0bd
000002e0: d917 acbd c65b 363e c349 6b3e 5b30 b43c
000002f0: 6a65 98bc 9e13 b03d 6856 1e3e 8160 af3c
00000300: 128f 963d a5e6 1d3d dc95 a1bd 0e38 bcbd
00000310: e251 d5bd 5c99 18bd 221d fd3b 0bfd 93bd
00000320: 0c20 3ebe 4732 6a3d c911 133e 47a5 5c3c
00000330: 37e4 c0bc 35ab d4be aef9 093d b13d 613e
00000340: 8cad b9bd 7d09 18be 70c2 a1be 7e8c 2c3e
00000350: c2b0 9d3d 9981 063c 77fb c7bd 2b48 5f3d
00000360: d3b0 513e c5eb e0bd a4d6 dabc 3beb c0bd
00000370: 4009 893d b836 433d 6a6f d9bc 5c19 a53b
00000380: 3901 b5bd d806 99bd 0696 8dbe b2a8 763d
00000390: 0923 f13c 56d3 d73d 77e4 8abe 3d07 58be
000003a0: 7e53 8bbd 5025 2bbe cfc2 eb3c 3415 943c
000003b0: e968 f53d 2166 2f3e b827 063e ddd5 843e
000003c0: 9dd6 013d 04b1 963d b1de 8f3d c2c5 573e
000003d0: 4b1c 8b3e c197 90bd 0efc 1abe 12c4 7c3c
000003e0: a8e1 143d afff 143e 8dfc 533d ce7f 29bd
000003f0: b8c2 5abd d48a d9bd b5bf c3bb 1f6d a93d
-0.112741455 -0.05459878 -0.1255364 -0.029331481 -0.19542421 0.14831369 -0.09449034 -0.0056535653
-0.09109966 0.0014070899 0.06084804 -0.043520093 -0.00435631 0.1197287 0.052789457 0.055166267
0.039638747 0.05386076 0.08656194 0.037111565 -0.05393479 0.1141908 0.15283152 0.21641272
0.1782927 0.02925431 -0.12885362 -0.029593486 -0.114100285 -0.11083034 0.08938343 -0.10647995
-0.16144228 -0.23729739 -0.11491893 0.13187425 0.051544037 -0.07039935 0.05036253 -0.023108272
-0.06327574 -0.034371566 0.17290245 0.2559352 0.011241871 -0.0930844 -0.020894948 0.1540963
0.20341489 0.13782789 0.009554178 0.13182105 -0.010290676 0.020704744 0.076354615 0.17238978
0.13134323 0.22485717 0.15161288 -0.0045845257 0.035459887 0.0012398588 -0.01187144 -0.08705845
-0.1908696 0.08306862 -0.1567007 -0.22530502 -0.0035740633 0.090195306 -0.038564388 -0.19317022
-0.03833398 0.10563881 0.006283575 -0.121824645 -0.05220752 0.081071384 0.04256994 -3.8176302e-05
0.075487256 -0.07602332 -0.222618 -0.2501377 -0.18190803 0.14219266 0.112167 -0.23994881
-0.349383 -0.059075247 0.022265133 0.0401316 0.088182144 0.0724434 0.063091375 -0.109291464
0.23132889 0.09636429 -0.030610573 -0.1355231 0.07716345 -0.02546886 0.04017131 0.018894015
-0.06333609 0.14938788 0.032716926 -0.19644183 -0.2601168 -0.18877752 0.10782056 0.009050525
0.009084922 0.04088134 0.16526428 -0.11097879 -0.006867047 0.20023757 0.30691034 0.13372773
-0.19417953 0.031444397 0.12035501 0.19774126 0.023019094 -0.13049254 -0.020349415 0.04617963
-0.09526366 -0.040128928 -0.18687545 -0.0372616 0.122002356 0.20721374 0.10583986 -0.0060169357
0.02597111 -0.01128399 0.10209485 -0.07147864 -0.021452378 0.047654685 -0.1529207 -0.22699521
-0.24985255 0.19772534 -0.0024603487 0.008796477 -0.15142633 0.07040168 0.0840107 -0.036111355
0.058281433 0.03787929 0.12991576 -0.013894739 0.026192434 0.07437999 -0.0054359394 0.058150124
0.07084734 0.074529536 0.12235341 0.053609062 0.12829097 0.13156295 0.117428035 0.105969414
-0.031822365 0.04066916 0.034770414 -0.0010504217 -0.02256358 -0.03024064 -0.01878767 -0.074516766
0.14277129 -0.02808347 0.08097905 0.016005596 0.11912855 0.1010917 -0.046680488 -0.0941425
-0.08402986 0.17808446 0.22977357 0.021995714 -0.018603045 0.08597492 0.15462649 0.021408321
0.07351507 0.038550038 -0.078899115 -0.09190379 -0.104160085 -0.03725563 0.00772442 -0.072259985
-0.18566912 0.057176854 0.14362253 0.01346714 -0.023546321 -0.4153687 0.03368538 0.2199619
-0.090663046 -0.1484737 -0.31593657 0.16850469 0.076997295 0.008209609 -0.0976476 0.054512184
0.2047761 -0.109824695 -0.026713677 -0.09419867 0.066912174 0.047659606 -0.026542384 0.0050384235
-0.08838124 -0.074720085 -0.2765352 0.060219474 0.029435651 0.10538356 -0.2712743 -0.21096511
-0.06803034 -0.16713452 0.028779415 0.018076517 0.11982901 0.17128803 0.13101089 0.25944415
0.03169881 0.07357982 0.07024897 0.21071532 0.27170023 -0.07060195 -0.15135214 0.015427606
0.036348015 0.1455066 0.051754523 -0.04138165 -0.053408355 -0.106221825 -0.005973781 0.08272766

sequential/conv2d_1/BiasAdd/ReadVariableOp:0 f4 [16]
00000000: e28e c4bc 0298 573d b748 10bc eeac ae3c
00000010: 1fba fc3c e5e5 97bc d839 033d c1fb c7bd
00000020: 4f28 82bc 510e 583d 2345 713c 3122 8cbd
00000030: 8d56 153d 3e36 9cbd 53ed 893d 55a4 0bbd
-0.023993913 0.0526352 -0.008806399 0.021322694 0.030850468 -0.01854224 0.032037586 -0.09764815
-0.015888361 0.05274803 0.014725956 -0.06842459 0.036459494 -0.076275334 0.06734719 -0.034092266

sequential/conv2d/Conv2D/ReadVariableOp:0 f4 [6, 1, 5, 5]
00000000: 014e 48be e030 e7bd 1801 25be de96 62be
00000010: 8918 97be 4f1b 903d 5c4e 89be a7cf 27be
00000020: dff5 bfbe 1485 6abe 6408 b5bc a3aa 35bc
00000030: e398 11be 2481 bdbe c04b 43be 272b b53c
00000040: 2fc3 acbd fae2 babe 7721 b0be 44a3 25be
00000050: e29f 99bd 6f37 4ebd 4f0c e3bd 5fda 55be
00000060: e683 9f3d eccb 0f3d 41ef 05bd ab0f b1be
00000070: 92a2 c4be 04a2 563d eff8 41be 880f c2be
00000080: 00c2 92be 5b70 e3be 2425 42bd 396c dfbd
00000090: 3f8f 36be 85af dcbe 4749 12be 84b1 12be
000000a0: 6d32 8fbc 00a0 1ebe 1ab8 8ebe 62c6 073d
000000b0: 0964 913e 2455 063e b52c f6bc 966b 65bd
000000c0: 12d0 333e 1949 9a3e c046 80be 928b bbbe
000000d0: 4345 95be 1e0a 643e d74f 733e d423 a6be
000000e0: 2f77 8bbd cde0 1c3e 4451 463e 2d40 ed3e
000000f0: 6a26 8dbe 8fba f03d 0d7a a13e e8fe 8e3e
00000100: 0b21 b73e fa55 ce3d 2884 3cbe f8b9 b9bd
00000110: 3efc 4a3e e8d7 5b3e 7040 8fbd 9a2b 58be
00000120: 32fb b4bd b3f5 3fbc d2fb 99be 649d 98be
00000130: 9c87 94be 96df b8bc 55f1 a1be 3396 a5be
00000140: a0c1 03bd b941 70be 2d22 8dbe bda4 f7bc
00000150: 0419 adbe aae2 c8bd 058e 553c 6a7a 3b3e
00000160: 7ca5 643e fae1 25be 90bd 823e 6c8c 963d
00000170: 13e4 e43e cabc 7e3e 1620 8639 b61c 613e
00000180: 86ca ab3e 2d0f c93e f5ed c83e 061e 223e
00000190: d428 04bd bf32 3ebe 3b58 f7be c6ba e5be
000001a0: 024b 3cbe 6a25 8e3d 1763 d8be 8ddb 0ebf
000001b0: 7247 f4be 994d 30be 1ef0 573e 068f 7cbe
000001c0: 3cca 81be fc4b 47bd 8266 5c3e 6831 003e
000001d0: 5d4a a13d 91cf 5a3e 0dd9 e43d da27 7f3e
000001e0: 1f0f de3d 5c6a aa3e 0670 503e 4e60 403e
000001f0: 73b6 423e 53fb c63e 3922 e83e 9e4c bd3e
00000200: d73d a73e 4dd6 713e 7526 d13e 4324 a53e
00000210: 8403 b13e 9ee9 053e 5e6c fc3c d97e 993c
00000220: 5cbe b0bd 887a 30be 17ff bbbd 576c a5bd
00000230: a11a 83be d813 95bd 6d53 94bd e741 0bbd
00000240: 9b25 133d 901f bfbd 30b7 94be 7cac abbe
00000250: 459d 883d 306f d63c
-0.19561006 -0.11288619 -0.16113698 -0.22127864 -0.29510906 0.07036459 -0.26817596 -0.16387807
-0.37492272 -0.22902328 -0.022098728 -0.011088046 -0.14218478 -0.3701259 -0.19071865 0.022115303
-0.08435666 -0.36501294 -0.34400532 -0.16175562 -0.07501198 -0.050345834 -0.11086332 -0.20884083
0.077888295 0.035106584 -0.032698873 -0.34582266 -0.3840528 0.052400604 -0.18942617 -0.37902474
-0.28663635 -0.44421658 -0.0473987 -0.10909314 -0.17828082 -0.4310266 -0.14285766 -0.1432553
-0.0174801 -0.15490723 -0.27874833 0.033148177 0.28396633 0.13118416 -0.030050615 -0.056010805
0.17559841 0.30133894 -0.25053978 -0.3662992 -0.29154405 0.22269484 0.23760925 -0.3244921
-0.06809842 0.1532013 0.19366938 0.46338025 -0.2756837 0.11754333 0.3153843 0.27928853
0.35767397 0.100749925 -0.18409789 -0.09068674 0.19822785 0.2146908 -0.06994712 -0.21110383
-0.08836974 -0.011716294 -0.30074936 -0.2980758 -0.29009712 -0.022567552 -0.31629434 -0.32341155
-0.032167077 -0.23462571 -0.27565137 -0.03022992 -0.33808148 -0.09808858 0.013034348 0.18308416
0.22328752 -0.16199484 0.2553525 0.07351002 0.44705257 0.24876705 0.00025582378 0.21983609
0.3355295 0.3926939 0.39244047 0.15831766 -0.0322655 -0.18574046 -0.48309502 -0.4486906
-0.18387988 0.0694073 -0.422631 -0.5580376 -0.47710758 -0.17217101 0.21087691 -0.24663934
-0.25349605 -0.04865645 0.21523479 0.12518847 0.07875512 0.21368243 0.11174212 0.24917546
0.10842728 0.3328427 0.20355234 0.18786737 0.19014911 0.3886362 0.4533861 0.36972517
0.32664368 0.23616906 0.40849653 0.32254228 0.34572995 0.13077399 0.030813392 0.018737243
-0.08630058 -0.17234242 -0.09179514 -0.08077305 -0.25606254 -0.072791755 -0.07242475 -0.033998396
0.035924535 -0.09332192 -0.2904601 -0.33530033 0.06670622 0.026176065

sequential/conv2d/BiasAdd/ReadVariableOp:0 f4 [6]
00000000: 6266 0a3e aad6 0b3e 83db d1bd 1c6d 7c3d
00000010: 8029 9b3d c705 cbbd
0.13515618 0.13656107 -0.10246947 0.061627492 0.07576275 -0.09913211
