models/model48.onnx (onnx, 2062 bytes, 3 tensors)

sequential_10/dense_30/MatMul/ReadVariableOp:0 f4 [10, 1]
000000 c3 a0 b6 be 2c 1f 70 3e 43 7b 3e bf fa da a5 be
       -0.35669526 0.23449391 -0.7440683 -0.32393628
000010 83 9f 4d 3f 42 98 fb 3e 53 e3 c8 3e fd 34 78 be
       0.8032152 0.491396 0.39235935 -0.24238963
000020 4b 02 16 bf c0 84 1e 3e
       -0.5859725 0.15480328

sequential_10/dense_29/MatMul/ReadVariableOp:0 f4 [20, 10]
000000 87 15 12 be 74 cb a7 3e 30 d1 93 bd a2 7a d3 3e
       -0.14266025 0.3277241 -0.07217634 0.413045
000010 da da d5 3d 43 5e 13 3f 15 af 7c be 82 5c f5 bc
       0.10442133 0.57565707 -0.24676163 -0.029951338
000020 d8 ed 3b be ff 7d 2c 3f 07 cb aa 3e a7 b8 07 be
       -0.18352449 0.67379755 0.33358023 -0.13254033
000030 88 86 ab 3e 07 36 76 3d 4e 68 21 3f 20 40 bf be
       0.33501077 0.06011012 0.6304978 -0.3735361
000040 19 17 27 3f 5c 8e 87 3e 22 c0 a3 3e 47 60 38 bb
       0.6526962 0.264758 0.31982523 -0.0028133558
000050 f3 43 17 be e5 15 c0 be cf 18 46 3e ad 3f 25 bf
       -0.14772014 -0.37516704 0.19345401 -0.64550287
000060 f8 06 da be 53 72 57 be b3 cb 8b 3e 33 10 90 be
       -0.42583442 -0.21039705 0.27303848 -0.2813736
000070 b7 94 8b bb 85 0b 78 be c9 f7 75 be f0 c5 f5 3e
       -0.0042596716 -0.24223144 -0.24020304 0.48002577
000080 ea d0 ad be 86 7e 79 3d 39 07 11 be 21 ab 8c 3c
       -0.3394845 0.060911678 -0.14162911 0.017171444
000090 10 12 ba 3e 2e 69 53 be 2d c5 c1 39 2a 1b 13 be
       0.36341906 -0.20645592 0.00036958736 -0.14365831
0000a0 fe ed 73 3e 92 aa fc 3e 0c e7 46 3e ca a2 01 3f
       0.23821256 0.49348885 0.19424075 0.5063902
0000b0 b1 a3 88 be e7 ac 07 3e 34 4a 8c 3e 08 bb a9 bc
       -0.26687387 0.13249551 0.27400362 -0.020719066
0000c0 d9 3f 43 be d3 cc 93 be 2b 4d b6 3e 08 30 62 be
       -0.19067325 -0.28867206 0.3560575 -0.22088635
0000d0 27 75 02 3e be 4a 89 be 5e c3 c1 3b e8 31 e3 3b
       0.12740003 -0.26814836 0.005913182 0.0069334395
0000e0 4f ae ec 3e 94 8e d5 3d 81 7e 4b 3e 86 99 2e bf
       0.46226737 0.10427585 0.19872476 -0.6820301
0000f0 01 e8 1c 3d 05 67 81 be bd bb 0c 3f c6 d5 d1 3d
       0.038307194 -0.2527391 0.54973966 0.10245852
000100 12 05 1c 3f 07 a1 1e be 76 d6 00 3f a0 84 02 3d
       0.60945237 -0.15491115 0.5032724 0.031864762
000110 a3 0f 60 bd 43 f1 c5 bd af 3f 7d 3d 1c ff 80 be
       -0.054702412 -0.09665158 0.06182831 -0.25194633
000120 71 55 82 3c 6e 16 dc 3c 9a a3 cc bd 18 69 50 3e
       0.015909882 0.026866164 -0.09992142 0.2035259
000130 9a bd 33 3e a6 69 a8 be 59 2f 0a be b2 21 9c 3d
       0.17552796 -0.32893103 -0.13494624 0.07623614
000140 12 36 68 be 18 aa d8 be 0c 67 87 3e 66 6d e3 be
       -0.22676876 -0.4231727 0.26445806 -0.44419402
000150 d4 de 54 be c3 43 08 be 59 49 24 be 37 f0 16 3f
       -0.20788127 -0.13307099 -0.16043605 0.5896029
000160 37 9e a8 be 49 f0 e2 bd 23 48 98 3e f9 c6 a3 be
       -0.32933208 -0.11080987 0.29742536 -0.31987742
000170 e2 48 d2 be a6 c2 26 be 81 a2 76 be 98 78 37 3e
       -0.4107123 -0.1628519 -0.24085428 0.17917097
000180 a0 6e d9 bd ca 4f 77 3e 75 f8 7c be 13 5a 8e 3e
       -0.10616803 0.24151531 -0.24704154 0.27803096
000190 1f fa b3 bd e3 57 1f bf 3b 66 84 be 2a 87 42 3b
       -0.08787941 -0.6224348 -0.25859246 0.0029682615
0001a0 08 5a 94 3d fc 72 ac be 77 7d af 3d f6 8a d8 3e
       0.072437346 -0.33681476 0.085688524 0.4229352
0001b0 69 a6 59 3e af 7f 81 3d 03 d9 f0 bc 81 7e 82 3e
       0.21254887 0.06323182 -0.029400354 0.2548714
0001c0 ff 7b b1 3d 0f 3f f7 bd 34 94 b7 3e 5f 0e 11 bf
       0.086662285 -0.12072574 0.35855258 -0.56662554
0001d0 03 1c d9 be 10 59 10 be d6 ca 26 3e 51 49 04 be
       -0.42404184 -0.14096475 0.16288313 -0.12918593
0001e0 3f 37 86 be 27 f5 ee 3e c6 c8 1e bf b7 95 c5 bd
       -0.26214024 0.4667141 -0.62025106 -0.096476965
0001f0 67 01 6f 3f 00 3b 39 3f 2e c7 06 3f c8 77 f4 be
       0.93361515 0.7235565 0.52647674 -0.47747636
000200 57 d2 58 bf 77 66 42 3d 76 c4 bc bd 08 af ba 3e
       -0.84695953 0.047461 -0.092171595 0.36461663
000210 d1 02 98 be cd dd 11 be b1 58 34 be 02 70 06 bf
       -0.2968965 -0.14244767 -0.17611958 -0.5251466
000220 5c f8 c4 be b6 9a d5 3e 70 97 dd be ae 74 44 3e
       -0.38470733 0.41719598 -0.432796 0.19185135
000230 70 4a 02 bd 14 df 16 3f 51 7a 04 bd 8f 83 c0 3e
       -0.03180927 0.5893414 -0.032343213 0.3760037
000240 01 33 e3 bc 3b 50 a7 3d 3b 87 11 3e 0d 2a 29 be
       -0.027734281 0.081695996 0.14211743 -0.16519947
000250 d3 64 00 3f 65 17 0c bf 2c 39 0a 3f df bd fb bc
       0.50153846 -0.547232 0.5399349 -0.030730186
000260 ab 05 c3 3d f7 42 a2 3e 0a 3b d2 3b f2 fd c5 3d
       0.095225655 0.31691715 0.0064157294 0.09667577
000270 65 dc 14 3f cd d0 19 3e 3d cc 82 bd 11 ee 8f 3e
       0.58148795 0.15021057 -0.063866116 0.28111318
000280 2f 98 cc 3e ad 2f 75 3e f6 96 1f bc e9 47 76 3e
       0.39959857 0.23943968 -0.009740582 0.24050869
000290 e6 f0 22 be f3 50 c3 3e b9 30 19 3f 10 7f 51 3c
       -0.15912208 0.38147697 0.5983997 0.012786642
0002a0 54 9e 21 3e 9d 25 ad be 38 4f 3a 3d f6 9d f9 be
       0.15783054 -0.3381776 0.045485705 -0.48753327
0002b0 58 5a 91 3d 84 d8 1c 3f ab 07 8c 3e b1 96 9b be
       0.0709731 0.61267877 0.273496 -0.30388406
0002c0 8b 5b bf be 8f 00 0b 3f 87 9d 85 be af 6f 0a be
       -0.3737453 0.5429773 -0.26096746 -0.13519166
0002d0 b9 6b 86 3d d6 22 51 bd d7 80 86 3d 08 53 b4 3d
       0.06563515 -0.051058613 0.06567543 0.088048995
0002e0 6e fb 9e 3e 58 36 75 be 15 39 9b 3d 96 27 41 be
       0.310512 -0.23946512 0.07579247 -0.18862757
0002f0 a6 6c 46 3d 36 4d a8 3e 07 d5 96 3e f6 b8 ff be
       0.04844346 0.32871407 0.29459402 -0.49945801
000300 8d c4 8f 3d 4c 6d f3 bd 6f b7 ba bd 8b 29 45 be
       0.07019911 -0.11886081 -0.091170184 -0.19254129
000310 eb 6c 62 be 88 89 91 3d e5 d3 1c be f6 16 15 3e
       -0.22111861 0.0710631 -0.15315206 0.1455954

sequential_10/dense_29/BiasAdd/ReadVariableOp:0 f4 [10]
000000 9a af 36 3d 8d 5f 86 bc fe cd 3d 3e f6 7f 06 3c
       0.04460106 -0.016402984 0.18535611 0.008209219
000010 e7 0f f0 3d 77 6b f1 3b ed 6e 85 3d 9a fd ab 3c
       0.11721783 0.007367547 0.06515298 0.02099495
000020 b3 98 0d 3e 12 7d b9 bc
       0.13827781 -0.022642646
