models/model2.onnx (onnx, 794426 bytes, 8 tensors)

sequential_1/dense_3/MatMul/ReadVariableOp:0 f4 [500, 10]
000000 6f 1e 33 bd a1 f8 b0 bd 16 43 bb bd a1 97 32 bd
       -0.043730196 -0.08641172 -0.09143655 -0.043601636
000010 ba 58 f2 bd f0 90 2d 3d 50 02 a3 bd ae 84 f6 3c
       -0.118333295 0.04237455 -0.079594254 0.030092563
000020 f7 3a 89 3d dc 53 0f be 17 5d 94 3d e3 0f c1 bd
       0.067007 -0.13996834 0.07244318 -0.09426858
000030 a0 83 61 bb 8f b0 15 3d a4 9b 1b 3d 91 51 b5 bc
       -0.003441073 0.036545333 0.037990227 -0.02213362
000040 49 35 c5 bc 3b 4b e3 3c fb 5c 29 bd c0 6b 1a be
       -0.02407326 0.027745834 -0.04134844 -0.15080166
000050 d7 a1 40 bd 86 63 cd bd 72 f3 a1 3e ee a4 a5 be
       -0.047029343 -0.10028748 0.31631047 -0.32352394
000060 17 90 18 bf 44 12 c0 bd 20 fe 2f be a6 79 0a be
       -0.59594864 -0.09378484 -0.17186785 -0.13522968
000070 45 f9 52 3e 33 00 35 3e d3 76 d8 3e 95 41 fa b9
       0.20602901 0.17675857 0.42278156 -0.00047732578
000080 14 3e 24 be 27 47 03 be ff 99 c1 be 35 b1 cc be
       -0.16039306 -0.12820111 -0.37812802 -0.39978948
000090 93 bc 98 bd 1f 45 0e bd 82 41 25 3e a6 34 0c be
       -0.07457843 -0.034733888 0.1613827 -0.13691959
0000a0 07 80 85 be e4 e2 62 be b3 9e d8 be 45 60 8e 3e
       -0.2607424 -0.22156864 -0.42308578 0.27807823
0000b0 8a 89 07 bd 49 b1 df 3d bf 55 1c be 52 3e a3 be
       -0.03309015 0.10922486 -0.15267085 -0.31883484
0000c0 1f 8f 88 3d 67 1d a8 3d 39 c9 fd bd 75 78 5b 3b
       0.06667923 0.08208733 -0.12391896 0.0033488546
0000d0 ad db b8 bd 8e 9c a5 bd 33 e4 d1 3c 4c cb 8d 3c
       -0.09026275 -0.08086501 0.02562151 0.017308854
0000e0 d3 c1 d3 3b e4 6b 12 3b e0 97 01 bd 96 ec 3e bd
       0.0064623146 0.002234214 -0.03163898 -0.046612345
0000f0 e0 12 0b b9 0a 79 e4 3d d4 d5 32 bd 2a 07 a1 be
       -0.00013263104 0.11155899 -0.043660954 -0.31450778
000100 75 86 7d bd d1 2f 94 be 27 66 af be d5 07 8a 3e
       -0.061895806 -0.2894273 -0.34257624 0.269591
000110 c9 da a9 3e b1 e9 60 3d 77 ef e1 3e 75 86 de be
       0.33174732 0.054910365 0.4412801 -0.43461958
000120 45 71 99 3e f6 6f 97 be 2c 45 43 be 39 bf ef be
       0.2996923 -0.29577607 -0.19069356 -0.4682558
000130 a5 bf 3d bd 1b 25 0c 3e 76 36 80 be cf 1b d3 bd
       -0.046325345 0.1368603 -0.2504155 -0.103080384
000140 a7 83 15 bf d1 b4 b3 be ca e6 62 be 56 ee 18 bb
       -0.5840401 -0.3509889 -0.22158352 -0.0023335419
000150 1a 6a ea 3d 18 0c d9 3e e1 ff 3d bd 2b cb 31 bf
       0.114460185 0.4239204 -0.046386603 -0.69450635
000160 02 4a 8c 3e a8 ee b8 be 0e dc aa bd 16 61 ef 3d
       0.27400213 -0.3611958 -0.08342753 0.116884395
000170 cc 4e 87 3e 10 ba de bd 40 68 83 3e 8c 1f 29 3b
       0.26427305 -0.10875332 0.25665474 0.0025806157
000180 d8 a4 81 be 75 ef 63 bd 60 b9 bc be d0 8a 68 bd
       -0.25321078 -0.055648286 -0.3686018 -0.056773007
000190 32 bc 48 bc 61 1c 8d 3c 3d cc d8 3c b6 d8 fa 3d
       -0.0122519005 0.017225446 0.026464576 0.122483656
0001a0 16 74 e2 bc eb ae 46 3d 1b 2a e9 bd ae 9c 83 be
       -0.027643245 0.04850666 -0.11384984 -0.25705475
0001b0 5f 42 ba 3e 3b 24 b4 3c 64 7a a1 39 d6 80 81 bd
       0.36378762 0.021989932 0.000307995 -0.06323402
0001c0 1a 32 84 be 16 67 67 bd 10 14 bb 3e c1 8a 7d 3d
       -0.25819474 -0.056494795 0.36538744 0.061899904
0001d0 2a 0c 96 3e 11 55 b5 3d 5b 03 88 be 90 f0 58 be
       0.29306155 0.08854116 -0.2656506 -0.21185517
0001e0 6f 19 b1 bc 27 76 86 3e c0 70 40 be ef a9 8e bc
       -0.021618573 0.26262018 -0.1879301 -0.017415015
0001f0 8f 53 1c bf ac 63 6f be fd d5 07 bf a5 75 49 3e
       -0.61065 -0.23377866 -0.53060895 0.19673784
000200 ee 2d 8b 3e 84 d4 2f be f7 f1 c8 be 42 48 7f 3e
       0.2718348 -0.17170912 -0.39247105 0.24929908
000210 18 0e 9c 3d 2b 1f f7 be 92 53 28 be 52 8c df 3e
       0.07619876 -0.48265967 -0.1643813 0.43661743
000220 e4 0a 21 3d 61 07 d4 bd 8a 3f 09 bf 41 24 14 3d
       0.039317027 -0.1035297 -0.5361258 0.036167387
000230 5f a6 b5 bc e9 bd 6f 3e 0b 7f 62 3e 7c b8 eb be
       -0.022174058 0.23412289 0.22118776 -0.46039188
000240 de 1d c4 be 68 6d 9a bb 7d 11 9a be f2 65 02 bc
       -0.38304037 -0.0047127493 -0.30091467 -0.007958876
000250 bf 59 2d be 57 4b 64 bd d5 c7 f7 3c 4e 50 8c 3d
       -0.16928767 -0.055735912 0.030246655 0.068512544
000260 be 04 9c bc e1 a2 ea 3c c6 20 d6 bc 91 51 85 3d
       -0.01904523 0.02864212 -0.026138674 0.06509698
000270 63 71 eb bd 15 5a a2 bb cc 75 bf 3c 03 46 43 3d
       -0.11496236 -0.0049545863 0.0233716 0.04767419
000280 eb 21 ac bd c3 79 76 bd b2 df 1a 3d e6 75 82 bb
       -0.08404907 -0.060174715 0.03781099 -0.0039813397
000290 73 0a 1f 3d fe ef 61 bc 20 92 12 bd c3 d0 bd 3d
       0.038828325 -0.013790129 -0.035783887 0.09268334
0002a0 7c e8 7d 3d f0 a0 11 3d 61 18 5b be 02 36 b4 be
       0.061989293 0.035553873 -0.21396019 -0.35197455
0002b0 1f e6 9b bd 1e 62 99 be 52 fe 83 3e 5b c1 22 bf
       -0.076122515 -0.2995767 0.25779969 -0.6357629
0002c0 a1 1f 67 be 96 01 0c 3e e9 ea 3e be 40 2b ba 3e
       -0.22570659 0.1367248 -0.18644299 0.36361122
0002d0 f0 75 0c bc 2c 9a 4b bc 74 7d 16 bd 89 6a 9d bc
       -0.00857304 -0.012426894 -0.036740735 -0.019215839
0002e0 70 e8 26 be bc 24 93 bd f5 90 40 bd b5 f9 fb bd
       -0.16299605 -0.07184741 -0.04701324 -0.12303487
0002f0 00 c5 03 be 8c 28 f7 bd aa 2e c4 bd f3 7a 82 bd
       -0.12868118 -0.120682806 -0.09579213 -0.06371107
000300 d1 7f dc 3b 5a 06 83 3d 90 74 0e bd 43 7b f4 3c
       0.006729104 0.06397696 -0.03477913 0.029843932
000310 4f 2b 97 3c 1c ec ac bc a5 2d 09 3e bc c0 f7 bd
       0.018453268 -0.02110868 0.13396318 -0.12097308
000320 d2 7a 83 3c 4d b2 2f bd bd 3c c8 bd 9c 7b 21 be
       0.016049776 -0.04289465 -0.0977721 -0.1576981
000330 39 b7 0d 3d 95 bf 0c be db 2f 0a be b9 1c 4c 3d
       0.034598563 -0.13744958 -0.13494818 0.04983208
000340 18 53 b4 3c d4 9b 28 3d 93 be 79 bd 34 4e 0b be
       0.022012278 0.041164234 -0.06097276 -0.13604051
000350 2e d3 81 be 84 62 7b 3d ce 58 91 be 61 e1 b6 3e
       -0.2535643 0.06137325 -0.28388065 0.35718825
000360 a8 10 da 3e 16 35 55 be 84 fc 38 3e fc be ee be
       0.42590833 -0.20821032 0.18065077 -0.46630085
000370 3d 2e 85 3e 1a 49 19 bd 52 22 f7 bd c6 7e be 3e
       0.2601184 -0.03742323 -0.12067093 0.37206095
000380 04 12 e7 be e7 a9 02 3e 09 97 27 3d e0 c3 e7 bd
       -0.45130932 0.12760125 0.040915523 -0.11316657
000390 ba 98 6c bd 7f 22 bf be 48 72 16 bf bd 92 03 3e
       -0.05776284 -0.37331006 -0.5876813 0.12848945
0003a0 bd e0 59 be cb 5e 8a 3e 99 20 b3 bd 59 84 1d bd
       -0.21277137 0.27025446 -0.08746452 -0.038456295
0003b0 a2 fa b6 3c 95 f7 dd bd 4f 5b aa 3d 46 77 ed bc
       0.022336308 -0.10838238 0.08318197 -0.028987538
0003c0 68 f7 af be 91 2d 17 3c 76 db 91 3e 36 6c 69 bd
       -0.34368443 0.0092271725 0.28487748 -0.056987964
0003d0 10 0b 6b be 6a b2 e3 bd bc 81 2a 3e ef 57 32 be
       -0.22953439 -0.11118014 0.16651052 -0.17416357
0003e0 5e e2 a5 3e 88 fb a1 be ee aa d7 bd 9d 60 bb 3d
       0.32399267 -0.31637216 -0.10530649 0.09149287
0003f0 a7 c3 2e be 02 c3 9d be 25 53 57 be 38 fb 8c 3d
       -0.17066823 -0.30812842 -0.21027811 0.06883854

sequential_1/dense_3/BiasAdd/ReadVariableOp:0 f4 [10]
000000 ab 83 5a bd e9 b3 b1 3e 7d 1b 85 bd bb ff 40 3e
       -0.053348225 0.34707573 -0.064993836 0.18847553
000010 fe 83 97 be de 5d 8a be 7f 54 f8 be 15 61 cf 3d
       -0.2959289 -0.2702474 -0.48501965 0.10125939
000020 e6 49 9e 3e 19 2a 42 3d
       0.30915755 0.04740343

sequential_1/dense_2/MatMul/ReadVariableOp:0 f4 [375, 500]
000000 d4 30 9b bc fa 3a cb 3c 32 3d 2f 3f 33 a8 c7 be
       -0.018944182 0.024808396 0.6845275 -0.38995513
000010 42 52 9c be 3f c3 bd 3c c8 3c 54 be 8d 02 10 bd
       -0.30531508 0.02316439 -0.20726311 -0.035158683
000020 e3 ae dd bd 24 2d 84 be a8 56 15 bd 34 d8 5c 3d
       -0.108243726 -0.2581569 -0.036459595 0.053917125
000030 af 9e 98 3e 5e d1 8b be ee c9 a2 be 6c 49 23 3c
       0.29808566 -0.27308172 -0.31794685 0.009966236
000040 49 e8 28 bc cd d0 21 be 7a 23 82 3d 34 dd 76 3d
       -0.010309287 -0.15802307 0.06354423 0.06026955
000050 95 11 83 3d 8c 48 89 be d2 8c 13 3f 67 01 c2 be
       0.06399838 -0.2681316 0.5763675 -0.37891695
000060 7d 1f 8e 3e 09 93 8e be b2 52 52 be bb 84 30 3f
       0.277584 -0.27846554 -0.20539358 0.6895253
000070 9c 00 cf bd 71 ef 21 bd 14 ab a6 be 68 64 17 3f
       -0.10107538 -0.03953499 -0.32552397 0.5913758
000080 af 2b 29 3e 27 3e 30 bf c0 82 ea bc d4 49 38 bf
       0.1652057 -0.68844837 -0.0286268 -0.7198765
000090 f8 91 91 be f7 87 88 3e 74 00 18 3b 9f 4b d4 b9
       -0.28431678 0.26666233 0.002319363 -0.00040492133
0000a0 0e 00 0d 3d 76 d0 1c 3e 5e 23 07 3d 5c 9d 09 3f
       0.03442388 0.15313897 0.032992713 0.53755736
0000b0 a8 f3 13 3f 55 f1 9c 3c 77 ee e2 bd 74 f0 36 3f
       0.57793665 0.019158045 -0.1108064 0.7146065
0000c0 f5 4a ae bd 19 8e 75 3e 3e 38 d2 3b 92 ee 31 3e
       -0.08510391 0.23979987 0.006415396 0.17376164
0000d0 5c fe 83 bd 88 c8 32 3f f2 27 f7 bd 23 aa 32 3e
       -0.064449996 0.69837236 -0.12068166 0.17447715
0000e0 cc fd 43 bd 74 67 5c be 47 b1 16 bd 7b e8 6e 3e
       -0.04784946 -0.21523839 -0.03679016 0.23330872
0000f0 ba c8 6a 3f e5 c6 8a 3e 8d f0 d1 3e 57 70 1c 3f
       0.91712534 0.2710487 0.41003838 0.61108917
000100 4a e2 0e bf 62 ca 82 bd 88 a0 df be f6 ee 1f bd
       -0.5581404 -0.06386258 -0.43677163 -0.03904625
000110 95 8e 6d bd 4d 60 01 3f 71 07 a3 3f 98 3a 18 be
       -0.057997305 0.5053757 1.2736646 -0.14866102
000120 ec d6 af 3d e1 9c 9f be 5e 75 d6 bc 7e 2a 8d 3d
       0.08585915 -0.31174377 -0.026179012 0.0689287
000130 5c 00 09 bd 28 1d d5 be 7a 72 bc be 70 ec 41 be
       -0.03344761 -0.41623807 -0.3680609 -0.1893785
000140 5b 4a ee bb 06 29 03 3e 73 da f4 3b 8b 24 e7 3e
       -0.0072720475 0.12808618 0.0074723302 0.45145068
000150 b0 80 8f bd e5 ca 84 3e 05 0b 59 3d 07 c6 65 3f
       -0.07006967 0.25936046 0.052989025 0.8975529
000160 83 b6 4d bd 27 aa 15 be a4 a5 55 3e cc 46 90 3e
       -0.050222885 -0.14615689 0.20863968 0.28179014
000170 a0 58 1e bd 8b b6 4b 3e b9 42 ab 3f 9b b4 45 bd
       -0.038658738 0.19893853 1.3379737 -0.048267942
000180 f0 11 bc 3c cf 28 a0 be 3d 42 b2 3e 1d c1 b1 3e
       0.022957772 -0.31281134 0.3481616 0.34717646
000190 83 d9 b8 bc 9f 0b 35 bd 4e a6 85 3d 42 be d3 be
       -0.022564655 -0.044200536 0.06525861 -0.41356093
0001a0 83 d8 d8 3e 62 a2 f5 3a a6 a6 0c 3e 98 dd ac 3c
       0.42352685 0.001874041 0.13735446 0.021101758
0001b0 ce 5e 33 3c a6 90 3f bd 39 14 28 bf 42 52 aa bc
       0.010947896 -0.046768807 -0.6565586 -0.020791177
0001c0 71 35 5d 3d 8d e2 78 be 4f cf 2d 3e 41 47 36 3f
       0.054006044 -0.24305172 0.16973613 0.71202475
0001d0 29 ad 63 3f 91 2b 8b 3e 04 c4 37 3d f8 3b 44 bc
       0.88936096 0.27181676 0.04486467 -0.011977188
0001e0 b9 8d 33 3f da cf 8e 3e d6 68 2f be 5a c4 6f 3f
       0.70138127 0.27892953 -0.17129835 0.93658984
0001f0 61 2e e2 be a9 83 97 bd f6 50 02 3e b0 e9 e6 3b
       -0.4417601 -0.07398159 0.12726197 0.0070469007
000200 ef bb e2 be 24 1e 88 3d e6 a9 e3 3e 6c 7e 03 3e
       -0.44284007 0.06646374 0.4446556 0.12841195
000210 74 aa e2 bd eb df 05 bf 5c f9 88 3f 52 28 db 3c
       -0.110676676 -0.52294797 1.0701098 0.026752625
000220 b0 a2 af bb a5 a1 29 3f a4 56 48 bf 20 a6 60 bd
       -0.00535997 0.66262275 -0.78257203 -0.05484593
000230 90 dd 9b bd 6c 1c 80 bf 52 11 be bd 3f 4d 87 3e
       -0.07610619 -1.0008674 -0.09280647 0.26426122
000240 93 b6 31 bd 81 ee a1 bd a8 d1 f5 be 02 54 87 bf
       -0.043387007 -0.07906819 -0.48011518 -1.0572512
000250 67 d7 e5 be 25 b2 09 bd eb 1e 5d 3f d7 76 b1 bd
       -0.448909 -0.033617157 0.863753 -0.08665245
000260 f3 7c f8 3e af 0e e8 3c 57 59 51 3c fe 93 7d bf
       0.4853283 0.028327314 0.012777648 -0.99053943
000270 2a 7d f2 bd a0 da 04 be 5e 1e 1c bf 9f dd 95 bd
       -0.118402794 -0.12974024 -0.60983837 -0.073176615
000280 10 f2 ad bd 67 ec 69 be e0 a5 c7 3d 62 d3 89 bc
       -0.084934354 -0.22844087 0.09748435 -0.016824428
000290 78 b8 bf bf d0 ef d7 be e0 15 55 bb b2 81 07 3f
       -1.497817 -0.4217515 -0.003251426 0.52932274
0002a0 69 dd 05 3f 3e 7b 89 be ea 9e 54 3d 84 41 31 bf
       0.5229097 -0.2685184 0.051909365 -0.69240594
0002b0 29 fd 1b bd 86 8d 0b 3d 0c 57 81 3e a7 9f ee be
       -0.03808323 0.034070514 0.25261724 -0.4660618
0002c0 90 e3 0d bd 00 26 d5 3e 4e 46 e4 b9 65 e5 95 bf
       -0.03464085 0.41630554 -0.0004353993 -1.1710631
0002d0 91 d4 5f be 2e 5d b0 bd a1 9e e3 3d 9d 21 9f 3e
       -0.21858431 -0.086115226 0.111142404 0.31080332
0002e0 a7 9d 8c 3d 8b bf 84 3f 5f fb 06 be 46 07 09 bf
       0.06866007 1.0370954 -0.13181828 -0.53526723
0002f0 87 e8 f4 3c 45 6a d6 bd 2b 16 a5 be 61 b3 bd 3d
       0.029896034 -0.10469488 -0.32243475 0.092627294
000300 34 45 1a 3f bc 50 33 bd d5 17 4d bd cb 37 1a bc
       0.60261846 -0.043778166 -0.050071556 -0.009412716
000310 0c 36 5a bf 9a 42 93 3e fc 2b b3 be bf 47 f0 3a
       -0.8523872 0.2876175 -0.34994495 0.0018331929
000320 29 3f 14 bf c7 b1 28 bf d9 ea a7 3d a8 2e dc bc
       -0.57908875 -0.65896267 0.081990905 -0.026877716
000330 c7 9d 7d 3d fd 1e 8c bf 91 af e9 3e 99 07 0d bf
       0.061918046 -1.0946957 0.4564176 -0.5508972
000340 08 09 d9 be 63 4a 8e 3e 28 48 3f 3a c8 1c 18 bf
       -0.42389703 0.27791128 0.0007296824 -0.59418917
000350 b1 36 22 3e be ae df be ba 6a 05 3f 31 d6 66 3f
       0.15841176 -0.43688005 0.52115977 0.9017058
000360 b0 52 f1 bc 06 4e 51 bd 17 d4 6d 3c 6d 9a a1 be
       -0.029458374 -0.0510998 0.014515898 -0.3156313
000370 4f 12 2b be af d0 c1 bd 1c 95 01 3f c6 df 80 bd
       -0.16706203 -0.09463631 0.5061815 -0.062926814
000380 d0 73 a7 bc 86 da 9e 3e 47 ef 63 bc e5 9f 9c 3e
       -0.020440966 0.31026095 -0.013912029 0.3059074
000390 c9 b0 1f 3e f9 20 ce 3e d6 22 30 bf 05 10 18 bf
       0.15594782 0.4025953 -0.68803155 -0.59399444
0003a0 ba 67 5c 3e 6b 71 61 3b e3 f7 bd 3e 17 64 b4 be
       0.21523944 0.0034399878 0.37103185 -0.35232612
0003b0 c0 21 2c bf d0 78 1c bf d5 18 77 bd c3 f1 ca 3e
       -0.67239 -0.61121845 -0.060326416 0.39637575
0003c0 78 86 87 be 3b e7 2e bd 68 a7 03 3f 0e 4c 64 bc
       -0.2646978 -0.042700987 0.51427317 -0.0139341485
0003d0 c6 cf 23 be fe 3b a0 be 97 9e 08 3f 5b d0 a0 bd
       -0.15997228 -0.3129577 0.5336699 -0.07852241
0003e0 d8 dc a4 be df dd c4 be 18 14 06 3f 2f 94 32 3e
       -0.3219974 -0.38450524 0.5237441 0.1743934
0003f0 c3 18 0c be 2a f6 36 3f f5 6f a4 3e 4a 57 b6 be
       -0.13681321 0.71469367 0.32116666 -0.3561347

sequential_1/dense_2/BiasAdd/ReadVariableOp:0 f4 [500]
000000 17 c6 40 be 20 ec 75 bd f4 a9 fc be ea c8 5b be
       -0.18825565 -0.06003964 -0.49348414 -0.21463361
000010 b9 13 aa be a5 cb 62 bd b5 0a 80 ba 0c f6 1d be
       -0.33218172 -0.05536999 -0.0009768816 -0.1542589
000020 2d 92 7f be 2b 14 48 3d dd 46 e0 bd 6a a6 a5 3b
       -0.24958105 0.04884736 -0.10951016 0.0050552385
000030 14 48 9a 3e df bd bf 3d ea af 06 3f e7 91 63 bd
       0.30133116 0.09362387 0.52612174 -0.055559065
000040 d8 c5 75 bd a0 11 eb be 15 a9 75 bd 18 24 86 bd
       -0.06000313 -0.45911884 -0.059975702 -0.06549853
000050 18 8b 75 bd 42 f0 ba be 51 0b b1 be 16 fd 49 be
       -0.059947103 -0.36511427 -0.34578946 -0.19725451
000060 92 f7 a0 be 00 ec 45 be aa 0c 55 be 17 93 15 be
       -0.3143888 -0.19328308 -0.20805612 -0.14606892
000070 97 be 0e be 34 c3 75 bd f6 7d 4b bc d4 0b 53 be
       -0.13939892 -0.060000613 -0.012420168 -0.20609981
000080 d4 48 39 be 2e 03 b0 be 73 3c 81 bd 47 ac 63 be
       -0.18094188 -0.34377426 -0.06310358 -0.22233687
000090 2e ed ce 3d 98 97 bf be e5 ba 97 bd da 19 98 be
       0.10103832 -0.37420344 -0.07408694 -0.29707223
0000a0 f7 3a 75 bd 1d ca ea bd ea e2 73 bd ec ab db 3e
       -0.059870686 -0.11464331 -0.059542574 0.42904603
0000b0 63 33 34 be f6 13 a0 bd fb d5 a4 be 13 ff 99 bd
       -0.17597727 -0.07816307 -0.32194504 -0.07519355
0000c0 b1 6c f6 be f1 12 bf be 8f d8 75 bd d1 9a a2 be
       -0.481298 -0.3731914 -0.06002098 -0.3175874
0000d0 7e 72 75 bd 22 00 df be 45 0f 6a be b0 61 57 bd
       -0.05992364 -0.4355479 -0.22857387 -0.052583396
0000e0 44 6e 74 bd 5c b5 7a be cd 65 91 bd 68 c0 73 be
       -0.05967547 -0.24483246 -0.07099495 -0.23803866
0000f0 7b 79 9f 3d b7 66 73 be e9 9d b6 bd e6 21 54 bd
       0.077868424 -0.23769651 -0.08916838 -0.05179014
000100 68 f9 f2 be e5 e6 75 bd aa 68 f7 3b 65 e8 75 bd
       -0.47455907 -0.06003465 0.0075503187 -0.06003608
000110 0c 0e 26 be 30 b6 46 3d 3d 95 8d be 65 16 0d bc
       -0.16216296 0.04851359 -0.27652922 -0.008611296
000120 66 9c f8 bd f0 c4 1b bf 40 9c 81 bd da aa 5d 3e
       -0.12139206 -0.6084738 -0.063286304 0.21647206
000130 49 e9 75 bd 0c d9 75 be 87 3c ca 3d 65 bc 27 be
       -0.06003693 -0.24008578 0.09874826 -0.1638046
000140 cc 41 b2 3e e8 e8 c6 bd 8e e4 75 bd 96 3a 1a bd
       0.34815824 -0.09712392 -0.06003242 -0.03765353
000150 03 55 63 bd e6 d6 5b 3e 0f 6a 23 be 69 10 a1 be
       -0.055500995 0.21468696 -0.15958427 -0.31457832
000160 c1 be 75 bd 0c a9 e2 be 58 46 92 be 8b 74 74 be
       -0.05999637 -0.44269598 -0.28569293 -0.23872583
000170 54 cb af be eb 59 4b bd c5 8f 8e be 90 9a b3 be
       -0.34334815 -0.0496463 -0.27844062 -0.3507886
000180 ea da 75 bd 12 d8 28 be 24 c6 6d be 2b aa 71 be
       -0.060023226 -0.16488674 -0.23220116 -0.2360007
000190 68 b8 75 bd 3a 32 e1 bd e0 96 7b be 11 be ee bc
       -0.059990317 -0.10995908 -0.24569273 -0.029143365
0001a0 10 da f1 3d 87 27 ad bd e1 24 84 be 3a d0 75 bd
       0.1180917 -0.08454805 -0.25809386 -0.060013033
0001b0 4c cc 38 be 99 55 7e bd 2a 27 22 3d 1c f1 94 be
       -0.18046683 -0.06209335 0.03958813 -0.29090202
0001c0 52 18 8f 3e bd 1a 36 be 49 6b 99 bd 54 e2 a6 be
       0.27948242 -0.17783637 -0.07491166 -0.3259455
0001d0 59 5f 8d be f2 cf 93 be 8c d4 75 bd aa 28 73 bd
       -0.27611807 -0.28869587 -0.060017154 -0.059364952
0001e0 60 cb 07 bf a3 2e 2f be db ff ac be e0 22 da be
       -0.530447 -0.17107634 -0.33788952 -0.42604733
0001f0 b1 d7 fd bd d4 f4 60 bd da 25 a0 be 05 ab 4a be
       -0.123946555 -0.054920986 -0.31278878 -0.19791801
000200 a8 9f d9 be 9f 43 75 bd 2e a8 00 be 22 ad b4 be
       -0.4250462 -0.05987894 -0.12564155 -0.3528834
000210 29 3a 63 bd e3 ec 4a be bf 02 95 be 16 8e 76 bd
       -0.055475388 -0.19816928 -0.29103658 -0.060194097
000220 8c 29 74 bd bc f8 a7 be 3f ae 96 3e 49 15 80 be
       -0.059609935 -0.32806957 0.29429814 -0.2501624
000230 9c 49 fe 3b e6 fc b8 be 13 06 9c be 08 a2 69 3e
       0.0077602398 -0.36130446 -0.30473384 0.22815716
000240 37 ac a0 bd 91 51 21 bd 86 8d bd be 05 cc c7 bd
       -0.078453474 -0.03938443 -0.37022036 -0.097557105
000250 c8 6d 08 be 18 89 75 bd 13 2f 7c be aa c3 75 bd
       -0.13323128 -0.059945196 -0.24627332 -0.060001053
000260 aa ce 03 bf ea 46 af bd 28 bc 90 bd 11 82 2b 3d
       -0.5148722 -0.08558448 -0.07067138 0.041872088
000270 24 7a 79 be f2 7c 76 be 54 37 31 be 6b 51 82 bd
       -0.24362999 -0.240711 -0.17306262 -0.063631855
000280 cb d9 75 bd 48 47 13 bf e6 72 94 be e1 3a 80 bd
       -0.060022157 -0.5753064 -0.2899391 -0.0626123
000290 d1 99 db be 6c bc a9 bd 59 5e 75 bd 73 54 bb be
       -0.4289079 -0.08287892 -0.05990443 -0.36587867
0002a0 cd ad 85 3e 47 6b 08 bf ab ce 75 bd df 77 97 be
       0.26109162 -0.5328869 -0.060011547 -0.29583642
0002b0 f2 10 d5 be 15 7a 04 bf f6 b4 82 be 9b 4d 51 bd
       -0.4161449 -0.5174878 -0.25528687 -0.0510994
0002c0 cd eb 75 bd 3e f6 b1 be 98 eb 82 bd 4c 8e 66 be
       -0.06003933 -0.3475818 -0.06392592 -0.2251522
0002d0 5a 7e 88 be 9d 78 41 be de d9 4a be aa 6c b8 be
       -0.266589 -0.18893667 -0.19809672 -0.36020404
0002e0 78 dc 85 be b5 2b 61 3e a2 d6 75 bd ee e5 1a be
       -0.26144767 0.21989329 -0.060019143 -0.15126774
0002f0 d2 70 a5 bd ba 23 45 3e 14 98 84 3e 0f fb 40 bd
       -0.080781594 0.1925191 0.25897276 -0.047114428
000300 2b 8d ca be 53 eb 75 bd eb 3b 91 bd f6 c3 0a 3e
       -0.39560828 -0.060038876 -0.070915066 0.13551316
000310 e3 59 dd 3d ac 27 97 be 69 c0 71 be 1c f8 89 bd
       0.1080816 -0.29522455 -0.23608555 -0.06736776
000320 66 65 9c 3e b3 6c 99 be ff 43 75 bd 28 0a fa bd
       0.3054611 -0.29965743 -0.0598793 -0.122089684
000330 42 e3 e6 bd 76 37 d9 be 27 31 d1 3c c4 77 c8 be
       -0.11273815 -0.42425126 0.025536133 -0.39153874
000340 86 99 b0 be af 33 93 be 40 a6 c7 bd 82 b8 a8 bd
       -0.3449213 -0.2875037 -0.097485065 -0.08238317
000350 c8 03 5a be d0 bb e1 3e b3 07 ba be e9 b0 aa be
       -0.21290505 0.44088602 -0.36334 -0.33338097
000360 ce e4 3e be 18 e9 75 bd e8 f2 75 bd cf 3f 85 be
       -0.1864197 -0.06003675 -0.060046107 -0.26025245
000370 07 ed 74 bd ef 22 cd be 41 89 55 be f7 98 8c bd
       -0.05979636 -0.40065715 -0.2085314 -0.06865113
000380 70 bb c9 be e0 db 2b be 62 90 fa bd 02 03 b6 be
       -0.39400816 -0.16783094 -0.1223457 -0.3554917
000390 82 e1 6b be 5a 2c f9 be ae 8c b1 be 11 98 d2 be
       -0.23035243 -0.4866665 -0.34677643 -0.41131642
0003a0 e7 ef b2 be 0a 4e a8 be 39 03 89 be df 4d 36 be
       -0.34948656 -0.3287204 -0.2676027 -0.17803143
0003b0 2c df bb be cf d4 cf 3e 4c 49 a8 be cb d5 b1 3e
       -0.36693704 0.40592048 -0.3286842 0.34733424
0003c0 39 28 93 3d 17 d0 3f be e2 4d 58 bd 54 e0 75 bd
       0.07185406 -0.18731724 -0.05280865 -0.06002839
0003d0 47 aa 3e be c8 19 66 bd 2d c1 fc be f2 b7 74 bd
       -0.18619643 -0.05617693 -0.4936613 -0.059745736
0003e0 a6 2c 7a be 23 97 f3 3e 37 39 9e be c9 73 89 bd
       -0.24431095 0.47576246 -0.30903026 -0.067115374
0003f0 16 19 87 be a8 21 4f be 44 33 d8 be 4f 6e cc be
       -0.26386327 -0.20227683 -0.42226613 -0.3992791

sequential_1/conv2d_3/Conv2D/ReadVariableOp:0 f4 [15, 30, 3, 3]
000000 5b c8 76 be 5b 77 ef 3d cf b0 a8 bd c6 5a ed be
       -0.24099867 0.11692687 -0.082368486 -0.46358317
000010 85 1b 85 be 0e 19 1d bf 11 17 98 be 61 fa 12 bf
       -0.25997558 -0.61366355 -0.29705098 -0.574133
000020 3f ed 03 3e 05 17 a2 be 97 6a c7 be 30 63 63 3d
       0.12883471 -0.31658188 -0.3894851 0.055514514
000030 ad 29 ac 3e 7b 86 11 3e da b0 a7 3d 84 0d 7c 3d
       0.33625546 0.14211456 0.08188029 0.061536327
000040 f7 7b 66 be fc 46 30 3e 4f 57 40 bf 47 16 35 bf
       -0.22508226 0.17214578 -0.7513322 -0.7073712
000050 22 80 5e bd a9 9c 1e bf e0 d4 d2 be d2 e5 18 be
       -0.054321416 -0.61957794 -0.41178036 -0.1493142
000060 3e e0 ca be fb f6 b5 3e ac 92 ff 3e e4 9a dd 3c
       -0.39624208 0.35539994 0.4991659 0.027051397
000070 8f e4 26 bf c1 da 90 be 11 87 86 3c d5 cc 0a bf
       -0.651925 -0.28291896 0.016421827 -0.542188
000080 a5 25 9d 3e 46 33 13 3f 51 25 99 3e 89 2e 79 be
       0.30692783 0.5750011 0.29911283 -0.24334158
000090 bd b7 80 bd e8 07 3e 3e 4e dc 2b 3e 6a 21 06 bf
       -0.06285045 0.18557703 0.16783258 -0.52394736
0000a0 71 da ee be 87 a3 37 be f4 e6 bc 3e 9f c2 cf be
       -0.46651033 -0.17933474 0.36894953 -0.40578172
0000b0 cc 30 96 3d f7 47 06 bf 1e 81 22 be db ac 83 be
       0.07333526 -0.5245356 -0.15869567 -0.25717816
0000c0 7a c0 8d be ee b1 42 bd 32 d8 3e be 61 99 ef 3e
       -0.2768591 -0.04753297 -0.1863716 0.46796706
0000d0 ef c8 f5 3e 31 3b ee 3d 4c 94 30 bd f7 1f 6e 3c
       0.48004863 0.116323836 -0.043110177 0.014533988
0000e0 0d ca 96 bc 53 db 99 3d d4 f0 a8 bd 1a 1c 1f 3d
       -0.018406892 0.07512536 -0.08249059 0.03884516
0000f0 a0 73 9a bd 03 6b c6 bd bb d6 1b be 5a 6a d0 be
       -0.07541585 -0.096883796 -0.15218632 -0.4070614
000100 de 2c a4 bd 10 26 b8 be 8e 96 00 bf 5e c5 fb be
       -0.0801637 -0.3596654 -0.5022973 -0.49174017
000110 34 a8 71 bf 36 27 e4 be 87 4e 12 be 07 75 d2 bd
       -0.9439728 -0.44561166 -0.14287768 -0.102762274
000120 41 ca 90 be 1f fd 4c 3c 5f f3 87 3e 8b b5 aa bd
       -0.28279307 0.012511521 0.26552865 -0.08335408
000130 31 ad 57 3e 45 a1 7b 3e ca 85 d3 3b 69 8a 25 be
       0.21062161 0.24573238 0.006455158 -0.1616608
000140 7c 8e 28 3e 1c c2 13 bf 5a b6 fd bd da ad 3a 3e
       0.16460603 -0.5771806 -0.123882964 0.18230382
000150 bf 13 e6 be cf f8 39 bf 6b 88 6b 3d 9b e8 d3 be
       -0.4493694 -0.72645277 0.057503145 -0.413884
000160 74 59 50 be 4a 6d 04 bf 0b 2c ab 3a bf a8 53 bd
       -0.20346624 -0.5172926 0.001305939 -0.0516746
000170 5e 70 ba 3d 26 8a a4 3d 84 1c bc 3d 53 53 84 3d
       0.091034636 0.08034162 0.091851264 0.06461205
000180 8c ea 2f be 68 4c a2 3d 80 36 48 bd 9a eb d6 be
       -0.17179316 0.079247296 -0.0488801 -0.41976625
000190 08 1e 17 3e 07 41 66 3e 9d ab 27 bf 80 00 f9 3d
       0.1475755 0.22485743 -0.65496236 0.121582985
0001a0 6d 4a a5 3d 39 16 83 bf 3f ec a6 bf 14 c1 bb 3e
       0.08070836 -1.0241157 -1.3040847 0.36670744
0001b0 37 96 68 bf 85 88 45 bf 6d 38 e9 bd 09 b0 8a 3e
       -0.9085421 -0.7716144 -0.113877155 0.2708743
0001c0 60 7d 7c 3e 1a 4b 12 be 4c bc f8 3e 84 d6 2c 3f
       0.24657202 -0.14286461 0.4858116 0.67514825
0001d0 18 ad ba 3e 10 ce a5 be aa c8 e5 3c bd f9 87 3e
       0.36460185 -0.32383776 0.028049786 0.26557723
0001e0 a7 6e 00 bf 2e ff 12 3c a7 53 21 3c de 20 cb 3c
       -0.5016884 0.008971972 0.009846604 0.024795946
0001f0 e4 61 48 be 95 ed 34 bd 25 7f 4e 3e a8 18 8d bc
       -0.19568592 -0.04417189 0.2016569 -0.017223671
000200 41 db ae be 5e f3 95 bc 19 05 7a be 4a 4f e1 bd
       -0.34151652 -0.018304523 -0.24416007 -0.11001451
000210 e4 23 90 be 3e 55 b9 be 4a 5d d2 bd f9 5d d9 be
       -0.28152382 -0.36197847 -0.102717 -0.42454508
000220 23 83 2d be ca 31 df 3c da 46 44 be d1 42 8b 3e
       -0.16944556 0.027245421 -0.19167653 0.27199414
000230 33 21 48 3e 2b 5f 45 3e fc a9 b6 3d bd e6 01 bf
       0.19543914 0.19274585 0.08919141 -0.50742704
000240 28 e1 53 bc 4e 73 7a bd d5 27 ee be 20 d7 d8 3e
       -0.012932099 -0.06114512 -0.46514764 0.42351627
000250 d9 7e 6b 3e 1a 78 08 3e 07 58 4c 3e 57 d6 5d bd
       0.22997607 0.13327065 0.19955455 -0.05415949
000260 7b 5f fd 3d fa 10 9b bd e7 dd a2 be 0d 29 1e 3e
       0.12371727 -0.075715974 -0.31809923 0.15445347
000270 6a 1c d6 3e 43 28 20 3e 60 05 0b be e2 20 bf 3d
       0.41818553 0.15640359 -0.13576269 0.09332444
000280 08 32 8e 3e 30 91 2b be 72 c6 2f 3e f0 d6 63 3e
       0.27772546 -0.16754603 0.17165545 0.22249961
000290 64 4a 61 bd df 7a 96 3d 43 e3 e7 be 6e e4 0d be
       -0.055002585 0.073476546 -0.45290574 -0.1385667
0002a0 fd 91 88 3e 51 c4 02 3e 43 e9 18 bf 21 82 87 be
       0.2667388 0.12770201 -0.5973093 -0.26466468
0002b0 fe 76 b4 3e 78 db 6d 3e 72 54 2c bf d5 f1 22 be
       0.35247034 0.23228252 -0.67316353 -0.15912564
0002c0 80 95 92 bc 4c d6 d6 be 48 6d 26 bf af 4c 16 bd
       -0.017893553 -0.4196037 -0.650105 -0.036694225
0002d0 04 78 23 bd 94 21 69 bd ed 7f 04 3f 1e 70 ea 3d
       -0.039909378 -0.05691679 0.517577 0.11447166
0002e0 31 8d 95 3d 28 3b 75 3e 96 19 90 3d 63 47 96 3e
       0.07302321 0.23948348 0.0703613 0.2935134
0002f0 80 eb f5 be b7 50 2a 3d fb fc c9 3d 54 c5 9f bc
       -0.48031235 0.041580882 0.09862705 -0.019503273
000300 88 26 97 be b1 a0 84 3d 0d 8e 17 bd 78 9c ae be
       -0.29521585 0.06475962 -0.037000705 -0.3410375
000310 e2 6e bc bd ac 8b 14 be b0 02 ba be cf 2a 84 3e
       -0.09200837 -0.14506406 -0.36330175 0.2581391
000320 7a 8c 29 3e b9 f8 51 bf 6b c6 89 3c 2d af 36 3f
       0.16557494 -0.82020146 0.016818246 0.7136105
000330 a2 03 c3 3d 83 d3 d9 be 97 92 51 3d 42 39 b6 3d
       0.09522177 -0.42544183 0.05116519 0.0889764
000340 1e b8 9e 3d 0b 23 0a be 89 fa bc be 51 22 42 3e
       0.07749961 -0.1348993 -0.36909893 0.18958403
000350 83 e3 0d 3e 1e 79 e0 bd 5e a2 82 bd dd c3 7b be
       0.1385632 -0.10960601 -0.06378625 -0.24586435
000360 3f 1e 12 bf e1 19 da 3d 74 6b a5 bd 32 d0 6b be
       -0.570774 0.10649467 -0.08077136 -0.23028639
000370 7f 83 38 bf 50 62 ba be 78 3e 9c bd cf ed a2 be
       -0.7207565 -0.3640313 -0.076291025 -0.3182206
000380 93 78 5f bf d4 ab ae bf d6 ec 87 bf f6 27 72 3e
       -0.87293357 -1.3646188 -1.0619152 0.23648056
000390 4a 2d 9a bf f6 eb ef 3d 20 b7 d0 be 13 bb 2b bf
       -1.2045071 0.11714928 -0.40764713 -0.6708233
0003a0 af a2 88 bd f9 b7 23 bf 54 ed a3 be 60 3c 91 3e
       -0.066716544 -0.63952595 -0.32017004 0.28366375
0003b0 54 e6 90 3d f4 88 77 3e d5 6a 80 bd ac 3d 7f 3d
       0.070751816 0.24173337 -0.062703766 0.062314674
0003c0 eb 02 06 bd b8 c0 44 bf 41 7e 20 bd 66 30 54 bc
       -0.032717627 -0.76856565 -0.039182905 -0.012950992
0003d0 ba 39 a6 3d 7d af 12 3d ab 2e 0c be 14 bc 2e bd
       0.08116479 0.03581189 -0.13689677 -0.042659834
0003e0 36 98 dc bd bf ab ce 3d 01 68 52 be a7 f8 0f bd
       -0.107712194 0.10091352 -0.20547487 -0.035149243
0003f0 24 3c 53 3e db fe 83 be f5 6c 8f bf b2 40 31 bf
       0.2062841 -0.25780377 -1.1205126 -0.6923934

sequential_1/conv2d_3/BiasAdd/ReadVariableOp:0 f4 [15]
000000 ef b2 14 be 9c a4 78 be 29 83 5a be ca 4f 2b be
       -0.14521383 -0.24281543 -0.21339096 -0.16729656
000010 83 b5 b1 be 63 65 b1 be 4c a8 2b be 1c c5 98 be
       -0.34708795 -0.34647664 -0.16763419 -0.29837883
000020 0d 4c 3f be 4f 95 a0 bd 4b 9a ca bd d8 49 bb be
       -0.18681355 -0.07840978 -0.0989271 -0.36579776
000030 57 fa bc 3d de c2 18 bc bd cd fc bb
       0.09227436 -0.009323804 -0.0077149556

sequential_1/conv2d_2/Conv2D/ReadVariableOp:0 f4 [30, 1, 5, 5]
000000 f0 bd 7a 3e 11 96 bf be 8c f9 e1 be 27 74 f1 bc
       0.24486518 -0.3741918 -0.44135702 -0.029474331
000010 1a ca df 3c 5c 75 4b bf 27 36 de be 9e fc 12 bf
       0.02731805 -0.7947595 -0.4340069 -0.57416713
000020 cb 91 57 bd 4c 10 b8 be 91 7e c5 be 77 a6 1d bf
       -0.052629273 -0.35949934 -0.38573125 -0.6158213
000030 cd 96 bb be 64 a6 92 3c 53 bf 29 3d 2e 42 2a bf
       -0.3663849 0.017901607 0.041442227 -0.6650723
000040 58 1f c4 bd 44 4f 7d be eb 1d 87 bc fd 9c 2f 3e
       -0.09576291 -0.24737269 -0.016493758 0.1714973
000050 b1 5b 2e be 51 8c 65 3e 49 d9 ae 3e 1e c6 19 3e
       -0.17027165 0.22416808 0.3415015 0.15016982
000060 45 e0 5c 3e f3 b1 13 be 3d c0 75 be 14 8e 84 bd
       0.21569927 -0.14423351 -0.23999114 -0.06472412
000070 25 f5 83 bd d4 e6 50 3d c2 d1 e6 be a3 f4 4e be
       -0.06443242 0.051001385 -0.45081908 -0.20210509
000080 6d d7 26 bb 6c 96 56 be 8e bd 85 bd ae 28 f4 be
       -0.0025457994 -0.20955819 -0.06530295 -0.47687286
000090 17 8a 04 bd 5f 0f 74 bc f5 a4 03 bf 1d 46 e8 be
       -0.032358255 -0.014896243 -0.5142358 -0.45365992
0000a0 21 46 04 bf 15 8c 37 bd 39 61 da 3e e0 b0 4e be
       -0.5166951 -0.044811327 0.426523 -0.2018466
0000b0 03 df f3 be 36 54 29 bf 71 67 16 be ed 79 fb 3e
       -0.47631082 -0.6614412 -0.14687897 0.4911646
0000c0 26 1c 59 3e 4e e7 1b bf 70 fb 34 be 78 68 fe be
       0.21202144 -0.6089982 -0.17674041 -0.49689078
0000d0 67 35 b1 be 62 22 f0 3c 92 ad fc 3d 6f 5c 31 3e
       -0.34611055 0.02931327 0.123377934 0.17320417
0000e0 59 68 82 be 3c 4a 39 bf e9 50 a7 be 59 d6 2a bd
       -0.25470236 -0.723789 -0.32678917 -0.041708324
0000f0 21 99 bf 3e 37 8e 06 3d fe eb 59 be 60 47 b8 be
       0.37421516 0.03285047 -0.2128143 -0.35991955
000100 71 e0 8d bd ed 4f 31 3e 78 c2 8c bd 8c 86 a7 be
       -0.069275744 0.17315646 -0.068730295 -0.3271984
000110 77 f0 be be 3f bf fa bd 50 5c d6 3e d3 05 8e bd
       -0.37292835 -0.122435085 0.41867304 -0.06934705
000120 84 17 3e be b1 3a 04 bf 18 2b af be e7 c3 78 3e
       -0.18563658 -0.51652056 -0.34212565 0.24293481
000130 4c 55 85 3e 83 5b a1 bd 16 35 78 bf 97 a6 3d be
       0.2604164 -0.078787826 -0.96956 -0.1852058
000140 48 17 74 bd f4 d0 60 3e 1d 0c 1e 3f 2c dc e5 be
       -0.059592515 0.2195471 0.61737233 -0.4489454
000150 10 75 80 bd 56 ec ab be 7b 56 49 be d0 3a a9 3e
       -0.06272328 -0.33578748 -0.19661896 0.33052683
000160 58 40 85 3d 21 29 68 3e 54 79 8e bf e5 d3 94 be
       0.06506413 0.2267194 -1.1130776 -0.29067913
000170 af 40 3a 3e 96 e3 a2 3d a7 c5 6d be 56 49 45 bc
       0.18188737 0.07953565 -0.2321993 -0.01204141
000180 42 e1 f3 3d 73 23 d4 bd 9b ff 8a 3d 1d 45 50 be
       0.11908199 -0.10358324 0.06787034 -0.20338865
000190 90 81 96 be 8f 74 03 be ce 2d ad be 5b f2 20 bf
       -0.29395723 -0.12837432 -0.3382401 -0.62869805
0001a0 30 00 85 bf fc d3 ed be 81 8f 29 be 62 a9 92 bd
       -1.0390682 -0.46450794 -0.16558649 -0.071612135
0001b0 ee 35 65 3e 8b 8f 2e 3e d9 a0 af 3d 64 2a 49 3e
       0.22383854 0.17046945 0.08575601 0.19645077
0001c0 66 45 8d 3b f0 bc 95 3e 20 f5 e3 3e 15 0c 21 bc
       0.0043112515 0.2924571 0.44522953 -0.009829541
0001d0 7d 47 8d be 66 0e 22 bf 75 33 ab bf 94 be 99 bf
       -0.27593604 -0.6330322 -1.3375078 -1.2011285
0001e0 5c c0 1d 3d 1b 8b 0d bd 7a 50 fc be 43 1d 69 be
       0.038513526 -0.03455649 -0.4928015 -0.22765069
0001f0 ca f4 a8 be bb c2 97 3e dd 08 f4 bd ac ec 41 bf
       -0.3299926 0.29640755 -0.11915753 -0.7575176
000200 0b a6 87 be e0 da dc bc f0 1e 87 3e 3a f8 70 be
       -0.26493868 -0.026959836 0.2639079 -0.23532191
000210 59 55 2c bf 47 25 94 be c6 ca 14 be d4 32 fc 3d
       -0.6731773 -0.2893469 -0.14530477 0.12314382
000220 b1 bf c0 3d 9b 0d 4b bd 0e 34 18 be ca 22 5d be
       0.09411562 -0.049573522 -0.14863607 -0.21595302
000230 75 5d ba bc b5 60 6b 3e 67 04 75 3d ff 01 ba be
       -0.022749642 0.2298611 0.05981865 -0.36329648
000240 ee 27 da be 93 54 9f be d3 27 33 be 23 c8 3f bd
       -0.4260859 -0.31119213 -0.1749566 -0.046821725
000250 50 97 86 be a4 a6 75 be c5 be 2e bc cb 0c c2 bd
       -0.26287317 -0.2398935 -0.0106656 -0.09475096
000260 68 ad 68 3c 71 da 3f b9 5d 17 a0 bd 24 3d a8 bd
       0.0142014995 -0.00018296555 -0.07816956 -0.08214787
000270 15 b5 ae 3c a7 62 9a bc 70 fc 23 be 31 24 91 bd
       0.021326581 -0.01884587 -0.16014266 -0.07086981
000280 b4 01 83 bd 13 04 1e bc 4b eb 18 bd 78 d0 e0 bd
       -0.06396809 -0.009644526 -0.037333768 -0.10977262
000290 53 27 28 bd 6b 9c 55 bd d4 ff 22 be 5e a9 10 be
       -0.041053127 -0.052151125 -0.15917903 -0.14127108
0002a0 43 0b 19 bd 39 fe 2c be 1f 79 1a 39 ed ef 18 be
       -0.037364256 -0.16893853 0.00014731706 -0.14935274
0002b0 66 55 00 3b 5c 6f cb bb 86 c3 aa bd b9 20 39 bf
       0.0019582151 -0.0062083434 -0.083380744 -0.72315556
0002c0 88 50 1c bf 7d 50 ed be ce 29 95 be 64 39 9d bd
       -0.6106038 -0.4635047 -0.29133457 -0.07676962
0002d0 21 92 28 be 70 72 0b be 03 50 87 be 44 6d d4 be
       -0.16461994 -0.13617873 -0.26428232 -0.41489613
0002e0 39 a4 c3 be a5 13 92 bd 4a 5d da 3c 58 a1 b7 bd
       -0.3821123 -0.07132653 0.026655812 -0.08966321
0002f0 3a f3 40 be 20 18 74 be 5d df c2 bd 15 00 c5 be
       -0.18842784 -0.23837328 -0.095152594 -0.38476625
000300 e1 2e 57 be e1 e0 65 bd a7 a3 a9 bd 0c 2c bb 3c
       -0.21013977 -0.056122664 -0.08283167 0.022848152
000310 ee a5 7e bd 87 02 de 3d c3 6e a0 3e c6 98 b4 3e
       -0.06216996 0.10840326 0.31334504 0.35272807
000320 6a 7f e2 3d b1 72 ef 3d 27 f4 bb 3d f0 28 01 be
       0.110594586 0.116917975 0.09177428 -0.12613273
000330 9e 0c 28 be 53 78 a8 be b4 95 57 be 95 96 19 be
       -0.16411063 -0.329043 -0.21053201 -0.14998849
000340 0a 97 b7 3b a8 d0 ad bd 6f c7 d5 bd 2e 94 ac 3b
       0.005602722 -0.08487064 -0.104384296 0.005266688
000350 33 6c 3a be 84 86 c6 3c 8f 53 b3 3d 10 97 13 be
       -0.18205337 0.024234064 0.08756172 -0.14413095
000360 50 ab 8f be 29 1e be be 85 2e 6e be 23 66 9e bd
       -0.2806039 -0.37132385 -0.23259933 -0.07734325
000370 ec 48 c1 3d e9 c0 4c be a0 c9 5d be 8e 3b 83 bb
       0.09437737 -0.19995464 -0.21658945 -0.004004902
000380 94 5c 83 bd bf 73 80 be e0 99 2e bf fe 53 af be
       -0.06414142 -0.25088307 -0.68203545 -0.34243768
000390 be a9 33 bf 97 f5 df be 1e 2c 0c bf 05 a0 57 be
       -0.7018088 -0.43742058 -0.5475482 -0.21057136
0003a0 04 aa 0d 3e 08 7b 02 3e d3 7e 9e be cf 1c a2 3e
       0.13834387 0.12742245 -0.30956134 0.31662604
0003b0 df 92 e6 3e 90 a7 df 3e aa 80 5e 3d 01 4d d4 bd
       0.4503393 0.43682528 0.054321922 -0.1036625
0003c0 03 c2 93 3e 14 53 60 3e 5f 37 6e be 0f af ac 3d
       0.28858957 0.21906692 -0.2326331 0.08431827
0003d0 e4 bd 87 be 9f 2a 4c bf 72 72 f0 be 92 71 1e bf
       -0.26512063 -0.79752535 -0.46962315 -0.61892045
0003e0 05 e5 8f be 31 5f 38 bf 57 f8 79 bc 65 b6 04 3d
       -0.28104416 -0.7202025 -0.015256963 0.032400507
0003f0 98 74 0f 3e 9c 29 56 bb 3d 74 3e be 20 35 33 be
       0.1400932 -0.003267861 -0.18599029 -0.17500734

sequential_1/conv2d_2/BiasAdd/ReadVariableOp:0 f4 [30]
000000 af 94 66 be 8a 47 3f be 8b 7e 4a be 1f c7 ec be
       -0.22517656 -0.18679634 -0.19774835 -0.46245667
000010 74 6e da bd ff ad f3 be 0a 10 79 bd 48 37 1d be
       -0.106655985 -0.47593686 -0.06080631 -0.1535312
000020 0c 42 a6 be 3e eb f8 bd a0 a3 51 be 60 13 75 be
       -0.32472265 -0.12154244 -0.20472574 -0.23933172
000030 79 c0 dc be 43 e7 e3 be 5f 43 dd be 8e 00 11 bf
       -0.43115595 -0.44512376 -0.43215463 -0.5664147
000040 43 7c b0 bd 53 ce c0 be 96 4d 8b be 06 a5 2f bf
       -0.08617451 -0.37657413 -0.2720763 -0.6861118
000050 db 24 d9 bd 23 42 f1 be 17 3b 55 be b7 e7 23 bf
       -0.10602733 -0.4712077 -0.20823322 -0.64025444
000060 a5 4d de bd 28 85 15 be 6e 1a 02 bf e4 32 f2 bd
       -0.10854653 -0.14601576 -0.5082158 -0.11826113
000070 fd 0d 79 bb 82 14 93 bd
       -0.0038002722 -0.07181646
