models/model10.onnx (onnx, 32149 bytes, 2 tensors)

sequential/dense/MatMul/ReadVariableOp:0 f4 [784, 10]
-0.0734121 0.034360886 -0.016253598 0.037805654 0.049356453 -0.042854697 -0.042672854 0.067538776
-0.047663767 0.028852575 0.014435701 0.05461376 0.0693086 -0.06412518 -0.047932535 0.066768385
0.086799644 -0.047776077 0.084871076 -0.05983068 0.07526777 0.017754748 0.06555841 -0.06396346
0.03672009 -0.017575696 -0.060324885 0.05341614 0.022824332 0.060498856 0.051461242 0.074767046
-0.06441417 0.01631847 0.05033151 -0.012856804 -0.07704095 -0.01395186 -0.03677746 -0.013821065
-0.006272018 0.037353292 -0.05428843 -0.05578042 -0.08142112 -0.08306055 0.016898118 0.035664022
0.022616811 0.04816907 0.0045549124 0.069262184 0.023530059 0.033492878 0.06712467 -0.016125783
0.041137777 -0.07631732 -0.035737846 0.0028610304 -0.03301134 0.06285442 -0.040646683 -0.05493975
0.05186955 -0.05194454 -0.047907457 -0.069452524 0.04391361 -0.07487704 0.042355157 -0.010658324
0.049086012 0.03885921 -0.06400505 -0.0006144941 -0.037156425 0.07043599 -0.048798963 0.081783034
-0.049687073 0.060527883 -0.0577504 0.08505406 -0.0007097423 -0.045514446 0.04625783 -0.013196126
-0.03576141 -0.039787818 0.026097827 -0.081535794 -0.010746889 -0.00013809651 0.017442621 -0.053344652
0.04530587 0.024783 0.053644605 -0.07055504 0.021167494 0.022328496 -0.0319721 0.08657993
-0.07232813 0.04205417 -0.04628357 0.08371063 0.033703715 -0.06548291 -0.077690296 -0.025867563
0.038631745 -0.020679988 -0.07671697 -0.024160922 0.029856354 -0.035802882 0.042971842 -0.065320745
-0.026920086 -0.06345314 -0.07153175 -0.010830679 0.0037264398 0.048485383 -0.035408627 -0.06854389
-0.018454365 0.0470678 -0.016471341 -0.054438252 0.026061201 -0.049834106 0.060538173 -0.008999278
-0.06433712 0.036432765 0.041524623 -0.040759917 0.029999401 0.05005979 0.07229783 0.005261838
0.042638052 0.07778178 0.08457658 -0.078815125 -0.027319593 -0.018778738 0.010584689 -0.0014615307
-0.08542092 -0.04386165 -0.03744713 -0.016491495 0.08675837 -0.020883469 0.041794065 -0.037181802
0.053284608 0.013368666 -0.013841271 0.08121245 0.014295675 -0.055405285 -0.020136893 0.0044876337
-0.030358143 0.010985106 -0.06691523 0.0047453567 -0.06896359 0.045958824 0.007205248 -0.024223574
-0.021672323 0.065635614 0.007808879 0.04560431 0.015648723 0.038663067 0.073069654 -0.05903045
0.051979087 0.05781562 -0.028970629 -0.031255994 0.012116514 -0.026568893 -0.024480175 -0.019086465
0.03369414 -0.07165161 -0.04737334 0.017956138 -0.07542081 0.0092480555 0.004064232 -0.059827138
0.06373579 -0.019139647 -0.031170271 -0.009279378 -0.04035597 0.023292728 0.07338899 -0.044446897
-0.054020967 -0.054489695 0.055208556 0.06027528 -0.07749102 0.038353525 0.032559007 0.029760398
0.0860197 -0.08238007 -0.021363787 -0.07914452 0.08393637 -0.050329294 0.004866749 -0.04890131
0.004282765 -0.0037819296 -0.023409478 0.012193546 -0.027946811 -0.029769827 0.059240274 -0.019019954
0.08420164 -0.037476633 -0.050416507 -0.023928404 -0.031480283 -0.037950315 -0.07471877 -0.026084207
0.08255828 -0.008711949 -0.03494872 -0.07226852 0.050987147 -0.0321641 0.0260536 -0.052728504
-0.026145678 0.0266691 -0.04479722 -0.074243166 -0.05192228 0.03077367 -0.019340307 0.012273736
00000000: 1559 96bd 00be 0c3d 4426 85bc 1ada 1a3d
00000010: fe29 4a3d 6888 2fbd bbc9 2ebd c551 8a3d
00000020: 153b 43bd 3c5c ec3c b883 6c3c aeb2 5f3d
00000030: abf1 8d3d 1054 83bd e854 44bd ddbd 883d
00000040: 03c4 b13d d9b0 43bd e3d0 ad3d 0411 75bd
00000050: fd25 9a3d 6872 913c 7d43 863d 46ff 82bd
00000060: ce67 163d e8fa 8fbc 3a17 77bd e2ca 5a3d
00000070: 18fa ba3c a6cd 773d 06c9 523d 771f 993d
00000080: 94eb 83bd 50ae 853c 6a28 4e3d 58a5 52bc
00000090: a5c7 9dbd 5896 64bc f6a3 16bd c071 62bc
000000a0: 8085 cdbb c4ff 183d 8b5d 5ebd 027a 64bd
000000b0: 1ec0 a6bd a61b aabd ec6d 8a3c 7014 123d
000000c0: e446 b93c ee4c 453d 6041 953b 55d9 8d3d
000000d0: 1cc2 c03c d42f 093d a978 893d 381a 84bc
000000e0: 1680 283d 414c 9cbd d961 12bd 2080 3b3b
000000f0: e636 07bd d1b9 803d 237d 26bd 8108 61bd
00000100: 2a75 543d ccc3 54bd 9c3a 44bd 203d 8ebd
00000110: c2de 333d 2259 99bd 9a7c 2d3d 40a0 2ebc
00000120: 6a0e 493d d62a 1f3d 1415 83bd 0016 21ba
00000130: 5631 18bd bf40 903d 6ce1 47bd dd7d a73d
00000140: ac84 4bbd 16ec 773d af8b 6cbd d330 ae3d
00000150: 000e 3aba 5b6d 3abd da78 3d3d 9034 58bc
00000160: 8e7a 12bd 8df8 22bd 1ccb d53c 3dfc a6bd
00000170: b813 30bc 00ce 10b9 d4e3 8e3c ec7f 5abd
00000180: a692 393d b805 cb3c 72ba 5b3d 297f 90bd
00000190: 7467 ad3c 40ea b63c 2df5 02bd d150 b13d
000001a0: c520 94bd fe40 2c3d d793 3dbd 7b70 ab3d
000001b0: e80c 0a3d e71b 86bd 171c 9fbd 36e8 d3bc
000001c0: 523c 1e3d 1469 a9bc c91d 9dbd 20ed c5bc
000001d0: 5095 f43c 0ba6 12bd 3e03 303d e2c6 85bd
000001e0: 8387 dcbc b8f3 81bd 3d7f 92bd 2973 31bc
000001f0: 4937 743b 9c98 463d a308 11bd bd60 8cbd
00000200: 9c2d 97bc 2aca 403d e8ee 86bc a5fa 5ebd
00000210: 4d7e d53c d91e 4cbd e0f6 773d b571 13bc
00000220: 2ec3 83bd 863a 153d b915 2a3d dff3 26bd
00000230: 4ec1 f53c 7f0b 4d3d e210 943d 7f6b ac3b
00000240: 3da5 2e3d 0e4c 9f3d 7c36 ad3d d369 a1bd
00000250: 57cd dfbc ded5 99bc 676b 2d3c d590 bfba
00000260: 2af1 aebd 46a8 33bd 2962 19bd 2c19 87bc
00000270: 5fae b13d cf13 abbc 4130 2b3d f24b 18bd
00000280: f640 5a3d 4008 5b3c 80c6 62bc b752 a63d
00000290: 6838 6a3c a7f0 62bd 20f6 a4bc 000d 933b
000002a0: a4b1 f8bc e0fa 333c da0a 89bd f07e 9b3b
000002b0: c83c 8dbd 523f 3c3d 001a ec3b 8470 c6bc
000002c0: 288a b1bc f76b 863d a0e1 ff3b 96cb 3a3d
000002d0: c031 803c 2a5d 1e3d 8ba5 953d eac9 71bd
000002e0: 06e8 543d 12d0 6c3d d053 edbc 4906 00bd
000002f0: 5884 463c 02a7 d9bc a68a c8bc 385b 9cbc
00000300: de02 0a3d 14be 92bd 8c0a 42bd c018 933c
00000310: 3a76 9abd 2885 173c 402d 853b 4d0d 75bd
00000320: e987 823d c0ca 9cbc cc58 ffbc 8808 18bc
00000330: 4d4c 25bd 64d0 be3c f74c 963d f30d 36bd
00000340: 1745 5dbd 9630 5fbd 5e22 623d 36e3 763d
00000350: 9db3 9ebd 9618 1d3d 985c 053d 14cc f33c
00000360: 192b b03d e2b6 a8bd 1c03 afbc 8616 a2bd
00000370: d5e6 ab3d 1726 4ebd 4079 9f3b bd4c 48bd
00000380: 7056 8c3b 40da 77bb 3cc5 bfbc 70c7 473c
00000390: b6f0 e4bc dadf f3bc eea5 723d bccf 9bbc
000003a0: e971 ac3d 1981 19bd 8a81 4ebd 8005 c4bc
000003b0: 78f1 00bd ca71 1bbd 2806 99bd 8cae d5bc
000003c0: 5114 a93d 90bc 0ebc 6426 0fbd 8501 94bd
000003d0: e6d7 503d 81be 03bd 5c6e d53c d8f9 57bd
000003e0: 762f d6bc 2879 da3c 4a7d 37bd cd0c 98bd
000003f0: 75ac 54bd 1019 fc3c 906f 9ebc c817 493c

sequential/dense/BiasAdd/ReadVariableOp:0 f4 [10]
-0.6225863 0.48157254 0.19966444 -0.40638864 -0.0070417407 1.8831756 -0.17238106 0.96097827
-1.9369767 -0.38002795
00000000: d161 1fbf ad90 f63e d674 4c3e 2c12 d0be
00000010: 67be e6bb e60b f13f a984 30be ac02 763f
00000020: daee f7bf 0693 c2be
