models/model40.onnx (onnx, 266076 bytes, 10 tensors)

sequential/dense_2/MatMul/ReadVariableOp:0 f4 [64, 10]
00000000: 2166 123e 4061 923e 3d81 52be e90e f63d
00000010: c237 66be ac9e 66bd 3c74 b4be 16dc bd3d
00000020: 650b 8b3e d4ac 6b3e c309 f9bd 52e8 e5bd
00000030: 93b4 ec3d 4da4 8abd 5c57 c03d a7d6 d6bd
00000040: 7255 443e 17fe 2fbe 8339 19be 34ca d9bc
00000050: c619 7a3e 0a61 48be bf05 3d3e 8530 cd3d
00000060: c0a2 883e a611 b8be a62f b7be b56f 97be
00000070: d597 d53d 05c6 56bd 028d 1f3e 1aa5 94be
00000080: ddc2 133e 63a0 4c3e 8adb 2c3e f882 9b3c
00000090: bd03 873e 0a5c 133e b8c5 db3d 08ad 463e
000000a0: d591 6c3e e6c5 573e 9a30 b63e afc4 84bd
000000b0: caec 1cbe 9e8f ce3d 5150 fbbc 0a8d e23d
000000c0: 64ab 823e 3cc7 8abe b695 b3bd 5a0e 51be
000000d0: f3fd e93d 02a1 0ebe 1eb1 1dbe d515 0b3e
000000e0: b14d 8ebd 301a 5e3e 9d2a 99bd 17c5 013e
000000f0: 09b6 913e bf67 bebe 0dd3 3c3d f698 5fbe
00000100: 5502 aebd f131 c53d 3b3f a23e 67fb 85be
00000110: 5ae9 893e f59e 7a3d 10b0 673c 3c07 babe
00000120: 2c41 12be ec44 343e 41b2 cf3d 8806 8e3e
00000130: 17e2 263e 3e9d 63be 510c 803e 8b30 cdbd
00000140: 89a7 acbe 5384 8dbd 7b3d 85be c57c 2fbe
00000150: 4b90 18be 9c66 cdbe 7144 23be fc07 9ebe
00000160: 9c27 cebe 977f a7be ff56 0fbd 2b28 babe
00000170: c357 95be d9c9 a3bd db1e 25be e0e0 813e
00000180: a15a 9a3e 7380 33bf 3166 12bd abfc 5a3e
00000190: 2bc4 be3d 6a55 b63e 1c51 5d3e 4cd6 f4be
000001a0: a742 b83d 25e4 a6be 6cdd 323e b131 a53d
000001b0: cc66 88bd ffe6 3ebe 756e 853d fe77 fbbd
000001c0: b950 b13e 5c84 9a3e 8f35 afbe 791c a2be
000001d0: ca7c debd f6b3 593d 5a55 6d3e af63 213e
000001e0: 2429 493e c216 d5be 9099 45be eaa3 973e
000001f0: 0ad9 c7be 8960 953e cf39 243e 1647 d6be
00000200: 19bc 10bd 462e 6dbd b1b8 1b3e 5ee2 80bd
00000210: bc49 573d c908 513e 5c54 75be e46f a1bd
00000220: 3bc0 bd3d 5497 34bd 1e16 f7bc 0a44 c6be
00000230: e330 43be fb7e 883e 86fe 5d3e 3f69 80be
00000240: c3ac 9d3e 53b6 0abe ddbf 093e 855b b83d
00000250: 0191 85be a87b 353d a7fb b6bd ca87 96be
00000260: 9dbe 74bd 164c 753e 4850 94be 0144 30be
00000270: 37b9 1bbf 1110 563e ec4c c9be d938 723e
00000280: c5fd 78bd 8745 033e 6cd6 cfbd 743e d7bd
00000290: 9292 91be ece2 80be 63f3 d3bc d3ba f8bd
000002a0: 122a a7be 89d2 33be ac1f c43d 4c91 f0be
000002b0: 7962 2bbe 986a 94be 954e 92bc 8541 2dbe
000002c0: 1d72 1a3e 228f 15be 1f6d 1cbe ef14 423e
000002d0: d5a5 3b3e 9ea9 55be f997 833d 5c61 a2be
000002e0: 101b 343e 6556 5fbe f0b6 a0be 5f05 023d
000002f0: bf91 0d3e b0ed 83bc c040 2fbe 017f 3b3e
00000300: 2710 8b3e 40a4 42be c7d5 8f3e 5efa c0be
00000310: e841 51be 1faa 313e 5e67 e1bd 2b5b 3fbe
00000320: a58e 383e ba0d 073e 8c0c aabd 2a7b 973e
00000330: fc0c 3b3e 2bb3 703e fa83 123e aaff 733c
00000340: 3882 4abc 18f4 283e df78 3ebe 857a 433e
00000350: 2984 463e 19fa 193e 225a 7d3e feb9 613e
00000360: e8f3 79be 15e4 90be 5a60 80be 23c4 7a3e
00000370: 4a75 f33d 24d5 ffbe 0494 85bd 7d49 85bd
00000380: deea 503e 8cf0 183e 0017 c33d d058 b7bd
00000390: fbfc 03be 5e53 9a3e bba9 4f3e 7fab 753e
000003a0: ab47 ebbe 6b58 0dbd 12ef 893e 83a5 65be
000003b0: c539 28bd aecc 9f3d 493b 5bbe 2a02 133e
000003c0: 59e2 24bc b28c 1ebe 56a8 473d fc36 debc
000003d0: 24f2 9b3e e7a2 04bb 316a a63d 896b 993e
000003e0: 407e efbd 46b7 8fbe 5e37 c3be 4787 96be
000003f0: 08cd 14be 362b f4bd 4b54 23be f2b9 37be
0.14296772 0.2858982 -0.20557113 0.12014563 -0.22482207 -0.056303665 -0.3524493 0.09270494
0.2715713 0.23015147 -0.12160065 -0.11225952 0.11557879 -0.06769619 0.093916625 -0.104901604
0.1917322 -0.17186771 -0.14963345 -0.026585676 0.24423894 -0.19568267 0.18459223 0.1001902
0.26686668 -0.35950965 -0.3577854 -0.29577413 0.1042935 -0.05243494 0.15581134 -0.29032212
0.14429803 0.19983058 0.16880623 0.01898335 0.2637004 0.14390579 0.10731071 0.19401944
0.23102506 0.21071586 0.35583955 -0.06482827 -0.15324703 0.100859866 -0.030677946 0.11062057
0.25521386 -0.2710513 -0.087687895 -0.20415631 0.1142539 -0.13928607 -0.15399596 0.13582547
-0.06948412 0.21689677 -0.07478831 0.1267284 0.28459194 -0.37188527 0.04609971 -0.21835694
-0.084965385 0.09628666 0.31688866 -0.26168367 0.26935846 0.06118675 0.014141098 -0.36333644
-0.14282674 0.17604417 0.10141421 0.27739358 0.16297184 -0.22227952 0.25009397 -0.100190245
-0.3372157 -0.069100045 -0.26023468 -0.1713744 -0.14898793 -0.40117347 -0.15944077 -0.30865467
-0.40264595 -0.3271453 -0.034995075 -0.3635877 -0.2916852 -0.07997484 -0.16125052 0.25366879
0.3014727 -0.7011787 -0.03574199 0.21385448 0.0931476 0.3561204 0.21612972 -0.47819746
0.08997088 -0.32595935 0.17467278 0.080661185 -0.06660232 -0.18642806 0.06515209 -0.12278746
0.346319 0.30179107 -0.3422055 -0.31662348 -0.108636454 0.05315014 0.2317709 0.15760683
0.196446 -0.41618925 -0.1929686 0.29617244 -0.39032775 0.29175213 0.16037677 -0.4185111
-0.035335634 -0.057905458 0.15207173 -0.06293176 0.052560553 0.20413508 -0.23957962 -0.078826696
0.09265181 -0.04408963 -0.030161913 -0.38723785 -0.19061618 0.26659378 0.21679124 -0.25080296
0.3079587 -0.13546114 0.13452096 0.09001831 -0.26087192 0.04430738 -0.089347176 -0.29400474
-0.059752095 0.23954806 -0.289675 -0.17213441 -0.6082949 0.20904566 -0.393165 0.23654498
-0.06078889 0.12819491 -0.101483196 -0.10509959 -0.28432137 -0.25173128 -0.025872892 -0.12145009
-0.32649285 -0.17560782 0.095763534 -0.46985853 -0.16736783 -0.28987575 -0.017859736 -0.16919525
0.15082593 -0.14605382 -0.15276001 0.18953298 0.18324979 -0.20865485 0.06425471 -0.31714904
0.17588449 -0.218103 -0.3138957 0.031743404 0.13825129 -0.01610455 -0.17114544 0.18310167
0.2716076 -0.19007969 0.28092787 -0.37691015 -0.20435297 0.17350052 -0.11006044 -0.18687122
0.18023165 0.1318883 -0.083031744 0.29586154 0.18266672 0.23505847 0.14308158 0.014892498
-0.012360148 0.16499364 -0.18600796 0.19089706 0.19386353 0.15036811 0.24741414 0.22043607
-0.24409449 -0.28299013 -0.2507351 0.24488883 0.118876055 -0.499673 -0.06522372 -0.065081574
0.20402095 0.14935511 0.09525871 -0.089524865 -0.12889473 0.3014173 0.20279591 0.23991202
-0.45953116 -0.03450815 0.2694021 -0.22426419 -0.04107072 0.078027114 -0.21409334 0.14356294
-0.010063731 -0.15483359 0.048744522 -0.027125828 0.30458176 -0.00202387 0.08125723 0.29964855
-0.11694002 -0.28069514 -0.3812818 -0.29400083 -0.14531338 -0.11922304 -0.15950124 -0.17942026

sequential/dense_2/BiasAdd/ReadVariableOp:0 f4 [10]
00000000: 1963 713d 766b 753e 4812 abbd f3d2 033d
00000010: 1b42 b13d 7ef5 49bd ad4b c0bd 23f8 b8bc
00000020: 5937 5abc d685 01be
0.058932398 0.23966774 -0.08353096 0.0321836 0.08655187 -0.049306385 -0.09389434 -0.022579258
-0.01331886 -0.1264871

sequential/dense_1/MatMul/ReadVariableOp:0 f4 [128, 64]
00000000: e29b c13d 243b f33c 8b2b e9bd 4e2d 593c
00000010: b876 143c 6e69 ffbd 4524 b8bc 83e0 803d
00000020: d3a0 93bd 1105 3abd 2912 05be 77df 143c
00000030: 6131 153e 170d 67bd a959 a7bd 9a0d 43be
00000040: 139a 76bd 88c1 3138 43bc 35be 3a2f febd
00000050: dfbc 17bd e2a0 c4bd f2ec 7abc ab71 36be
00000060: ebc4 81bc 7732 fcbc 70a7 343d 8aab 97bd
00000070: 0e83 8dbd 4a49 123e 0f99 013d 4420 c0bd
00000080: 644e 3bbe 85ba 763d aa23 2abc ce62 093d
00000090: 29bd 313e b781 53be dc2e 7bbd d0fe fdbd
000000a0: b0ad f3bd 943a 863c 2165 05be e420 20be
000000b0: 4706 fa3d 256d 513d 032d 443e 79d0 553c
000000c0: abdf f23d ee0d b0bd 6e51 48bd d12f e8bd
000000d0: 4980 c8bd 8166 693e 0099 bbbc aca1 b5bd
000000e0: 5832 9e3d b2e2 66be fffb 7b3e 04b8 18be
000000f0: 8473 433c d1ab 8a3d 8079 05be b706 213e
00000100: c183 4a3e 3bb2 e4bd 9f28 18bc ac9b e7bc
00000110: 5cbf cd3e edf7 453e e91d 113c e304 ab3d
00000120: a22c ffbc cc69 f9bd a8ac 093e 4eab 25bb
00000130: 68f3 0e3e 98dc 823e 137c 3abe d7d6 ce3d
00000140: d21b c2bc 5bae f1bc c790 6b3d e869 983d
00000150: 2e3e 20be 4348 a5be 9980 76be 07aa bc3d
00000160: e70e 783d d210 adbd d82c 67bc 5d20 12bd
00000170: 8dee f43d 3713 7e3c 9605 5bbd c4fe 533d
00000180: 252e 5abe 1bbd 3bbc f6e0 0dbe 882a b8bc
00000190: c85e 733e f0d0 4dbd b9cd 78be a4d4 933d
000001a0: ed8a d73d 900c 0fbe bb96 edbc 9afa 62bd
000001b0: 6b7b abbd da5a 76bd 5ba2 abbd 80de 2b3e
000001c0: 0cda 11be 173e 9abe d070 73be df77 a6bb
000001d0: 8a32 48bd 02f7 64be 7776 80bc 9644 963d
000001e0: d05b cc3d 0dfc 1a3e e4d1 9a3e 8eab 9dbe
000001f0: 4432 61bd 2f8e 8b3d 3236 f8bd 338b 74be
00000200: aac6 d5be 0489 2ebd 78c8 8f3b db0b 1d3e
00000210: 1c50 573e af01 9cbd b844 c0bd bb3b f33d
00000220: 0d1d bb3d 20cb 013e 362d bd3d 1e93 59bd
00000230: 4fee 7cbe 7c41 423d 3311 b33e 0b5c 3fbe
00000240: 1095 a03b 71b0 113d e0f9 8d3d 7fe7 d23e
00000250: 1dec 76bd fc64 2dbd a9a7 49bd 2339 f0bd
00000260: d9ab 523e 8147 383d 7c7f 8a3d 02c0 493e
00000270: a99c 273c 7880 013e 2e1e 76be 5b44 8bbd
00000280: ef43 e83d 8910 b3bd 1af7 53bd 1fc1 2fbd
00000290: 304e 013e b85d fdbc d9e4 6bbd eb89 9c3d
000002a0: cff4 653e bac0 2bbe 5763 5b3d 7a3b 063e
000002b0: 4711 f03d 123d 5e3d 25f2 acbd 9110 c83d
000002c0: f1f2 5abd 47e6 97be 9280 683e e277 d33e
000002d0: eb60 f73d cc8f 27bd ea7c 8e3e 7a8c 993c
000002e0: f634 6dbe d5d8 4ebe 1f25 763c 6bd6 5b3e
000002f0: 82ca 00bd 5b98 96be 502c 15be 856d 633d
00000300: 777b e13d 0da3 31bc 5790 c93d 3c02 c03d
00000310: f188 eabd b31d 4abe 783b 563e 7c97 c93d
00000320: 1b70 183e 7a6e 393e 483a 7bbe 3dd8 313d
00000330: 344b 2abe d7c6 3dbb 961d 60be 37ab 503e
00000340: 91b2 c8bd a612 dc3d 457e cbbd f16a 01be
00000350: 6325 c4bc 332b cfbc ff94 463d e406 7f3c
00000360: 7718 94bc 6edf 9ebb c98b 52bd 7daf 943e
00000370: b1da d9bd e6e9 1a3e 4673 8dbd 1596 e53d
00000380: 52c2 ae3e 27ad d3bd 4cae 713e 2ee7 813d
00000390: 5284 60bc d8f0 373e ff9a 28bd 0b89 b0be
000003a0: 274c 87be b53a 673e 89aa 86be e8c4 943d
000003b0: 1246 2b3c a4e4 663b 379b 55bd baea 6ebc
000003c0: 5adf 0a3e 91b0 643e e70c 65bd b538 fdbd
000003d0: 2e5f b1be db89 073e 32c9 12be 2bfe f6be
000003e0: cf42 c3bc e374 b8bb f32f a2be 27da 983d
000003f0: 0954 a8bd 0efc cdbd 0200 eebe 0e63 4e3d
0.094535604 0.029691286 -0.11385258 0.01325543 0.009061508 -0.12471281 -0.022478232 0.06292822
-0.07208409 -0.045414988 -0.12995209 0.009086481 0.14569618 -0.056408968 -0.08171398 -0.19048157
-0.06020553 4.238033e-05 -0.17747597 -0.124113515 -0.037045356 -0.096009985 -0.015315281 -0.17816798
-0.015840968 -0.030785782 0.044104993 -0.07405765 -0.06909762 0.1428577 0.03164011 -0.09381154
-0.18291622 0.060236473 -0.01038448 0.033541493 0.17357315 -0.20654951 -0.061323985 -0.12402117
-0.11898363 0.016385354 -0.13026859 -0.15637547 0.122082286 0.05112948 0.19157796 0.013050192
0.118590675 -0.08596407 -0.048905782 -0.11337245 -0.097900935 0.22793008 -0.022900105 -0.08868727
0.07724446 -0.22547415 0.24607848 -0.14913946 0.011929397 0.06771053 -0.1303463 0.15725218
0.19776823 -0.11166807 -0.009287029 -0.028272472 0.40185058 0.19332857 0.008857229 0.083505414
-0.031149212 -0.12178382 0.1344477 -0.0025279108 0.1396004 0.25558925 -0.18211393 0.10099571
-0.023694906 -0.029502084 0.057511117 0.07442075 -0.1564872 -0.32281694 -0.24072494 0.09212118
0.060561087 -0.08450474 -0.014109813 -0.035675395 0.119595625 0.015507511 -0.053472124 0.051756635
-0.21306665 -0.0114586605 -0.13855347 -0.022481218 0.23766625 -0.050248086 -0.24297227 0.07218292
0.10524545 -0.13969636 -0.029002538 -0.055414774 -0.083731495 -0.060145237 -0.08380576 0.16784096
-0.14243335 -0.30125496 -0.23773503 -0.0050802077 -0.048876323 -0.22359851 -0.015681488 0.073373005
0.09978449 0.15135212 0.3023826 -0.30794948 -0.054979578 0.06814229 -0.12119712 -0.23881225
-0.4175313 -0.042611137 0.0043879114 0.15336554 0.21026653 -0.076175086 -0.09388107 0.11876627
0.091364 0.12675142 0.09237139 -0.053118818 -0.24700283 0.047425732 0.3497406 -0.18687455
0.004900582 0.03556866 0.069324255 0.41192243 -0.06028377 -0.042332634 -0.04923216 -0.11729648
0.20573367 0.044990066 0.06762597 0.19702151 0.010230222 0.12646663 -0.2403495 -0.06800147
0.11341082 -0.08743388 -0.051749326 -0.042908784 0.12627482 -0.030928478 -0.057591293 0.07643493
0.22456668 -0.16772738 0.053561535 0.13108626 0.117220454 0.05425746 -0.08444623 0.09768785
-0.053454343 -0.29667875 0.22705296 0.413024 0.120790325 -0.04090862 0.27829677 0.018743742
-0.23164734 -0.20199902 0.015023499 0.21468513 -0.031443126 -0.29413113 -0.14567685 0.055524368
0.11009877 -0.010842097 0.09841984 0.09375426 -0.11451901 -0.19737892 0.20921123 0.098433465
0.14886515 0.1810855 -0.24533951 0.04341911 -0.1663025 -0.002895763 -0.21886286 0.20377813
-0.09799684 0.107457444 -0.099361934 -0.12638451 -0.023943609 -0.025289154 0.048481937 0.015565608
-0.018078072 -0.0048484122 -0.05140284 0.29040137 -0.10637415 0.15128288 -0.06906752 0.112102665
0.3413263 -0.103357606 0.23601645 0.06342922 -0.013703423 0.17962968 -0.04116344 -0.34479555
-0.26425287 0.22580989 -0.26301983 0.072641194 0.010453718 0.0035231495 -0.052149978 -0.01458233
0.13561764 0.2233298 -0.055920508 -0.12364332 -0.3464293 0.13236181 -0.14334562 -0.4824079
-0.023835568 -0.0056291684 -0.31677207 0.07463484 -0.082191534 -0.10057841 -0.4648438 0.050387435

sequential/dense_1/BiasAdd/ReadVariableOp:0 f4 [64]
00000000: 68e3 303e 8fdb 94bd bada 883e a3cd 123b
00000010: 2346 2a3e 7ae3 353a f5c2 50bd 78d5 1c3e
00000020: 4b90 c7bd 2268 9abc 9600 103c 60b6 f73d
00000030: 5b21 ba3e 5778 483e 7ec4 c73e a3b5 4d3e
00000040: 43ba 9cbd a430 d03c 2017 113e c31a a23e
00000050: d412 7a3e 508e 053e 4bef eb3c 3d42 c23e
00000060: d100 293e 4306 48bd 5b2f c0bd 9a57 ba3d
00000070: 3300 0f3d a858 103e b4ca 6abc 1dbf 733e
00000080: 23e8 613e 1f2a 8b3e 52ec 3bbd c7ff 253e
00000090: db59 153e 1b6b 253e e648 893e 13bb c63c
000000a0: 57f6 513e d51a d33d ef2a 793e 6970 9e3e
000000b0: a519 2f3e 3694 533e 72cf a33d f397 153e
000000c0: 16c8 3d3e e7b1 4c3e 844e 4fbd c4ec 043e
000000d0: 0997 263e d0db dc3d cda6 533e c87c 683e
000000e0: 3f2d 803e b904 e63c 7e62 b4bc b2da 61bd
000000f0: 2b30 3c3e ae26 3b3e b9b6 fc3d 4651 2abd
0.17274249 -0.0726844 0.26729375 0.00224004 0.16628318 0.00069384987 -0.050967176 0.15315807
-0.097443186 -0.018848483 0.008789202 0.12095332 0.36353573 0.19577156 0.390171 0.2008882
-0.07652714 0.025413819 0.14168978 0.31661043 0.24421245 0.13042569 0.028800627 0.3794116
0.16504218 -0.048834097 -0.09384032 0.0909874 0.0349123 0.1409632 -0.014330555 0.23803373
0.2206121 0.27180573 -0.04587967 0.16210853 0.14585058 0.16154139 0.2681343 0.024259126
0.20504127 0.10307852 0.24332784 0.30945137 0.17099626 0.20662007 0.079985514 0.14608745
0.18533358 0.1998974 -0.050611988 0.12980944 0.16268553 0.107841134 0.20669098 0.2270385
0.2503452 0.028078424 -0.022019621 -0.055140205 0.1837775 0.18276474 0.12339539 -0.041581415

sequential/dense/MatMul/ReadVariableOp:0 f4 [400, 128]
00000000: 4734 7cbd 3ec8 143d ef79 223d 4cc4 babe
00000010: 8764 5c3d 0fbd ecbc d2d6 88bd b2e6 afbe
00000020: 55f6 0cbe 7b48 a0bd a3d2 e23a 1feb 0e3d
00000030: 9a44 afbe 9a56 cdbc 95c6 c7be 06bb 3e3d
00000040: c6c7 8c3b a4a1 82be 96b5 81be 650f 81bc
00000050: 39a7 293e 4f54 3dbe fdd4 60be b5e5 0ebe
00000060: 9eeb a5bd 9de8 9e3c 3b38 033e 9b58 febd
00000070: d95c e9be c2c5 913d b16e 25be fcfc 11bf
00000080: 6ebf 5ebe ba65 103e 539d 88be 6d13 793e
00000090: 0619 d63d f695 77bd 6ee8 cb3d 7745 0dbf
000000a0: fd03 97be 9639 263e 5dd7 74bd 8254 e73d
000000b0: 4272 763d 5b21 f33d 9a8f c1bd cccd 003f
000000c0: 7700 203b 9d48 b6bd 3051 293e e7f0 89be
000000d0: f636 463e 575f 4abe e590 b03d 9cf2 12be
000000e0: 048a 733e 2789 f93d 4cca 3abe 0fae ec3c
000000f0: 7324 62bd d50b 0fbd 92a2 e6be 9df6 743d
00000100: c54f 063e d661 463e ea60 6a3d 6abc a1bd
00000110: ca99 04bf 27e3 4abe 672d f33d 3c1c a93c
00000120: 9e96 32be 11b4 213e 7b0d 20be af27 ff3d
00000130: a719 6abe 34a5 6dbe 7067 e13d b42a 3e3e
00000140: 0ab5 873e b2c7 d6be 8871 6f3b 9a7a 92bc
00000150: 9d1e fabe 5fe5 f63c b97d 8b3b dd98 19be
00000160: a32c 77bd 9414 78bd 13e7 b4be 2ea1 9f3d
00000170: e080 313d 5187 cbbc c06b c4bb 6e24 a5be
00000180: 1093 d2bd 1003 e9bd 4ac8 88be bde0 babd
00000190: 1ae0 073e f83a afbd d819 243e d040 1abe
000001a0: 63f1 353e abc5 373e f79b b2bd 0e2f 72be
000001b0: c510 053e 87d9 66be c965 cc3d b138 d63b
000001c0: 014c b6be e669 18be 1b8d 56bf 2d07 aa3d
000001d0: df45 cdbd b042 6abc 8c2b 993e d1b9 b63e
000001e0: aaf1 8e3d b398 703e f402 933d b742 443e
000001f0: 03a2 573e f0be 96bd 5e0e 893e 4e47 ddbe
00000200: 40c8 803d e81f cb3d a7f7 88bd e34a 1dbe
00000210: f8ee d53d f52b 58bd db8a d33d 1673 b2be
00000220: 0ff0 d6bd 276d 553d 2c8b a6bc 9bfd 80bd
00000230: 0ed9 16be 7a04 15be 548d 12bf df03 8fbc
00000240: f2d0 8b3d 0a1a 89be 0ac6 14be 8c7e 20be
00000250: 821c 163e 29ad b1be 5df4 20bd 970a 3fbe
00000260: 77d9 513e 5d70 533e 4b88 19bc 4afb 61bd
00000270: 1ab9 81bd c07c e53d e1e4 dcbd 480f a9be
00000280: 8f72 88bd c537 56be e15f d5bd 40dc 753e
00000290: c914 293c 766b fa3d d4ef fdbc c563 35bd
000002a0: a577 1abf 2fb8 b8bd 43ea 7a3c 54d0 74bd
000002b0: 40cd 4cbe 37ae 26bd 25c0 553e 0af7 e93d
000002c0: d66a a2bd f37c 233e 3bc4 8f3e 8e5f 34be
000002d0: d339 be3e 1d48 e4bd a765 533e 084a 193e
000002e0: ca93 d63e 8df0 823e c430 eebd dba3 febd
000002f0: 16fa 36be 6d47 7cbe d613 44be df97 163e
00000300: ed1f 7c3e 4c7c 3dbd 49d7 7f3c 56c5 0ebd
00000310: 8fa3 d7be fda5 bdbd 76f7 c93c 7bcb 893d
00000320: 6314 0cbe 7e6b cc3d 92c5 993d 68f4 903e
00000330: 9161 e43c cbe7 833a 73e5 553d 6c27 833e
00000340: d0b6 1e3d 685b 8bbe b6e9 8ebe bc2a 6cbd
00000350: 6777 20bf 51a5 163e bde8 3ebe 0f15 363e
00000360: 8930 233d ca18 d43b 8f95 f4be 3835 fd3d
00000370: ee14 74bd 6006 b0bd a8e0 bfbd 6a3d 46bf
00000380: e195 503d 6d63 493d cc84 86be 47de 8ebe
00000390: e6f2 073e 7513 133c 7d7e a7bd d59a 493e
000003a0: e5b3 4cbe e704 353e dd4e 16be c819 2dbf
000003b0: f8a8 9fbe dcbf 44be 9221 363c d52d 41bc
000003c0: c544 b6bd 8520 35be 812e 45bf 5235 1abc
000003d0: 97ec 83bc 012a 1f3e 542b 6d3e de94 0e3e
000003e0: cd41 323e b3f0 143d 615e 8b3d 45bb bf3e
000003f0: cb2f ba3e dae0 04bf 2b71 983e 2e5c babd
-0.061573293 0.03632378 0.039667066 -0.36477888 0.053806808 -0.028898744 -0.06681599 -0.34355694
-0.13765843 -0.078263246 0.0017305206 0.034892198 -0.34232026 -0.025065709 -0.39018694 0.04656508
0.004296276 -0.25513947 -0.25333852 -0.015754411 0.16567697 -0.18489192 -0.21956249 -0.13954814
-0.08101581 0.019398028 0.12814419 -0.12419244 -0.4557865 0.071177974 -0.16155507 -0.5702665
-0.21752712 0.14101306 -0.2668253 0.24323817 0.104539916 -0.06044575 0.09956442 -0.5518412
-0.2949523 0.16232905 -0.0597757 0.112954155 0.06016756 0.118715964 -0.09451218 0.5031402
0.002441434 -0.08900569 0.16534877 -0.26941606 0.19356903 -0.19762932 0.086213864 -0.1435036
0.23783118 0.12184363 -0.18241233 0.028891591 -0.055210542 -0.034923393 -0.45045906 0.0598055
0.13116367 0.19373259 0.05722133 -0.07897265 -0.51797163 -0.19813214 0.11873894 0.020643346
-0.17440268 0.15791346 -0.15630142 0.12458741 -0.22861348 -0.23207551 0.11006057 0.18570977
0.2650531 -0.4194923 0.0036536176 -0.017880727 -0.4885148 0.03013867 0.0042569307 -0.14999719
-0.060345303 -0.0605665 -0.35332546 0.077944145 0.043335795 -0.024844797 -0.00599429 -0.32254356
-0.10281956 -0.11377537 -0.26715308 -0.09124897 0.13269082 -0.08556169 0.16025484 -0.15063787
0.17767863 0.17946498 -0.08721154 -0.23650762 0.12994678 -0.22543918 0.099803515 0.00653752
-0.3560486 -0.14884147 -0.8380906 0.0830215 -0.100230925 -0.014298126 0.29916036 0.35688642
0.069796875 0.2349575 0.07178298 0.19166075 0.21057896 -0.07360637 0.26768774 -0.43218464
0.06288195 0.09918195 -0.06687861 -0.15360598 0.1044597 -0.052776296 0.10329219 -0.3485343
-0.10495006 0.05210605 -0.020330034 -0.062983714 -0.14731237 -0.14552489 -0.572469 -0.0174579
0.068269625 -0.2677768 -0.14528671 -0.15673274 0.14659312 -0.34702423 -0.039295543 -0.18656383
0.20493113 0.20648332 -0.009370874 -0.05517129 -0.063341334 0.11205435 -0.10785843 -0.3301947
-0.06662475 -0.20919712 -0.10418678 0.240098 0.010319897 0.12227528 -0.030998148 -0.0442846
-0.60338813 -0.09019505 0.015314641 -0.05976899 -0.20000172 -0.040693488 0.20874079 0.11424072
-0.079305336 0.15965633 0.280794 -0.17614576 0.3715349 -0.11146567 0.20644246 0.14969647
0.4190963 0.2557415 -0.11630395 -0.12433597 -0.17868838 -0.24636622 -0.19148192 0.14706372
0.24621554 -0.046261117 0.015615293 -0.034856163 -0.42116973 -0.092601754 0.024654131 0.06728264
-0.13679652 0.0998144 0.07508387 0.28311467 0.027878555 0.0010063587 0.052220773 0.25616014
0.038748562 -0.27218175 -0.27912682 -0.057657942 -0.62682194 0.147115 -0.1864347 0.1778147
0.03984121 0.0064726816 -0.47770354 0.12363666 -0.059590273 -0.08594966 -0.09369022 -0.7743746
0.050924186 0.049167085 -0.2627319 -0.2790396 0.13276252 0.008976807 -0.081784226 0.1968797
-0.199905 0.17677651 -0.14678521 -0.67617464 -0.311836 -0.19213814 0.011116402 -0.011790712
-0.088998355 -0.17688186 -0.77024084 -0.009412127 -0.016104026 0.15543367 0.2316106 0.13923976
0.17407914 0.03636236 0.06805111 0.37447563 0.36364588 -0.51905596 0.2977384 -0.09099613

sequential/dense/BiasAdd/ReadVariableOp:0 f4 [128]
00000000: 6ccd 71bd 188d 813e b8e3 853d 401e f9bd
00000010: 5e96 483e 742a f1ba 7b4e 3e3e 041c 9e3d
00000020: 815e 9c3e 40d8 243e 16b2 de3d 98ab 173e
00000030: cbbd 003e 3151 c43e e44a 6b3d 0aeb db3d
00000040: a399 563e 2f33 8b3e 768e 9d3e a7db 013e
00000050: 38b4 073e cbda 093e c38e 09bd 1683 393e
00000060: f35f 003e 6ad4 5f3c d8aa 7a3e d86c b13d
00000070: 15fa 70bd 1c30 543e e3ee babc 2a05 f83d
00000080: 5ee9 a13e 90fa 2e3e b1de 1e3d b0fe 543e
00000090: 4678 6d3e bb7f 513d db11 a83d 52d8 123e
000000a0: 7322 8a3e 4df4 313e e678 7c3d 708b 843d
000000b0: 27c8 64bd cf86 f8bc 25e3 863e 2548 723e
000000c0: 4eb1 0b3e 6fc7 a93e 09c2 cfbd d5c6 5cbb
000000d0: 05b7 2e3e d800 ae3d 36bf 453e 0720 993e
000000e0: 1cb0 a63b 9ceb 713e 685c 433d 6085 7b3e
000000f0: de24 3d3e de5b 143e bf3a 0a3e ae6d 963e
00000100: 4706 133e ccae 8abe 81e9 363e 1e8a aa3d
00000110: 0636 603e 979c 893e 6410 5fbd 1cc0 763e
00000120: 9fda 43bd 40bb 8e3e aaef 2bbe b7f3 d43d
00000130: b647 0b3e d69c 3e3d 7bef d23d 85ab 1f3e
00000140: 3a83 7c3e 8b8b aa3d 63d2 963e fae7 bc3d
00000150: 5078 283e ce81 483e ba52 8c3e f63d 11be
00000160: 8014 763e 22fa 313e fd03 1a3e 666b cbbd
00000170: 3eb4 a7bd aa19 473e 21c7 723e 4556 183e
00000180: 6e11 a4bd 9e07 d83d 5f88 0cbd 6893 283d
00000190: b0c1 883e 398d 9f3e 590b b03e 65c0 a63d
000001a0: 7b77 fcbd e18e 76bb 1ca6 503e b3a2 29bd
000001b0: 5943 cd3d a0a5 023e b00f db3e feaa 023e
000001c0: f765 4f3e f84a 473e 5a71 a43d cdc0 593e
000001d0: 5f68 ed3d 3a8f 263e cfd0 b23d 06ad 993e
000001e0: 8e93 9b3e 474f 053e 641a 0bbd 72cd b4bd
000001f0: f07a fb3d bfd2 713d 173b 2ebd c6e5 91be
-0.059033796 0.25302958 0.065375745 -0.12163973 0.1958861 -0.0018399493 0.18584625 0.07720187
0.3054085 0.16098118 0.10873811 0.14811552 0.125724 0.38343194 0.05744447 0.107381895
0.20957045 0.27187487 0.30772752 0.12681447 0.13252342 0.13462369 -0.033583414 0.18116412
0.12536602 0.013661483 0.24479234 0.086633384 -0.058832247 0.20721477 -0.022818988 0.1211036
0.31623358 0.1708777 0.038786594 0.2080028 0.23190412 0.051147204 0.08206531 0.14340332
0.26979408 0.1737835 0.061638735 0.06471908 -0.055854943 -0.03033772 0.26345173 0.23660333
0.13641855 0.33159968 -0.10144431 -0.003368785 0.17062004 0.08496255 0.19311222 0.29907247
0.005086912 0.23625034 0.047695547 0.24562597 0.18471095 0.1448817 0.13498972 0.29380554
0.14357863 -0.27086484 0.17862512 0.08327125 0.21895608 0.2687728 -0.05445899 0.24096721
-0.047815915 0.27877235 -0.16790643 0.103980474 0.13601574 0.04653629 0.102995835 0.15592773
0.24659434 0.08327397 0.29457387 0.092239335 0.16452146 0.19580767 0.27406865 -0.14183792
0.24031258 0.17380574 0.15040584 -0.09932594 -0.08188675 0.19443384 0.23708774 0.14876659
-0.08011137 0.10548328 -0.03430974 0.041156203 0.26710272 0.31162432 0.34383658 0.08142165
-0.123274766 -0.0037621784 0.20375866 -0.041414928 0.10022611 0.12758493 0.42785406 0.12760541
0.2025374 0.19462192 0.080294326 0.21264954 0.11592173 0.16265574 0.08731233 0.3001482
0.30386013 0.13018523 -0.033960715 -0.08828248 0.12279308 0.059038874 -0.04253682 -0.28495616

sequential/conv2d_1/Conv2D/ReadVariableOp:0 f4 [16, 32, 3, 3]
00000000: 3abb af3c a7be a9bd c6f5 253d c332 f3bc
00000010: 4a31 bebd c967 09be cffb 8f3d fb38 183e
00000020: 8c8c b0bd 26fc 913c 0c52 51bd 52d2 42bd
00000030: 8deb 81bd 4d45 24bc d4f9 2b3c 0e79 8ebd
00000040: 71a6 793d 83b2 ad3d 94aa 8f3d 60d0 313e
00000050: c412 163e f31e 3b3d 7d82 87bd bf3f 8dbd
00000060: 7646 44be 8295 29bf a96f bbbe c18d 713e
00000070: f836 723c cc4d a63e b6b0 0d3e 026f 053e
00000080: ac67 e63d 8343 0f3d f5eb 593c d7fd 79bd
00000090: a2bc 213e b4f5 fd3c 84b9 ef3c 9ca2 ed3c
000000a0: f0ec 0ebe 70d1 a0bc 6b0c 88bd e747 4c3d
000000b0: 013b 75bd 1b9a f03d c515 b43d 0b6b 823e
000000c0: 1155 423e 9d10 e43d 4b4a 02be 3119 c83e
000000d0: f830 333c b1da 043d aa30 033e 04a0 fc3c
000000e0: 2483 45bd c9b3 e8bb 9af0 9dbd 2db5 24be
000000f0: 0a85 35be 55fd dbbe 94e1 74be 7f9e efbc
00000100: 83a5 44bd 41eb 02be a0c5 393d 6b40 203b
00000110: 9e06 4fbd 1815 ae3d 5d9a b73d 660c 64be
00000120: 552d 573d 84f5 493e 99eb 503e d59f ce3d
00000130: 6621 10bd bc19 5abc 9084 33be d545 a4bd
00000140: d819 033e 8904 2b3e 993a e93c 0a8e 9cbd
00000150: 2511 2fbd 2435 abbd 5084 f3bd b828 3f3e
00000160: 2dea 4ebd 5b02 8fbc 13e0 54be ef27 06be
00000170: 1ab2 32be 42bf 07be 4407 4fbb 7f5b fdbd
00000180: 7519 90ba 8669 1dbe 869b 63be 7ab9 83be
00000190: a8fb 04bf 584e d8be ec54 6abe 3cb9 d7be
000001a0: e6d3 72be e2c7 fabe 811f 9dbe 46f8 1bbe
000001b0: 3fa1 13be b1d3 89bd 17f5 543d c69c 793d
000001c0: 9c36 023e c910 7c3e a002 493e 340e 6f3e
000001d0: 008f 253e 6a17 d5bc 2f83 2abe bc64 9a3d
000001e0: b1e4 8dbc 2d1a 043d 8c0e 1dbd 882d f43d
000001f0: 3e57 153e 2341 9e3e 33d9 cf3d 9565 333e
00000200: a567 bc3d f361 523e 6b5f fd3c bcbf 3f3b
00000210: db9e 4a3e 36b5 29be 7746 d3bd 8857 46be
00000220: 526e 6bbe 5197 08be 55fc 11be 746c 7cbe
00000230: 01c7 19bd 4c9a afbd 09ea b3bd fb13 f3bc
00000240: 661a 963d 7bd1 763d e9d3 1f3c fee3 043c
00000250: a655 c8bb 525e f9bd 226d 0f3c cb22 713d
00000260: 058d a63c bb14 b7bc 1a05 1fbd 6c9b b9bd
00000270: 45f2 08be 26f2 01bd 4d6c 2f3c 0676 27be
00000280: 9c40 dfbc 3f6c 143d 1725 c8bc a6f2 c8bd
00000290: 65dd dabd 8e2f dbbd 0a72 83be 13c1 38be
000002a0: 9e50 13be d7ec 86bd 15b3 c93c fa8e 573e
000002b0: 76d4 293e 362c 473e c3cb d0bd d0d0 ae3d
000002c0: ef39 bb3c ffe1 cebd 573b a43d 208d 413e
000002d0: 157d 2b3e a7be 89bd 5562 db3c 8357 e2bd
000002e0: c60c 4dbe 3a9c a7bd 8289 e7bd 21be 63bc
000002f0: 1ce7 403e d497 6c3d 0c93 96bd 6f22 4abe
00000300: dc3b 853d 784c ec3c 09d7 7fbd 2245 04bf
00000310: fbdd 19bf d99a 2bbe be28 1bbd 01f6 01bd
00000320: 04fa 5dbd af95 a0bd ceb4 38bd 976f f93b
00000330: 75a0 4ebb aa80 583e 0ece 283e d733 5f3e
00000340: 27ee 773d 1aba 7abc c324 ab3c bb6e 763c
00000350: 8768 1f3d c7a4 35be f4e6 86be bf9e c03d
00000360: 9843 d73d 3a3f dc3d 4101 033e 3f7c 97bc
00000370: 4e5d e23c ddd4 263e 9c99 b9bd 8dd8 39be
00000380: 770d d4bd b12b 70bd 782f e1bd 1959 5bbd
00000390: a98d 78be eb57 87be a783 3bbc b7bb a2be
000003a0: 03a2 f2bd f9c0 2a3d 24c6 e4bb 7342 a4bc
000003b0: 74b5 c63d 4d60 153d 34a0 c43d 3bc5 683e
000003c0: 4b9b 5d3e 4959 c43e 6663 083e 7913 043e
000003d0: 375c 643c a8e0 f8bd 4b23 57be 754e 09be
000003e0: 59fd 48be 71d7 a2be 52d3 89be 9f85 8a3c
000003f0: e811 cfbd f3ba 243d 0beb 09be 55a1 8abd
0.021451581 -0.08288317 0.04051759 -0.029687291 -0.09286745 -0.13418497 0.070304506 0.14865486
-0.08620557 0.017820429 -0.051103637 -0.04756386 -0.06343756 -0.010026288 0.010496575 -0.06956683
0.060949747 0.08481314 0.07014957 0.17364645 0.14655596 0.045683812 -0.066166855 -0.06896924
-0.19167504 -0.66243756 -0.36608627 0.23589231 0.014783613 0.3248123 0.13836941 0.13030627
0.112502426 0.034976494 0.013300885 -0.061033096 0.15794614 0.03100095 0.029263265 0.029008202
-0.13957572 -0.019631118 -0.066429935 0.04987326 -0.059870724 0.11748143 0.08793215 0.25472292
0.18977763 0.11135981 -0.12723653 0.3908172 0.010936968 0.032435123 0.12811533 0.03083802
-0.04822077 -0.00710151 -0.07711907 -0.16084738 -0.17726532 -0.42966715 -0.23914176 -0.029250382
-0.048009407 -0.12785055 0.045354486 0.0024452459 -0.05054342 0.08500117 0.08964989 -0.22270355
0.052533466 0.19722563 0.20402373 0.10089079 -0.0351881 -0.0133118 -0.17531037 -0.08021132
0.12802827 0.16700949 0.028470324 -0.07644279 -0.04274096 -0.08359745 -0.11890471 0.18667877
-0.050516296 -0.017457178 -0.20788603 -0.13101171 -0.17450753 -0.13256553 -0.0031590024 -0.12370967
-0.0010993915 -0.15372285 -0.22227296 -0.25727445 -0.51946497 -0.42247272 -0.22883958 -0.4213351
-0.23713645 -0.48980623 -0.30688098 -0.15231428 -0.14416979 -0.0672983 0.05199155 0.060940526
0.12716144 0.24615778 0.19629908 0.23345262 0.16167831 -0.026012141 -0.16651605 0.07538745
-0.017320963 0.032251526 -0.03834395 0.11922747 0.14584062 0.3090907 0.10148849 0.17519219
0.09199456 0.20545177 0.030929288 0.002925857 0.19787161 -0.16573033 -0.103161745 -0.19369328
-0.22991303 -0.13338973 -0.14256413 -0.24650747 -0.0375433 -0.08574352 -0.08784873 -0.029672613
0.07329254 0.06025837 0.009755113 0.008110998 -0.0061137257 -0.12176193 0.008754047 0.05887107
0.020330915 -0.022348752 -0.038823225 -0.090628475 -0.13373668 -0.03172507 0.010706973 -0.16353616
-0.027252488 0.036236044 -0.024431748 -0.098119065 -0.10686759 -0.1070243 -0.25672942 -0.18042402
-0.14386222 -0.06588142 0.024621526 0.21050635 0.16584954 0.19450459 -0.101951145 0.085359216
0.022854773 -0.10101699 0.08019131 0.18901491 0.16746934 -0.06725817 0.026780287 -0.11051848
-0.20024404 -0.08184095 -0.113055244 -0.013900311 0.18838161 0.057761982 -0.07352266 -0.19739698
0.06505558 0.028845057 -0.062460933 -0.5166799 -0.6010434 -0.16758288 -0.03788065 -0.03172875
-0.05419351 -0.0784105 -0.045094304 0.0076121795 -0.0031528745 0.21142831 0.16484854 0.21797119
0.060529854 -0.015303159 0.020891553 0.015041049 0.038918044 -0.17738639 -0.26348078 0.094052784
0.10510939 0.10754247 0.12793447 -0.018491862 0.027632382 0.16292138 -0.09062502 -0.18149014
-0.10354131 -0.058635417 -0.10995382 -0.053551767 -0.24272789 -0.26434264 -0.011444963 -0.3178384
-0.118473075 0.04168794 -0.006981628 -0.020051217 0.09702578 0.036468793 0.09600869 0.22731487
0.21641271 0.3834937 0.13319167 0.12898053 0.013938001 -0.12152225 -0.21009557 -0.13408835
-0.19627894 -0.31804994 -0.26919037 0.016909419 -0.10110837 0.04021735 -0.13468568 -0.06769053

sequential/conv2d_1/BiasAdd/ReadVariableOp:0 f4 [16]
00000000: 1b35 0dbd 40f6 8dbc 1730 233c 5fa1 ed3c
00000010: 0849 a1bd e96d 4f3c 3796 d53d 34ec 9c3d
00000020: a306 ee3d 52b9 17bd 06ce 3fbd 0930 85bd
00000030: 4f70 823b d189 413b 7cfd a4bd 764d d03d
-0.034474473 -0.017329335 0.009960196 0.029007612 -0.07875258 0.012660482 0.10429042 0.0766224
0.116223596 -0.03704197 -0.04682734 -0.065033026 0.0039806734 0.0029531608 -0.08056161 0.101710245

sequential/conv2d/Conv2D/ReadVariableOp:0 f4 [32, 1, 5, 5]
00000000: 0ee7 b9bc 2069 5fbd bdb3 15be c9b2 ce3b
00000010: 31e5 0d3e 8f20 bc3d ae84 b63c f9ed 65bd
00000020: 7a27 85be 7898 16be c4f7 bc3c 5cb1 3f3e
00000030: 1bcc 9a3d 6dcf c7bd 79c4 41be 7b84 933c
00000040: 4e18 153e 042d 933e 6052 203e 84fe 093d
00000050: ae4a 6cbe 52dd 22be e39a 94bc a391 153d
00000060: 734b 6d3d 6909 35be 82c6 55bd 8d7d ac3d
00000070: c1ca 353e 5b9b 083e c4cd 66bd ba95 263e
00000080: 21f8 543e b834 423e 8e45 993d 457b 143d
00000090: 01c3 203e 54b2 e73d ad44 cdbc ab3a 51be
000000a0: aba2 013d ab4c 42bc 2686 5cbe 21d6 8ebe
000000b0: 72fe 2fbe 9c3d a33c 9899 23be b913 09be
000000c0: bd17 92bd 040b c23d eaff 33bf 3fff e5be
000000d0: 4ef5 6e3e 3f44 513e fa9f 6a3e db3f 01bc
000000e0: ea6d c9be 1800 1abf 673e 89bd 28ec 3b3e
000000f0: 5387 473e 1f5c 51bc acb9 e0be 0bbc d9be
00000100: 8a42 13be 5a98 273e 6fcc 333d 4625 9bbd
00000110: 6c7d 98be ed36 04bf 7580 1c3e 4354 c53d
00000120: 1943 003e 08f4 bf3d aa72 30be ff23 8bbc
00000130: dad9 8ebc 3951 a9bb f6e6 a2bd b920 6b3c
00000140: 7002 cb3c 7767 6b3d 6efc be3c e0c8 60be
00000150: ba49 aabe f247 41bd fb5f 393e 5944 9f3e
00000160: d71d 403e 48a3 33be df3c 6cbd d683 043d
00000170: 8f3d 573e 1a63 153e 0928 7e3d 18bf 29be
00000180: 4f9e 20be 6f8e 9ebc 527a 953d b7fc 09bd
00000190: 693f 013e 5477 c4be a9f8 07be 1bda dabd
000001a0: 11b0 f23d b975 16be e267 45be 4a91 0f3d
000001b0: a5ee e53c 0446 5a3e 06d3 0dbe 86f7 e3bc
000001c0: 3040 ed3d 5b01 a63d c552 313e 7b72 a2bd
000001d0: edd1 843d 3ed1 f73d 73a5 a63d 8a8c 0a3c
000001e0: e7b8 b9bd adf4 dc3c cb92 0a3d edeb 1a3d
000001f0: 9c93 7c3c 04d7 113d dd0d f2bd 506d 84be
00000200: a23a 7ebc 3b50 993e c1a8 933d bc49 a73d
00000210: 59cf 6bbe f744 c6be 17ff d83d 8b1a 763d
00000220: ce40 8e3d 4128 02bb decc 62be be4c e7bd
00000230: ec66 b93d aea7 363e cf13 4f3d ae9c c93c
00000240: f42e 4fbd 506b 11bd f86c 093e 10eb 3c3e
00000250: 8015 643d b7a1 15bd 6b0c 54be db88 b63d
00000260: 191e 293e 9bb6 0f3e 3474 7e3d 2b78 8dbe
00000270: 92a6 adbd a8c4 963d e232 5b3e d2f8 cc3a
00000280: da28 4cbe d7d5 33be 4694 6c3d 8ed9 363e
00000290: 7ad2 a13d c494 0ebe 5159 37be 3e07 f43c
000002a0: 95cf e73d b39a 233e 7f03 0abe 0d41 50be
000002b0: 3a57 15bd 3a21 223d 782a f13d 10f6 263e
000002c0: bf15 303e 9781 183e 964d 933d 2018 dd3d
000002d0: 5e38 cbbc 4320 22bc 3e2c 843d 3431 133d
000002e0: 9cdb 423e 345d 87be 6501 3fbe eeb2 11be
000002f0: 6f95 273b bfb1 56bd fabc 5abe 688a 18bd
00000300: 1473 babd 19a6 08bd 5cc7 41be 42ee 1fbd
00000310: 7bad 0c3d e93d 683d 13ff 173c 291d d5bd
00000320: b085 823d 096f 2b3d 545e 3f3d a1f3 f2bd
00000330: a0b2 72be 753c d43d 1cb9 103e 84dc e13d
00000340: f174 95bd fe9a 96be c9e8 953d 2385 da3d
00000350: 829b e73d 8499 1ebd b54a 61be 5646 95bc
00000360: 6760 d73d 40d0 8f3d 0c88 08be 6981 88bd
00000370: b5db 9a3d 499e a93d 9e60 f93d 14bc a6bd
00000380: d4f8 a8bd cabd 963d d500 54bd e9fe dfbc
00000390: 98c3 1d3d fcea 6c3d 64b1 68be d2aa 56be
000003a0: 9c69 843d 065f c1bd 8cfb ba3d c3e6 99be
000003b0: a689 09be e8e9 7ebd 3bf0 dcbc e84c ca3d
000003c0: b62a d8bd dba2 81bd 740e 7dbd ea37 103d
000003d0: 5672 1a3e 8ca8 273e 18dc 1e3e 7c98 f93c
000003e0: 3432 d33d f10b 193e 33ef 943d 92df 573d
000003f0: 992e 503d 9023 263d 96b6 423c b56a 253d
-0.022693183 -0.054543614 -0.14619346 0.006307934 0.13856961 0.091858976 0.022280063 -0.05613515
-0.2600668 -0.147066 0.023067363 0.18720001 0.07558461 -0.0975636 -0.18922605 0.018007508
0.14560053 0.28745282 0.15656424 0.03368999 -0.23075363 -0.1590474 -0.018140262 0.036515843
0.057933282 -0.17679371 -0.052191265 0.084223844 0.17753126 0.13340513 -0.056348577 0.16268054
0.20797779 0.18965423 0.0748397 0.03625037 0.15699388 0.1131331 -0.025057161 -0.20432536
0.031649273 -0.011859099 -0.21535549 -0.27897742 -0.17186907 0.019926839 -0.1597656 -0.1338643
-0.07133434 0.09474757 -0.7031237 -0.449213 0.23335764 0.2043619 0.22912589 -0.0078887595
-0.3934167 -0.60156393 -0.067013554 0.18351805 0.19485216 -0.012778311 -0.43891656 -0.42526278
-0.14380851 0.16366711 0.043896135 -0.07575469 -0.2978319 -0.5164631 0.15283377 0.09635212
0.12525596 0.09372717 -0.17231241 -0.016984938 -0.017437864 -0.005167153 -0.079542086 0.014351063
0.024781436 0.05747172 0.023313727 -0.21951628 -0.33259374 -0.047187753 0.1810302 0.31106833
0.18761383 -0.17542756 -0.05767524 0.03235229 0.21019576 0.14588585 0.0620499 -0.16576803
-0.1568539 -0.019355027 0.072987214 -0.033688273 0.12621845 -0.3837229 -0.1327845 -0.106861316
0.11849988 -0.14693345 -0.1927791 0.035050668 0.028067896 0.21315771 -0.1385003 -0.02782799
0.115845084 0.08105727 0.1731673 -0.07931992 0.06485353 0.12100457 0.08137026 0.008456359
-0.090684704 0.02697214 0.0338314 0.037822653 0.015416052 0.035605446 -0.118190505 -0.2586465
-0.015516909 0.29944023 0.07209922 0.081683606 -0.23028316 -0.3872449 0.105955295 0.060083907
0.06945954 -0.001986042 -0.22148463 -0.11293934 0.09052834 0.17837402 0.050556 0.024610844
-0.050581887 -0.03550273 0.13420475 0.18449044 0.055684566 -0.036531176 -0.20707862 0.08912822
0.16515388 0.14034502 0.06212254 -0.27630743 -0.084790364 0.07361728 0.21406129 0.0015638119
-0.19937459 -0.17562042 0.057758592 0.17856428 0.07901473 -0.13923937 -0.17905165 0.02978861
0.1131889 0.15976982 -0.13477896 -0.20337315 -0.03646014 0.03958247 0.117756784 0.16304803
0.17195795 0.14893185 0.07192533 0.10795617 -0.024807151 -0.009895387 0.06453751 0.035935596
0.19029087 -0.26438296 -0.18652876 -0.14228413 0.0025571247 -0.052415606 -0.21361151 -0.03724137
-0.09103981 -0.033361528 -0.18923706 -0.03904558 0.03434513 0.056699667 0.009277123 -0.104059525
0.06373155 0.04185394 0.046720818 -0.11862875 -0.23700953 0.10363094 0.14133114 0.11028388
-0.072976954 -0.29415125 0.07319791 0.10669925 0.11308958 -0.038720623 -0.22001155 -0.018222015
0.10516434 0.070221424 -0.13333148 -0.06665308 0.07561437 0.082821436 0.121766314 -0.08141342
-0.08250585 0.07360418 -0.051758606 -0.02734323 0.03851661 0.057841286 -0.22723919 -0.209636
0.06465456 -0.094419524 0.0913001 -0.3005887 -0.13431415 -0.06223479 -0.02697002 0.0987795
-0.105550215 -0.0632989 -0.06178136 0.035209574 0.15082678 0.1637289 0.15513647 0.030468218
0.1031231 0.14945962 0.07272186 0.052703448 0.05082569 0.04056126 0.011884352 0.040384967

sequential/conv2d/BiasAdd/ReadVariableOp:0 f4 [32]
00000000: 4c52 39bc 375f 2bbe 5abb ec3d 57f1 cbbb
00000010: 6ce3 19bc 76da a5bc 7e6a 69bc 4298 0fbd
00000020: 1354 31bc 4f82 79be d485 5ebe 2730 29be
00000030: b39e c3bc 051c 64bb 5cd6 18bd cb8e 5cbc
00000040: a85d 313a 4ceb c33a 27e3 97bd 08bc 2e3c
00000050: 9f70 5437 b9f2 f93b 20b5 72bd 0006 a73c
00000060: fd5b aa3c f20a 98bd 49b0 edbb e9ae 04bb
00000070: 6d36 f4bd e076 a9bb 1f83 04bc 96f8 ed3d
-0.011311125 -0.1673554 0.11559172 -0.0062238383 -0.0093926005 -0.020245772 -0.014246581 -0.035057314
-0.0108232675 -0.24366115 -0.21730739 -0.16522275 -0.023879385 -0.003480674 -0.037313804 -0.013461779
0.000676597 0.0014947443 -0.07416373 0.010664947 1.2662406e-05 0.0076278117 -0.059254766 0.020388603
0.020795817 -0.07423963 -0.007253681 -0.0020245856 -0.119244434 -0.0051716417 -0.008087902 0.1161968
