models/model18.onnx (onnx, 141659 bytes, 6 tensors)

sequential/dense/MatMul/ReadVariableOp:0 f4 [1600, 10]
00000000: c9bd 1cbe 43c2 a9be 44d8 273e 5c18 28bd
00000010: 5468 2bbd 6611 0e3e 9119 c53e 369b 93be
00000020: 6c0c 4c3e 822a 113d 4024 a9be 383f 64be
00000030: 6406 a9bf b657 303e b7ef e43d a619 56bd
00000040: b977 983e 66f4 c53e e9d1 e0be 6379 ed3e
00000050: daf7 9b3e f217 203f 93b7 82bf 15fb 3c3f
00000060: a76b 42bf 9266 59bf a832 11bd a402 443f
00000070: f08f 1cbf d9f6 29bf 9224 893c e809 fe3c
00000080: f05a 90bc 20fc a7bc b8ca 1b3d 31c1 443d
00000090: 3a71 5a3d 4891 2d3c ecfd 86b9 0320 2f3d
000000a0: a0d0 90be a02b 8abe 6cef 4cbf 7f45 66be
000000b0: dfa6 4e3e 1a6e 8d3d 6c3b 4a3d 5257 f33e
000000c0: c9e3 99be 3982 a43e dec2 adbe dd94 47be
000000d0: 6703 77bf aae1 07be cb9e 753e 694a ba3d
000000e0: 8835 983d cc0a db3e 29af 47be 3605 473e
000000f0: 06ba ca3c 46d4 30bc 6fc0 91bc df8a a63c
00000100: 16b4 2f3c bed5 3d3c 42a5 5a3d 2b86 80bd
00000110: 49c2 1abd 7f45 ed3c d9a4 373d 6211 5d3d
00000120: 3c84 21bd 9b83 ec3c 2c6f 14bd 3adc d83b
00000130: b878 663d 209a 3f3b e858 c63c 5665 1a3d
00000140: e039 a83c 367d 70bd 4e54 303c 55f5 1ebc
00000150: 20cb dcbb acc7 3ebd e036 6f3d a25a 643d
00000160: da6f 81bc 7703 763d 12f8 d23c 97e1 adbb
00000170: 3406 3a3d ca34 2b3c f3e5 4dbc 19f1 21bd
00000180: db4c 12bd 0f04 26bc 8d3c b0bc 073f af3b
00000190: b8cf 8f3c 0fa6 fc3b 663a 833c 92ce 52bd
000001a0: b235 80bc 67c6 0dbc 092b d3bc 730a 273d
000001b0: 6165 723d ce55 c93c 7f8c 96be d867 09be
000001c0: 0120 51bf 5399 62be 3619 703e d4e4 04bd
000001d0: 6c83 483d c932 fd3e 10fc c0be 4913 683e
000001e0: 1ff3 123c 16ba 603d 76ca 2b3b 9a85 a1bc
000001f0: b702 043b 1735 71bc 0d28 153d 92e3 05bd
00000200: b319 58bc 8738 dc3c cac1 b4bc 9051 3bbd
00000210: 025c 3abd 2998 a9bc bbd3 5dbd a116 76bc
00000220: 3fcd 35bd ce3d 0fbd db09 28bd d0e8 0d3d
00000230: 9273 7d3b 2c4e d9bb 390f 133b b770 23bd
00000240: 461c 393d a70c 093d f011 efbc 1f0c c8bc
00000250: 344d 3dbb 34f5 243a b4c3 613c 2f9a 14bd
00000260: e966 303d ef45 4d3d 5f50 57bd 4f74 223c
00000270: 0f15 ab3c c38b bfbc b336 f23c e3d0 623c
00000280: a8dc 55be c4d8 58be 7d19 68bf 27d6 89be
00000290: ac6b c73d a0fe 843d 1319 153e 2e63 083f
000002a0: 56a3 5dbe 24f6 a33e 02d3 d4bc 29e8 0e3d
000002b0: 1242 1abd 66c3 d2bb b925 acbb 5aaa af3c
000002c0: ccbd e6bc 38e4 d6bc 9176 12bd e467 6fbd
000002d0: 0709 51bd ab5e 8e3c fc4f adba 59de d3bc
000002e0: 1373 d13b eef8 43bd 4a64 353b f252 50bd
000002f0: c1a3 233c d026 ed3c 3b38 6cbd bfda 113d
00000300: f9fa c6bc 94c6 58bd 4b3a 46bd 2edb 633d
00000310: 0aa2 46bd 6d70 413d e817 26bd 3620 00bd
00000320: 64cc b93c f23a 86bd fc90 39bd 9d60 a03c
00000330: 8e87 e4bc 9852 313c a768 423d 69a9 113d
00000340: 7db6 67bb 80ee c2bc 3333 40be 4cf0 96be
00000350: 9dab 453e c1bc 33be 8a7c 85bd 8334 063e
00000360: f45f 6e3e 056b cbbe 8d24 713e 97cd 2c3d
00000370: 3c46 82be 67f3 3fbe c1df 0cbf 47f1 fdbd
00000380: acac 2a3e d991 0cbd 23ed e53d 7337 da3e
00000390: bbc1 85be b562 193e eb58 7dbe 2b14 a9bd
000003a0: 9f31 50bf 4817 8bbd 6821 683e 6571 9ebd
000003b0: c2a2 063d a605 a93e acc0 a0be d9a3 293e
000003c0: 425c c73c e731 e7bb da44 52bd 40f9 273d
000003d0: c409 55b9 646a 19bd 1519 e43c 9d49 36bd
000003e0: 1059 113d 3cdb 173d 351d 9abe b301 1dbe
000003f0: 84a9 40bf f896 dfbd 9b07 1f3e d614 50bd
-0.15306772 -0.33156022 0.16391093 -0.041038856 -0.041847542 0.13873824 0.38496068 -0.28829354
0.19926614 0.03544093 -0.3303547 -0.22289741 -1.3205075 0.17220959 0.111785345 -0.052270554
0.2977884 0.38663024 -0.4391015 0.46381673 0.30462533 0.6253654 -1.0212272 0.7382062
-0.75945514 -0.84922135 -0.0354487 0.7656653 -0.6115713 -0.66392285 0.01674107 0.031010583
-0.017621487 -0.020505965 0.038035125 0.048035804 0.053330638 0.01059372 -0.00025747658 0.042755138
-0.28284168 -0.26986408 -0.8005283 -0.22487448 0.20180844 0.06905766 0.049373075 0.47527558
-0.300566 0.32130602 -0.33937734 -0.1949038 -0.96489567 -0.13269678 0.23986356 0.09096224
0.07432085 0.42781675 -0.19500412 0.19435582 0.024746906 -0.010792797 -0.017791955 0.02032989
0.010724088 0.011586605 0.05338026 -0.062755905 -0.03778294 0.028963802 0.044834945 0.053971656
-0.03943275 0.028871348 -0.036238834 0.00661805 0.05626747 0.0029236153 0.024212316 0.037694298
0.02053541 -0.05871316 0.010762287 -0.009702046 -0.0067380816 -0.04657714 0.058401942 0.055750497
-0.015800405 0.060061898 0.025753055 -0.0053064334 0.045416072 0.010449598 -0.012567031 -0.03953657
-0.035717826 -0.010132804 -0.021513248 0.0053480896 0.017555103 0.0077102254 0.016019057 -0.051466532
-0.015650604 -0.00865326 -0.025777357 0.04078145 0.059178714 0.024577048 -0.29404065 -0.1341852
-0.8168946 -0.22128801 0.23447117 -0.03244479 0.04895346 0.49452808 -0.37692308 0.22663607
0.008969097 0.054864965 0.0026213205 -0.019717027 0.002014322 -0.01472213 0.03641515 -0.03268773
-0.013189721 0.026882423 -0.022065062 -0.04573208 -0.0454979 -0.020702438 -0.054157 -0.015020044
-0.04438519 -0.03497105 -0.041025024 0.034645855 0.0038673622 -0.0066316333 0.0022439493 -0.039902415
0.04519298 0.03345933 -0.029183358 -0.024419842 -0.0028885128 0.00062926416 0.013779569 -0.036279853
0.043066893 0.050115522 -0.052566882 0.009915425 0.020884065 -0.023382073 0.029567098 0.013843748
-0.20884955 -0.2117644 -0.9066389 -0.26921198 0.09737334 0.06493878 0.14560346 0.53276336
-0.21644339 0.32023728 -0.025979523 0.034889374 -0.037660666 -0.0064319847 -0.0052535203 0.021443535
-0.028166674 -0.02623187 -0.035757605 -0.058448687 -0.051034 0.017379126 -0.001322269 -0.02586286
0.0063918917 -0.04784482 0.0027678185 -0.050860353 0.009987772 0.028949171 -0.057670813 0.035609003
-0.024289595 -0.052923754 -0.048395436 0.055628948 -0.048494376 0.04722636 -0.040550143 -0.03128072
0.022680469 -0.06554212 -0.045304283 0.019577319 -0.027896669 0.010822915 0.047463086 0.035561953
-0.0035356574 -0.023795366 -0.18769531 -0.29480207 0.19303747 -0.17552473 -0.065178946 0.13105969
0.2327879 -0.39730087 0.235491 0.042188253 -0.2544421 -0.18745194 -0.5502892 -0.123995356
0.16667432 -0.03431878 0.11226871 0.4262043 -0.26124367 0.1497906 -0.24740951 -0.082558
-0.81325716 -0.0679155 0.22668993 -0.07736472 0.03287006 0.33012122 -0.31396997 0.16566409
0.024335984 -0.0070555094 -0.051335193 0.041009188 -0.00020316901 -0.037454978 0.027843991 -0.044503797
0.035485327 0.037074313 -0.30100408 -0.1533268 -0.7525866 -0.10917467 0.15530245 -0.05080112

sequential/dense/BiasAdd/ReadVariableOp:0 f4 [10]
00000000: 04a9 c5bd 6c9c e9be 473a 7f3d ff88 76be
00000010: a129 543d 8362 053e b86c 803e 664a 883d
00000020: b5be 213e 7866 c83d
-0.09651378 -0.45627153 0.062311437 -0.24075697 0.051797513 0.1302586 0.25082946 0.066548154
0.15795405 0.09785169

sequential/conv2d_1/Conv2D/ReadVariableOp:0 f4 [64, 32, 3, 3]
00000000: 1a84 523c b02d a9bb 2a25 ef3c 5251 6fbd
00000010: 43f9 e6bc 0edc 7cbd cb42 86bd cd69 ff3c
00000020: 5020 0c3b a997 eabc 1e22 3f3c 909d a93d
00000030: ce96 71bd fd25 abbc edbb 943d bdfb af3c
00000040: e163 b33c df51 303d a1ae 7abd 252a a1bd
00000050: 63f9 13bd c75f 13bc 4e97 95bd f495 913d
00000060: 06dd 8ebd 8927 8e3d ac11 5abc f353 f6bb
00000070: fd8e a83d c129 133d 42fe 863d 2300 35bd
00000080: caac 9f3c 2e93 57bd 0ce5 c13c 59bc 2cbc
00000090: 41b5 6cbf 04cc 06bf 592f 30bf bf32 ddbf
000000a0: 7ccd 5fbf 9d08 debf 64d0 90bf a19d ccbe
000000b0: 87c5 63bf 40b2 7dbf 6b7a 17bf d85b 2dbf
000000c0: d030 dbbf 29c6 4fbf 296f cebf 6bd7 8abf
000000d0: a4fd b9be baae 5cbf e1b9 b3bc 05fd 773d
000000e0: d176 72bc 0100 66bd f31b 613c 8f59 a1bd
000000f0: f573 8b3d 89f9 a53c 2bf5 77bd 9bb8 8c3c
00000100: 0b59 aa38 67be 4a3d 6a74 e93c 9016 5a3d
00000110: 8065 06bd 47d3 143d 91ff 1ebd 4478 433d
00000120: 496a 0b3c 9a0f a43c bb3c ef3c e548 383b
00000130: 8381 4f3d 5fe6 6cbb 180d 74bd d7d1 9bbd
00000140: a0f6 733d 770f 80bd 2742 0ebd 9e81 803d
00000150: 9a75 933d 8e2b 40bd 0238 9d3c ac12 0ebd
00000160: 46bc 22bd b5da 06bc f339 85bd 04cb 33bb
00000170: 1225 963d 3296 babb be17 a3bd ead1 6f3d
00000180: f6ae 83bd 6dd8 e33c 2e66 95bd f2d7 6c3d
00000190: e5aa 6cbd 4c3c 8d3d c10c f63c 143a 5f3d
000001a0: 93d0 903c 97c5 fd3c c939 0dbd 1f88 2a3d
000001b0: 8fb6 6ebf dbbc dcbe 2fbb 0abf 927b cfbf
000001c0: 1c48 41bf b1ae c6bf 381a 85bf 69ea afbe
000001d0: f5ed 4ebf efaf 2dbb 5ab2 673d 03a7 973d
000001e0: 9a41 8f3d aeed acbc c599 5dbd 7c60 eabc
000001f0: 36d8 b7bc dbcb 893d 0011 7abf 15c4 febe
00000200: 908f 48bf 96d4 d2bf 94ca 3fbf 919e dcbf
00000210: 57c0 8cbf d09d a6be df3c 53bf 7bd7 febc
00000220: d684 743d a265 6dba f9f5 92bc 35fb a2bd
00000230: 21cb e0bc aba3 ee3c 1ca9 96bc b0e4 13bd
00000240: 2634 89bd f8c7 bd3c f634 7d3b a41e 5d3c
00000250: 7b29 803d d0bb 873d 0b7e edbc d1c4 aa3c
00000260: 4d07 393d 423b ecbc 3c72 a33d bc38 973d
00000270: 1764 c73c cdf9 823d 3c2c 1ebd 9a56 f33c
00000280: 388a 30bd 82ca a1bd b787 2c3b ddb0 03bd
00000290: 588c 783d 6cf3 0bbd 92b0 00bd 3631 18bd
000002a0: 2c17 a53d d292 993c 0808 6dbc 56ac 3abd
000002b0: e693 5e3c ed77 bf3c 1c41 873d 8bc0 e9bb
000002c0: 271b 1e3c 1e29 163d 3b1d 6bbd 2b74 0cbd
000002d0: 6a30 a53c 894c 6cbd f5e9 10bc e38e 22bc
000002e0: de0f 803d 3dff 38bd 765c af3c 467b 7dbd
000002f0: a062 ba3c d959 8b3a 1c24 7c3d 8772 e13c
00000300: a45d 6ebd 7bc3 723d 7ee4 b1bc aaf8 113d
00000310: a61b 4ebc 04a8 043d 6c16 83bf a7b9 fabe
00000320: 5774 2dbf c576 dbbf 788a 65bf 5c34 d1bf
00000330: 10a1 8cbf 3f0f d1be c814 5bbf d1d0 7c3d
00000340: 3ad5 873d a641 05bc 069c 723d 575b 153d
00000350: 43ee 6cbd 1177 933d bd70 51bd c18c 693d
00000360: c24c 83bf 99d3 1bbf da2b 2cbf b896 d9bf
00000370: e6ae 65bf a103 d2bf 93e1 81bf 45ee a9be
00000380: 363a 6cbf 365b 26bc a62d 80bd 0dbc b3bc
00000390: 9e34 b83b 20e5 ce3c cd46 99bd 328c 773c
000003a0: 13b3 313d 993c 9d3d d8e4 86bf fd83 14bf
000003b0: f0f7 52bf f1ca d4bf 561f 4bbf a665 cdbf
000003c0: de19 72bf 02d0 a3be d837 53bf 0ea0 a6bc
000003d0: 3271 653d f9b6 a43d 56b0 273d 9752 aabd
000003e0: 69d3 54bd 3fe8 34bd 2faf 9b3d c5e0 0ebd
000003f0: 7c5a 9abc 29a4 6b3d f680 293d 4e5c 94bc
0.012848878 -0.005162917 0.029192526 -0.058427162 -0.02819503 -0.061733298 -0.065557085 0.03117838
0.0021381564 -0.02863677 0.011665849 0.08282006 -0.05898171 -0.020892138 0.072624065 0.021482343
0.021898212 0.04304683 -0.061201695 -0.078693666 -0.036126506 -0.008995003 -0.0730425 0.071086794
-0.069757506 0.069411345 -0.013309877 -0.0075173317 0.08230398 0.03592849 0.065914646 -0.044189584
0.019491572 -0.052630596 0.023668788 -0.010542952 -0.9246407 -0.52655053 -0.68822247 -1.7281111
-0.8742292 -1.7346379 -1.1313596 -0.3996401 -0.8897328 -0.9910011 -0.5917117 -0.6771827
-1.7124271 -0.81161743 -1.6127673 -1.084699 -0.36326325 -0.8620411 -0.02193922 0.060544033
-0.014798836 -0.056152347 0.013739574 -0.0787841 0.068092264 0.02026059 -0.060536545 0.01717787
8.122817e-05 0.049497988 0.028497893 0.053244174 -0.03281164 0.036334302 -0.038817946 0.047722116
0.008509227 0.02002697 0.029203763 0.002811962 0.05066062 -0.0036148054 -0.0595828 -0.07608383
0.05956137 -0.0625295 -0.034731057 0.062747225 0.07200165 -0.046916537 0.019191746 -0.034685776
-0.039730333 -0.008230855 -0.065051936 -0.002743424 0.07331289 -0.005694174 -0.07963513 0.0585498
-0.064298555 0.02781316 -0.0729488 0.05782313 -0.057780165 0.06896266 0.030035378 0.054498747
0.017677581 0.030978007 -0.034478936 0.04163372 -0.9324731 -0.43112835 -0.5419187 -1.6209586
-0.75500655 -1.5522062 -1.0398626 -0.34358528 -0.80831844 -0.002650257 0.056566574 0.07404902
0.069949344 -0.021109428 -0.054101724 -0.02861046 -0.022441965 0.067283355 -0.9768219 -0.49758974
-0.7834406 -1.6471126 -0.74918485 -1.7235891 -1.0996197 -0.32542276 -0.82514757 -0.031108608
0.059696995 -0.0009055977 -0.017939555 -0.0795807 -0.02744061 0.029130777 -0.018391185 -0.036106765
-0.066994 0.023166642 0.0038636304 0.013496075 0.06257912 0.06627619 -0.028990766 0.020845803
0.04517298 -0.02883685 0.07980773 0.07383868 0.024339719 0.06395302 -0.038616404 0.02970438
-0.043100566 -0.078999534 0.002632601 -0.03215109 0.060680717 -0.034167692 -0.03141839 -0.037156306
0.0806106 0.018746767 -0.014467247 -0.04557451 0.013585066 0.023372615 0.066042155 -0.0071335486
0.009650028 0.036660306 -0.057400923 -0.034290474 0.020164687 -0.057690177 -0.008844842 -0.009921762
0.062530264 -0.04516529 0.021406393 -0.06188514 0.022752106 0.0010631635 0.061557874 0.027520431
-0.05819477 0.059268456 -0.021715399 0.035637535 -0.012579834 0.032386795 -1.0241218 -0.48969766
-0.67755646 -1.714562 -0.8966441 -1.6344104 -1.0986652 -0.40831944 -0.85578585 0.06172258
0.066324666 -0.008133328 0.059230827 0.03646406 -0.05784441 0.072004445 -0.051132906 0.057019
-1.02578 -0.6086975 -0.6725441 -1.6999121 -0.8972 -1.6407357 -1.0146965 -0.33189598
-0.9227632 -0.010153582 -0.06258707 -0.021940256 0.005621507 0.02525574 -0.07484207 0.015109109
0.04338367 0.07677574 -1.0538588 -0.580139 -0.8240957 -1.6624433 -0.7934469 -1.6046646
-0.9457072 -0.31994635 -0.82507086 -0.020339992 0.056016155 0.08042712 0.04093965 -0.08316534
-0.05195943 -0.0441668 0.07601773 -0.034882326 -0.018841974 0.057529602 0.041382752 -0.01811042

sequential/conv2d_1/BiasAdd/ReadVariableOp:0 f4 [64]
00000000: bd8b e33e d0f6 2dbc 2b32 39bc fad2 e8bb
00000010: 10e7 b2bc 64cf aebd a88d c4bb 6371 e6bc
00000020: 319a 28bc 5f55 6ebb 9ad8 efbb 7ca1 eabd
00000030: 491d c5bb 80f9 0fbc 7e63 3dbc a4ed 71bb
00000040: 9384 15bc 6aaf c4bb 26b0 c4bb 85c3 afbb
00000050: 7c78 4ebc ab55 de3e c05b 983a 5cd9 fcbd
00000060: 160d 9bbc 6c78 4cbc b1d2 abbc 0ac5 c4bb
00000070: 2d2f 3abc d164 12bc 69b6 aabb 8c26 e1bb
00000080: 81d8 67bc 5d9e c4bb fb10 503e d0ed ccbc
00000090: 3f5d 98bc 6c05 d43a d3f5 01bd 4429 25bb
000000a0: 653e 00bd 29c3 c4bb 09cf 1bbc 5557 fbbb
000000b0: 761c 61bc 7321 1ebb 59bd c4bb 002c bdbe
000000c0: c79f 83be faf8 4fbb 60d8 46bc 1e60 29bc
000000d0: 5868 a7bc e7ee 86bc 84bd c4bb 2061 8ebe
000000e0: dd5e b9bb 2341 d0bb 57e9 85bc 6cc4 c4bb
000000f0: 2f8b c5bb 216e 01bc cecb 9dbc 33c0 c4bb
0.4444255 -0.010617927 -0.011303465 -0.0071052285 -0.021838695 -0.0853565 -0.005998332 -0.028130239
-0.010290668 -0.0036366803 -0.007319522 -0.11456582 -0.006015454 -0.008787513 -0.011559365 -0.0036915326
-0.009125846 -0.0060023563 -0.006002444 -0.005363884 -0.012601968 0.43424734 0.0011624023 -0.123461455
-0.018927138 -0.012479883 -0.020974489 -0.006004934 -0.011363787 -0.008935169 -0.0052097333 -0.00687105
-0.01415074 -0.0060003237 0.20318978 -0.025015742 -0.01859915 0.0016175932 -0.031728577 -0.0025201598
-0.031309504 -0.00600471 -0.00950981 -0.007670323 -0.013739696 -0.0024128824 -0.0060040173 -0.36947632
-0.25707838 -0.0031734095 -0.012136549 -0.0103378575 -0.020435497 -0.01647134 -0.0060040373 -0.27808475
-0.0056570605 -0.006355421 -0.016346617 -0.0060048606 -0.006028555 -0.007899792 -0.01926222 -0.0060043572

sequential/conv2d/Conv2D/ReadVariableOp:0 f4 [32, 1, 3, 3]
00000000: 5792 aa3d 0604 85bd 0ebc e63c e886 b83b
00000010: 4c1f 52bd cde2 05be d8ca f63c 2f7b f33c
00000020: 32de 7b3d 0f12 23bd 31ec 9839 e3fa b13d
00000030: 3026 d8bd 1d44 89ba 379f f03d a74b e6bd
00000040: 6db9 c3bc 2878 953d e9aa b03d e183 0bbd
00000050: 8061 d9bd 1a64 b0bb bf5e e43d 5244 403d
00000060: 7bfc 56bd 84ea 84bd 5694 a23d 4dac da3c
00000070: 4d12 5c3c bde1 51b9 c55c 1d3d eb60 c13d
00000080: 48ec 783d 0551 82bd f68b ddbd b51f b4bd
00000090: 8238 cb3f 11df ed3f 8d6d 8b3f 5a92 ad3f
000000a0: 2d69 1140 bdd2 d93f e85a 923f 27cd fe3f
000000b0: f893 0440 2516 cb3f c87a e53f 96a1 953f
000000c0: e240 bd3f adfd 0e40 8ad9 ea3f e023 ac3f
000000d0: 0202 0640 5159 0040 2783 a8bd c5d1 aa3d
000000e0: 69ff 953d 2adf 023e d7b3 a83d 00f9 d0bb
000000f0: f9df a8bd 186f dd3d 479f edbc 4b4a 843a
00000100: e2d1 0a3e c2d5 863d 1fdb 26bc c381 2e3d
00000110: b8ec 95bc 9682 b5bd d5e4 b0bc c360 e6bc
00000120: 4fa1 793d a93a 2cbd 2ce0 963d 2eff 203e
00000130: 5005 a3bc 9c21 01bd 79f1 dfbd 0d9f 033e
00000140: bee3 17bd b777 a5bc d4b4 db3d 1a18 0ebe
00000150: 551e 13bd 0944 823d 674c b5bc 3359 4d3d
00000160: 10fc 33bc 2b06 c83d 5cfb b53b 4d4f 0b3e
00000170: 6451 6a3d d19f a4bd 3962 b8bd 82ae 293d
00000180: 4444 da3d cc9f a3bd e3c5 f7bd 5e12 57bd
00000190: b93d 063e a9e2 0cbe ef30 273d e689 063e
000001a0: 98b6 d6bd d5db f33c b211 663d 509d 303d
000001b0: 6438 b93f 8aa4 ee3f 202f a23f 762c 983f
000001c0: 49ec 0440 32c9 0440 a0e6 9c3f bd40 e63f
000001d0: dcbc 0b40 bd6e 0bbd 013d 21bd 350d 4f3c
000001e0: 8889 a53d c7a3 b9bd 6e9c ddbc 805c 8a3c
000001f0: a91d 623d e09c c63d 88cf c93f 85af e53f
00000200: 8b3b 953f 21cf ac3f 3f82 1640 41ca e23f
00000210: eddb a93f 8309 0340 affd f53f c5cc 05be
00000220: cf30 c7bc 0102 1cbb 8b6e 07be 4d2a adbd
00000230: 4fdf 04be 7423 e43d db3c e63d 0399 fcbd
00000240: c8dc 03be fb21 9d3d 30e6 fa3d 87c3 0a3e
00000250: d7e5 c53d 7588 0cbe 6a2b bf3d f151 13be
00000260: 2a62 51bd 45a1 193d 0ece 583d 3697 b93d
00000270: 6234 72bd 92c7 a93d 5b8b f7bd cf83 573d
00000280: c220 aebd a918 8cbd 74a3 903d 0de6 d0bd
00000290: defe 80ba 2f10 b1bd c7c8 c5bd 234f 893c
000002a0: 5f5e 57bd 5e12 353d 5954 b63d 7b5a 58bd
000002b0: 8bfc 58bd a302 a4bc a65a ee3d b28e 8ebd
000002c0: 8c87 df3d 9bd9 eb3d bdce 09be 7885 5ebc
000002d0: 6183 733d aa4b bbbc 33d3 cabd c6e6 05be
000002e0: 91d0 98bd 59bf 5c3c 2400 0c3d 7629 e3bc
000002f0: 342c bf3c 3559 d8bd 70ed bb3d 84f8 1fbe
00000300: 6219 913d 2f60 debd 702c 073e 0415 123d
00000310: c174 c33d 71c9 453d d4a7 b33f 020d 0240
00000320: 5800 8b3f 797d a03f 7528 1940 f6ae e23f
00000330: e18b 953f b05f 0640 2096 0340 833a c23d
00000340: ac90 b43d 495c 143e 9010 d9bd 4fae ecbd
00000350: d022 033e e3b0 d5bd 3885 b6bd d4f9 82bd
00000360: c958 cb3f d8da d53f ede2 c53f 7ce0 c43f
00000370: 1c53 0b40 ccee 0d40 8d76 b53f 2d2b ed3f
00000380: c925 1f40 6a0e 5ebd a200 cabd b8a8 2bbd
00000390: cb7d be3b e5df f73d 9de7 103d 1abd cc3d
000003a0: f2fc 093e f29e c0bd fa89 b53f ac63 d33f
000003b0: c35b 9d3f 3347 af3f 99b0 0e40 e49d f03f
000003c0: e96e ad3f 692e f93f 4227 0540 cb64 b13d
000003d0: 3318 8d3d 9242 04be ee81 19bd 20ca 7a3d
000003e0: 44e2 cf3d 7c28 ba3c b3b7 0cbd fee1 b33a
000003f0: d7ff 183e 3620 a5bd ef3e 093d c8cb be3c
0.08328693 -0.06494908 0.028165843 0.0056313165 -0.05129938 -0.13074799 0.03012602 0.029721824
0.0614912 -0.039812144 0.00029167676 0.08690431 -0.10554159 -0.001047257 0.11749118 -0.11244898
-0.023892129 0.072983086 0.086263485 -0.034061316 -0.106143 -0.005383027 0.11150884 0.046940155
-0.052486878 -0.06490043 0.07938449 0.026693488 0.013432098 -0.00020015887 0.03841855 0.09442314
0.06077221 -0.063631095 -0.10817711 -0.0879511 1.587662 1.85837 1.0892807 1.3560288
2.2720444 1.7017437 1.1433992 1.9906358 2.0715313 1.5866133 1.7928095 1.1689937
1.4785426 2.2342331 1.8347638 1.3448448 2.0938725 2.0054514 -0.0822814 0.083407916
0.07324106 0.12780443 0.08237427 -0.0063773394 -0.082458444 0.10812205 -0.029006613 0.0010092942
0.13556626 0.0658374 -0.0101840785 0.04260422 -0.018301353 -0.08862798 -0.02159349 -0.028122311
0.06094485 -0.04204813 0.07366976 0.15722343 -0.019899994 -0.031526193 -0.10934729 0.12853642
-0.037082426 -0.020198686 0.107278496 -0.13876382 -0.0359176 0.06360633 -0.022131158 0.050133895
-0.010985389 0.097668014 0.005553646 0.1360447 0.057206526 -0.08038295 -0.090031095 0.04142619
0.10657552 -0.07989463 -0.12098291 -0.05250775 0.13109483 -0.13758339 0.04081815 0.13138542
-0.10484046 0.02976791 0.05616922 0.043118775 1.4470334 1.8643963 1.2670631 1.1888568
2.0769217 2.07478 1.2257881 1.7988507 2.183402 -0.034041155 -0.03936482 0.012637426
0.08082873 -0.09064441 -0.02705213 0.01688981 0.055204067 0.0969789 1.5766459 1.7944189
1.1658796 1.3500711 2.3516996 1.7717973 1.3270241 2.0474555 1.9218043 -0.13066395
-0.024315266 -0.0023804905 -0.13225763 -0.08455334 -0.1297581 0.11139575 0.11242076 -0.12333872
-0.1287719 0.07672497 0.12250936 0.1355115 0.09662979 -0.13723929 0.093344525 -0.14386727
-0.051119007 0.037507314 0.052930884 0.09062044 -0.059131987 0.08290018 -0.12087127 0.052615937
-0.08502342 -0.06840641 0.07062426 -0.10200129 -0.0009841581 -0.08645665 -0.09657436 0.016761368
-0.052580234 0.04420697 0.08902807 -0.052820664 -0.05297522 -0.020020789 0.116383836 -0.06960811
0.109145254 0.11516114 -0.1345777 -0.013581626 0.059451465 -0.022863228 -0.09903564 -0.13076314
-0.07461656 0.013473355 0.03417982 -0.027729731 0.023336507 -0.1056389 0.09176147 -0.15622145
0.070849195 -0.10858189 0.13200545 0.035664573 0.095437534 0.048287813 1.4035592 2.032044
1.085948 1.2538291 2.3930943 1.7709644 1.1683313 2.0995903 2.056038 0.094838165
0.088166565 0.14488329 -0.10598862 -0.11556684 0.12806249 -0.10434129 -0.08912128 -0.06395307
1.588647 1.6707411 1.5459877 1.5381007 2.1769476 2.2177 1.4176804 1.8528801
2.4866812 -0.054212965 -0.09863402 -0.04190895 0.0058133355 0.12103251 0.035377134 0.09997006
0.13475397 -0.094053164 1.4182732 1.6514792 1.2293628 1.3693603 2.2295287 1.8798184
1.3549472 1.9467288 2.080521 0.08661803 0.06889381 -0.1291602 -0.037477426 0.061227918
0.101505786 0.022724383 -0.034354877 0.0013723967 0.14941345 -0.080627844 0.033507284 0.02329053

sequential/conv2d/BiasAdd/ReadVariableOp:0 f4 [32]
00000000: aeb3 c4bb dd08 87bb fe10 b6bb edbf c4bb
00000010: 0eb1 36ba 74e4 76ba f784 c9bb c2c3 c4bb
00000020: 068d 5cbb 13be c4bb fcb9 c4bb 2f8f cabb
00000030: 67b3 3db9 26b0 c4bb ee0e 4aba bebf c4bb
00000040: 6b3d b2bb 8d82 c1bb cac3 c4bb 1360 b4bb
00000050: a1b5 c4bb 7697 bfba 462b 85ba e031 96bb
00000060: 3ab2 bab9 e830 c5bb 0e72 59ba d2ab c4bb
00000070: a573 9fbb fe49 86bb 98c1 c4bb 51b5 6aba
-0.006002865 -0.0041209296 -0.005556225 -0.0060043246 -0.0006969132 -0.00094181974 -0.006149884 -0.0060047815
-0.0033653392 -0.006004104 -0.0060036164 -0.0061816196 -0.00018091277 -0.006002444 -0.0007707913 -0.0060043028
-0.0054394505 -0.0059054554 -0.006004785 -0.005504617 -0.006003097 -0.0014617282 -0.0010159991 -0.0045835823
-0.00035609474 -0.006017793 -0.00082948885 -0.006001928 -0.004866081 -0.004098176 -0.0060045235 -0.000895341
