models/model24.onnx (onnx, 380198 bytes, 18 tensors)

sequential_2/myDense2/MatMul/ReadVariableOp:0 f4 [128, 10]
-0.15655027 0.14908355 -0.21293403 -0.17470872 0.10808199 -0.15553394 -0.16572432 -0.156139
0.072809845 0.08001188 0.23968086 -0.03325815 -0.13904803 -0.093918175 0.26089087 -0.102783024
0.16050085 -0.11910914 0.23548663 0.22199644 0.24718039 -0.19478022 0.27692863 -0.15752393
0.04625543 0.032224264 0.24269165 -0.129898 -0.08895019 -0.045034967 -0.121569715 -0.25658733
-0.15906517 -0.053638067 -0.12517639 0.21182072 -0.19581628 0.1814821 0.18969068 0.17578295
0.04171253 0.15371738 -0.24930763 -0.11737314 -0.21688041 -0.17893846 0.0924233 -0.22257395
0.09936153 0.10752722 -0.21407433 -0.12845938 0.20437692 0.005345255 -0.23085222 0.21792051
0.16153017 -0.19088855 0.04228368 -0.17111683 -0.20944872 -0.1535159 0.070806116 0.2546585
-0.2211124 0.24312595 -0.031161124 0.10567723 0.095868714 0.12989789 -0.14046268 0.22223496
-0.2225296 0.21089268 0.0915173 0.20639941 -0.20663117 -0.094364755 -0.19566303 0.1467194
0.25925592 -0.18962328 0.036019955 0.18696955 0.10231351 -0.0980188 -0.19170056 -0.14737678
0.24151966 0.16199543 0.19040465 0.07947014 -0.31461823 -0.1806634 -0.12551028 -0.08003968
-0.18157694 0.1377778 0.14833343 0.14319465 -0.1714508 -0.11366369 -0.09545872 0.07425256
0.19606681 -0.19583273 -0.038891632 0.25599924 -0.060541824 0.21952456 -0.1888194 -0.293595
0.044424493 0.09514085 -0.22383209 -0.2814519 0.124951616 -0.142602 0.09639565 -0.24646775
-0.18530343 0.15745197 0.086038314 0.19052735 -0.16015278 0.14814818 -0.10515763 -0.28116155
0.084708385 0.1505378 -0.11086701 0.17779066 0.21320432 -0.059501924 -0.24383664 -0.05819006
-0.113599904 0.18160251 -0.0976329 -0.284305 0.07493887 0.24168111 -0.17122936 -0.07963525
-0.12793334 0.1579568 -0.17878328 0.21336453 -0.074961655 0.072929904 -0.1577088 0.18303512
0.20229498 -0.17692582 -0.14743179 -0.029181737 0.15285897 -0.023238445 0.1547158 -0.063310415
-0.00133422 0.15923198 -0.26502898 0.23941007 -0.06385041 0.08334406 0.04170171 0.2799508
-0.08097021 -0.09820557 0.17885914 0.12291554 0.15166762 -0.15542443 -0.069288515 -0.12886825
-0.13208991 -0.21502836 -0.18101457 -0.15039718 -0.06371998 -0.034106705 -0.14436373 -0.11976868
0.18104826 0.17624666 0.18614155 -0.059429266 -0.14158762 -0.06801825 -0.0782975 -0.24611777
0.25673595 0.084925875 0.014580052 -0.00030174493 0.16445789 0.21112418 0.26324594 -0.17740731
0.25789917 -0.1118583 0.120574966 -0.17702046 -0.1055588 -0.23680723 0.32228374 -0.07335665
-0.20302258 -0.1601721 0.12513933 -0.24538231 -0.24340811 0.1693567 -0.22721751 0.18147975
0.0104549425 -0.13947807 0.15338126 -0.23876783 -0.1419701 0.25388086 -0.02148423 -0.13038851
0.07472753 -0.11872495 -0.13070725 0.24334815 -0.13964915 -0.08920104 0.045647766 -0.152504
0.15753943 0.058820028 -0.32273528 -0.17005716 -0.15166211 -0.17199299 0.119706534 0.1455773
-0.06926222 0.0017334415 -0.17569456 -0.17470695 -0.14578764 0.08527532 0.23838559 -0.046885286
0.23959173 0.1727735 -0.15010673 0.17814586 0.16639672 0.15223353 -0.22087741 -0.13714737
00000000: b74e 20be 5ca9 183e 610b 5abe d8e6 32be
00000010: 175a dd3d 4a44 1fbe a3b3 29be e7e2 1fbe
00000020: 541d 953d 45dd a33d e66e 753e b339 08bd
00000030: 9b62 0ebe 2c58 c0bd 7d93 853e e87f d2bd
00000040: 565a 243e 7eef f3bd 6823 713e 0953 633e
00000050: db1c 7d3e 7774 47be 97c9 8d3e f44d 21be
00000060: 5576 3d3d 97fd 033d 2984 783e fb03 05be
00000070: 842b b6bd 9676 38bd 8bf9 f8bd 6a5f 83be
00000080: fbe1 22be 97b3 5bbd 3d2e 00be 88e7 583e
00000090: 1084 48be 72d6 393e 463e 423e 7200 343e
000000a0: c2da 2a3d 1768 1d3e 804a 7fbe 5461 f0bd
000000b0: e615 5ebe a53b 37be 6d48 bd3d 6dea 63be
000000c0: 0f7e cb3d 3b37 dc3d 4d36 5bbe db8a 03be
000000d0: 2f48 513e 4027 af3b 8664 6cbe 8e26 5f3e
000000e0: 2a68 253e 4a78 43be a731 2d3d 4039 2fbe
000000f0: ba79 56be 4633 1dbe cc02 913d 9962 823e
00000100: 4a6b 62be 02f6 783e 9d45 ffbc 4e6d d83d
00000110: d156 c43d f403 053e 73d5 0fbe 9091 633e
00000120: cdde 63be 40f4 573e 6c6d bb3d 5e5a 533e
00000130: 1f97 53be 4f42 c1bd e45b 48be 9c3d 163e
00000140: 31bd 843e 9b2c 42be a989 133d f274 3f3e
00000150: bf89 d13d 15be c8bd 274d 44be f0e9 16be
00000160: ee50 773e 21e2 253e 70f9 423e 3ec1 a23d
00000170: a415 a1be d4ff 38be c485 00be d8eb a3bd
00000180: 4eef 39be a015 0d3e b8e4 173e 9ea1 123e
00000190: cc90 2fbe 82c8 e8bd dd7f c3bd ba11 983d
000001a0: bdc5 483e 6088 48be d54c 1fbd 5512 833e
000001b0: b4fa 77bd 0ccb 603e df59 41be 1552 96be
000001c0: 75f6 353d 35d9 c23d 3d34 65be 771a 90be
000001d0: a2e6 ff3d 4206 12be 156b c53d 0b62 7cbe
000001e0: 2fc0 3dbe 173b 213e db34 b03d 9a19 433e
000001f0: 17ff 23be 28b4 173e e25c d7bd 68f4 8fbe
00000200: 977b ad3d 9526 1a3e 3e0e e3bd c10e 363e
00000210: 3c52 5a3e 4ab8 73bd 50b0 79be b358 6ebd
00000220: 11a7 e8bd 02f6 393e c2f3 c7bd 6d90 91be
00000230: 8d79 993d 417b 773e c056 2fbe ce17 a3bd
00000240: f500 03be 6dbf 213e f712 37be 3b7c 5a3e
00000250: 7f85 99bd 465c 953d 6a7e 21be 8f6d 3b3e
00000260: 6a26 4f3e 0b2c 35be 5cf8 16be 8a0e efbc
00000270: 1087 1c3e 8d5e bebc d26d 1e3e e4a8 81bd
00000280: ffe0 aeba b50d 233e e1b1 87be ea27 753e
00000290: 01c4 82bd 4ab0 aa3d 6acf 2a3d b655 8f3e
000002a0: b6d3 a5bd 0020 c9bd da26 373e 25bb fb3d
000002b0: c24e 1b3e 9527 1fbe 23e7 8dbd 0af6 03be
000002c0: 9442 07be 6530 5cbe e25b 39be b801 1abe
000002d0: 9f7f 82bd 79b3 0bbd 16d4 13be 4849 f5bd
000002e0: b764 393e 017a 343e e49b 3e3e 1a6c 73bd
000002f0: 58fc 10be 274d 8bbd 715a a0bd 4c06 7cbe
00000300: e572 833e 9eed ad3d 2ce1 6e3c 8533 9eb9
00000310: a667 283e f030 583e 2cc8 863e 43aa 35be
00000320: 5c0b 843e f715 e5bd 02f0 f63d da44 35be
00000330: 362f d8bd 987d 72be 6002 a53e 033c 96bd
00000340: 27e5 4fbe 2804 24be 8624 003e 8045 7bbe
00000350: fa3f 79be d86b 2d3e b5ab 68be d4d5 393e
00000360: 354b 2b3c 57d3 0ebe fa0f 1d3e 8e7f 74be
00000370: 9c60 11be acfc 813e b2ff afbc 9184 05be
00000380: bf0a 993d 1126 f3bd 1fd8 05be 4230 793e
00000390: 3000 0fbe 09af b6bd 27f9 3a3d 022a 1cbe
000003a0: 0452 213e 45ed 703d 8f3d a5be 7723 2ebe
000003b0: 504d 1bbe ee1e 30be b328 f53d 3712 153e
000003c0: 5ad9 8dbd a534 e33a 46e9 33be 61e6 32be
000003d0: 5b49 15be d4a4 ae3d 5a1b 743e c90a 40bd
000003e0: 8957 753e 89eb 303e 94b5 19be de6b 363e
000003f0: e763 2a3e 1be3 1b3e b02d 62be 5c70 0cbe

sequential_2/myDense2/BiasAdd/ReadVariableOp:0 f4 [10]
-0.13127379 -0.06158748 0.05332031 -0.116376854 -0.011819504 0.037345316 -0.10274681 -0.044604275
0.11043952 0.15588143
00000000: a36c 06be 2743 7cbd 6666 5a3d fd56 eebd
00000010: 98a6 41bc 67f7 183d eb6c d2bd f9b2 36bd
00000020: 1d2e e23d 629f 1f3e

sequential_2/myDense1/MatMul/ReadVariableOp:0 f4 [512, 128]
-0.030336631 -0.08988295 -0.04029696 -0.19023207 -0.0031256375 0.038027752 -0.013678751 0.059061978
0.10358798 -0.12170898 0.24496114 0.112256266 -0.027128525 0.036908533 -0.14735432 -0.0930328
0.16041723 -0.045832694 -0.046056468 0.112628035 0.07650305 -0.06780551 0.08664581 0.13517922
-0.09656487 0.13106349 -0.0919866 0.053328205 -0.24057433 -0.06775512 -0.19477431 0.016848288
0.010527196 -0.16545229 -0.049194407 -0.18352549 0.03366045 -0.178006 -0.027152702 -0.17912647
0.19904785 -0.15995917 0.15047139 -0.11923464 -0.17319596 -0.021675633 0.030360548 0.150169
-0.10338013 0.017766085 0.034583133 -0.021969572 -0.095670655 -0.045755852 -0.20607656 0.14083698
0.047173284 0.0015406084 0.09928723 0.055590704 -0.1558948 0.07561853 -0.00026061203 -0.014350641
-0.08786216 0.022820983 -0.15617976 -0.12392412 0.11249757 0.14364564 0.08985105 -0.11599779
-0.09313856 -0.0393895 -0.28554294 -0.0452264 0.19530977 0.1003941 -0.09650411 -0.020517588
0.15580957 0.069275014 0.1267181 -0.13195795 -0.011090625 0.064383715 -0.08691013 -0.24598016
-0.06920602 -0.23936437 -0.030684602 0.032057837 0.23537576 -0.014086872 0.00060987147 -0.038191643
0.14357929 -0.11484645 0.102542825 -0.042291433 0.025906913 -0.025541233 -0.08327255 0.15702532
0.022936495 0.01756418 -0.01375584 0.0858857 -0.05680991 0.22152616 0.24979189 0.15353005
-0.19636932 -0.13635512 -0.009939304 -0.10612035 -0.031372182 0.03609043 0.1043671 -0.014400562
-0.120478846 -0.04035589 -0.054039095 0.24858624 -0.08812034 -0.070320226 -0.06811443 0.069844015
-0.14649849 -0.052253895 0.026631035 0.0044115214 -0.16155769 -0.06474704 -0.14977933 -0.02213901
-0.01821114 -0.11707571 0.14376909 0.028653154 -0.08350747 -0.12544374 -0.06763238 -0.099691406
0.08868385 -0.05764352 -0.037957788 0.056168944 -0.12508269 0.0030635374 0.098413795 0.0229804
-0.04948342 -0.0938294 -0.034974743 0.056575667 -0.042292453 -0.009665867 -0.040292133 0.09081902
-0.15324105 -0.128037 0.05783675 -0.1047937 -0.04465754 -0.118609264 0.055373203 -0.07167932
-0.065556675 -0.14049007 0.0047204187 -0.026221257 -0.11895643 0.1471252 0.008651128 -0.06031982
-0.1328101 0.11103029 -0.009241108 -0.07253412 -0.04588741 0.029938389 -0.0993001 0.055716343
-0.22448233 -0.14589532 -0.020276507 0.01420989 -0.0050798077 -0.058866266 -0.20755364 -0.16632567
-0.22143556 -0.045597985 -0.08598983 0.03872813 -0.13833866 0.080420524 0.0030691696 -0.12363
-0.10739369 0.060948 -0.15315339 0.04687156 0.0619583 -0.005050931 -0.11758889 0.014123766
-0.0049748532 -0.16659269 -0.048348144 -0.18541709 -0.01538127 0.06122238 -0.05175106 -0.020805195
-0.06634238 -0.018158864 -0.11919209 0.026127543 0.18836078 -0.11834778 0.20115632 -0.13382035
-0.082951434 -0.061491713 0.05641042 0.015469243 0.09009531 -0.010074979 -0.023059472 -0.16789815
-0.0829787 0.04592515 -0.056679726 0.014953749 -0.030307421 -0.055863623 -0.11078742 -0.026801514
-0.15576304 0.015004021 -0.08546582 -0.121554255 -0.08250745 0.07342664 -0.0386026 0.05368139
-0.20625606 -0.096372135 -0.06408521 -0.053178865 -0.1701086 -0.13243662 -0.103562355 -0.17295916
00000000: 8784 f8bc 8d14 b8bd 6d0e 25bd 32cc 42be
00000010: 7fd7 4cbb fdc2 1b3d d71c 60bc f9ea 713d
00000020: ef25 d43d 8f42 f9bd 18d7 7a3e 9de6 e53d
00000030: a43c debc 672d 173d 0de4 16be fb87 bebd
00000040: 6a44 243e 10bb 3bbd b5a5 3cbd 87a9 e63d
00000050: a2ad 9c3d 9ddd 8abd 5c73 b13d 6c6c 0a3e
00000060: cdc3 c5bd 8235 063e 7863 bcbd ad6e 5a3d
00000070: 1e59 76be 32c3 8abd eb72 47be 6c05 8a3c
00000080: 437a 2c3c 536c 29be 1380 49bd 1bee 3bbe
00000090: 8adf 093d 3447 36be 586f debc ee6c 37be
000000a0: 33d3 4b3e 56cc 23be 2c15 1a3e 4a31 f4bd
000000b0: 485a 31be 1991 b1bc afb6 f83c e7c5 193e
000000c0: f6b8 d3bd 2e8a 913c 0ba7 0d3d 88f9 b3bc
000000d0: faee c3bd 7d6a 3bbd bc05 53be 9237 103e
000000e0: c638 413d 3dee c93a 1a57 cb3d 14b3 633d
000000f0: e3a2 1fbe e3dd 9a3d c1a2 88b9 f31e 6bbc
00000100: 13f1 b3bd 12f3 ba3c 96ed 1fbe eecb fdbd
00000110: 2065 e63d d817 133e d403 b83d 4090 edbd
00000120: 6ebf bebd e256 21bd af32 92be 513f 39bd
00000130: 49ff 473e 6c9b cd3d f2a3 c5bd 8014 a8bc
00000140: 8b8c 1f3e 0fe0 8d3d 64c2 013e fc1f 07be
00000150: 74b5 35bc 9cdb 833d f0fd b1bd 39e2 7bbe
00000160: e3bb 8dbd ef1b 75be 465e fbbc 144f 033d
00000170: 5806 713e a0cc 66bc c8df 1f3a d76e 1cbd
00000180: 7306 133e 9e34 ebbd f901 d23d c839 2dbd
00000190: bc3a d43c d93b d1bc cc8a aabd 3fcb 203e
000001a0: 51e5 bb3c c1e2 8f3c 2d60 61bc d8e4 af3d
000001b0: 82b1 68bd c1d7 623e 72c9 7f3e fb36 1d3e
000001c0: 0a15 49be ada0 0bbe 76d8 22bc a055 d9bd
000001d0: 1e80 00bd 8fd3 133d 6bbe d53d 56f0 6bbc
000001e0: 9dbd f6bd 384c 25bd 1958 5dbd 648d 7e3e
000001f0: 7078 b4bd 0d04 90bd 947f 8bbd 610a 8f3d
00000200: b303 16be 2e08 56bd 5429 da3c 868e 903b
00000210: 616f 25be 199a 84bd c15f 19be de5c b5bc
00000220: 872f 95bc 64c5 efbd 3438 133e 05ba ea3c
00000230: f705 abbd 5374 00be d882 8abd 022b ccbd
00000240: e19f b53d 9d1b 6cbd a079 1bbd 6811 663d
00000250: ad15 00be a1c5 483b 2c8d c93d 6441 bc3c
00000260: 20af 4abd a129 c0bd ad41 0fbd e3bb 673d
00000270: da3a 2dbd 965d 1ebc 5d09 25bd 53ff b93d
00000280: 39eb 1cbe 221c 03be 3ae6 6c3d 149e d6bd
00000290: d3ea 36bd 6ae9 f2bd 03cf 623d 9bcc 92bd
000002a0: 9442 86bd a1dc 0fbe bead 9a3b f6cd d6bc
000002b0: 6e9f f3bd fda7 163e 76bd 0d3c ea11 77bd
000002c0: 5fff 07be d963 e33d 0468 17bc c58c 94bd
000002d0: 70f4 3bbd 5a41 f53c da5d cbbd d236 643d
000002e0: b2de 65be 9565 15be eb1a a6bc 99d0 683c
000002f0: 8474 a6bb c11d 71bd f188 54be 4751 2abe
00000300: 01c0 62be f4c4 3abd 701b b0bd 63a1 1e3d
00000310: a6a8 0dbe 84b3 a43d 1f24 493b ba31 fdbd
00000320: 39f1 dbbd 9ca4 793d 3ed4 1cbe 65fc 3f3d
00000330: fdc7 7d3d 4882 a5bb 72d2 f0bd 5e67 673c
00000340: 1804 a3bb 4697 2abe b408 46bd fadd 3dbe
00000350: b901 7cbc 51c4 7a3d ebf8 53bd a86f aabc
00000360: 84de 87bd e6c1 94bc fc1a f4bd 6e09 d63c
00000370: a6e1 403e 5260 f2bd ecfb 4d3e 3408 09be
00000380: 71e2 a9bd bcde 7bbd 9d0e 673d b572 7d3c
00000390: e483 b83d 8611 25bc 38e7 bcbc 7eed 2bbe
000003a0: bdf0 a9bd 031c 3c3d 0029 68bd 9200 753c
000003b0: 4547 f8bc 41d1 64bd 84e4 e2bd d98e dbbc
000003c0: 5980 1fbe 6dd3 753c b408 afbd 70f1 f8bd
000003d0: aaf9 a8bd b560 963d c31d 1ebd 04e1 5b3d
000003e0: ca34 53be c15e c5bd 1b3f 83bd 15d2 59bd
000003f0: f330 2ebe 779d 07be 8018 d4bd 351c 31be

sequential_2/myDense1/BiasAdd/ReadVariableOp:0 f4 [128]
-0.02889548 0.14743651 0.036291357 0.103770465 -0.016660264 0.09960813 0.045270793 -0.080635935
0.16862044 -0.061964467 -0.098630585 0.1253969 -0.034424383 0.049873322 -0.027994819 -0.044264045
-0.037921716 0.037376847 -0.012073465 0.024673758 0.039851036 0.14514112 -0.05323823 -0.07272083
0.0041012526 0.17229137 0.08013321 0.07601013 0.056663986 0.14892061 0.098767765 0.09094002
-0.049298275 0.08297073 -0.10821608 0.036010787 -0.037300143 0.15222551 -0.048783146 0.0730242
0.06303691 0.012168656 -0.10248356 -0.0034849746 -0.038791593 0.057402104 -0.059611835 0.132194
-0.05929601 -0.046609927 0.18038177 0.025401428 0.0671667 -0.06213069 0.037080318 0.005693104
0.064414844 0.05082424 0.0006032225 0.036489945 -0.06795928 -0.038001735 0.009799864 0.021873536
0.18706201 -0.12688027 0.1638709 -0.032612335 -0.018868228 -0.028061947 -0.053128358 -0.019757507
0.027286438 0.04194165 0.05639445 -0.06267029 0.058174573 -0.028110752 0.119086444 0.16654952
0.22962992 0.034802217 0.01672329 0.019642077 0.04979907 0.1296129 0.031995147 0.02666218
-0.0495432 0.05979764 0.102055244 0.014115139 -0.012072799 -0.08008905 -0.025311274 0.008775047
0.0077854516 -0.04727655 0.035615396 0.05458903 -0.06639628 -0.018804172 0.13749714 0.0125696
0.16453056 -0.0055900896 0.026386248 0.09667896 -0.011521462 0.11504144 0.010200876 -0.10153213
0.052517336 0.086247936 -0.044799216 0.053974487 0.24599159 0.021235326 0.06317843 0.123035915
-0.041544925 -0.013161642 0.08807697 0.14265274 0.014063472 0.07280722 0.10618147 -0.0049802233
00000000: 37b6 ecbc 99f9 163e 3fa6 143d 9c85 d43d
00000010: 1b7b 88bc 59ff cb3d de6d 393d 7424 a5bd
00000020: d6aa 2c3e 74ce 7dbd d5fe c9bd 0c68 003e
00000030: 9500 0dbd f847 4c3d 6455 e5bc 374e 35bd
00000040: cd53 1bbd 7718 193d c8cf 45bc 9f20 ca3c
00000050: d73a 233d e09f 143e 5510 5abd a9ee 94bd
00000060: cd63 863b 266d 303e e11c a43d 33ab 9b3d
00000070: 7f18 683d a57e 183e c146 ca3d c33e ba3d
00000080: fdec 49bd 8fec a93d 64a0 ddbd 0c80 133d
00000090: 09c8 18bd 01e1 1b3e d6d0 47bd b68d 953d
000000a0: 7f19 813d 0b5f 473c e7e2 d1bd 2c64 64bb
000000b0: efe3 1ebd 781e 6b3d 8a2b 74bd dd5d 073e
000000c0: 5fe0 72bd 0dea 3ebd 00b6 383e a816 d03c
000000d0: b28e 893d c07c 7ebd 88e1 173d 388d ba3b
000000e0: eeeb 833d 142d 503d 9421 1e3a 7b76 153d
000000f0: 3c2e 8bbd b5a7 1bbd 9c8f 203c 2130 b33c
00000100: 2f8d 3f3e e7ec 01be c6cd 273e 8394 05bd
00000110: 8b91 9abc 2be2 e5bc 1f9d 59bd 7fda a1bc
00000120: cf87 df3c 02cb 2b3d defd 663d 4859 80bd
00000130: 7648 6e3d 8548 e6bc 98e3 f33d f58b 2a3e
00000140: 1b24 6b3e c58c 0e3d 48ff 883c 6ce8 a03c
00000150: 1cfa 4b3d 3eb9 043e 580d 033d a56a da3c
00000160: cfed 4abd 5fee 743d 5702 d13d 2f43 673c
00000170: fdcc 45bc ba05 a4bd 9759 cfbc 37c5 0f3c
00000180: 1a1d ff3b 0ea5 41bd 73e1 113d bf98 5f3d
00000190: c6fa 87bd 350b 9abc 0dcc 0c3e b9f0 4d3c
000001a0: b37a 283e 122d b7bb f927 d83c 9eff c53d
000001b0: 84c4 3cbc d99a eb3d 9321 273c 14f0 cfbd
000001c0: 6b1c 573d c2a2 b03d 627f 37bd 5a14 5d3d
000001d0: 38e5 7b3e b5f5 ad3c b163 813d 41fa fb3d
000001e0: 032b 2abd eda3 57bc b361 b43d 8f13 123e
000001f0: 7a6a 663c f41b 953d ac75 d93d 2431 a3bb

sequential_2/myConv2/Conv2D/ReadVariableOp:0 f4 [32, 32, 5, 5]
0.058862768 -0.035867877 0.05011277 0.12521453 0.08524663 -0.074142545 -0.05787273 0.15616538
0.11415819 0.023831353 -0.073769376 0.012210746 0.020649882 -0.06497121 -0.05707245 0.05355161
0.20646776 0.04245715 -0.007889559 -0.016906265 0.064678885 -0.008563443 -0.0064379573 -0.12486873
-0.020537904 0.05935465 -0.022188744 -0.031686015 -0.04293904 0.07952974 0.05041192 0.117784575
0.02263921 0.09045599 0.0516856 0.054794576 0.014985463 0.03549134 0.040783722 0.085193984
-0.11944137 -0.1226022 -0.037214838 0.07330653 0.03221658 -0.053552754 -0.047898594 -0.0036104259
-0.008980384 -0.0052465964 -0.05359169 0.08969294 0.17877486 0.15005475 0.05301611 -0.01594157
0.042841006 0.014615958 -0.08360599 -0.16285317 -0.18288419 -0.05755296 0.0031802922 -0.019160276
-0.056748565 0.047253516 -0.027839847 -0.014601137 -0.024200998 -0.075486735 -0.076339975 -0.03625313
-0.08109664 -0.016617814 -0.042047024 -0.03830314 0.11535461 0.048531383 0.10255148 0.12940277
-0.07096998 0.0759195 0.18029644 0.07285196 -0.07567096 -0.21718769 -0.10024782 -0.08154441
-0.009442783 -0.026329573 -0.048810475 -0.044173427 -0.07975579 -0.24440452 -0.048404276 -0.050737493
0.07127179 -0.016027648 -0.11553759 -0.1132079 0.018767394 -0.043020528 0.0007803223 0.059513066
-0.031176046 -0.040577482 0.0052429494 0.06196395 0.0064985664 0.0277615 -0.06671416 -0.09177041
-0.06955546 0.010210118 -0.011923348 -0.07725073 -0.13077217 0.0019218832 0.07554627 -0.012205179
0.025254577 -0.03190462 -0.04109199 -0.03565282 -0.14372818 -0.18975998 -0.1982443 -0.050967652
0.016428156 0.073454425 -0.022716517 -0.09398869 -0.06421691 -0.018758392 0.021279627 0.11909049
0.03936441 0.037324287 0.04159158 -0.033825137 0.084306404 -0.10397592 0.1381517 0.08936661
0.03500002 0.05712329 0.08850447 -0.018381119 0.029428981 -0.01563052 0.031438578 -0.0061130784
0.043786626 0.01716642 0.013900084 -0.014259048 -0.044698115 -0.05424084 0.07300052 0.022341311
-0.06391895 0.0016207971 0.005484551 0.048271637 0.0068840464 0.037117545 -0.032401536 0.01483449
0.07632063 0.08861856 0.029289918 0.04119065 0.02289517 -0.04563112 -0.0072968393 -0.29523292
-0.09249697 -0.015049445 0.04070747 0.1035545 -0.11497739 -0.12374091 -0.027548999 0.048551824
0.07851572 0.009963492 -0.06497123 -0.08486857 0.0152738 -0.005616773 0.17005669 0.10643612
0.014522546 0.060496755 0.001374831 -0.020671405 0.0043932535 -0.05399501 -0.18976921 -0.0630269
-0.14748515 -0.13891028 -0.08247747 -0.037918847 -0.051102176 -0.053939678 -0.014920077 -0.015349024
0.025217224 -0.018071277 -0.04109939 -0.057516154 -0.029617272 0.040449657 0.03898488 -0.010422987
0.013173329 -0.022474289 0.050817326 0.06231756 -0.10249881 -0.00069109624 0.014290039 -0.068400614
0.018214166 0.09056017 -0.0216325 -0.15316714 -0.35647058 -0.21713087 0.09234749 -0.01734638
-0.21942078 -0.1302117 -0.041257184 0.18821435 -0.0033091856 0.08703481 0.08825032 -0.038458407
-0.030132996 -0.037681203 0.03328316 -0.022154357 -0.045779992 -0.09821786 0.09969438 0.083186194
0.020638376 0.000996857 0.04926273 0.015996529 0.056645922 -0.029682025 0.036530122 0.06429365
00000000: 161a 713d 32ea 12bd 0c43 4d3d 3d38 003e
00000010: c995 ae3d 0cd8 97bd f50b 6dbd d1e9 1f3e
00000020: c5cb e93d f839 c33c 6614 97bd 950f 483c
00000030: f129 a93c a00f 85bd cdc4 69bd ef58 5b3d
00000040: 496c 533e 8ce7 2d3d 3543 01bc 027f 8abc
00000050: 5d76 843d af4d 0cbc 80f5 d2bb 2dbb ffbd
00000060: 1b3f a8bc dd1d 733d 2bc5 b5bc 32c9 01bd
00000070: d9e0 2fbd 7de0 a23d bb7c 4e3d 0a39 f13d
00000080: dd75 b93c fd40 b93d 48b4 533d 4770 603d
00000090: 9685 753c 5e5f 113d d50c 273d 2f7a ae3d
000000a0: ad9d f4bd dd16 fbbd 966e 18bd bc21 963d
000000b0: 88f5 033d 225a 5bbd 5131 44bd e59c 6cbb
000000c0: 7622 13bc a4eb abbb f682 5bbd efb0 b73d
000000d0: c210 373e f4a7 193e 6c27 593d e597 82bc
000000e0: 0d7a 2f3d c577 6f3c 9e39 abbd fbc2 26be
000000f0: fe45 3bbe a7bc 6bbd 736c 503b 03f6 9cbc
00000100: 2f71 68bd e78c 413d 6410 e4bc 9b39 6fbc
00000110: 2c41 c6bc ca98 9abd 2258 9cbd 297e 14bd
00000120: ff15 a6bd 1522 88bc 8039 2cbd c1e3 1cbd
00000130: 0a3f ec3d d8c8 463d 8306 d23d 2982 043e
00000140: b558 91bd af7b 9b3d a19f 383e 6933 953d
00000150: 60f9 9abd 7366 5ebe bb4e cdbd c100 a7bd
00000160: e7b5 1abc 1eb1 d7bc 7eed 47bd 32ef 34bd
00000170: 0157 a3bd 2e45 7abe 9043 46bd 1ed2 4fbd
00000180: f2f6 913d 6a4c 83bc f99e ecbd 8bd9 e7bd
00000190: 14be 993c 4b36 30bd 8b8e 4c3a f9c3 733d
000001a0: e864 ffbc 9334 26bd 0ccd ab3b e9cd 7d3d
000001b0: edf1 d43b 166c e33c 6fa1 88bd 20f2 bbbd
000001c0: 1873 8ebd 5748 273c 255a 43bc a135 9ebd
000001d0: 24e9 05be b3e7 fb3a 01b8 9a3d 3bf8 47bc
000001e0: b0e2 ce3c 6bae 02bd 1350 28bd b108 12bd
000001f0: 7b2d 13be 7150 42be 8e00 4bbe 75c3 50bd
00000200: 5794 863c 466f 963d fd17 babc 247d c0bd
00000210: 2884 83bd 33ab 99bc 9d52 ae3c b7e5 f33d
00000220: 933c 213d 5ae1 183d ef5b 2a3d 3a8c 0abd
00000230: d6a8 ac3d 54f1 d4bd a477 0d3e d705 b73d
00000240: 2e5c 0f3d 1cfa 693d d541 b53d 0094 96bc
00000250: 0c15 f13c 940b 80bc bdc5 003d 3850 c8bb
00000260: 9b59 333d 98a0 8c3c 2ebd 633c c89e 69bc
00000270: 5f15 37bd a52b 5ebd 4c81 953d 2005 b73c
00000280: f0e7 82bd ed70 d43a c0b7 b33b 7bb8 453d
00000290: 9193 e13b 9108 183d 79b7 04bd 5c0c 733c
000002a0: fe4d 9c3d a67d b53d 69f1 ef3c 87b7 283d
000002b0: a78e bb3c b3e7 3abd 531a efbb c528 97be
000002c0: 0d6f bdbd f391 76bc e0bc 263d 6214 d43d
000002d0: 4479 ebbd e06b fdbd 70ae e1bc 47de 463d
000002e0: dacc a03d ea3d 233c a30f 85bd 93cf adbd
000002f0: f63e 7a3c e80c b8bb 5723 2e3e 2efb d93d
00000300: f9ef 6d3c 72cb 773d ac33 b43a 1457 a9bc
00000310: 48f5 8f3b df29 5dbd dc52 42be 3f14 81bd
00000320: 5906 17be 7f3e 0ebe f3e9 a8bd cb50 1bbd
00000330: 8450 51bd daef 5cbd 5773 74bc 797a 7bbc
00000340: 5a94 ce3c 370a 94bc d557 28bd 0f96 6bbd
00000350: ec9f f2bc 8aae 253d 9cae 1f3d 2dc5 2abc
00000360: f2d4 573c 001c b8bc d425 503d b340 7f3d
00000370: e5ea d1bd af2a 35ba c520 6a3c 9f15 8cbd
00000380: e035 953c 9c77 b93d a436 b1bc d9d7 1cbe
00000390: 5083 b6be 8e57 5ebe ae20 bd3d ff19 8ebc
000003a0: d7af 60be 3756 05be 4bfd 28bd 43bb 403e
000003b0: ecde 58bb 4e3f b23d 95bc b43d 9086 1dbd
000003c0: 79d9 f6bc 9b57 1abd ec53 083d 0e7d b5bc
000003d0: cd83 3bbd 7226 c9bd 912c cc3d 865d aa3d
000003e0: d011 a93c f8a8 823a b7c7 493d 270b 833c
000003f0: 8e05 683d b827 f3bc 9ca0 153d 64ac 833d

sequential_2/myConv2/BiasAdd/ReadVariableOp:0 f4 [32]
-0.18384819 0.027089644 -0.20512637 -0.22259365 -0.05129985 -0.21749307 -0.20818965 -0.13283819
-0.15120569 0.00834792 -0.17270926 0.037352215 -0.14775772 0.061767753 -0.16146927 -0.00920113
-0.15434614 -0.18185744 -0.02497434 -0.14269005 -0.33872393 -0.098491736 -0.1514667 -0.12459928
-0.27227718 -0.20034465 -0.17849346 -0.16041727 -0.25079846 -0.37438634 -0.0318025 -0.14528303
00000000: b342 3cbe 1aeb dd3c a60c 52be 97ef 63be
00000010: cb1f 52bd 81b6 5ebe ab2f 55be bc06 08be
00000020: aad5 1abe b7c5 083c b2da 30be a3fe 183d
00000030: cd4d 17be 2f00 7d3d 3358 25be 56c0 16bc
00000040: ea0c 1ebe d638 3abe fd96 ccbc 571d 12be
00000050: 396d adbe 09b6 c9bd 161a 1bbe e82d ffbd
00000060: ea67 8bbe 2627 4dbe fdc6 36be 6d44 24be
00000070: a868 80be 91af bfbe 5743 02bd 13c5 14be

sequential_2/myConv1/Conv2D/ReadVariableOp:0 f4 [32, 1, 5, 5]
-0.034575317 -0.092223555 0.0078060217 0.0948057 0.036446583 -0.04043131 -0.10791393 -0.1737061
-0.122194245 0.07811075 0.11840694 0.13664371 0.0649236 -0.0023297505 0.012009845 0.016770672
0.07358221 -0.05005012 -0.124396734 -0.09144231 -0.15763882 -0.032259826 0.023927234 -0.118418895
-0.07641014 0.07709781 0.02436341 0.038291436 0.14513674 0.11525517 0.096297376 0.10279689
0.04496501 -0.016293092 0.09339987 -0.07165856 0.041164543 0.028011613 0.038886126 0.05354874
0.012699851 -0.052231748 0.009330984 -0.05449344 0.06308072 -0.055040147 -0.011979561 -0.121374644
-0.1288356 -0.032747533 0.027100297 0.05991924 -0.108070746 -0.09683352 -0.08058723 0.018051578
0.086649224 0.20076472 0.13255389 0.105249934 -0.046601497 -0.08888465 -0.048576016 0.0058680065
-0.011154209 -0.0069322474 -0.106434055 -0.109304 -0.11512076 -0.097529314 0.102796376 0.041631848
0.06506588 0.04436144 -0.028799327 0.08141362 0.020657789 -0.12372886 -0.19722173 -0.025366815
0.02518463 0.13679793 0.107231006 -0.035380155 0.06613428 -0.040549405 0.004129498 0.16671799
0.07918953 0.055504765 -0.021093493 -0.035057712 0.008551189 0.026098812 0.039088827 -0.049080536
-0.040303603 -0.088124484 0.0063628894 -0.023241118 0.022643238 0.01522127 0.078140914 0.018178249
-0.0662227 -0.050848186 -0.122013725 -0.091751374 0.11942423 0.13803825 0.015638193 0.038426526
0.116290465 -0.03658104 0.053796448 0.058725554 0.059275143 -0.014986675 -0.072857305 -0.012262556
-0.06774564 -0.058220003 -0.14991419 -0.057293657 0.108924106 -0.04758558 0.09055106 -0.02316837
-0.018774288 -0.12898774 -0.054662395 0.050386548 0.03239583 0.054106332 -0.21085443 -0.090869315
0.09096792 0.03896268 0.07884075 -0.34442118 0.104402795 0.04868248 0.09724704 -0.24956349
-0.1755859 0.010475443 -0.11319798 -0.16012542 -0.23215106 0.012390461 -0.19817747 -0.026287926
0.074427344 0.038539287 0.021199804 -0.26468158 0.115807205 0.078298755 -0.009538493 0.100300536
-0.3162596 -0.10517513 0.08938713 -0.0029931746 -0.04362675 -0.18415293 -0.33955777 -0.2558045
-0.15153617 -0.18229336 -0.013755058 -0.016915409 -0.029331788 -0.0032725504 -0.0044268016 -0.10504458
-0.13184777 -0.14248466 -0.19523957 0.002779835 0.10174236 0.030897448 -0.04929297 -0.08695124
-0.194547 -0.04575932 0.09090654 0.10248768 -0.11934011 -0.32029757 0.0051328368 0.05433782
-0.0056987004 0.013275551 -0.11241747 0.039361678 0.07214335 -0.05511555 -0.010418508 -0.122081436
-0.09575427 0.014605497 0.06284685 0.10704794 0.058172353 -0.034667518 -0.019348577 -0.002280895
0.03613981 -0.12078475 -0.19016032 -0.036967233 0.09403361 0.01400528 0.03476149 -0.06969975
-0.10824688 0.057798352 0.028426617 0.025123827 -0.07794676 -0.077343814 0.039615512 0.08678152
0.05847563 0.065374546 -0.016158149 -0.17846003 -0.2307851 -0.09361985 0.0390444 -0.27374032
-0.07842685 -0.010958827 0.014251412 -0.16582239 -0.16220738 -0.002912761 0.07393701 -0.009532187
-0.29542667 0.0021123788 0.05044086 0.09047794 0.07963383 -0.27499947 -0.03404271 0.08919125
0.0077827857 -0.11052659 0.016768815 -0.113023974 0.04094344 -0.020562181 0.031894427 0.09126533
00000000: d99e 0dbd b4df bcbd a8c9 ff3b 7e29 c23d
00000010: 0349 153d 4d9b 25bd fb01 ddbd 03e0 31be
00000020: fa40 fabd 87f8 9f3d 567f f23d 54ec 0b3e
00000030: aaf6 843d baae 18bb f1c4 443c a662 893c
00000040: 45b2 963d 5b01 4dbd b7c3 febd 1b46 bbbd
00000050: 126c 21be e122 04bd 0c03 c43c 9b85 f2bd
00000060: eb7c 9cbd 75e5 9d3d c695 c73c 7bd7 1c3d
00000070: ba9e 143e e70a ec3d 8f37 c53d 2d87 d23d
00000080: 3b2d 383d 1779 85bc 6e48 bf3d b9c1 92bd
00000090: 279c 283d 9c78 e53c 0f47 1f3d ec55 5b3d
000000a0: 0913 503c f5f0 55bd fce0 183c 8334 5fbd
000000b0: 7730 813d c771 61bd ec45 44bc 4593 f8bd
000000c0: 7bed 03be 4722 06bd 7101 de3c e16d 753d
000000d0: 3254 ddbd a750 c6bd eb0a a5bd e7e0 933c
000000e0: 2675 b13d 4495 4d3e 35bc 073e 478d d73d
000000f0: 36e1 3ebd 2809 b6bd a5f7 46bd 6848 c03b
00000100: 25c0 36bc e827 e3bb 19fa d9bd c7da dfbd
00000110: 6fc4 ebbd 73bd c7bd e886 d23d 2886 2a3d
00000120: 4341 853d 57b4 353d 91ec ebbc 2fbc a63d
00000130: 863a a93c 8e65 fdbd 7ef4 49be 11ce cfbc
00000140: ff4f ce3c c214 0c3e ee9b db3d c8ea 10bd
00000150: 6971 873d 2217 26bd bd50 873b 1fb8 2a3e
00000160: 1f2e a23d f758 633d 43cc acbc ad98 0fbd
00000170: 491a 0c3c 2dcd d53c 9b1b 203d ac08 49bd
00000180: 6415 25bd 9c7a b4bd c97f d03b 2864 bebc
00000190: 507e b93c a262 793c 5808 a03d 8dea 943c
000001a0: c49f 87bd 3046 50bd 55e2 f9bd 25e8 bbbd
000001b0: b194 f43d e659 0d3e ab1b 803c 2265 1d3d
000001c0: b229 ee3d 00d6 15bd aa59 5c3d 358a 703d
000001d0: 7eca 723d ac8a 75bc 3636 95bd e3e8 48bc
000001e0: 3abe 8abd 1978 6ebd 1b83 19be c1ac 6abd
000001f0: 9a13 df3d 19e9 42bd d672 b93d 98cb bdbc
00000200: 89cc 99bc 5d15 04be ade5 5fbd 2062 4e3d
00000210: 7db1 043d 9a9e 5d3d 39ea 57be b119 babd
00000220: 644d ba3d 5597 1f3d 4277 a13d f957 b0be
00000230: 22d1 d53d 4867 473d 7529 c73d 928d 7fbe
00000240: cacc 33be 31a1 2b3c 58d4 e7bd ebf7 23be
00000250: 02b9 6dbe 5c01 4b3c 09ef 4abe c759 d7bc
00000260: 5d6d 983d 5fdb 1d3d 36ab ad3c 5884 87be
00000270: 542c ed3d 195b a03d 5747 1cbc 5e6a cd3d
00000280: c7ec a1be 0f66 d7bd 9a10 b73d 2329 44bb
00000290: f7b1 32bd 9692 3cbe 84da adbe cff8 82be
000002a0: 4c2c 1bbe 1cab 3abe e55c 61bc 2f92 8abc
000002b0: 3849 f0bc 4978 56bb b40e 91bb 9d21 d7bd
000002c0: 1a03 07be 80e7 11be e2ec 47be e42d 363b
000002d0: 4c5e d03d a51c fd3c 6de7 49bd 7e13 b2bd
000002e0: 5437 47be 206e 3bbd 352d ba3d 10e5 d13d
000002f0: 9668 f4bd 0bfe a3be 5b31 a83b 5591 5e3d
00000300: 2abc babb b281 593c 213b e6bd b639 213d
00000310: e5bf 933d d8c0 61bd 64b2 2abc d505 fabd
00000320: d11a c4bd e54b 6f3c d9b5 803d f33b db3d
00000330: 2246 6e3d 87ff 0dbd e880 9ebc 117b 15bb
00000340: 5607 143d ff5d f7bd 63b9 42be f46a 17bd
00000350: b194 c03d 6776 653c 1062 0e3d bebe 8ebd
00000360: 8ab0 ddbd f7bd 6c3d f0de e83c 7cd0 cd3c
00000370: 8da2 9fbd 6f66 9ebd e043 223d 82ba b13d
00000380: 2484 6f3d 17e3 853d 185e 84bc 3abe 36be
00000390: ee52 6cbe c4bb bfbd 05ed 1f3d b127 8cbe
000003a0: 429e a0bd a78c 33bc c17e 693c 58cd 29be
000003b0: b119 26be 05e4 3ebb 496c 973d e42c 1cbc
000003c0: 2a42 97be d66f 0a3b 139b 4e3d 804c b93d
000003d0: 1017 a33d bbcc 8cbe 5e70 0bbd e7a9 b63d
000003e0: bd06 ff3b c45b e2bd c15e 893c 1d79 e7bd
000003f0: 4fb4 273d 0572 a8bc bba3 023d 51e9 ba3d

sequential_2/myConv1/BiasAdd/ReadVariableOp:0 f4 [32]
-0.00041960424 -0.18350258 -0.083893426 -0.19317104 -0.120570414 -0.02229004 0.024851674 0.021668274
-0.14042674 0.016147366 0.047853395 0.030080374 0.042357646 -0.09551748 0.0071463385 0.028847987
-0.0031661969 -0.1846702 0.013865842 0.028772024 0.050986707 0.025172843 -0.07691941 -0.09889604
-0.009831263 -0.020441748 -0.19967617 -0.07553195 0.058102146 0.019783463 0.051012028 0.05921161
00000000: 54fe dbb9 1ae8 3bbe 51d0 abbd a1ce 45be
00000010: 9fed f6bd 9a99 b6bc bd95 cb3c aa81 b13c
00000020: 07cc 0fbe 7b47 843c ec01 443d 1e6b f63c
00000030: 367f 2d3d ab9e c3bd d52b ea3b 9d52 ec3c
00000040: f87f 4fbb 2f1a 3dbe 8e2d 633c 4fb3 eb3c
00000050: 70d7 503d 4737 ce3c ec87 9dbd 028a cabd
00000060: 4e13 21bc 7475 a7bc e977 4cbe 7fb0 9abd
00000070: 84fc 6d3d ee10 a23c fdf1 503d e087 723d

sequential_2/myBN3/batchnorm/sub:0 f4 [128]
-0.5291861 -1.09263 -0.6424619 -1.014926 -0.7263125 -0.7333812 -0.8178738 -0.64596653
-1.0023656 -0.54646975 -0.50852954 -0.9201096 -0.632414 -0.74554735 -0.35315394 -0.49819165
-0.60494316 -0.53174216 -0.53109175 -0.55744374 -0.74486065 -1.1275772 -0.69842887 -0.76080334
-0.7178161 -0.8046665 -0.8015351 -0.9917046 -0.8668801 -0.9687436 -0.6660071 -0.8067575
-0.3834652 -0.7212764 -0.59910154 -0.63620585 -0.75551116 -0.8507427 -0.42931765 -0.83357424
-0.69428277 -0.7446666 -0.3303983 -1.0096922 -0.57356006 -0.8510803 -0.71630603 -0.9279522
-0.45994005 -0.67389023 -0.92782146 -0.5851347 -0.80875474 -0.43279046 -0.87838644 -0.85056776
-0.7109452 -0.7217567 -0.61110675 -0.5188602 -0.58501166 -0.4495818 -0.63097286 -0.5446161
-0.755281 -0.81241834 -0.99097884 -0.5851892 -0.6069344 -0.70023 -0.42626783 -0.81204486
-0.754005 -0.71563864 -0.67793936 -0.52470684 -0.5907616 -0.49711347 -0.7427983 -1.0161008
-0.8608805 -0.5399666 -0.61195636 -0.6954459 -0.66951877 -0.6980584 -0.59867656 -0.4978894
-0.5352697 -0.747926 -0.9827986 -0.74681294 -0.6096706 -0.67528903 -0.5392369 -0.6383449
-0.4765041 -0.3370644 -0.6938693 -0.7341492 -0.41085693 -0.72089607 -0.7190583 -0.7522495
-0.98755383 -0.9372755 -0.62052524 -0.77063864 -0.7703867 -0.7986947 -0.89539295 -0.28618032
-0.9464943 -0.7310834 -0.5516995 -0.7501336 -0.75822836 -0.6578425 -0.85014075 -0.6956925
-0.76622534 -0.6171695 -0.7962405 -0.9600993 -0.6114719 -0.7658813 -0.9414236 -0.6952038
00000000: be78 07bf 4ddb 8bbf 6278 24bf 18e9 81bf
00000010: 9eef 39bf dfbe 3bbf 2d60 51bf 105e 25bf
00000020: 844d 80bf 71e5 0bbf fe2e 02bf 4e8c 6bbf
00000030: e2e5 21bf 31dc 3ebf 98d0 b4be fa12 ffbe
00000040: 8edd 1abf 4120 08bf a1f5 07bf a2b4 0ebf
00000050: 30af 3ebf 7354 90bf 3ccc 32bf 02c4 42bf
00000060: ccc2 37bf a0fe 4dbf 6831 4dbf 5ae0 7dbf
00000070: dbeb 5dbf 95ff 77bf 717f 2abf a987 4ebf
00000080: 8d55 c4be 92a5 38bf b85e 19bf 63de 22bf
00000090: 2e69 41bf 46ca 59bf 86cf dbbe 1f65 55bf
000000a0: 84bc 31bf 78a2 3ebf f729 a9be 983d 81bf
000000b0: d5d4 12bf 66e0 59bf d55f 37bf 468e 6dbf
000000c0: 437d ebbe 1284 2cbf b585 6dbf 63cb 15bf
000000d0: 8d0a 4fbf b696 ddbe efdd 60bf cfbe 59bf
000000e0: 8100 36bf 0cc5 38bf 7e71 1cbf 06d4 04bf
000000f0: 53c3 15bf 962f e6be 7087 21bf f66b 0bbf
00000100: 185a 41bf a6fa 4fbf cab0 7dbf f6ce 15bf
00000110: 0e60 1bbf 4642 33bf c73f dabe 2ce2 4fbf
00000120: 7906 41bf 1834 37bf 6f8d 2dbf 3053 06bf
00000130: 273c 17bf a885 febe 0828 3ebf 970f 82bf
00000140: aa62 5cbf 403b 0abf 2ca9 1cbf be08 32bf
00000150: 9565 2bbf f5b3 32bf de42 19bf 5ceb febe
00000160: 6f07 09bf 1478 3fbf b098 7bbf 222f 3fbf
00000170: 5f13 1cbf bedf 2cbf 6e0b 0abf 926a 23bf
00000180: 58f8 f3be b493 acbe 6ba1 31bf 34f1 3bbf
00000190: d75b d2be a58c 38bf 3414 38bf 6c93 40bf
000001a0: 54d0 7cbf 4af1 6fbf beda 1ebf 9348 45bf
000001b0: 1038 45bf 4177 4cbf 7938 65bf 3a86 92be
000001c0: 734d 72bf 4828 3bbf 2e3c 0dbf c108 40bf
000001d0: 411b 42bf 5e68 28bf d3a2 59bf e718 32bf
000001e0: 5827 44bf d2fe 1dbf 6bd6 4bbf 11c9 75bf
000001f0: 6c89 1cbf cc10 44bf 2301 71bf e0f8 31bf

sequential_2/myBN3/batchnorm/mul:0 f4 [128]
0.37459457 0.25484627 0.24118936 0.20879439 0.38608846 0.20905568 0.21761493 0.27533638
0.2435108 0.3807462 0.30767605 0.20587006 0.30856463 0.46781558 0.4750021 0.44986388
0.3543509 0.32703808 0.34245205 0.23906933 0.31044322 0.24194548 0.40436047 0.23745829
0.28638095 0.3316273 0.2998507 0.2522386 0.23715484 0.21784954 0.33903354 0.25044242
0.38739955 0.2533039 0.36007157 0.25346673 0.2780655 0.26100677 0.43454894 0.28859162
0.27987313 0.29753777 0.6074186 0.26964986 0.41226578 0.194619 0.29079893 0.20987348
0.43058777 0.3505915 0.27890167 0.44606417 0.2814257 0.4120911 0.2886009 0.25101745
0.27193797 0.31767762 0.3513748 0.46161327 0.3500156 0.48571506 0.27615762 0.32721433
0.25686833 0.29996923 0.22093552 0.35150203 0.41319776 0.2800766 0.5737169 0.29045972
0.40443856 0.32460937 0.25608155 0.48204207 0.25134328 0.5360632 0.26218307 0.2631866
0.29145023 0.30745858 0.33889073 0.30813697 0.3414735 0.28034535 0.36740303 0.28037563
0.39964718 0.28282318 0.23613796 0.2976958 0.37322968 0.3981874 0.3535014 0.23949768
0.28573945 0.42705134 0.24115668 0.19799547 0.36351588 0.26137325 0.2982651 0.24147527
0.2575583 0.27341124 0.27457514 0.27766263 0.28592044 0.28380734 0.25194785 0.43592876
0.2535287 0.22588508 0.47075036 0.27450487 0.22242461 0.27580726 0.2510469 0.3320671
0.31190935 0.42713103 0.22999187 0.23819232 0.3797925 0.22484481 0.28171122 0.2756356
00000000: dcca bf3e 367b 823e 58fa 763e 32ce 553e
00000010: 63ad c53e b112 563e 73d6 5e3e e4f8 8c3e
00000020: e55a 793e 2af1 c23e b787 9d3e 9acf 523e
00000030: 2ffc 9d3e 8685 ef3e 7a33 f33e 8f54 e63e
00000040: 7b6d b53e 8971 a73e e055 af3e 97ce 743e
00000050: 6af2 9e3e 8ec0 773e 5608 cf3e 4428 733e
00000060: 86a0 923e 0ecb a93e 0886 993e 6b25 813e
00000070: b8d8 723e f313 5f3e ce95 ad3e fd39 803e
00000080: 3c59 c63e 0cb1 813e 4d5b b83e 64c6 813e
00000090: 9a5e 8e3e aea2 853e 337d de3e 48c2 933e
000000a0: 884b 8f3e df56 983e c97f 1b3f 8c0f 8a3e
000000b0: 8014 d33e 344a 473e 99e3 943e 13e9 563e
000000c0: 0076 dc3e bb80 b33e 33cc 8e3e 8662 e43e
000000d0: 0817 903e 9bfd d23e 7fc3 933e 5c85 803e
000000e0: 743b 8b3e a4a6 a23e 66e7 b33e 9358 ec3e
000000f0: 3f35 b33e a5af f83e 8864 8d3e a388 a73e
00000100: 3f84 833e 9195 993e ec3c 623e 13f8 b33e
00000110: a88e d33e 3366 8f3e 1cdf 123f 23b7 943e
00000120: 9212 cf3e 3333 a63e 1f1d 833e 38ce f63e
00000130: 11b0 803e 703b 093f dc3c 863e 65c0 863e
00000140: f738 953e 366b 9d3e 1683 ad3e 21c4 9d3e
00000150: 9dd5 ae3e 6d89 8f3e 401c bc3e 658d 8f3e
00000160: 8e9e cc3e 33ce 903e 26ce 713e 956b 983e
00000170: f617 bf3e 38df cb3e 23fe b43e e13e 753e
00000180: 714c 923e 79a6 da3e c7f1 763e 53bf 4a3e
00000190: c11e ba3e b7d2 853e 34b6 983e 4b45 773e
000001a0: aede 833e 8ffc 8b3e 1d95 8c3e cc29 8e3e
000001b0: 2a64 923e 324f 913e 4fff 803e 0e32 df3e
000001c0: 84ce 813e 6b4e 673e 3106 f13e e78b 8c3e
000001d0: 47c3 633e 9c36 8d3e 3889 803e b304 aa3e
000001e0: 95b2 9f3e ebb0 da3e fd82 6b3e b0e8 733e
000001f0: 2a74 c23e b83d 663e 743c 903e 1c20 8d3e

sequential_2/myBN2/ReadVariableOp_1:0 f4 [32]
-0.22157423 -0.26341546 -0.3187252 -0.2557063 -0.26091096 -0.36343163 -0.31617236 -0.32490522
-0.20506091 -0.23959108 -0.3225233 -0.28439635 -0.24733472 -0.21852797 -0.3047544 -0.36195445
-0.239921 -0.33997974 -0.25259966 -0.2701498 -0.3393579 -0.346633 -0.30675635 -0.23784594
-0.22671764 -0.27925435 -0.41085222 -0.24803647 -0.34627065 -0.20348126 -0.32352918 -0.32131183
00000000: 5be4 62be 64de 86be f32f a3be f0eb 82be
00000010: 1f96 85be b613 babe 58e1 a1be fa59 a6be
00000020: 7dfb 51be 5d57 75be c621 a5be 669c 91be
00000030: 5045 7dbe ccc5 5fbe c508 9cbe 1852 b9be
00000040: daad 75be d311 aebe be54 81be 1351 8abe
00000050: 52c0 adbe e179 b1be 2b0f 9dbe e38d 73be
00000060: ab28 68be 6dfa 8ebe 395b d2be 46fd 7dbe
00000070: 634a b1be 645d 50be 9ea5 a5be fc82 a4be

sequential_2/myBN2/ReadVariableOp:0 f4 [32]
0.97377586 0.9901815 0.9776221 0.93604505 0.9621384 0.99703664 0.9979099 0.995693
0.9645572 0.91625077 1.078116 0.87263864 0.9956399 0.8694618 1.007152 0.9465054
0.9939294 0.8472772 0.9957636 1.1229088 1.1578941 1.0199698 1.0580246 0.88764197
0.9141959 0.935923 0.91387415 0.98897386 1.0402265 1.101765 0.90288043 0.8813293
00000000: 6049 793f 897c 7d3f 7145 7a3f a6a0 6f3f
00000010: b44e 763f cb3d 7f3f 0677 7f3f bde5 7e3f
00000020: 38ed 763f 698f 6a3f b5ff 893f 3f65 5f3f
00000030: 42e2 7e3f 0c95 5e3f 5bea 803f 2e4e 723f
00000040: 2872 7e3f 29e7 583f 5dea 7e3f 7abb 8f3f
00000050: e035 943f 5f8e 823f 5a6d 873f 813c 633f
00000060: be08 6a3f a698 6f3f a8f3 693f 642d 7d3f
00000070: 2426 853f a306 8d3f 2c23 673f cc9e 613f

sequential_2/myBN2/FusedBatchNormV3/ReadVariableOp_1:0 f4 [32]
7.012679 18.253428 2.9398334 5.1270437 10.235673 3.3651645 8.280059 3.6088734
3.7572541 12.165049 4.5869994 13.338275 3.924008 2.1015441 3.3769608 4.5438995
2.896078 4.0412154 5.3673115 1.9076923 6.416079 4.275401 5.0220847 2.1945481
1.2364727 2.6866665 4.389895 3.9856374 2.0712898 4.001736 7.2016897 5.925982
00000000: de67 e040 0507 9241 3b26 3c40 be10 a440
00000010: 51c5 2341 db5e 5740 1f7b 0441 c8f7 6640
00000020: da76 7040 0aa4 4241 b3c8 9240 9369 5541
00000030: f222 7b40 b37f 0640 2020 5840 a067 9140
00000040: 5859 3940 a351 8140 04c1 ab40 432f f43f
00000050: 8550 cd40 16d0 8840 ebb4 a040 7a73 0c40
00000060: bd44 9e3f 58f2 2b40 057a 8c40 af14 7f40
00000070: 0390 0440 390e 8040 3e74 e640 a5a1 bd40

sequential_2/myBN2/FusedBatchNormV3/ReadVariableOp:0 f4 [32]
1.1336648 3.1664877 0.6350376 1.0144573 2.233152 0.64999837 1.4282551 0.69853795
0.8210735 2.3946254 0.8327572 2.1376913 0.76932627 0.5114286 0.78117305 0.96994317
0.6251348 0.8619974 0.9866188 0.5179387 1.1189629 0.8647845 0.84920025 0.51969
0.26128808 0.512714 0.8693611 0.5993693 0.35186774 0.7307519 1.4145792 1.2479901
00000000: ee1b 913f bca7 4a40 d391 223f bdd9 813f
00000010: f6eb 0e40 4b66 263f 10d1 b63f 62d3 323f
00000020: df31 523f 8b41 1940 932f 553f efcf 0840
00000030: 91f2 443f fcec 023f f5fa 473f 324e 783f
00000040: d608 203f ddab 5c3f 0d93 7c3f a197 043f
00000050: 2d3a 8f3f 8462 5d3f 3065 593f 670a 053f
00000060: 8dc7 853e 3a41 033f 738e 5e3f 4470 193f
00000070: 0228 b43e 8e12 3b3f ee10 b53f 24be 9f3f

sequential_2/myBN1/ReadVariableOp_1:0 f4 [32]
-0.34703827 0.20273763 -0.035301693 -0.0031726656 0.1616738 -0.041704938 0.24380562 -0.086176254
0.03529567 0.012394906 0.012296989 0.100456074 0.067019075 -0.17098482 0.023291174 0.076449454
-0.020258006 -0.066077635 -0.05691227 0.017472304 -0.21605852 0.106881045 -0.12511468 -0.054901842
-0.061425187 0.05633887 0.21458907 0.10530956 0.11806698 0.0529995 0.10703198 -0.042428464
00000000: 00af b1be 749a 4f3e 8298 10bd 7fec 4fbb
00000010: d18d 253e ccd2 2abd 2ea8 793e 2d7d b0bd
00000020: 3192 103d 0114 4b3c 4f79 493c eabb cd3d
00000030: 4c41 893d a516 2fbe 22cd be3c 8891 9c3d
00000040: 1ef4 a5bc b653 87bd d71c 69bd 1422 8f3c
00000050: 723e 5dbe 73e4 da3d 101e 00be c1e0 60bd
00000060: fa98 7bbd 96c3 663d 3dbd 5b3e 8aac d73d
00000070: 1acd f13d 0116 593d 9533 db3d 78c9 2dbd

sequential_2/myBN1/ReadVariableOp:0 f4 [32]
1.1494123 0.84042454 1.0317163 1.0735282 0.9471148 1.0491407 1.2897817 1.1256396
0.80168706 1.1583517 0.7108368 1.1640936 0.97902095 0.9509505 1.250285 1.1223284
0.86623853 0.7498863 1.2245849 0.98547083 0.83307415 1.112071 0.9732087 1.0157936
0.9913237 1.098397 0.8959782 0.9811097 0.86973345 0.91461414 1.0227462 0.73205066
00000000: f11f 933f 1026 573f 480f 843f 5f69 893f
00000010: 1e76 723f 3e4a 863f 9117 a53f f514 903f
00000020: 5d3b 4d3f de44 943f 67f9 353f 0501 953f
00000030: 1ea1 7a3f 7e71 733f 5709 a03f 75a8 8f3f
00000040: cfc1 5d3f 8cf8 3f3f 33bf 9c3f d147 7c3f
00000050: 5944 553f 5858 8e3f 3524 793f 8605 823f
00000060: 64c7 7d3f 4698 8c3f d45e 653f 012a 7b3f
00000070: daa6 5e3f 2724 6a3f 59e9 823f ac67 3b3f

sequential_2/myBN1/FusedBatchNormV3/ReadVariableOp_1:0 f4 [32]
0.00050079555 0.011861925 0.0009851253 0.0022392399 0.0011256568 0.001112666 0.0011048578 0.0013036086
0.0019259884 0.001038789 0.0070142155 0.0023638473 0.0067243455 0.0008341724 0.00093746727 0.0011422364
0.010311672 0.0018407961 0.0009822446 0.0047052237 0.0017999244 0.0022801613 0.0012012768 0.0010270474
0.0017219929 0.0015118485 0.0007552364 0.003216276 0.009355035 0.0016501242 0.004705143 0.003140185
00000000: d247 033a 8558 423c 521f 813a 36c0 123b
00000010: c68a 933a e0d6 913a e0d0 903a d9dd aa3a
00000020: 7271 fc3a fa27 883a 81d7 e53b c7ea 1a3b
00000030: e657 dc3b 5dac 5a3a 5dc0 753a 18b7 953a
00000040: 4af2 283c de46 f13a a9be 803a 472e 9a3b
00000050: 71eb eb3a c26e 153b 2974 9d3a fe9d 863a
00000060: 7eb4 e13a 3829 c63a 0ffb 453a 28c8 523b
00000070: dc45 193c fb48 d83a 9a2d 9a3b 90cb 4d3b

sequential_2/myBN1/FusedBatchNormV3/ReadVariableOp:0 f4 [32]
0.0048423395 0.04324598 0.0071554924 0.010402467 0.009510203 0.007209169 0.01720281 0.019468255
0.011179955 0.014616578 0.087389834 0.027769396 0.057045005 0.008113673 0.008684634 0.02346401
0.042827144 0.013756664 0.015845971 0.044694357 0.042438682 0.029791849 0.0068528876 0.00964587
0.008299266 0.011466114 0.0057018646 0.01657277 0.07982402 0.023818633 0.056255773 0.058394603
00000000: 7dac 9e3b b222 313d 9f78 ea3b 1c6f 2a3c
00000010: afd0 1b3c e53a ec3b e8ec 8c3c e47b 9f3c
00000020: 212c 373c 5f7a 6f3c 71f9 b23d a57c e33c
00000030: 06a8 693d 36ef 043c ff49 0e3c 9837 c03c
00000040: 846b 2f3d a163 613c 69cf 813c 6e11 373d
00000050: 2fd4 2d3d 090e f43c 308e e03b b609 1e3c
00000060: a5f9 073c 5edc 3b3c b5d6 ba3b 9ec3 873c
00000070: c77a a33d 4b1f c33c 746c 663d 2e2f 6f3d
