models/model37.onnx (onnx, 1422 bytes, 3 tensors)

sequential_11/dense_33/MatMul/ReadVariableOp:0 f4 [10, 1]
0	0x3c6ee05b	0.014579858
1	0xbe1f3bad	-0.15550108
2	0xbf43cdd3	-0.7648594
3	0x3e024f6b	0.12725608
4	0xbee23262	-0.44179064
5	0x3d18f91f	0.037346955
6	0xbee00b48	-0.43758607
7	0x3f521b95	0.82073337
8	0x3eac9f22	0.3371516
9	0x3ec95fb0	0.39330816

sequential_11/dense_32/MatMul/ReadVariableOp:0 f4 [4, 10]
0	0xbe9550bb	-0.29163155
1	0xbdc12833	-0.094314955
2	0xbf0be1cb	-0.5464141
3	0x3f87b766	1.0602844
4	0xbf735ef5	-0.9506677
5	0xbebc45aa	-0.367719
6	0x3dbfa269	0.09357149
7	0x3f655466	0.89581907
8	0x3f5ac39c	0.85454726
9	0x3ecdf6aa	0.40227252
10	0x3ecd4611	0.4009252
11	0x3e78c1ab	0.24292628
12	0x3dadf247	0.08493476
13	0x3eae6e87	0.340687
14	0x3f80bf12	1.005831
15	0x3f6b3fa1	0.91893965
16	0x3f5d7aa4	0.8651526
17	0xbfd03fb7	-1.6269444
18	0xbb9971e8	-0.004682768
19	0x3f035bd7	0.5131201
20	0xbfa45fec	-1.2841773
21	0x3e2519eb	0.16123168
22	0xbf13feb8	-0.57810545
23	0xbfbd31bf	-1.4780806
24	0xbe65b19d	-0.22431035
25	0xbf0654e7	-0.524733
26	0x3f2040ee	0.62599075
27	0x3e70f33c	0.23530287
28	0xbe0932b1	-0.13398243
29	0x3fb3faa0	1.406086
30	0x3ee1192e	0.43964523
31	0xbfacd5aa	-1.3502705
32	0xbf8b1e85	-1.0868689
33	0x3f2ae6de	0.66758525
34	0x3de845ce	0.11341439
35	0xbf83f86e	-1.031019
36	0xbfaa1645	-1.3288046
37	0x3f51edb6	0.82003343
38	0x3eea5102	0.4576493
39	0xbef10b49	-0.47078922

sequential_11/dense_32/BiasAdd/ReadVariableOp:0 f4 [10]
0	0xba86bc8b	-0.0010279579
1	0x3c96ee71	0.018424245
2	0x3e17d00b	0.14825456
3	0xbbe09e79	-0.006854829
4	0x3d644e07	0.055738475
5	0xbc7e2b01	-0.015513183
6	0x3da084f4	0.07837859
7	0x3d3d59cb	0.04622821
8	0xbc9da1f3	-0.019242262
9	0x38b45220	8.598366e-05
