models/model20.onnx (onnx, 464856 bytes, 10 tensors)

sequential_1/dense_5/MatMul/ReadVariableOp:0 f4 [64, 10]
0.09928871 -0.3164647 -0.3016691 -0.5780866 0.06566153 -0.20106879 0.094234526 -0.25090268
-0.14972949 0.050138887 -0.19942023 -0.3223028 0.19996305 0.26710442 -0.20677581 0.18763655
-0.0029556635 -0.20370352 0.2547567 -0.26074103 -0.19308534 -0.2917534 -0.2767266 0.2361518
0.26889327 -0.31344 -0.4784613 0.28575185 0.113895886 0.25482607 0.2372401 -0.03178582
-0.33129218 -0.014205333 -0.11907063 0.12294469 -0.3190203 -0.11508734 0.30578485 -0.11806279
-0.4613328 -0.47323036 -0.45077097 -0.16755737 0.06761174 0.1517891 0.21068366 -0.33003944
-0.17238827 0.14416353 0.11421878 0.082915984 -0.29016373 -0.4025736 0.102358714 -0.33716953
-0.25959134 0.10248847 -0.0035282536 -0.1137708 -0.39756143 -0.035999686 0.14786312 -0.48641285
0.14064014 -0.08778615 -0.44066978 0.14185917 -0.092303 0.17236617 -0.6136703 -0.18223858
0.14814621 0.21492955 -0.39525968 0.1941446 -0.4061755 0.062584 -0.12607957 0.19068259
0.2117581 -0.3662686 0.21119846 -0.20963965 -0.13945572 -0.1867253 0.20353436 -0.28700984
0.16747732 -0.07965598 0.1694924 0.1282126 0.15394443 -0.16093557 -0.3131842 -0.30794543
0.14772682 0.10767159 -0.39914906 -0.030657621 0.20001394 0.03372796 0.21448995 0.23529623
-0.57535243 -0.3408426 -0.13027948 0.20975924 -0.12021122 -0.07086783 -0.11162095 -0.1537534
0.1675896 -0.16673805 -0.35830343 -0.09317001 -0.012386899 0.100524634 0.19666392 -0.5146153
-0.3145072 -0.24173832 -0.12918045 0.20961408 0.2339717 0.014426962 -0.49689007 0.24448436
0.0055849394 0.20861426 -0.29666778 0.19702104 0.20332263 -0.1652306 0.00012202255 -0.28176385
0.14629552 -0.24213237 0.18231927 -0.22362778 0.114763774 0.083193414 0.09349793 -0.32610467
-0.53675175 -0.26322874 -0.0151021 0.0066757 0.14511539 -0.10297205 0.15633187 -0.48628986
0.12234622 0.23048297 0.0155232595 0.21270686 -0.4127791 -0.37423158 -0.085013196 0.20494477
0.16492346 0.17638852 -0.31004387 -0.5934841 0.14059608 -0.23474139 -0.33767986 0.17664602
0.09908822 0.1468192 -0.08005819 0.2011972 0.22370291 -0.06309397 -0.28153023 -0.15761179
-0.47904003 0.22245808 0.22118203 0.04417965 0.13391484 0.12819289 0.033254396 -0.06167035
-0.119704135 -0.34735754 -0.24236895 0.12606697 -0.24574733 -0.24865444 -0.36156338 -0.05813279
0.21953256 0.20645568 0.19110763 -0.494534 -0.4604667 0.23579714 -0.19024044 0.23118879
-0.3563467 0.24328297 -0.25039175 -0.1248931 0.01324122 -0.23970248 0.14208825 0.21318811
-0.37155846 0.19049878 -0.15366924 0.24181443 0.014839052 -0.38088742 0.23662263 -0.30657452
-0.24551544 0.1995179 -0.29009116 -0.13914216 0.043775126 0.2180667 -0.457261 -0.08632215
-0.0088782795 0.27098152 0.2602244 -0.32028523 0.11974551 -0.2542184 -0.12472941 -0.13695933
-0.12259801 0.061644312 0.24836344 0.06704217 0.2568865 -0.28787282 -0.4100751 0.1362413
-0.31310132 -0.29521942 -0.55123395 0.14035697 0.19758965 0.19828011 -0.28568754 -0.23060513
0.19284931 0.19478135 -0.23702362 0.16540775 -0.36649844 0.14561455 -0.50742924 0.13459049
00000000: e157 cb3d a907 a2be 5f74 9abe 7cfd 13bf
00000010: 8d79 863d fae4 4dbe 08fe c03d 5176 80be
00000020: b052 19be 6f5e 4d3d d134 4cbe df04 a5be
00000030: 1dc3 4c3e e9c1 883e 0abd 53be cc23 403e
00000040: ceb3 41bb a897 50be 786f 823e d97f 85be
00000050: 2ab8 45be b460 95be 1caf 8dbe c7d1 713e
00000060: 61ac 893e 357b a0be e1f8 f4be 114e 923e
00000070: 3f42 e93d 9078 823e 12ef 723e d931 02bd
00000080: 219f a9be 7cbd 68bc 4ddb f3bd 6dca fb3d
00000090: a156 a3be e9b2 ebbd d58f 9c3e e7ca f1bd
000000a0: d033 ecbe 404b f2be 74cb e6be 2994 2bbe
000000b0: 0678 8a3d 9a6e 1b3e 75bd 573e eefa a8be
000000c0: 8d86 30be 9b9f 133e 89eb e93d dbcf a93d
000000d0: 5790 94be 201e cebe 72a1 d13d 7ca1 acbe
000000e0: 28e9 84be 7ae5 d13d 463a 67bb aa00 e9bd
000000f0: 2c8d cbbe 6874 13bd 6e69 173e 1b0b f9be
00000100: f803 103e 3ac9 b3bd 789f e1be 8843 113e
00000110: 5b09 bdbd c280 303e 7f19 1dbf c09c 3abe
00000120: a4b3 173e 7e16 5c3e 7a5f cabe d8cd 463e
00000130: 3cf6 cfbe 0a2c 803d 011b 01be 4c42 433e
00000140: 1ed7 583e 8f87 bbbe 6944 583e c7ab 56be
00000150: 7bcd 0ebe eb34 3fbe 506b 503e f4f2 92be
00000160: 2d7f 2b3e ad22 a3bd 6a8f 2d3e 2a4a 033e
00000170: 9ca3 1d3e 4bcc 24be ae59 a0be 06ab 9dbe
00000180: b345 173e ec82 dc3d 445d ccbe b125 fbbc
00000190: 74d0 4c3e 5426 0a3d 41a3 5b3e 7ff1 703e
000001a0: 4c4a 13bf ec82 aebe fc67 05be 20cb 563e
000001b0: 4d31 f6bd 2723 91bd 8699 e4bd 8871 1dbe
000001c0: 9c9c 2b3e 61bd 2abe 8c73 b7be ebcf bebd
000001d0: 6cf2 4abc dcdf cd3d 4462 493e d4bd 03bf
000001e0: 1607 a1be 408a 77be e147 04be 13a5 563e
000001f0: 4796 6f3e 105f 6c3c 6068 febe 1c5a 7a3e
00000200: de01 b73b fa9e 553e d7e4 97be e2bf 493e
00000210: cf33 503e 3632 29be 5ce6 ff38 5a43 90be
00000220: 7ece 153e 8cf1 77be e7b1 3a3e aefe 64be
00000230: 4509 eb3d 4f61 aa3d d87b bf3d 31f7 a6be
00000240: 9068 09bf ebc5 86be cc6e 77bc d5bf da3b
00000250: 2199 143e 03e3 d2bd 7615 203e fcfa f8be
00000260: a890 fa3d ba03 6c3e 4555 7e3c d4cf 593e
00000270: c857 d3be 489b bfbe 661b aebd 0bdd 513e
00000280: b2e1 283e 319f 343e 12be 9ebe 93ee 17bf
00000290: 6bf8 0f3e 0c60 70be 60e4 acbe b2e2 343e
000002a0: c4ee ca3d c657 163e 8cf5 a3bd a406 4e3e
000002b0: 6012 653e 6937 81bd bb24 90be fc64 21be
000002c0: bc44 f5be 0dcc 633e 8b7d 623e b8f5 343d
000002d0: f920 093e ff44 033e c335 083d 0d9a 7cbd
000002e0: 7127 f5bd d9d8 b1be 912f 78be b317 013e
000002f0: 30a5 7bbe 459f 7ebe d61e b9be a61c 6ebd
00000300: 25cd 603e 1e69 533e b8b1 433e 8f33 fdbe
00000310: 4bc2 ebbe ce74 713e 64ce 42be c1bc 6c3e
00000320: 1373 b6be 2c1f 793e 5933 80be f4c7 ffbd
00000330: b4f1 583c 9174 75be 957f 113e fc4d 5a3e
00000340: e93c bebe 1d12 433e 785b 1dbe 349e 773e
00000350: 7f1f 733c ad03 c3be 344d 723e 56f7 9cbe
00000360: 6668 7bbe 6c4e 4c3e d486 94be 487b 0ebe
00000370: 8c4d 333d e14c 5f3e 1d1e eabe abc9 b0bd
00000380: 3476 11bc 17be 8a3e 223c 853e 6dfc a3be
00000390: 223d f53d ea28 82be 2272 ffbd 113f 0cbe
000003a0: aa14 fbbd bf7e 7c3d fc52 7e3e 684d 893d
000003b0: a186 833e 1164 93be 5df5 d1be d782 0b3e
000003c0: d14e a0be 0027 97be ab1d 0dbf bdb9 0f3e
000003d0: f154 4a3e f109 4b3e a345 92be c023 6cbe
000003e0: 4a7a 453e c374 473e 52b6 72be a660 293e
000003f0: afa5 bbbe fb1b 153e e2e6 01bf 17d2 093e

sequential_1/dense_5/BiasAdd/ReadVariableOp:0 f4 [10]
-0.14844988 0.02425102 0.0015549345 0.23763463 -0.24259217 0.20147578 -0.22241744 -0.28882307
0.32570803 -0.0031736922
00000000: 3f03 18be 13aa c63c f2ce cb3a 7e56 733e
00000010: 156a 78be ab4f 4e3e 66c1 63be 9ee0 93be
00000020: 34c3 a63e b8fd 4fbb

sequential_1/dense_4/MatMul/ReadVariableOp:0 f4 [64, 64]
-0.15485336 0.010241095 -0.14582033 0.26511624 -0.1954308 0.2761129 -0.14096399 -0.32740444
0.051424414 0.026843071 -0.041607868 -0.038097363 -0.31759483 0.05533599 0.4175483 0.04620202
0.24767853 0.16320574 0.1355282 -0.36324716 0.008571396 0.021057991 0.04409696 -0.15200053
-0.028641922 0.075061075 0.12682518 -0.24039541 -0.2952064 -0.15298076 -0.01124168 0.28157634
0.081818365 -0.14854759 0.038357757 0.0014395458 0.10150877 0.123923905 0.08404715 0.020246122
0.14310563 -0.023777328 -0.28867635 0.028443918 0.00074526685 -0.3816959 0.044411413 -0.20422201
0.02594 -0.22722174 -0.020500448 0.06809203 -0.0417587 -0.4866709 0.11435381 0.15857762
0.00319767 0.05419037 -0.09681102 -0.24198613 -0.19355278 -0.015933739 0.09797883 -0.3216411
0.013049661 0.05127416 0.15067933 -0.110460766 -0.22483186 -0.13182853 -0.089938276 -0.050799903
-0.123836495 0.20409712 -0.18356426 0.13340673 -0.22149438 0.22806036 0.040219437 -0.17518415
0.09507971 0.2279697 -0.15988363 0.08291157 -0.1537166 0.113318026 -0.051930986 0.1311767
0.08849024 0.04922385 -0.05515221 0.14978832 -0.19147944 0.15521662 0.1108398 -0.103063874
0.1373331 -0.092995174 -0.17697564 0.05306774 -0.069472425 0.12230538 0.16644229 -0.113722846
0.21055825 0.10849254 -0.1887656 -0.20445873 -0.17988281 0.1850853 -0.12135757 -0.23389494
0.06615677 0.09661871 -0.18990345 0.024064068 0.09695033 -0.14777307 0.22115123 0.019323755
-0.10034852 0.04792337 0.06840366 -0.039687205 0.19487154 0.08292408 -0.1573838 -0.121454805
-0.12509552 -0.1533153 -0.05662264 0.06454157 0.24038692 -0.10581618 -0.008630148 0.05986164
-0.14682117 -0.14741193 -0.15786286 -0.094120316 0.045874514 -0.17240526 -0.12578449 0.081490815
-0.117651656 0.076551154 -0.075816154 -0.15609173 -0.1256487 0.024112627 0.30037692 -0.20757522
0.27799284 0.33348554 -0.21003038 -0.057293817 0.30149156 0.2856433 -0.22688921 0.20024832
0.2595781 0.22033142 0.2770798 -0.14516024 -0.22453555 -0.20957156 -0.2772093 -0.122574754
0.11331366 0.01938924 0.04307456 -0.17786007 0.20893894 -0.07401787 -0.124466375 0.27555054
-0.111564726 0.1502105 -0.13012183 -0.16128951 -0.22685061 0.20807092 -0.22801447 -0.06060848
-0.028898994 0.3175501 -0.15476191 0.17207809 0.29278645 0.27177054 -0.07752875 0.10412244
-0.4173717 0.10415541 0.032005716 0.10871665 -0.34278893 0.12991592 -0.059480015 -0.16910423
-0.072336055 -0.03237735 -0.31919178 0.20200953 -0.19867036 0.32544273 0.05781765 -0.15482907
0.075903945 0.3101131 0.0060725003 -0.27738944 0.03119282 0.043348476 0.272476 -0.30599517
0.13826251 0.2155756 0.024124704 -0.32844645 -0.24044983 -0.13866445 -0.20155971 0.17692325
-0.09024839 -0.18916596 0.30407345 0.019613571 -0.049984172 0.0203413 0.3321203 0.009100587
0.11468196 0.05542259 -0.16980064 0.09784011 -0.22508964 -0.13380401 0.021239024 -0.13221645
0.3883199 -0.17907915 -0.007160221 0.057584293 0.16438715 -0.170157 0.24332382 0.14361104
0.02269618 -0.22279154 0.06544097 -0.25034463 -0.118805714 -0.07882553 -0.12547539 -0.12709263
00000000: e191 1ebe 44ca 273c ed51 15be 51bd 873e
00000010: 031f 48be ac5e 8d3e dd58 10be 8ea1 a7be
00000020: 68a2 523d 00e6 db3c 036d 2abd fb0b 1cbd
00000030: ca9b a2be fea7 623d e4c8 d53e 543e 3d3d
00000040: 719f 7d3e 681f 273e e8c7 0a3e 88fb b9be
00000050: 0a6f 0c3c cf81 ac3c 049f 343d 07a6 1bbe
00000060: 77a2 eabc 9fb9 993d 76de 013e 372a 76be
00000070: 4b25 97be fda6 1cbe 062f 38bc c62a 903e
00000080: 6390 a73d dc1c 18be 061d 1d3d 24af bc3a
00000090: d4e3 cf3d d1cb fd3d ea20 ac3d 32db a53c
000000a0: 488a 123e acc8 c2bc 63cd 93be 3803 e93c
000000b0: 035e 433a a56d c3be bee8 353d 931f 51be
000000c0: 1f80 d43c d1ac 68be 8ef0 a7bc d673 8b3d
000000d0: 2c0b 2bbd ee2c f9be 5532 ea3d 2c62 223e
000000e0: 0090 513b b9f6 5d3d db44 c6bd 36cb 77be
000000f0: b332 46be 7987 82bc 20a9 c83d 24ae a4be
00000100: 3fce 553c db04 523d af4b 1a3e 4139 e2bd
00000110: 533a 66be 0ffe 06be 8f31 b8bd 8f13 50bd
00000120: fd9d fdbd d6fe 503e 45f8 3bbe c69b 083e
00000130: 6ccf 62be a888 693e 23bd 243d 7963 33be
00000140: 27b9 c23d e470 693e 89b8 23be 8bcd a93d
00000150: e267 1dbe 4813 e83d 96b5 54bd 2f53 063e
00000160: 5f3a b53d f39e 493d 49e7 61bd 1c62 193e
00000170: 3013 44be 1bf1 1e3e faff e23d 2713 d3bd
00000180: 0ca1 0c3e 4174 bebd 1a39 35be 8f5d 593d
00000190: 8f47 8ebd 3e7b fa3d d96f 2a3e 86e7 e8bd
000001a0: 959c 573e 5631 de3d c54b 41be a15d 51be
000001b0: 3333 38be 0087 3d3e 518a f8bd 2882 6fbe
000001c0: 337d 873d 08e0 c53d 0d76 42be 0222 c53c
000001d0: e58d c63d d351 17be 7875 623e da4c 9e3c
000001e0: 8683 cdbd 4c4b 443d 3817 8c3d 0d8f 22bd
000001f0: 688c 473e 1ad4 a93d 3829 21be 4cbd f8bd
00000200: 0a19 00be b0fe 1cbe 24ed 67bd 5f2e 843d
00000210: fd27 763e 27b6 d8bd 7765 0dbc 7b31 753d
00000220: 4a58 16be 27f3 16be cda6 21be 27c2 c0bd
00000230: eae6 3b3d 018b 30be a6cd 00be a8e4 a63d
00000240: 5af3 f0bd dac6 9c3d 8045 9bbd 83d6 1fbe
00000250: 0eaa 00be d887 c53c 01cb 993e 998e 54be
00000260: 1455 8e3e 9ebe aa3e 3412 57be ecac 6abd
00000270: 1a5d 9a3e d73f 923e a555 68be e50d 4d3e
00000280: 6ce7 843e 8f9e 613e 67dd 8d3e e3a4 14be
00000290: a6ec 65be ed99 56be 61ee 8dbe 7908 fbbd
000002a0: fe10 e83d 2fd6 9e3c f36e 303d f320 36be
000002b0: 17f4 553e ae96 97bd 3ae8 febd f614 8d3e
000002c0: 0c7c e4bd c8d0 193e a83e 05be 1429 25be
000002d0: 874b 68be 8b10 553e a07c 69be 9940 78bd
000002e0: 95bd ecbc ed95 a23e e879 1ebe 3d35 303e
000002f0: 1be8 953e 8225 8b3e 65c7 9ebd 253e d53d
00000300: beb1 d5be 6e4f d53d 6d18 033d d6a6 de3d
00000310: 0882 afbe ae08 053e 51a1 73bd a929 2dbe
00000320: ed24 94bd 1d9e 04bd 1b6d a3be 96db 4e3e
00000330: 3e70 4bbe 6ea0 a63e 33d2 6c3d 838b 1ebe
00000340: 8773 9b3d 25c7 9e3e d3fb c63b fd05 8ebe
00000350: 1688 ff3c 2c8e 313d f981 8b3e 66ab 9cbe
00000360: b094 0d3e dabf 5c3e 2ca1 c53c 222a a8be
00000370: 7b38 76be 0efe 0dbe ab65 4ebe 5e2b 353e
00000380: 26d4 b8bd b9b4 41be 84af 9b3e a4ac a03c
00000390: 34bc 4cbd cca2 a63c ac0b aa3e a11a 153c
000003a0: 60de ea3d cc02 633d 38e0 2dbe 6560 c83d
000003b0: e67d 66be eb03 09be 76fd ad3c c063 07be
000003c0: ded1 c63e 8660 37be 4aa0 eabb 82dd 6b3d
000003d0: 1b55 283e a33d 2ebe e129 793e c60e 133e
000003e0: 57ed b93c 7723 64be ea05 863d 2c2d 80be
000003f0: 6950 f3bd 486f a1bd 9f7c 00be 9224 02be

sequential_1/dense_4/BiasAdd/ReadVariableOp:0 f4 [64]
-0.0864066 0.26234305 0.102466844 0.15332703 0.1588277 -0.00801424 -0.0034343807 0.2715859
0.0023882014 -0.060620725 0.028257592 -0.032363374 0.05925452 0.076257065 0.0247158 0.29851738
0.033793174 -0.02463378 -0.06940319 -0.015569561 0.021357529 -0.013520934 0.14238086 -0.087410234
0.23797229 0.24041346 0.07814151 0.056893222 0.21449752 -0.041471094 -0.0651065 0.045892056
0.03057737 0.009171132 0.03760613 0.0036941255 -0.024814498 -0.076031975 0.2365277 0.030806195
0.11481533 0.11389017 0.09763627 0.12299431 -0.07217215 -0.06445023 -0.03900066 0.04902068
0.010118777 0.2219911 -0.10019434 0.042554177 0.069006175 0.077951595 0.022856535 0.164389
0.25370857 0.02164078 -0.022511775 0.06703932 0.18652442 0.02428792 0.032684494 0.09507706
00000000: f2f5 b0bd d451 863e 23da d13d c301 1d3e
00000010: bba3 223e 294e 03bc 5913 61bb 4f0d 8b3e
00000020: 5f83 1c3b 704d 78bd 777c e73c 758f 04bd
00000030: deb4 723d aa2c 9c3d ca78 ca3c 45d7 983e
00000040: b66a 0a3d c8cc c9bc 4223 8ebd 7917 7fbc
00000050: fcf5 ae3c e886 5dbc 4acc 113e 2304 b3bd
00000060: 02af 733e f22e 763e a808 a03d de08 693d
00000070: 3da5 5b3e 98dd 29bd 8f56 85bd 4ff9 3b3d
00000080: 657d fa3c 8442 163c e308 1a3d 2419 723b
00000090: c647 cbbc a7b6 9bbd 5134 723e 465d fc3c
000000a0: 4d24 eb3d 403f e93d 86f5 c73d 71e4 fb3d
000000b0: fece 93bd 7bfe 83bd 28bf 1fbd e9c9 483d
000000c0: 3ac9 253c a351 633e b132 cdbd 4a4d 2e3d
000000d0: 1c53 8d3d 16a5 9f3d a13d bb3c 9755 283e
000000e0: 17e6 813e 0148 b13c 9d6a b8bc e94b 893d
000000f0: 4200 3f3e 76f7 c63c 2de0 053d c3b7 c23d

sequential_1/dense_3/MatMul/ReadVariableOp:0 f4 [1568, 64]
-0.058972288 -0.062782675 -0.01255103 -0.021327237 -0.05204326 0.08573651 0.03873197 0.03390714
-0.03075186 -0.024317743 0.058725987 0.017478203 -0.04119354 -0.04336708 0.10106649 0.09306756
0.018047128 0.027418349 -0.015343061 0.021127341 -0.04483063 0.019079119 0.01673022 -0.01825551
-0.0812028 0.04995028 -0.026893014 0.013682017 -0.12116424 0.092707515 0.01919578 -0.021848118
0.051563516 0.07533826 -0.015344657 0.026781715 -0.047956884 0.05476351 -0.009205107 0.029496292
0.023474758 -0.013297018 0.032743793 0.04933471 0.019177593 0.016735539 -0.03460782 -0.10647436
0.014124061 0.07537451 0.053757794 -0.001503137 0.024736108 -0.041404046 0.007842773 0.0012588564
-0.040384155 0.015880222 -0.06022966 0.00592736 0.076393664 -0.032032017 -0.024954854 -0.00442727
0.008444952 0.046933793 0.056809247 -0.05429434 0.028282752 -0.046212893 0.035251338 0.0539146
0.016467718 -0.0593329 0.036724236 0.052329436 0.017480204 -0.04923724 -0.059210137 0.037364967
0.049279448 -0.0018895458 0.059434585 0.003735989 0.020607814 -0.039583877 0.05110417 0.026940089
0.011004843 0.022592237 -0.01665571 -0.057143282 0.06414285 0.021758735 0.02610599 -0.016421225
0.0069287033 0.014561706 0.033239793 -0.017151805 -0.03267871 0.05978839 0.03924702 -0.049324397
-0.0121723395 -0.020985443 0.04534736 0.02363113 -0.06188649 -0.04731782 0.006436868 -0.039512612
0.055970505 -0.010172352 0.021489464 0.029988455 0.03369035 0.025212668 -0.018549511 -0.043618824
-0.035687502 0.024139322 0.01540128 -0.020121828 -0.017963134 0.05372489 -0.018733937 0.040588573
0.08170272 0.050798148 -0.017520316 0.08191366 -0.023142463 0.005392894 -0.0020543044 0.023733718
0.05806959 -0.011557168 0.07363259 -0.094558135 0.04569565 0.090921864 0.14636819 -0.037226886
0.07984704 -0.055992153 0.082500935 0.05686165 -0.016074315 -0.14508392 0.0954555 0.054647837
-0.1089826 -0.07769836 -0.027981566 -0.044750392 -0.03334403 0.027093947 0.14706308 -0.049749892
0.012409169 0.042320166 -0.00936597 0.0018294879 -0.024951661 -0.048417855 -0.06200547 -0.02052822
-0.055025663 -0.051263336 0.0017735377 0.053808253 -0.07573335 0.1873775 -0.019803982 -0.056823805
0.012649713 0.017131198 0.03435643 0.078245066 0.020627018 0.02027312 0.13685045 -0.04690308
-0.032553393 0.059985127 -0.014496383 0.0292025 -0.005886602 -0.03140389 -0.0032521002 0.0043255826
0.048836004 0.045020357 -0.004040287 -0.020787895 -0.08932114 0.03494875 -0.02448865 -0.02363199
0.013312921 0.042755444 -0.039306667 0.15820475 0.022912348 0.063338965 -0.015960196 0.062660575
0.11107946 0.07779985 0.010696208 -0.019308718 -0.027947687 -0.09275122 -0.0050848126 -0.046242855
-0.07791594 0.051550806 -0.05761754 0.03780641 -0.1040967 -0.009221802 0.0065318793 0.12488591
-0.026931973 0.109790124 0.012056436 0.07866754 -0.07055523 0.05505478 0.031778205 0.029150316
-0.08088245 0.020653138 0.041664332 -0.04702314 0.035086185 -0.054809086 0.13705818 0.06765064
-0.053754885 -0.044864487 0.04041399 -0.08086516 -0.0025728287 -0.05486613 0.07258033 -0.0026999586
0.00854271 0.003617371 0.012154077 -0.008525063 -0.055699427 -0.035048794 0.029855259 -0.062231947
00000000: ed8c 71bd 3494 80bd d6a2 4dbc 75b6 aebc
00000010: 502b 55bd a096 af3d 6aa5 1e3d 37e2 0a3d
00000020: 53eb fbbc 0136 c7bc a98a 703d 732e 8f3c
00000030: 8fba 28bd aea1 31bd f3fb ce3d 349a be3d
00000040: 92d7 933c 729c e03c 7661 7bbc 3f13 ad3c
00000050: 53a0 37bd d04b 9c3c d00d 893c 948c 95bc
00000060: a74d a6bd aa98 4c3d bd4e dcbc 8a2a 603c
00000070: f524 f8bd 70dd bd3d 7840 9d3c d3fa b2bc
00000080: 4434 533d f24a 9a3d 2868 7bbc 5465 db3c
00000090: 706e 44bd b44f 603d 04d1 16bc 35a2 f13c
000000a0: 234e c03c bcdb 59bc 5b1e 063d 3113 4a3d
000000b0: 541a 9d3c f818 893c eec0 0dbd 3b0f dabd
000000c0: 9b68 673c f35d 9a3d 2231 5c3d e904 c5ba
000000d0: 61a3 ca3c 4a97 29bd f97e 003c 3600 a53a
000000e0: db69 25bd 3d17 823c 60b3 76bd 4d3a c23b
000000f0: 4874 9c3d 0134 03bd 1f6e ccbc a212 91bb
00000100: b25c 0a3c a63d 403d d0b0 683d be63 5ebd
00000110: 3bb1 e73c bb49 3dbd b563 103d 8ed5 5c3d
00000120: 4fe7 863c 0e07 73bd 276c 163d 6457 563d
00000130: a532 8f3c fdac 49bd 5486 72bd 020c 193d
00000140: 3fd9 493d a3aa f7ba ae71 733d 7fd7 743b
00000150: b8d1 a83c b422 22bd 9b52 513d 76b1 dc3c
00000160: a84d 343c 5b13 b93c 8e71 88bc 130f 6abd
00000170: 545d 833d 603f b23c 3bdc d53c ce85 86bc
00000180: 2d0a e33b 3994 6e3c 7326 083d f181 8cbc
00000190: 1cda 05bd ace4 743d 7cc1 203d 6108 4abd
000001a0: 7e6e 47bc aae9 abbc 27be 393d 1296 c13c
000001b0: b07c 7dbd 55d0 41bd 5dec d23b fad7 21bd
000001c0: 5441 653d f0a9 26bc ac0a b03c 59aa f53c
000001d0: e4fe 093d cc8a ce3c 25f5 97bc a7a9 32bd
000001e0: 0f2d 12bd d4bf c53c a655 7c3c 88d6 a4bc
000001f0: 6c27 93bc a10e 5c3d ea77 99bc 3440 263d
00000200: c153 a73d b811 503d c486 8fbc 59c2 a73d
00000210: 4395 bdbc e0b6 b03b 82a1 06bb 376d c23c
00000220: 61da 6d3d 475a 3dbc afcc 963d b2a7 c1bd
00000230: 5d2b 3b3d 3e35 ba3d 8be1 153e 387b 18bd
00000240: d886 a33d 0758 65bd 40f6 a83d c3e7 683d
00000250: 48ae 83bc e190 14be 2c7e c33d 69d6 5f3d
00000260: 4532 dfbd 5120 9fbd 9939 e5bc 304c 37bd
00000270: c093 08bd 20f4 dd3c b497 163e 8bc6 4bbd
00000280: d44f 4b3c e957 2d3d ba73 19bc 6dcb ef3a
00000290: 6d67 ccbc cd51 46bd 73f9 7dbd cc2a a8bc
000002a0: 9762 61bd 81f9 51bd 0d76 e83a 0b66 5c3d
000002b0: 161a 9bbd e3df 3f3e f63b a2bc 14c0 68bd
000002c0: be40 4f3c ba56 8c3c 54b9 0c3d f33e a03d
000002d0: fef9 a83c d013 a63c 8622 0c3e 721d 40bd
000002e0: b556 05bd f7b2 753d 3d82 6dbc 153a ef3c
000002f0: 66e4 c0bb 5ea1 00bd 3021 55bb 9ebd 8d3b
00000300: 4308 483d 4467 383d 6264 84bb 604b aabc
00000310: 00ee b6bd 6c26 0f3d 6c9c c8bc e097 c1bc
00000320: 701e 5a3c 5520 2f3d 0700 21bd 6d00 223e
00000330: adb2 bb3c dcb7 813d f5be 82bc 3054 803d
00000340: a17d e33d 8755 9f3d 263f 2f3c 512d 9ebc
00000350: 8cf2 e4bc 5af4 bdbd 809e a6bb 2669 3dbd
00000360: 6492 9fbd f026 533d 5f00 6cbd e5da 1a3d
00000370: a730 d5bd 0b17 17bc 6009 d63b 2fc4 ff3d
00000380: 71a0 dcbc a5d9 e03d 5c88 453c 721c a13d
00000390: 437f 90bd 1f81 613d dd29 023d a5cc ee3c
000003a0: b3a5 a5bd c530 a93c 38a8 2a3d 569b 40bd
000003b0: 88b6 0f3d 7e7f 60bd fb58 0c3e 6b8c 8a3d
000003c0: 152e 5cbd d3c3 37bd 2489 253d a29c a5bd
000003d0: e79c 28bb 4fbb 60bd ffa4 943d caf1 30bb
000003e0: b9f6 0b3c 6a11 6d3b e521 473c b5ac 0bbc
000003f0: 1525 64bd 538f 0fbd 0493 f43c ede6 7ebd

sequential_1/dense_3/BiasAdd/ReadVariableOp:0 f4 [64]
0.018510498 -0.026296306 -0.0022716764 -0.009002422 -0.032203507 -0.021567049 -0.008909295 -0.0063354317
-0.028375255 -0.016161377 -0.047608797 -0.024975544 -0.032886397 -0.04012118 -0.053735685 0.025462016
-0.028917627 0.015636668 -0.055539418 0.018140886 -0.01542037 -0.024699189 0.016634341 -0.035462555
0.02616064 -0.014839447 -0.026139857 -0.010661226 0.0045047943 -0.003898335 -0.0021429006 0.01025396
0.018196631 0.0023258135 -0.01905884 -0.009891177 -0.037410345 0.022348875 -0.021486247 -0.0063801417
0.006722051 -0.018542837 -0.012463911 -0.016638776 -0.012877855 -0.0033833163 -0.00036097254 0.0012586231
-0.023292702 0.010425128 -0.010661565 0.010023197 -0.04751757 -0.014829129 -0.018807925 -0.019981023
0.005505145 0.01780971 0.0135276215 -0.01797365 -0.042925544 -0.022695415 -0.009081671 -0.018260354
00000000: 54a3 973c 5a6b d7bc 68e0 14bb e57e 13bc
00000010: d3e7 03bd 61ad b0bc 4bf8 11bc 7499 cfbb
00000020: 3973 e8bc dd64 84bc 7101 43bd 8399 ccbc
00000030: e3b3 06bd 1b56 24bd f319 5cbd b895 d03c
00000040: a9e4 ecbc 7818 803c 4d7d 63bd 329c 943c
00000050: b8a5 7cbc f455 cabc be44 883c 2f41 11bd
00000060: d74e d63c 2721 73bc 4123 d6bc 6cac 2ebc
00000070: f49c 933b 357b 7fbb e86f 0cbb 3a00 283c
00000080: 1a11 953c ad6c 183b 4921 9cbc 9a0e 22bc
00000090: 973b 19bd fd14 b73c ed03 b0bc 8210 d1bb
000000a0: a744 dc3b 26e7 97bc 6f35 4cbc 0b4e 88bc
000000b0: a4fd 52bc a1ba 5dbb ea40 bdb9 62f8 a43a
000000c0: 56d0 bebc 28ce 2a3c d8ad 2ebc 5638 243c
000000d0: c9a1 42bd e0f5 72bc 1413 9abc 3eaf a3bc
000000e0: 8164 b43b abe5 913c f5a2 5d3c 7a3d 93bc
000000f0: b2d2 2fbd bceb b9bc 4acb 14bc bd96 95bc

sequential_1/conv2d_3/Conv2D/ReadVariableOp:0 f4 [32, 32, 3, 3]
-0.09291409 -0.023031304 0.11142969 -0.20377928 -0.017718608 0.14950837 0.014217366 0.038787797
-0.016244901 -0.08127575 -0.014884124 -0.08895457 -0.12670319 -0.12616308 0.05256188 -0.23559083
-0.15088813 -0.19411291 -0.047978185 -0.055742133 -0.057723854 0.0021503477 -0.107982464 -0.22074626
-0.16407219 -0.14559737 -0.058939695 0.015426399 0.07410206 0.011484367 -0.18818097 0.011966116
0.07724109 -0.19602795 0.07699381 0.06162048 -0.11454303 0.0035661415 0.0032551447 -0.13177508
0.06121658 0.12257589 -0.0989305 -0.054646354 0.03323032 0.08222068 -0.04618289 0.0074917995
-0.029456258 0.074130565 -0.11783499 -0.045306932 0.0035607363 0.06390593 -0.100624934 0.08624035
-0.05370588 -0.11834752 -0.049585614 0.037646476 -0.3143306 -0.1565915 -0.090929545 0.05733943
0.04766861 0.16059503 -0.17419167 0.048966292 0.087889746 0.18387657 -0.056230467 0.059160214
0.032818843 0.09369159 -0.043737534 0.090447314 0.08753705 -0.0422952 -0.11577793 0.11399573
0.12723233 0.07529254 -0.11370882 -0.0841011 0.00359997 -0.13853592 -0.07365834 0.085645504
-0.12042084 -0.040321585 -0.13823794 0.015694387 0.08622813 -0.20465524 -0.096203215 -0.1184396
0.25100935 -0.056423437 -0.09039442 0.023228051 -0.0044913627 0.0058512315 -0.14680098 -0.07550474
0.034865696 -0.24439214 -0.03229121 -0.15863505 -0.05751323 0.10432668 -0.012245838 -0.084171966
-0.048967414 -0.020708863 -0.019212203 0.03618539 0.1501982 -0.038450517 0.008453356 -0.054392934
-0.07700753 0.09741089 0.06209193 0.007450097 -0.052209042 0.116891615 0.13910633 0.009092415
-0.035512816 0.09647726 0.11376752 -0.07884739 0.04317497 0.0014766399 0.14336227 -0.006308309
0.04857311 -0.17591235 0.040731013 -0.027750717 -0.10135152 -0.063117795 0.07233354 0.060247492
-0.02332856 -0.08105503 0.034519415 -0.19448918 0.05713092 -0.05208229 -0.19652995 -0.012037599
-0.13409154 0.059804317 -0.121277615 -0.07263047 0.083342716 0.06835798 -0.14718613 0.057478786
-0.0047881496 0.04672639 0.043976676 0.0029606158 -0.20492049 -0.006268166 -0.14423941 -0.12881143
-0.12430404 -0.03645482 -0.23600076 0.11753514 0.07196031 -0.037464675 -0.027268205 0.07320312
0.01073157 -0.16054203 0.08638919 0.17301674 -0.18557318 0.01948895 0.13445479 -0.189757
-0.08633049 -0.026899835 0.01714554 -0.08509821 -0.027817184 0.08317526 -0.072404705 -0.23765889
0.12986843 0.11085347 -0.09560896 -0.017977806 0.08097395 -0.037395384 -0.12677409 -0.060109843
0.13341668 0.02006736 -0.18966343 0.083078176 -0.1033676 -0.10729704 0.07726928 -0.16971679
-0.06453153 0.05725538 -0.24210599 -0.00873191 0.028153963 -0.12660022 -0.03983707 -0.004135949
0.08982317 0.15759353 -0.0891681 -0.012389243 0.06934885 0.07262346 -0.057367582 -0.053807978
0.1112517 -0.1135369 -0.032853205 0.059614114 0.019015066 -0.09689625 0.028639385 -0.10884265
-0.19572867 -0.10181303 -0.0069115153 -0.0018465875 0.119450256 0.10012671 -0.19464797 0.047652185
0.11288214 0.044084545 -0.32968223 -0.073645905 0.060415823 0.048435185 -0.0028916805 -0.11877385
0.016259197 -0.08850538 -0.23452486 -0.16100517 -0.07565288 -0.08540524 -0.11716505 0.060089275
00000000: be49 bebd 25ac bcbc 4035 e43d 84ab 50be
00000010: 9d26 91bc b918 193e f5ef 683c f4df 1e3d
00000020: 0714 85bc e773 a6bd 8adc 73bc d02d b6bd
00000030: 7bbe 01be e530 01be 204b 573d b93e 71be
00000040: 6b82 1abe 89c5 46be c684 44bd dd51 64bd
00000050: d96f 6cbd d9ec 0c3b e925 ddbd 4f0b 62be
00000060: 8a02 28be 7a17 15be c06a 71bd 02bf 7c3c
00000070: d2c2 973d ed28 3c3c 83b2 40be 870d 443c
00000080: 9430 9e3d 8dbb 48be eeae 9d3d c265 7c3d
00000090: 8995 eabd edb5 693b 4454 553b 0cf0 06be
000000a0: 3dbe 7a3d 1109 fb3d 139c cabd dbd4 5fbd
000000b0: 841c 083d 5163 a83d 452a 3dbd c57d f53b
000000c0: 404e f1bc c4d1 973d 7953 f1bd c393 39bd
000000d0: 3e5b 693b 1de1 823d 7214 cebd c89e b03d
000000e0: b2fa 5bbd 2f60 f2bd 491a 4bbd 3133 1a3d
000000f0: f1ef a0be 8659 20be 4539 babd c0dc 6a3d
00000100: 2940 433d 0673 243e 4d5f 32be e190 483d
00000110: 8aff b33d 244a 3c3e eb51 66bd fb51 723d
00000120: 0d6d 063d 60e1 bf3d 2126 33bd 713c b93d
00000130: a046 b33d bb3d 2dbd fb1c edbd 9876 e93d
00000140: 3149 023e fa32 9a3d 2be0 e8bd 333d acbd
00000150: 79ed 6b3b 5cdc 0dbe 2fda 96bd e966 af3d
00000160: 349f f6bd 3f28 25bd 3f8e 0dbe 8491 803c
00000170: 6098 b03d 2591 51be 3106 c5bd 7690 f2bd
00000180: 4c84 803e 431c 67bd b620 b9bd c148 be3c
00000190: 482c 93bb b0bb bf3b ff52 16be 3ba2 9abd
000001a0: 55cf 0e3d ef41 7abe ca43 04bd 3a71 22be
000001b0: fe92 6bbd 3aa9 d53d c4a2 48bc 5a62 acbd
000001c0: 0e92 48bd a2a5 a9bc e962 9dbc 2237 143d
000001d0: 8fcd 193e 4a7e 1dbd f27f 0a3c 20cb 5ebd
000001e0: 20b6 9dbd 5c7f c73d 1c54 7e3d f11f f43b
000001f0: 26d9 55bd df64 ef3d e471 0e3e 5af8 143c
00000200: e375 11bd df95 c53d f2fe e83d be7a a1bd
00000210: 3dd8 303d d08b c13a 8fcd 123e eeb5 cebb
00000220: 99f4 463d 5e22 34be 90d5 263d 7955 e3bc
00000230: 6391 cfbd e743 81bd 9b23 943d 13c6 763d
00000240: 891b bfbc 2e00 a6bd 3b64 0d3d 2c28 47be
00000250: 1d02 6a3d 3d54 55bd 263f 49be 5a39 45bc
00000260: 4b4f 09be 5ff5 743d 6660 f8bd 49bf 94bd
00000270: 96af aa3d 45ff 8b3d f6b7 16be e06e 6b3d
00000280: e9e5 9cbb 2c64 3f3d e320 343d e406 423b
00000290: add6 51be 3065 cdbb 7fb3 13be 25e7 03be
000002a0: 1e93 febd a651 15bd 2faa 71be 43b6 f03d
000002b0: ed5f 933d 8f74 19bd 9261 dfbc 84eb 953d
000002c0: 78d3 2f3c 2165 24be d1ec b03d 4d2b 313e
000002d0: e506 3ebe 4aa7 9f3c 84ae 093e a94f 42be
000002e0: 0ace b0bd 0b5d dcbc ce74 8c3c f847 aebd
000002f0: dde0 e3bc ca57 aa3d eb48 94bd da5c 73be
00000300: 3bfc 043e 2507 e33d a1ce c3bd 3146 93bc
00000310: acd5 a53d e72b 19bd 11d1 01be bd35 76bd
00000320: 629e 083e 4e64 a43c 2137 42be e424 aa3d
00000330: 64b2 d3bd 8dbe dbbd 5b3f 9e3d 3dca 2dbe
00000340: 1b29 84bd 9e84 6a3d a2ea 77be 4910 0fbc
00000350: 24a3 e63c 7da3 01be 322c 23bd db86 87bb
00000360: 36f5 b73d 3360 213e c49d b6bd 40fc 4abc
00000370: c506 8e3d 9cbb 943d 45fa 6abd c165 5cbd
00000380: eed7 e33d 0986 e8bd 1591 06bd ee2d 743d
00000390: 7cc5 9b3c 8b71 c6bd 259d ea3c e5e8 debd
000003a0: 196d 48be 5a83 d0bd fe79 e2bb 3209 f2ba
000003b0: 56a2 f43d 3c0f cd3d cc51 47be f02e 433d
000003c0: c02e e73d ff91 343d 1ccc a8be aad3 96bd
000003d0: 9576 773d f963 463d 5982 3dbb b43f f3bd
000003e0: 0232 853c 4f42 b5bd 4927 70be 8ade 24be
000003f0: e6ef 9abd f1e8 aebd 3bf4 efbd 2c20 763d

sequential_1/conv2d_3/BiasAdd/ReadVariableOp:0 f4 [32]
-0.0206393 -0.07103065 -0.0655082 -0.0100742085 -0.019435497 0.012695858 -0.008610232 -0.014956629
0.03629345 -0.014130348 -0.018120026 -0.1146548 -0.0014114057 -0.035009705 -0.059564702 -0.06670901
-0.015464543 -0.046915963 0.033807736 -0.042081147 -0.02323138 0.039060853 -0.050873626 -0.049984995
-0.03184438 -0.06779979 0.006551737 -0.03866955 -0.004602875 -0.032385074 -0.07003503 -0.018915042
00000000: c013 a9bc 8478 91bd 2a29 86bd 4b0e 25bc
00000010: 3137 9fbc 4a02 503c ee11 0dbc a60c 75bc
00000020: 71a8 143d fa82 67bc 7370 94bc 23d0 eabd
00000030: ebfe b8ba 5666 0fbd 1efa 73bd bc9e 88bd
00000040: ff5e 7dbc f42a 40bd fb79 0a3d 485d 2cbd
00000050: bc4f bebc 46fe 1f3d dd60 50bd 11bd 4cbd
00000060: 416f 02bd 9eda 8abd f4af d63b f663 1ebd
00000070: b7d3 96bb 36a6 04bd 876e 8fbd b8f3 9abc

sequential_1/conv2d_2/Conv2D/ReadVariableOp:0 f4 [32, 1, 5, 5]
-0.091023654 -0.15943183 -0.18267852 -0.13691044 -0.01796211 0.033955175 -0.16859834 -0.09269478
-0.1621313 -0.23801276 0.14335774 0.009412193 0.024464155 -0.08966038 -0.15465415 0.19499649
0.12176272 0.06611209 0.019528082 -0.07745832 0.15995616 0.15581837 0.138291 0.14403947
0.08498793 0.24674371 0.17096443 0.15557191 0.14283472 0.1289953 0.16223176 0.20198739
0.15628023 0.10477944 -0.059578575 0.05421626 -0.027169904 -0.107892364 -0.1655405 -0.113506004
-0.02874109 -0.2741283 -0.33243766 -0.26715386 -0.04394524 -0.12544662 -0.15649004 -0.046105336
0.053063363 0.02085373 0.075109825 0.060057018 -0.027927106 -0.12469067 -0.023139501 0.10372003
0.2157667 0.17295772 0.12705004 0.14816415 -0.044907864 0.12559468 0.16143213 0.16096944
0.094199896 -0.22584212 -0.02671329 -0.04922897 0.0032494552 -0.07169224 -0.24990915 -0.19531639
-0.2715171 -0.23470366 -0.18593729 -0.004904754 -0.060629062 0.07422445 0.10921197 -0.0019667791
0.012602013 0.14354819 0.026253527 -0.12422891 -0.030200144 0.016419051 0.19223589 0.06009098
-0.1804895 -0.17994428 -0.018523 0.10503743 0.08834351 -0.1094814 -0.10918606 0.04110344
-0.019656233 0.08720867 0.08345321 -0.0061752545 -0.11447214 -0.12909083 -0.08179301 -0.084291145
-0.080612056 0.004973098 -0.03690225 -0.2306806 -0.32079932 -0.16693893 -0.03248103 -0.027670994
-0.07818111 -0.01742107 -0.015325661 -0.08077506 0.016788827 0.15038282 0.1941441 0.16210389
0.14560105 0.04591163 0.11644181 0.18429208 0.0902314 -0.075999856 -0.13437767 -0.07549986
0.093174845 -0.08330873 0.112727374 0.14746344 0.1346849 0.04630858 0.04917478 -0.077462085
0.014591239 0.042903032 0.18892784 0.21423674 -0.14319614 -0.078934416 -0.03903286 -0.055209495
0.045598228 -0.20647034 -0.19830836 -0.2575846 -0.20401827 -0.11250781 0.09331338 0.067957714
0.058350813 0.12924369 0.046916515 0.08561764 0.21354352 0.1845202 0.15880062 0.06359817
0.15358695 0.17635587 0.0223598 -0.034800075 -0.16440216 0.06231644 -0.0008200142 -0.096320115
-0.08419293 -0.20324486 -0.03481614 -0.21047206 -0.28145656 -0.24155165 -0.15994847 -0.027131112
0.088197395 -0.1032506 0.09040953 0.10526176 0.09808732 -0.0986888 -0.20618217 -0.19521697
-0.05719588 0.16077295 -0.09973529 -0.17460778 -0.2349653 -0.25650966 0.12679404 0.19877815
0.06254669 -0.037794422 -0.152261 0.12184681 0.25172654 0.17051028 0.18438527 0.12058544
-0.030468114 0.09820264 -0.023813311 0.10405218 -0.106013276 0.09995145 0.16866736 0.1196645
-0.09632084 -0.2935928 -0.12453849 -0.06413382 0.06877397 0.072752826 0.013775913 -0.28894913
-0.02319329 0.12848496 0.07262188 -0.049199108 -0.10155404 -0.05819147 0.0723164 0.11586224
-0.051218495 -0.11754313 -0.34416345 -0.08472718 0.06688899 0.06265946 -0.17466484 -0.10296984
0.045232248 0.23396389 0.2065733 0.12245831 0.19272825 0.2481495 0.14094068 -0.0010262693
0.104737096 0.14423282 -0.08911047 -0.19156146 -0.15587339 -0.067140006 -0.21770586 -0.23753183
0.0037020214 0.027339498 -0.110922635 -0.20881581 -0.10166547 0.20836337 0.32834247 -0.035473138
00000000: 9c6a babd 1942 23be 1410 3bbe 4032 0cbe
00000010: 4625 93bc 9514 0b3d 0ba5 2cbe c3d6 bdbd
00000020: bf05 26be 9eb9 73be 5fcc 123e 9935 1a3c
00000030: 0d69 c83c dc9f b7bd a85d 1ebe 29ad 473e
00000040: bc5e f93d c765 873d 5bf9 9f3c 78a2 9ebd
00000050: 8ccb 233e da8e 1f3e 289c 0d3e 157f 133e
00000060: 270e ae3d 62aa 7c3e 4d11 2f3e 3e4e 1f3e
00000070: 4443 123e 5817 043e 1520 263e c8d5 4e3e
00000080: ed07 203e 9a96 d63d aa08 74bd de11 5e3d
00000090: 6b93 debc acf6 dcbd 7383 29be d675 e8bd
000000a0: 6f72 ebbc 8b5a 8cbe 4535 aabe 64c8 88be
000000b0: edff 33bd 1475 00be ed3e 20be f3d8 3cbd
000000c0: f858 593d 71d5 aa3c 2ed3 993d 59fe 753d
000000d0: 63c7 e4bc d25d ffbd 0d8f bdbc 2b6b d43d
000000e0: f2f1 5c3e d41b 313e 6819 023e 58b8 173e
000000f0: 4ff1 37bd e49b 003e 774e 253e 2cd5 243e
00000100: e0eb c03d 2843 67be d4d5 dabc 51a4 49bd
00000110: d0f4 543b 62d3 92bd 2fe8 7fbe 0501 48be
00000120: 4a04 8bbe 2856 70be 5866 3ebe 0fb8 a0bb
00000130: 2e56 78bd fd02 983d 86aa df3d 14e5 00bb
00000140: ac78 4e3c 4cfe 123e a311 d73c ba6b febd
00000150: 4b66 f7bc 3f81 863c 7cd9 443e f621 763d
00000160: 3dd2 38be 5043 38be 8cbd 97bc dd1d d73d
00000170: 71ed b43d c937 e0bd f19c dfbd 155c 283d
00000180: 1c06 a1bc 769a b23d 84e9 aa3d ca59 cabb
00000190: 5f70 eabd 6330 04be 1883 a7bd d6a0 acbd
000001a0: ef17 a5bd 5ff5 a23b d026 17bd 8937 6cbe
000001b0: cf3f a4be 0af2 2abe d40a 05bd 48ae e2bc
000001c0: 6b1d a0bd a2b6 8ebc 7b18 7bbc 656d a5bd
000001d0: b988 893c f4fd 193e b6cd 463e 90fe 253e
000001e0: 7118 153e d50d 3c3d 0b79 ee3d 10b7 3c3e
000001f0: 3ecb b83d d0a5 9bbd 4d9a 09be ac9f 9abd
00000200: 74d2 be3d c49d aabd 9cdd e63d a800 173e
00000210: d7ea 093e 11ae 3d3d 7e6b 493d 71a4 9ebd
00000220: 1810 6f3c 17bb 2f3d 4d76 413e e060 5b3e
00000230: 02a2 12be 5ea8 a1bd ece0 1fbd 5a23 62bd
00000240: 35c5 3a3d f66c 53be 5911 4bbe 21e2 83be
00000250: 2aea 50be 7f6a e6bd 161b bf3d 6a2d 8b3d
00000260: 4301 6f3d 7558 043e 882b 403d 4d58 af3d
00000270: 27ab 5a3e ddf2 3c3e a19c 223e c23f 823d
00000280: e645 1d3e a296 343e e62b b73c 868a 0ebd
00000290: 0a59 28be 863f 7f3d 39f6 56ba 7b43 c5bd
000002a0: 586d acbd 6c1f 50be 5e9b 0ebd fd85 57be
000002b0: 131b 90be 5159 77be 88c9 23be 1142 debc
000002c0: d6a0 b43d 0d75 d3bd a228 b93d 7a93 d73d
000002d0: 01e2 c83d 5b1d cabd 6b21 53be f5e6 47be
000002e0: 3a46 6abd aaa1 243e 0442 ccbd 62cc 32be
000002f0: be9a 70be 3c55 83be 4cd6 013e 808c 4b3e
00000300: 7b18 803d 53ce 1abd 4fea 1bbe d28a f93d
00000310: 4de2 803e 3f9a 2e3e 7ecf 3c3e 80f5 f63d
00000320: 4498 f9bc 771e c93d 2214 c3bc 4f19 d53d
00000330: 7d1d d9bd 59b3 cc3d 23b7 2c3e a912 f53d
00000340: dc43 c5bd cc51 96be 090e ffbd 9858 83bd
00000350: 5ed9 8c3d 6fff 943d 5eb4 613c 24f1 93be
00000360: dbff bdbc 9091 033e c8ba 943d 0185 49bd
00000370: 91fb cfbd 2e5a 6ebd 9f1a 943d 2f49 ed3d
00000380: 7cca 51bd 74ba f0bd 3136 b0be 7285 adbd
00000390: 18fd 883d 9a53 803d 57db 32be dae1 d2bd
000003a0: 7345 393d 3b94 6f3e f387 533e 6ccb fa3d
000003b0: 8e5a 453e e71a 7e3e c152 103e e283 86ba
000003c0: 6780 d63d c5b1 133e 8d7f b6bd b028 44be
000003d0: 469d 1fbe b380 89bd 49ee 5ebe 8b3b 73be
000003e0: 9d9d 723b 15f7 df3c 682b e3bd d0d3 55be
000003f0: fc35 d0bd 355d 553e 811c a83e 484c 11bd

sequential_1/conv2d_2/BiasAdd/ReadVariableOp:0 f4 [32]
-0.011673514 -0.005019294 0.0023818102 -0.09753735 0.0061220815 0.0071126055 -0.04450181 -0.06344168
-0.061662342 -0.015986959 -0.002291665 -0.025698991 -0.049794585 -0.03302354 -0.011658392 -0.04566819
-0.023035746 -0.046199046 0.021590088 -0.058530934 0.02797995 -0.03131803 -0.006456376 -0.06683848
-0.03500666 -0.014123387 -0.002491587 0.022366446 -0.019680787 -0.023931006 -0.008817078 -0.0048949956
00000000: 4442 3fbc e478 a4bb 2518 1c3b aac1 c7bd
00000010: be9b c83b dc10 e93b 8847 36bd b6ed 81bd
00000020: a791 7cbd 15f7 82bc c22f 16bb b186 d2bc
00000030: 68f5 4bbd b143 07bd d702 3fbc 910e 3bbd
00000040: 76b5 bcbc 363b 3dbd b2dd b03c 22be 6fbd
00000050: 3536 e53c 5647 00bd 0290 d3bb 9de2 88bd
00000060: 2563 0fbd c765 67bc e549 23bb d639 b73c
00000070: 9a39 a1bc f50a c4bc 8175 10bc 3366 a0bb
