models/model27.onnx (onnx, 408425 bytes, 4 tensors)

sequential_5/dense_11/MatMul/ReadVariableOp:0 f4 [128, 10]
000000 4c f1 97 3e fa 08 10 bf 44 a1 03 bc 51 5b 4c 3e
       0.29676282 -0.562637 -0.008034054 0.1995671
000010 a8 4d 11 bf db 6e 91 3e 5e d8 29 be cc 4d 8e 3b
       -0.5675912 0.2840489 -0.16586444 0.00434277
000020 3a d0 90 be 2f 44 cf bb e4 6b 3a be eb 62 c1 3d
       -0.28283864 -0.006325267 -0.1820522 0.09442695
000030 d5 76 31 3e 7c 42 df 3d 8c 07 da be 7a e8 0c 3d
       0.17330487 0.10901353 -0.42583883 0.034401394
000040 5f fd af bc 54 a8 3c 3e 62 49 49 3e 58 55 aa be
       -0.021483121 0.18423587 0.196569 -0.33268237
000050 c1 ea ac be 5b b5 de 3e 24 75 1b 3e 9d 66 d9 3d
       -0.33772853 0.43497738 0.15181404 0.10615275
000060 65 73 da be 21 af b0 3e 47 bc 13 3e 7c e3 5e be
       -0.42666164 0.34508613 0.14427291 -0.21766466
000070 56 85 e4 bc 1d bd 42 3e 63 48 69 be e9 39 b9 3e
       -0.02789561 0.19017453 -0.2278152 0.36176994
000080 52 d1 0e be ce 75 a8 be 7e 54 22 3e 3d cb c0 be
       -0.13947037 -0.32902378 0.15852544 -0.37655059
000090 2f da 91 be 94 8e 0e 3e 6b f6 e3 be 07 1d 5d 3e
       -0.28486773 0.13921577 -0.4452394 0.21593104
0000a0 18 8f 7a 3b c3 b6 fa bc 0c 8d 35 bf 37 b6 0f 3e
       0.0038232263 -0.030604726 -0.70918345 0.14034353
0000b0 6c 96 8b bd d8 d4 9c 3e b4 31 d8 3c e4 5a 86 bd
       -0.068158 0.30631137 0.026390888 -0.06560305
0000c0 0b a8 84 3b c0 37 69 3c 64 c9 e7 3d 87 8a ee 3b
       0.0040483526 0.014234483 0.11317709 0.0072796973
0000d0 0a c2 2b bf e4 20 07 3e 14 13 9c 3e 9d 7d 92 3e
       -0.67092955 0.1319614 0.30483305 0.2861146
0000e0 f2 89 a0 be 3d 53 64 be 08 8f fc 3c 61 b8 69 3e
       -0.31355244 -0.22297378 0.030829921 0.22824241
0000f0 51 0c dc 3d 20 db 4b 3e 26 ef 97 3c 39 5f f0 3d
       0.10744537 0.19907808 0.018546652 0.11736912
000100 0d 32 0c bf 71 61 87 be ae cb 96 bd f8 40 48 3e
       -0.5476387 -0.2644153 -0.073630676 0.19556034
000110 3c ab 04 3d 6c 4d 22 3d 37 3a 24 3e 9a 50 54 bb
       0.032389864 0.039624617 0.16037832 -0.0032396675
000120 8e 28 86 3e 39 d9 e8 bc 04 17 79 bf 7f ea 8e 3d
       0.26202816 -0.028423892 -0.97300744 0.0697832
000130 d9 c0 83 be 0a 79 c2 3d 65 1c 25 3b 43 31 86 bc
       -0.2573307 0.094957426 0.0025193926 -0.016380912
000140 2a 9d 2b bd ec 8f fa bd 2e 15 be be 8e 4e 3a bd
       -0.04189793 -0.12234482 -0.37125534 -0.04548507
000150 ae a3 7d 3e 15 d0 46 bb ee 72 02 3e a2 21 99 bd
       0.2476947 -0.003033643 0.12739155 -0.07477118
000160 dc 76 50 bb 7e 41 e0 3d 32 8c f8 3d 3c f2 91 3d
       -0.0031809127 0.10949992 0.12136115 0.07126281
000170 c3 5c 97 3d 09 42 13 3e 93 b4 4a be ed 02 ab be
       0.0739074 0.14380659 -0.19795446 -0.3340067
000180 d9 6e 4b 3e 87 a8 37 3e d7 b8 bd be ec 5b 0d 3e
       0.19866504 0.17935382 -0.37055084 0.13804597
000190 dc 56 e2 be ab fc 2c be bc 87 c7 3e ae 0e fe 3e
       -0.44206893 -0.1689326 0.38970745 0.49620575
0001a0 9e b1 d0 be bf da e6 3d 65 d3 f4 be 5a 4e f5 3e
       -0.4076051 0.11272191 -0.4781753 0.4791134
0001b0 49 73 ef be cb 53 6c bf 34 1a d7 3e 95 66 6a 3e
       -0.46767643 -0.9231536 0.4201218 0.22890694
0001c0 4c 7e bc bd 14 6c 37 be 3b 0b dc be 07 8a 07 bf
       -0.09203777 -0.17912322 -0.42977318 -0.5294499
0001d0 ed 13 6b 3e eb ca b5 bd bd 75 df 3d d6 92 9e 3e
       0.2295682 -0.08876594 0.10911129 0.30971402
0001e0 fb d1 7c bd a8 2e bc 3e a0 0f 67 3e 98 41 5a 3c
       -0.06172369 0.36754346 0.22564554 0.013321303
0001f0 32 3c 8f 3e fd a8 26 bf 22 c6 ca bd 84 07 3d 3e
       0.27975613 -0.65101606 -0.09901072 0.18459898
000200 00 94 75 be 69 87 2c 3e 30 c4 03 3e 6c de 87 bd
       -0.23982239 0.1684853 0.12867808 -0.066342205
000210 49 f5 87 be 8b 3b 95 3e dd 57 88 3e 00 cd 65 be
       -0.26554325 0.2914699 0.26629534 -0.22441483
000220 27 34 38 3e 3e 63 ff 3d 35 9c 0e bf a4 da 4d 3e
       0.17988645 0.12470101 -0.55707103 0.20102936
000230 87 c3 36 3c 14 d9 3d bf 31 62 64 3e fb 27 cc 3c
       0.011155016 -0.7415936 0.22303082 0.024921408
000240 f1 3d be be 97 d7 a8 3c 83 7a 17 bf fe be ab 3d
       -0.37156633 0.020610614 -0.59171313 0.08386038
000250 a7 b4 80 bd a3 23 cc 3e f7 8f ab be 14 24 41 3e
       -0.06284457 0.3987094 -0.33508274 0.18861419
000260 01 5a 3b 3e 75 b7 38 bd 81 2e 8a 3e df 1a 1c bd
       0.18296053 -0.045096833 0.26988605 -0.038111564
000270 a5 d7 af 3c 83 8f f4 be c6 24 32 bd e7 02 0e 3e
       0.021465132 -0.4776574 -0.0434921 0.13868295
000280 10 2c 43 be 13 db ac 3e 00 9c c5 3d 7b f9 af 3c
       -0.19059777 0.3376089 0.09648895 0.021481266
000290 f5 cc 9e 3e 25 cd 11 bf 7f be c9 be b7 32 3a 3c
       0.31015745 -0.5695365 -0.3940315 0.01136463
0002a0 c1 50 73 be aa 8e d2 3d 9e 98 c9 be 25 08 12 3e
       -0.23761274 0.10281117 -0.3937425 0.1426092
0002b0 ce b3 22 3c 19 bc c3 3d c0 7a 04 bd 04 9f b4 bd
       0.009930564 0.09557361 -0.032343626 -0.08819392
0002c0 d5 e4 b3 3d 1c 08 d0 3d 56 6a 7d 3e b6 39 64 bd
       0.087838806 0.10157797 0.24747595 -0.0557191
0002d0 e2 bb 03 3d a8 43 23 be 96 74 92 3e f1 de 32 be
       0.0321616 -0.15943778 0.28604573 -0.17467858
0002e0 ff dd 39 3d c1 a8 ca bb a7 c0 2f 3e a3 5c 30 3e
       0.045377728 -0.006184668 0.17163335 0.17222838
0002f0 94 15 21 bf 78 2f 2e bd 8c 4a 89 be ec d5 dd bd
       -0.6292355 -0.04252574 -0.26814687 -0.10831818
000300 7b 87 fa bd 46 ea 3a 3e ef 5e bb be 15 bd 69 3e
       -0.12232872 0.1825343 -0.36595866 0.22826035
000310 dc 86 49 3e a0 57 13 bf 15 a2 d6 3d 64 95 18 3d
       0.19680351 -0.5755558 0.104801334 0.037251845
000320 86 a3 ef 3e 9c b4 77 bd 01 ce c0 3e 5f bd f9 3d
       0.46804446 -0.060474977 0.37657169 0.12194323
000330 58 b1 cc be 50 d8 da bd 95 f4 62 be a9 24 47 be
       -0.39979053 -0.106857896 -0.22163613 -0.19447578
000340 a0 c3 0d bf d2 3b 44 bc ac 4f f5 be 4d 88 69 bb
       -0.55376625 -0.011977153 -0.47912347 -0.003563422
000350 60 60 b3 3d 25 47 9c 3e dc 46 90 3e 7e d1 c1 be
       0.087586164 0.3052303 0.2817906 -0.37855142
000360 08 b5 8c bd 7e de 4c be 77 75 0f 3d 10 6e b0 be
       -0.068704665 -0.20006749 0.035024133 -0.3445897
000370 ea 5e 5d 3e 43 e3 9a bd 34 31 93 3e 1b 5d c2 be
       0.21618238 -0.07562878 0.28748477 -0.3796166
000380 a0 e0 68 3e dd d7 1f be d2 d8 06 be df fc 98 3e
       0.22741938 -0.15609689 -0.13168648 0.29880425
000390 4d 8b de 3c c4 7e 46 3d 85 9c 12 3e c0 ea 70 be
       0.027166033 0.048460737 0.1431752 -0.2352705
0003a0 13 b8 62 be 90 07 aa be 0b 68 c7 3d 25 9b 01 be
       -0.22140531 -0.33208895 0.097366415 -0.12656839
0003b0 88 b3 86 3e 6f 63 25 3e b9 38 9f be 44 7c 8f 3e
       0.26308846 0.16151212 -0.31097963 0.28024495
0003c0 cc 3d 7c 3d 84 c5 a7 be 29 58 af bd 11 d1 66 3b
       0.06158237 -0.3276788 -0.08561737 0.0035219828
0003d0 93 8b 2a be 90 cc 0c 3e de 58 9b bd 6d 04 ac bd
       -0.16654806 0.1374991 -0.075853094 -0.08399282
0003e0 7a 16 a0 3d 78 7c 11 be 81 1d 68 3e 4e 85 32 be
       0.07816787 -0.14207637 0.22667505 -0.17433664
0003f0 6b e1 5b bb 96 49 b6 3d 74 52 4c be b3 9d 98 bd
       -0.0033551108 0.08900754 -0.19953328 -0.07451954

sequential_5/dense_11/BiasAdd/ReadVariableOp:0 f4 [10]
000000 28 b9 8e bd b3 8d b0 bd 3a e4 d9 3b f6 61 a3 bd
       -0.069689095 -0.08620777 0.006649521 -0.07977669
000010 55 75 ba 3d 5d 1b b2 3d f6 c7 79 bc 93 b9 1c bd
       0.091044106 0.086966254 -0.015245428 -0.038262915
000020 ba 0a a8 3d 80 e3 ea bc
       0.08205171 -0.028672934

sequential_5/dense_10/MatMul/ReadVariableOp:0 f4 [784, 128]
000000 76 68 60 3d f0 72 47 bc e3 ff 57 bd ed 80 21 bd
       0.05478712 -0.012173399 -0.052734267 -0.039429594
000010 e0 2f f6 bc 05 f4 8b 3d b8 75 46 bc d6 ab 05 3d
       -0.030052125 0.068336524 -0.012113027 0.03263458
000020 da 7c 41 bd 0e b5 bc bc 54 8c 9b 3c d2 01 b2 bc
       -0.04723821 -0.023035552 0.018987812 -0.021729384
000030 55 05 98 3d 2e d2 24 3d 38 97 4c 3c 8e 51 16 bd
       0.07422892 0.040239505 0.012487225 -0.03669887
000040 d3 9c 20 bd c2 9c 06 bd 4a 59 e2 bc 09 8b 2a bd
       -0.03921206 -0.03286434 -0.027630467 -0.0416365
000050 7d 92 86 3d 25 55 89 3d 1a bf 17 3d 06 82 58 3d
       0.06570909 0.06705693 0.037047483 0.052858375
000060 84 d3 95 3c 00 33 06 bc 40 89 e3 3a 20 ef 2b bc
       0.018289335 -0.00819087 0.0017359629 -0.010494024
000070 b8 e8 c7 bc 28 71 98 bc f4 a3 8e bc 48 5f 68 bd
       -0.024402961 -0.018608645 -0.017412163 -0.056731492
000080 7c 5f 04 3d 79 3e 95 3d bd 64 2f bd 39 68 80 bd
       0.032317623 0.07287306 -0.04282068 -0.06269879
000090 36 ac 5a 3d 9f 2a 24 bd 07 83 9a 3d 62 cb 75 3d
       0.05338689 -0.04007971 0.07544523 0.060008414
0000a0 86 b7 74 3d 0d 75 92 bd 9a 6d 4d 3d 9f 3b 9b 3d
       0.059745334 -0.07151232 0.050153352 0.07579731
0000b0 da ce 77 3d 29 3a 89 3d 56 a9 62 3d a4 04 a0 bc
       0.060500003 0.06700546 0.055337273 -0.019533463
0000c0 93 e8 8f bd a8 21 8e bc 17 56 9f 3d ff 9e 98 3d
       -0.07026782 -0.017350033 0.07780092 0.07452201
0000d0 02 37 60 3d e0 92 09 bb a0 4a 1b bb 9a c5 4e 3d
       0.05473996 -0.0020992085 -0.0023695603 0.050481416
0000e0 78 12 39 bc 0b 37 9f bd 3a 50 a9 bc 10 f2 5d 3c
       -0.011295907 -0.077741705 -0.020668138 0.013546482
0000f0 40 78 d4 ba 32 05 51 3d dc 87 13 3d f8 83 1e 3d
       -0.0016210154 0.051030345 0.036018237 0.038700074
000100 45 ef 9c bd 0a 7e 3f 3d 82 ee d3 bc f0 f1 44 3c
       -0.076628245 0.04675106 -0.025870565 0.012020573
000110 60 7a 59 3c aa 67 50 3d 9a a1 63 3d d3 c2 80 3d
       0.013273805 0.05088011 0.055574037 0.0628716
000120 b0 9f 8c 3c 14 92 20 3d 96 00 9d bc 00 bd 83 bd
       0.017165989 0.03920181 -0.019165318 -0.06432533
000130 ba b9 34 3d 29 94 9a 3d 81 65 a3 3d b2 f6 7e 3d
       0.044122435 0.075477906 0.07978345 0.062246986
000140 de 4f b9 bc e8 91 76 bc 34 03 d3 bc 52 51 61 3d
       -0.022621091 -0.015049435 -0.025758363 0.055009194
000150 f0 36 01 3d 32 95 72 bd 6e 62 5e 3d 78 c0 89 3c
       0.031546533 -0.059224315 0.05429309 0.016815409
000160 d1 0c 93 3d b7 2f a3 3d b0 ae 67 bd 98 d9 0c bc
       0.07180179 0.07968085 -0.05656308 -0.0085968
000170 f4 af 17 bd ef be 9a 3d e2 55 fb bc c3 34 3d bd
       -0.037033036 0.07555949 -0.0306806 -0.046192896
000180 58 5c 68 bd 2a 76 77 3d 66 4b 7f 3d 2c 07 23 bd
       -0.05672869 0.060415424 0.062327765 -0.03980176
000190 e8 9d 12 3c bb dc 66 bd e8 7d 5e bd 73 78 94 bd
       0.008948781 -0.05636285 -0.054319292 -0.07249536
0001a0 98 33 26 bd 1f 45 9b 3d 4f 90 1c bd 27 f2 85 3d
       -0.040576547 0.07581543 -0.03822356 0.065403275
0001b0 79 70 9f 3d 8c fa 79 bd f2 97 30 3d 7e 7a 32 3d
       0.07785124 -0.061029956 0.043113656 0.04357385
0001c0 e0 ea 94 bb c1 dc 8f bd d8 8a 7b bc 03 67 45 bd
       -0.004544601 -0.07024527 -0.015352927 -0.048193943
0001d0 32 5f a0 bc 18 63 e8 bc ed 66 a2 bd 32 e7 3f 3d
       -0.019576643 -0.028367564 -0.07929788 0.046851344
0001e0 0b 89 9b 3d a8 61 c2 3c a7 ae 93 3d 73 7b 94 3d
       0.07594498 0.023728207 0.07211047 0.072501086
0001f0 1a 24 74 3d 00 10 65 3a 78 3f 41 bd 02 60 47 bd
       0.05960474 0.0008738041 -0.04717967 -0.048675545
000200 84 28 80 bc 08 16 76 bc 64 7c cd bc 88 2e f6 3c
       -0.01564432 -0.015019901 -0.025083728 0.030051485
000210 4c 03 eb 3c d8 ff 6e 3c 50 61 d6 bb 54 7b af bc
       0.028688096 0.014587365 -0.0065423623 -0.021421112
000220 ba 2a 57 bd 00 c9 e2 b9 32 b6 60 3d 6a bd 49 3d
       -0.05253098 -0.00043255836 0.054861255 0.049252905
000230 0a 9a 7c 3d 2e 99 91 bd 16 1f 4f bd 3e 8f a1 bd
       0.06167034 -0.07109295 -0.050566755 -0.078886494
000240 e7 81 92 3d 0e 36 f2 bc 05 ba 90 3d 64 01 8d bc
       0.07153683 -0.02956679 0.070667304 -0.017212577
000250 78 54 93 bd a9 28 93 3d a0 b3 3b 3b fc 46 87 3c
       -0.071938455 0.0718549 0.0028641 0.01651334
000260 aa db 6b bd 82 40 85 bd aa b2 7b 3d 9f cd 74 bd
       -0.057582535 -0.065064445 0.061449684 -0.059766408
000270 f0 54 c2 bb 38 bf 14 3c 94 1b 33 3d 09 53 7a bd
       -0.0059305355 0.009078793 0.043727472 -0.061114345
000280 bd 61 96 3d c8 00 2e 3c 94 c1 bf 3c ef 4a 84 3d
       0.07342861 0.010620303 0.023407735 0.06459605
000290 de 61 66 bd 30 0a 78 bd 84 f9 04 bd fd 39 47 bd
       -0.056245677 -0.06055659 -0.03246452 -0.048639286
0002a0 00 e0 5d b7 54 18 cb 3c e0 0b 22 bb a6 01 29 bd
       -1.3224781e-05 0.024791874 -0.0024726316 -0.041261338
0002b0 a0 f8 67 3c 70 71 c4 3b c0 e1 da 3a 7e 94 9a bc
       0.014158398 0.005994968 0.0016699359 -0.018869635
0002c0 f3 b9 8c 3d bc 11 84 3c 8e 6d 7d bd ae 08 56 3d
       0.068714045 0.016121738 -0.061872058 0.05225437
0002d0 ad b2 99 3d ac 5f 04 3d 00 c7 84 39 a8 5e c8 3c
       0.07504783 0.032317802 0.00025325269 0.024459198
0002e0 c0 92 97 3c c0 e0 df 3c be 29 6e 3d 82 2b 9c bd
       0.018502593 0.027328849 0.058145277 -0.07625486
0002f0 4a c5 52 3d a0 65 01 bc 5a 35 73 3d 18 61 32 3c
       0.05145768 -0.007897764 0.059377052 0.010887407
000300 bb 72 24 bd 90 9c 87 3c 8c 18 8d bd fe ce 0b 3d
       -0.040148478 0.016554147 -0.068894476 0.03413295
000310 56 cc 76 3d e4 84 83 bd 94 29 db 3c 8f 4d 92 bd
       0.060253464 -0.06421831 0.026753224 -0.071436994
000320 73 6c 9c bd e0 e0 ef bc 8a 59 58 3d 18 e6 9d 3c
       -0.076378725 -0.029282033 0.052819766 0.019274756
000330 60 fb c4 3c c0 7a 15 bb 36 51 94 bd 17 c9 12 bd
       0.024045646 -0.002280876 -0.07242052 -0.035836305
000340 d0 d2 cd 3b 58 92 cc 3c 22 4d 52 3d 67 67 8d 3d
       0.0062812343 0.024972126 0.05134309 0.06904488
000350 e2 a3 7a bd 03 4a 4f bd e0 ce 6b bc 38 11 97 3c
       -0.061191447 -0.050607692 -0.014392585 0.018440828
000360 8c 45 a0 bd 24 b2 d7 bc 02 e6 7a bd 7b 3d 2f bd
       -0.07825765 -0.026330061 -0.06125451 -0.04278324
000370 00 27 c1 ba f8 33 33 bc ea 98 33 3d 0b c7 a2 bd
       -0.0014736354 -0.010937683 0.043847002 -0.07948121
000380 82 c6 7c 3d 37 ab 84 3d 2e 13 4e 3d e0 b3 02 3c
       0.06171275 0.06477969 0.05031126 0.007977456
000390 a0 7c 6f 3b 80 88 27 3c c0 4d ab ba 47 a1 3f bd
       0.0036542788 0.010225415 -0.0013069436 -0.046784665
0003a0 5c a2 e0 bc ff 80 94 bd 87 5c 8f bd 68 d0 d1 bc
       -0.027421169 -0.072511666 -0.0700007 -0.025612071
0003b0 6c 6c f3 bc 0f 5c 80 3d 3c ce f9 bc 7e 66 2d bd
       -0.029714786 0.06267559 -0.030493848 -0.042334072
0003c0 07 03 90 bd 4a 07 0a 3d e7 37 a2 3d 6b 8a 88 bd
       -0.070318274 0.033698358 0.07920819 -0.06667026
0003d0 d2 45 25 bd 17 32 90 3d a2 67 40 bd ee a5 90 bd
       -0.04034979 0.07040804 -0.046973832 -0.070628986
0003e0 1a 07 01 3d 6a e6 56 bd b8 c5 e9 3c c0 0f 9b 3b
       0.031500913 -0.052465834 0.028536662 0.004732102
0003f0 c0 ca 65 bc 96 36 65 3d 2d 3b 9e bd 92 37 35 3d
       -0.01402539 0.05596026 -0.07726131 0.04424245

sequential_5/dense_10/BiasAdd/ReadVariableOp:0 f4 [128]
000000 5a af 32 3d a6 61 c1 3b 3d 7d ac bc a1 9c 57 bc
       0.04362426 0.005901533 -0.021055812 -0.013159902
000010 83 4b d0 3d 52 0e 6c 3c 1a 42 9a bd 6a e8 0c 3d
       0.10170653 0.014407711 -0.07532139 0.034401335
000020 9c 4c fd 3c c7 f6 b8 bd 6f 26 1b bd 0b 48 8a bd
       0.03092032 -0.09031444 -0.03787845 -0.06752022
000030 65 f8 ae 3c 8e e0 66 bd 7f 7d 82 3d e6 0c 82 3d
       0.021358678 -0.056366496 0.06371593 0.063501164
000040 2f 45 c3 bc 1b c4 39 bb e5 40 59 3d 72 8e 9c bd
       -0.0238367 -0.0028345648 0.053040404 -0.07644357
000050 b8 e1 8a ba ba cc db bd 2f f2 d5 3d 5c 8b b4 3c
       -0.0010595834 -0.10732408 0.104465835 0.022039108
000060 1a 1b 7e 3d 18 fb 17 be 1a ed 18 bd f0 2a 2a bd
       0.062037565 -0.14841878 -0.037335493 -0.041544855
000070 af 37 5a bc e5 c1 0f 3e 66 08 48 3e 94 2a 4f bd
       -0.01331894 0.14038809 0.19534454 -0.050577715
000080 dd 31 db bd b7 cd e9 3d d8 5b ce bd cf 56 1f bd
       -0.1070287 0.1141619 -0.100761116 -0.038901147
000090 f5 f8 4e 3d 39 ba 20 3e 4f 32 10 3e 63 17 39 bd
       0.050530393 0.15696038 0.14081691 -0.04518832
0000a0 0f 14 13 3c 26 80 82 3d 56 bf 12 3c f9 47 cd 3d
       0.00897695 0.063720986 0.008956751 0.10023493
0000b0 74 20 99 bd 00 4b 02 3e b9 35 a0 3d 37 5c 18 3e
       -0.07476893 0.12723923 0.07822747 0.14878927
0000c0 7e 35 c2 bc 78 93 4e 3d 69 fb c1 3c de 19 fd 3d
       -0.023707148 0.050433606 0.023679452 0.123584494
0000d0 6a 7d 03 3d 52 c2 0f bd ec f9 a2 3d 18 2f 5c 3e
       0.032102026 -0.035097428 0.07957825 0.2150234
0000e0 6c 30 51 bc 47 7f a5 bc ae 0c 8c bb 3c a5 09 3d
       -0.012767892 -0.020202292 -0.0042739725 0.033604845
0000f0 f5 26 34 3e 11 85 d1 3d b2 23 ef 3c a0 96 14 3e
       0.17592986 0.102304585 0.029191826 0.14510584
000100 98 dc c0 bc 46 fd f1 bc aa b0 c5 3b 71 1d bc bd
       -0.023542687 -0.029539715 0.006033023 -0.09185303
000110 88 3e 5b bd cd e8 46 3d 10 b5 c8 3d 27 86 a8 bd
       -0.05352643 0.04856186 0.0980016 -0.082287125
000120 60 ee 76 3d e1 35 09 bc dd d5 15 3e 5b 41 f5 bc
       0.060285926 -0.008374662 0.14632364 -0.02993839
000130 72 30 20 bd d9 0b 03 3e 77 db 95 3d 21 e0 11 3e
       -0.0391087 0.12797488 0.0731725 0.14245655
000140 d7 df ad 3d 40 ad 6b 3d a3 c8 ec 3b b9 4c 0e be
       0.0848996 0.05753827 0.007226066 -0.13896455
000150 87 b1 e9 3d c1 b1 aa 3d 37 a5 05 3d 6e 69 5c bd
       0.11410814 0.08334685 0.032628264 -0.053811483
000160 80 e5 54 3e 10 d0 1a 3e d6 7f f5 3d 3a a9 88 3c
       0.20790672 0.15118432 0.119872734 0.016682256
000170 ab 4a 5b 3d 00 15 50 3d c9 af bf 3d 63 93 88 bc
       0.053538006 0.050801277 0.093597 -0.016671842
000180 77 d2 b0 bc 3f 67 2c 3e a3 35 9d 3d 35 06 57 bd
       -0.021584732 0.1683626 0.07676246 -0.052496154
000190 30 72 5e 3c fa b7 81 bd 56 b1 c5 3c 61 3e 07 be
       0.013577029 -0.06333919 0.024132412 -0.1320739
0001a0 43 75 07 3d 7a 31 76 bb a2 a8 33 3c 80 cc 03 3c
       0.033070814 -0.0037566111 0.010965498 0.008044362
0001b0 2a 37 bd bd b1 1f 11 3d ba 7f d6 3d 87 49 0a 3e
       -0.09239037 0.035430614 0.10473581 0.13504611
0001c0 b2 d7 1c bd 3f fa c2 3d 21 c0 2e 3c 89 f4 8a bc
       -0.03829164 0.09520387 0.010665924 -0.016962307
0001d0 21 0f 80 3d d2 c9 4d 3e 13 14 2d bd 12 ce 4b 3e
       0.062528856 0.2009652 -0.042255472 0.19902828
0001e0 21 f5 96 bb 17 fd 90 bd eb 1c 51 3e b9 6d ee 3c
       -0.0046068584 -0.07079523 0.20421188 0.029105054
0001f0 71 93 82 3b 85 d7 e0 3d d6 3f a4 3c ce 76 d3 3d
       0.0039848615 0.10978607 0.02004997 0.103253946
