models/model19.onnx (onnx, 903157 bytes, 8 tensors)

sequential_1/dense_2/MatMul/ReadVariableOp:0 f4 [128, 10]
00000000: 91a4 1cbc 72ed 943d a0c3 163e c70d 273d
00000010: d38f 123e 9c4c 5abd 5f02 c4bc c50b 2c3e
00000020: c02d ad3c 6404 183e 8a44 1bbe 9c0b 123e
00000030: 1655 353d fa69 123e f1bf 3fbc 56d1 fb3d
00000040: 77f2 c3bd 632d 063e 9587 913c 85c7 953c
00000050: f15c 26be a7ca 1dbd cfb3 633d b5d2 123d
00000060: 88e6 48be 9ba1 09be ad28 11bd 7dc5 36bd
00000070: fd9a 84bd 963f 65be 208c 28bd 2d9d ca3d
00000080: ce7e e13c 5f15 00be 5215 8c3d 67f7 f1bd
00000090: 844e ccbb e910 31bb bf4c 813a 1803 91bc
000000a0: f8a3 cabd 759c a13d 3591 41bd 940d d4bd
000000b0: eb58 b93d 72c3 11be 8594 cebd 6ed6 d83d
000000c0: 098c 4b3c b1bd be3d b334 c43d f61f d2bc
000000d0: a97e 873d f8a2 8d3b 5668 40bd 0cb5 cebc
000000e0: d03e 9b3c a30a efbc 1d88 ac3d c094 51bd
000000f0: 069c 903c 997f aabd 16db ffbd 01b9 9bbd
00000100: 9e13 493d e499 723d 172a 393d 0c6a 97bd
00000110: 7731 0d3d bde5 113d 4e54 b8bd cfe2 fd3d
00000120: 7f7f f33d 7474 36bd 1fbc f8bc 247f d4bd
00000130: 0005 82bd 8fd2 323d 420a 243d 1c80 95bd
00000140: a834 d03c bcfe 33bd d59b a4bc d81d 18be
00000150: ef78 4c3d 014d a0bd 0e09 f93d ca46 92bd
00000160: fdc2 8fbd c976 29bd cd5b a13d 0ab5 37bd
00000170: a51b ddbd df49 4fbe c39f df3d dddb 2cbd
00000180: 1a9d cc3d ab1a d1bd ee22 babd 44bc a63d
00000190: 89b1 693d dca5 7dbc 089c b4bd a8d9 a3bd
000001a0: 72eb 0b3d 3926 df3d f43c d23d 8044 973d
000001b0: d5f0 04bc 8db2 fc3d 9300 02be 3bbe d13c
000001c0: e50c ad3d 9a39 dc3d 855e d4bd 6609 00bd
000001d0: 6c71 6abc 42ac 76ba 7b06 943d e1e4 6a3c
000001e0: 58fe babd f712 943d 9dbf 30bd 9261 b6bd
000001f0: a3d6 e5bc d173 c33b eb8a 5f3d 3721 adbd
00000200: fe1e 6a3d 9e76 df3b 6c78 183e 004e 07bd
00000210: a41c 5ebd 03cc 393d 49cb b23d f527 bf3d
00000220: 839d ba3c 9bf0 febd b890 ce3c c07a 15bc
00000230: 27cf 073e c296 5a3d 0df9 923d 39bd 4ebd
00000240: bb6f 073d e9f0 25bd 1e71 d2bd de85 dfbc
00000250: aa2f e5bc f727 f83d 8085 fc3d 424e f53d
00000260: 75d9 96bd 0ddc efbc bf84 943d 7b26 6e3c
00000270: d719 493d b7fc 46bc 19a9 d23d 88bf d1bc
00000280: 0c82 82bd ca3c a8bd cb4f 803d a9fc c2bd
00000290: 5e36 9c3d aa86 6dbd de83 e4bc 1dcb a83c
000002a0: ac8a 9b3d 3130 9f3d 8b86 6b3d 1570 bb3d
000002b0: c99a 063e de28 073d 2740 083e bfee 0dbd
000002c0: b358 c23d da40 fe3d 9495 c5bc 6536 113d
000002d0: b0e0 893d 65b2 993c bb38 0c3d 78dc acbd
000002e0: 239a 7d3c bb67 7ebd 9494 a9bc 29ff 27bd
000002f0: 42da 10be 6530 75bd fa8e 6bbd 6052 44bc
00000300: 99dc 05be 6b96 a7bc 943a 14bc fe17 7c3d
00000310: 74fd 83bb f615 883d 6a20 c1bd e8ee 9fbd
00000320: ec65 babd 0be8 353d df65 8e3d a072 8f3d
00000330: 9442 d83c 5ca7 64bd 8c69 eebd aee0 903d
00000340: 2127 c2bc cc92 b2bc 95e1 fcbc a17c 493c
00000350: cb75 70bc 0046 003e 3c5d 193d 2048 f43d
00000360: 6d44 2fbd d712 ccbc 6fa6 3a3d 76d5 163e
00000370: 203a 8a3d b2fa fa3c 51c0 b4bb 4277 7abe
00000380: 59ec f53d 572d 043e b09f ee3b 9f9d 353d
00000390: 0be7 9dbb 3709 c73d db3b d53c f3e8 98bd
000003a0: eea3 0d3e 5eee 923d 9853 9bbd 991b ff3d
000003b0: 8bd7 363d 0312 8f3d 19d2 453d 6645 583c
000003c0: 4dde a3bd c7ea 0e3e 0630 213d ef5d 9dbd
000003d0: 2196 9fbc b475 2f3e c360 173d 555e 7f3c
000003e0: 446f 0b3d f2e8 bebc c60c e43d fed5 c5bd
000003f0: 6bb6 92bc 6c59 873d 5423 063d 5e56 1e3d
-0.00956072 0.072718516 0.14723063 0.040784623 0.14312677 -0.053295717 -0.023926912 0.16801365
0.02113998 0.14845425 -0.15162864 0.14262241 0.044270597 0.1429824 -0.011703477 0.12295787
-0.09567731 0.13103251 0.017764846 0.018283615 -0.16246392 -0.038523342 0.0555914 0.035845477
-0.1961919 -0.13440554 -0.035439182 -0.044621933 -0.06474874 -0.22387537 -0.04114926 0.0989326
0.027526285 -0.12508152 0.06840004 -0.118147664 -0.0062349457 -0.0027018136 0.0009864791 -0.01770167
-0.09894556 0.0789117 -0.04725762 -0.10354152 0.09050163 -0.14234713 -0.100869216 0.10587774
0.012423524 0.093135245 0.09580364 -0.025650006 0.066159554 0.004322406 -0.046974503 -0.025232814
0.01895085 -0.029179877 0.08424399 -0.05116725 0.017652523 -0.083251186 -0.12492959 -0.07603646
0.049090974 0.059228793 0.045206156 -0.07393274 0.034471 0.035619486 -0.09000455 0.12396776
0.11889552 -0.044544652 -0.03036314 -0.10375813 -0.0634861 0.043657836 0.040048845 -0.072998255
0.025415733 -0.043944106 -0.020093838 -0.14855134 0.04992002 -0.07827187 0.1215993 -0.07142408
-0.07019613 -0.041373048 0.07878838 -0.044850387 -0.107962884 -0.20243023 0.10919144 -0.042201865
0.09990902 -0.10210165 -0.090886936 0.081413776 0.057054076 -0.0154814385 -0.08818823 -0.08000499
0.034160085 0.10895962 0.10265532 0.07386112 -0.008114059 0.12338743 -0.12695532 0.025603404
0.08449725 0.10753174 -0.10369591 -0.031258963 -0.014309268 -0.00094098237 0.072277986 0.014336796
-0.091305435 0.0723018 -0.043151487 -0.08905329 -0.028056448 0.005964734 0.054575842 -0.08453601
0.057158463 0.00681956 0.14889687 -0.03303337 -0.054226533 0.045360576 0.0873018 0.09333793
0.022780186 -0.124482356 0.025215492 -0.009123504 0.13262616 0.05336643 0.07176409 -0.050473426
0.03306554 -0.040512953 -0.10275482 -0.027285513 -0.02797683 0.12116998 0.123301506 0.11977817
-0.073656954 -0.029279733 0.07251882 0.014535542 0.04909691 -0.012145213 0.10286159 -0.025604025
-0.06372461 -0.082147196 0.06265219 -0.09520847 0.07627557 -0.057989754 -0.02789491 0.020604664
0.07594809 0.07772864 0.057501357 0.09152237 0.13144983 0.03299796 0.13305722 -0.034651514
0.09489574 0.12414713 -0.024119176 0.035452265 0.06732309 0.018761823 0.03423379 -0.084404886
0.015478644 -0.062110644 -0.02070073 -0.041014824 -0.14145759 -0.059860606 -0.0575094 -0.01198253
-0.13072433 -0.020457467 -0.009047169 0.06154632 -0.0040280167 0.06644814 -0.094300106 -0.078092396
-0.09101471 0.044410747 0.06953024 0.07004285 0.026398934 -0.05582367 -0.11641225 0.07074104
-0.023700299 -0.021798514 -0.030869285 0.01229778 -0.0146765215 0.12526703 0.03744243 0.11927819
-0.042789865 -0.024911327 0.04556888 0.14729866 0.06749368 0.030637119 -0.00551609 -0.24459556
0.1200797 0.12907921 0.00728222 0.044339772 -0.0048188022 0.097185545 0.026029518 -0.074663065
0.13832065 0.07174371 -0.075843036 0.12456436 0.04463915 0.06985857 0.048296068 0.01320014
-0.08001385 0.13956748 0.03935244 -0.07683932 -0.019480767 0.17134744 0.036957514 0.015586455
0.034041658 -0.023304436 0.11135249 -0.096599564 -0.01790925 0.06608853 0.032748535 0.038656585

sequential_1/dense_2/BiasAdd/ReadVariableOp:0 f4 [10]
00000000: 5f26 953e 8501 4a3b 0b37 a13c 6667 21bd
00000010: c8ab 22be 4a45 35be c785 c3be eb48 8dbc
00000020: d2b0 a43e 95de b63d
0.29130837 0.003082366 0.019679567 -0.03940525 -0.15885842 -0.17702213 -0.38188002 -0.017246684
0.32166153 0.08929173

sequential_1/dense_1/MatMul/ReadVariableOp:0 f4 [1600, 128]
00000000: e208 a8bd e2f4 ba3c 1a7d 8fbd 18f3 3abe
00000010: be74 20bc cc73 be3c 16e9 39bc 4bf1 a63d
00000020: 81fa 993d 81e0 d0bd a717 25bc 8674 1abd
00000030: b8bc 713b 56ed a43d aca5 3a3c b9ee 5cbd
00000040: 5674 343d 6995 4dbe 7b80 a1bc 9cc0 933c
00000050: b9ea 54be 4958 893d c308 283d f8a2 9dbd
00000060: b9e5 f1bb 7125 b03d 9884 c3bb f186 143e
00000070: 453c 5dbd 9225 42bd 62c6 0b3e c389 9cbd
00000080: 0ca8 6bbb f536 17bc 59d7 a4bc 6b2c e3bd
00000090: bd15 69bd 7f8f fdbd ce32 36bd d0a6 83bc
000000a0: fcd1 1a3d c69f 4cbc 17f8 25be 8f8a d13b
000000b0: 0e35 1bbe d49e ff3d a151 cfbd c82c ddbd
000000c0: 62af 393d e2a5 26bd db9c e53d 3622 13bd
000000d0: 4f56 8f3d dc31 733d 8c97 413d 7afb a3bc
000000e0: 075b f43c a153 7dbd e678 473d 2c9d 333d
000000f0: b683 1bbd 124e 053d e395 0f3e add3 dfbd
00000100: 2801 073c 3700 e13d e929 62be b067 bebc
00000110: e45f d1bd 0698 403c 92be d03c 37ef 083e
00000120: bade 42bd 307c dcbc 6a64 55bd 0562 823c
00000130: 3042 5fbc c69b dcbd 54d7 03bc e572 d7bd
00000140: 794c aebe 3f91 763d 1768 eebc 40ab 15be
00000150: 5fe7 8ebd 21db 513d 1b6b ecbc 3055 b73c
00000160: eba1 c23c d060 9abd a412 d33d d789 ee3d
00000170: b608 81bd 2cd0 e13c 5496 09bd 7754 68bd
00000180: 2ace 0cbc 7820 c13c 18df 1abd fb4b e4bd
00000190: c641 61bd 4c3a 36bd 3315 9fbd 09cc ed3d
000001a0: 82cb 7a3c e34a 2ebd 0039 873d 9bbc fc3c
000001b0: fc58 44bd 69de 0bbd 267c b3bd 3dac 3e3d
000001c0: c133 8d3d 090e 193d e5f3 05be 699c 803c
000001d0: 40ea 32bd 9847 4f3d 6af3 a3bc ab45 0b3d
000001e0: f8bd c0bd 341e bebc 3e2e 713c 89df b13d
000001f0: fdc1 f63c 4263 f6bc 74ba 9a3d 15e9 5b3e
00000200: ed89 3cbc d4b5 4fbd c61f f83d c3f5 2cbe
00000210: a942 78be 559a 73bd bffe 093e 1f9b b5bd
00000220: dbdb 203e aa2d d43d ff10 1c3c 1718 fe3d
00000230: 3b45 e63d 200d 51bd 3514 063d f4ff a23c
00000240: 8006 03be 5981 0c3e 94ef d8bd 0f1c 413d
00000250: b47c b0bd 3526 95bd 149c 7abd d800 bbbd
00000260: 9f19 6abd ac19 d7bd 0369 753d 6674 61bd
00000270: 07cd 77bc 8ae6 803d 39e9 a3bd 2470 97bc
00000280: dc7b 373d 520a 81bd 70ab c1bd 06e8 ea3d
00000290: acf2 063d 24ba 6abd 6a26 b5bb b181 593e
000002a0: 1bdd eb3c 0be4 423e 3bdf ce3d 51cb 59bd
000002b0: 170f 0dbc 0162 dbbd 7abc 80bd 6078 0cbd
000002c0: d54c 73bd 32df 88bd 92f7 4c3d 2188 88bd
000002d0: a076 28be 906b 903e 8917 5e3e f2b4 88bd
000002e0: eda0 00be 30ce e33d 59fd e1bc d73c 37bd
000002f0: 63e3 08bd 5756 89bd d017 46be ed11 c03d
00000300: 7104 b33d 03c1 853c 3c21 cfbb d213 cb3d
00000310: 34d5 a1bd 302c 9fbd a2cc cf3e f10f 28be
00000320: 9d1b 27ba 9c50 74bd d355 8ebd d991 e1bd
00000330: d835 aabd d097 85bc f376 a6bd 0f0f ebbc
00000340: 5e6c a2bc c546 c53d 9ded 063d 4215 ba3c
00000350: 359c cdbd 78b4 9ebd dcda 0c3c 647b 88bd
00000360: 2a47 a1bc 162a 26bd b11f fe3d fc27 cebd
00000370: 7b93 e1bc db6b 003d 0eb9 423d 847b d13d
00000380: 4913 c6bd f717 8dbd f990 953c 9ce3 c03d
00000390: f883 38bd cde7 00bd d0c9 23be 4b91 183e
000003a0: 740a 19be 6a49 0e3d 4d57 e73d 5c8a 2e3e
000003b0: 34cf dbbd 363f 593e 6649 f2bd fe24 2cbd
000003c0: eb4e e7bd f674 023e af0c f33d 8a77 f8bc
000003d0: 2581 3f3e c07d a03c 0791 173d 22aa ccbd
000003e0: f828 813d 1517 7e3c fd16 1cbd e2bb 45bd
000003f0: bfd2 983d 53be 0d3e 4d63 c53d f579 35bd
-0.08204819 0.022821847 -0.07006283 -0.18256795 -0.0097934585 0.023248576 -0.011347076 0.08151492
0.07518483 -0.10199071 -0.01007644 -0.03770878 0.0036886167 0.08053081 0.011392038 -0.0539386
0.04405626 -0.20076527 -0.019714585 0.01803618 -0.20792665 0.06706292 0.04102398 -0.076970994
-0.0073821214 0.086008914 -0.005966734 0.14504601 -0.054012556 -0.04739911 0.13649896 -0.076434635
-0.0035958318 -0.009229411 -0.020122217 -0.110924564 -0.056905497 -0.12380885 -0.044482045 -0.016070753
0.037797913 -0.012489265 -0.1620792 0.0063946913 -0.15156958 0.12481466 -0.10122991 -0.10799557
0.045333274 -0.040685542 0.112115584 -0.035921298 0.06998884 0.05937372 0.047263667 -0.020017374
0.029828561 -0.061847333 0.048699282 0.043851063 -0.037967406 0.032545157 0.14022021 -0.10929046
0.008240022 0.10986369 -0.220863 -0.023242801 -0.10223368 0.011754995 0.025481496 0.13372503
-0.04757569 -0.026914686 -0.052097715 0.01591588 -0.01362662 -0.10771899 -0.008046944 -0.10519961
-0.3404272 0.06019711 -0.029102368 -0.14616108 -0.06977724 0.05123437 -0.028859666 0.022379488
0.02375885 -0.07537997 0.1030629 0.116473846 -0.063004896 0.027565084 -0.03359063 -0.056721177
-0.008594075 0.023575053 -0.037810415 -0.111473046 -0.054994367 -0.04448919 -0.07767715 0.11611182
0.015307309 -0.042551886 0.06602669 0.030851653 -0.047936425 -0.034147654 -0.08763914 0.046550978
0.06894637 0.0373669 -0.1308132 0.015699582 -0.04368043 0.050605386 -0.02001353 0.034001987
-0.09411234 -0.023207761 0.014720498 0.08685214 0.030121798 -0.030076627 0.07555094 0.21475632
-0.011507493 -0.050710514 0.12115435 -0.16890626 -0.24244179 -0.059473354 0.13476084 -0.088674776
0.15708868 0.10360272 0.009525537 0.124069385 0.112436734 -0.051037908 0.032734115 0.019897439
-0.12795448 0.13721217 -0.10592571 0.0471459 -0.08617535 -0.07282678 -0.061184004 -0.0913102
-0.05715334 -0.105029434 0.0599146 -0.055042647 -0.015124566 0.06293972 -0.08003468 -0.01848609
0.044795856 -0.063007966 -0.09456527 0.11470036 0.032946274 -0.057306424 -0.005528261 0.2124088
0.028791955 0.19032304 0.101011716 -0.053172413 -0.008609555 -0.10712052 -0.06285949 -0.034294486
-0.059399445 -0.06683196 0.05004079 -0.066665895 -0.16451502 0.28207064 0.21688665 -0.066751376
-0.12561388 0.111233115 -0.027586626 -0.044735756 -0.033419978 -0.06705921 -0.19345021 0.09378419
0.087410815 0.016327387 -0.0063211005 0.0991589 -0.079019934 -0.077721 0.4058581 -0.16412331
-0.0006374659 -0.059647188 -0.069499634 -0.11014146 -0.08311051 -0.016307741 -0.081281565 -0.028693704
-0.019827064 0.09632639 0.03294145 0.022715215 -0.1003956 -0.077492654 0.008597102 -0.0666416
-0.019687254 -0.04056748 0.124083884 -0.1006622 -0.027536144 0.03135286 0.047539763 0.10228637
-0.09671647 -0.068893366 0.018257605 0.09418413 -0.04504773 -0.031471062 -0.15994954 0.14899175
-0.14945394 0.03473798 0.11295948 0.17044967 -0.1073288 0.2121552 -0.11830406 -0.042027466
-0.11294349 0.1273993 0.118676536 -0.030330438 0.18701608 0.019591212 0.037003543 -0.09993388
0.06306642 0.015508433 -0.03810786 -0.048274882 0.074620716 0.13842134 0.09638081 -0.04430576

sequential_1/dense_1/BiasAdd/ReadVariableOp:0 f4 [128]
00000000: c7ce 91bd 448d b3bd e8d6 77bd de85 6cbb
00000010: 4561 3abd be58 623d bc1d d8bd cdb2 443c
00000020: f2fd c7bd 9080 a8bd 7bf4 bfbd a8d6 3a3d
00000030: df15 b73c 049a c8bd 3e85 e4bc 2db8 ab3d
00000040: 8e56 27bd 036d a9bd c8a0 5d3c 460e b8bd
00000050: eb4e 5bbd 31a9 b8bd 72dd 59bd 92c3 9dbd
00000060: 1e9c 55bd ba42 7ebd 34cb 633d e244 34bd
00000070: f3be 4fbd e262 e4bc fbd3 4dbd 9b8a a6bc
00000080: eb23 4fbd 385b fcbd 6810 03ba 6070 fbbd
00000090: 2649 7abd 9846 b4bd fae6 31be 652f 89bd
000000a0: 5ce1 1e3d b20d 61bc f29b 4c3c eaf8 bfbd
000000b0: 6567 66ba a106 8abd 0b78 313c 0c80 03be
000000c0: c992 29bd 1f27 0fbe a5c7 d1bc 8f78 58bd
000000d0: 1e3d 90bd 602b 93bd 6a7a 8fbd 9c15 a1bd
000000e0: 7f6d 03bd 6ed9 b1bd 5c65 f9bd ab33 a9bd
000000f0: 811f d3bd 66aa 85bd cd82 2f3c 5314 85bd
00000100: 00ee 3dbc 781f 83bc 7f12 d2bd d23a 2b3c
00000110: ce97 3dbd 3e64 a8bd 647d 98bd 0926 86bd
00000120: 2eba 53bc 5e47 38bd 2660 f9bd e548 7a3c
00000130: 2a1d e23c ee35 78bc d540 27bd 3ed2 8cbd
00000140: 967d 21bb e2ed 64bd dce1 90bd f3d9 8cbc
00000150: ed07 653d 2bd2 6fbc 0883 63bd a3b5 75bd
00000160: 41d6 d8bc 0015 ad3d b60c 11bd 9106 ca3d
00000170: 6af4 29bc 24b0 a4bd cdbe 01be c1c5 653c
00000180: 3b79 c2bd 039b 95bd c930 cfbd c3c2 d7bd
00000190: 6187 59bd fb48 e0bc f876 a8bd 6a47 dabb
000001a0: 428b fcbb cc70 5fbd c7d0 fa3b 76f5 ebbd
000001b0: 8bc6 dfbd 2704 9ebd 153e fbbd cbf3 88bd
000001c0: 3037 e3bb 8067 0c3d bcee 32bd 6aba e93c
000001d0: b323 77bc 6a19 16bc 50a7 90bd 7017 76bd
000001e0: 12e6 41bd e750 15be cf2b fbbd 4ead d3bd
000001f0: a538 84bd db77 f7bd 06f3 67bd 9e04 2c3d
-0.07119518 -0.08767179 -0.060507685 -0.0036090533 -0.04550292 0.055260412 -0.105525464 0.01200552
-0.09765233 -0.08227646 -0.09372803 0.04561487 0.022349296 -0.09795001 -0.027895566 0.08384738
-0.04085403 -0.082727455 0.013527103 -0.089870974 -0.05354206 -0.09016646 -0.053189702 -0.07703318
-0.052150838 -0.062075354 0.05561371 -0.044011004 -0.050719213 -0.027879182 -0.05025099 -0.020329764
-0.050571363 -0.12322086 -0.0004999698 -0.12277293 -0.061104916 -0.08802527 -0.17373267 -0.06698493
0.03878914 -0.013736175 0.012488352 -0.093736485 -0.00087892107 -0.067395456 0.010831843 -0.12841815
-0.04139975 -0.13979767 -0.025607893 -0.05284935 -0.07042907 -0.071860075 -0.070057705 -0.0786545
-0.032086845 -0.086840495 -0.12177536 -0.08261808 -0.10308743 -0.065266415 0.010712338 -0.06498017
-0.011592388 -0.016006216 -0.10257434 0.010451036 -0.04628735 -0.08222245 -0.07445791 -0.065502234
-0.012922807 -0.044989936 -0.12176542 0.0152761685 0.027601797 -0.015149577 -0.040833313 -0.06876038
-0.0024641505 -0.055890925 -0.07074329 -0.01719377 0.05591576 -0.01463751 -0.055544883 -0.059987675
-0.026469352 0.08451271 -0.035412513 0.09864534 -0.010373214 -0.08041409 -0.12670441 0.014024199
-0.09495779 -0.07304957 -0.10116727 -0.10535195 -0.053107623 -0.02737855 -0.082258165 -0.0066613453
-0.0077070305 -0.05455093 0.0076542827 -0.11521427 -0.10926541 -0.07715636 -0.122677006 -0.06687125
-0.006934069 0.034278393 -0.043684706 0.028531272 -0.015084195 -0.009161333 -0.07063162 -0.060080945
-0.047338553 -0.14581643 -0.12264215 -0.103357896 -0.064561166 -0.120834075 -0.05662825 0.04199659

sequential_1/conv2d_2/Conv2D/ReadVariableOp:0 f4 [64, 32, 3, 3]
00000000: 5b12 7e3d ae22 2d3d 95be ffbd 93db b7bc
00000010: 7939 1c3e 7c7f 6dbe 67c1 87bd 5a4a b9bd
00000020: b6aa 9abb 28fe 3ebc 4382 bcbd abd5 a4bd
00000030: 45c1 ff3d 8036 dabd 7842 f03c 87ef d8bd
00000040: b279 413c 97a8 c6bd 2c5a 29be b2c4 0bbe
00000050: 2375 ff3b 3f44 10be f157 c03c 4b05 13be
00000060: d0f8 54bd 5e47 15bd 98ad d0bd e3e9 bcbc
00000070: bbb7 9abd 9868 5abc 785e 0bbe 654e 57bd
00000080: 3a12 b7bd 9272 f93b 205f 46bd 1e23 643d
00000090: 311b d43d dfd5 18bd f702 48bd 73cc afbd
000000a0: b611 3fbd 5de3 e9bc 4438 473d a599 10be
000000b0: a054 dbbd 5c65 cf3c 8636 96bc 9dfd 9ebd
000000c0: 1a68 9bbd 885d 783d 972b 403d ccb8 ec3d
000000d0: 570d 3c3c efd6 de3c e8d1 9a3c 4495 71bb
000000e0: f6cd 20be 4193 a13c 2d66 3f3d 7887 98bd
000000f0: 0eb6 8c3d b930 57bb f131 10be 26f2 753d
00000100: 4d4d 0d3b 3673 60bc 99f0 f2bd c137 ecbb
00000110: 4c12 6fbd 9a30 0ebe a8e7 53be f486 8ebd
00000120: 8242 3e3d 1fa1 8bbd 2336 f9bd bc24 683b
00000130: 103f 9dbd e8f0 6bbd ee52 d6bc e6e5 04be
00000140: 91c0 223e 6c46 2abd 13c6 a2bd 6558 fdbd
00000150: 81d6 ee3d 9162 95bd 3c0d f7bc c07b 2f3b
00000160: 93f4 d6bd ebad 423d 4c6b 37bc 2e00 02bd
00000170: 524a d73b b408 9abd 2e75 b5bd df3e 34bd
00000180: 30b1 1cbe 3b00 94bd a129 dabc 48ad d1bd
00000190: 4ae0 62be 4f11 55bc bf36 95be 47ec 01be
000001a0: 3754 133e d8ce 76be 9f4f 4fbd adaf cc3c
000001b0: 12ff a2bd e3fd 8bbc 3854 2bbc bf4f 38be
000001c0: f131 86bd 7652 86bd 53e1 9abd 3f07 e5bd
000001d0: abea 05bd 4eff 4e3d 5801 c43b cedf e33c
000001e0: 7f1c be3d 0b2a 85bc 56b7 84bd 2dab 70bd
000001f0: 009c 653c d280 1cbe 8012 b6bb b68d c3bc
00000200: 2cce babd cad1 fb3c 50ad bf3c 3c75 7bbd
00000210: 36f4 d3bb 68e3 813c 7e28 bb3d 56f7 67bd
00000220: 1f16 3a3d 622d 7bbd 2af5 a9bc 9568 c33c
00000230: 59cf 66bd b282 8fbd c87e 24be 5c92 51be
00000240: d641 3f3c ea49 f0bd a0b0 573d e2cf a0bd
00000250: 9d1b aebc 73c5 c7bd 606b 223e 55f0 313c
00000260: a9da 14be c26e f23d a5a2 c6bb 0ea4 5bbd
00000270: 6133 c5bd 97ec 133d 5b67 34bc b174 2d3d
00000280: 8279 983d 48ca dabd 0a5e df3d e1da 283e
00000290: 876d ed3c 376e a23c 6795 03bd b140 b3bd
000002a0: 2b24 0cbe 0dd0 18bd 570d abbd 8d92 193d
000002b0: 0a59 86be 3b13 bfbc 78de b9bd 7f72 52bd
000002c0: 8258 c1bd 3525 b5bc 3247 65be 824d 513d
000002d0: 0d05 8d3a 76c9 d73d 37ca b23c 188e bc3d
000002e0: ea44 f5b9 7b2e 70bd 909e 813b 1df1 933d
000002f0: 6e56 0abc e97d b23d 0b14 13be 24bd 1a3d
00000300: 3ce2 ebbd 610f 9dbd 8285 42bd 8357 fdbd
00000310: 32da d8bd 1a52 163e fbc2 9d3c afac 38bd
00000320: b45c 93bd 8925 47bc 0f8b bb3d 1ceb 3abe
00000330: d5ef 2d3d 9371 a3bc 8f1d 1bbe 9a11 48bd
00000340: b71f 5c3c 3169 0fbd 4484 33bd 6f5a b03d
00000350: ce0c e53d 89c2 19be 5951 a2be a33e 10be
00000360: 525d 2cbe 55cc bebd 1ade e9bd 9ef7 acbd
00000370: c56f 54bc feff 3ebe aa85 843d aade 0fbb
00000380: 4c25 c43d 5c86 bcbd b7aa f5bd 0559 39bd
00000390: 805f 2cbd 4603 d0bc 0a9d 42bc 622d 44bd
000003a0: 5cb6 993c b8a9 0dbe ca3f 8d3d 0f79 f8bd
000003b0: a865 c4bb 3a61 243e a3c0 313d 8fc9 21be
000003c0: a5c5 ccbc d915 c7bb 8479 d03d 54c5 38bd
000003d0: fa73 13bd a2b7 19bd d703 2e3d b84b 82bb
000003e0: 1654 90bd a45f 063d aa64 b23d 64f2 2bbe
000003f0: f5c1 3fbd 5473 393d ade4 16bd 4715 fcbc
0.062029224 0.0422694 -0.124875225 -0.022443568 0.15256299 -0.23193163 -0.066286854 -0.090473846
-0.0047200574 -0.011657275 -0.09204533 -0.080485664 0.12488035 -0.10654926 0.02932857 -0.10592561
0.0118088 -0.09700125 -0.16538304 -0.13649252 0.007795946 -0.14088534 0.023479434 -0.14357488
-0.0519951 -0.036445014 -0.101893604 -0.023060745 -0.07554575 -0.013330601 -0.13610256 -0.052564997
-0.08939023 0.007612535 -0.048430562 0.055697553 0.10356749 -0.03731334 -0.048830952 -0.085839175
-0.04664775 -0.028550798 0.048637643 -0.1412111 -0.107095 0.025316887 -0.018336546 -0.07763217
-0.07588215 0.060636073 0.04691657 0.11558685 0.01147779 0.027202098 0.01889892 -0.003686265
-0.15703568 0.019723536 0.0467283 -0.074477136 0.06870662 -0.0032835437 -0.14081551 0.060045384
0.0021560967 -0.013699343 -0.118622966 -0.007208795 -0.05836706 -0.13885728 -0.20693839 -0.06959334
0.046450146 -0.06817841 -0.12168529 0.0035422286 -0.07678044 -0.057602793 -0.02616259 -0.12978324
0.15893771 -0.041571066 -0.07947936 -0.123703755 0.11662007 -0.07294191 -0.030157678 0.0026776642
-0.104958676 0.047529142 -0.011195015 -0.031738453 0.006570139 -0.07521191 -0.08860241 -0.04400527
-0.15301967 -0.072266065 -0.026631178 -0.10238129 -0.22155872 -0.013004615 -0.2914333 -0.12687789
0.14387594 -0.24102342 -0.050613042 0.024986112 -0.07958807 -0.017088836 -0.010457091 -0.1799917
-0.06552494 -0.06558697 -0.075625084 -0.11183023 -0.0326945 0.050536446 0.0059816055 0.02781668
0.09282779 -0.0162554 -0.06480281 -0.058756996 0.014014244 -0.15283516 -0.0055564046 -0.023871284
-0.091213554 0.030739684 0.023398072 -0.0613911 -0.006468321 0.015855506 0.09138583 -0.056632362
0.045431253 -0.061322577 -0.020746786 0.02385358 -0.056350086 -0.0700735 -0.16063988 -0.20465988
0.011673411 -0.11732848 0.052658677 -0.078521505 -0.021253401 -0.09754457 0.15861273 0.010860522
-0.14536537 0.118375316 -0.006061869 -0.05362325 -0.096289404 0.0361143 -0.01101097 0.042347614
0.07445051 -0.10683113 0.109066084 0.16489746 0.02898289 0.019827945 -0.032124903 -0.08752573
-0.13685672 -0.037307788 -0.08352154 0.037493277 -0.26239806 -0.0233246 -0.09075636 -0.051378723
-0.0944071 -0.022112468 -0.2239044 0.051099308 0.0010758952 0.105364725 0.02182494 0.0920679
-0.00046781386 -0.058638077 0.0039556697 0.07223723 -0.008443458 0.08715422 -0.14363115 0.037778035
-0.1151776 -0.07668949 -0.047490604 -0.12370207 -0.105884925 0.14679757 0.019258013 -0.04508656
-0.07195416 -0.012154945 0.09157383 -0.1825375 0.04246505 -0.019951617 -0.15147994 -0.04884491
0.013435296 -0.035012428 -0.04382731 0.08610999 0.11184083 -0.15015616 -0.31702688 -0.14086394
-0.16832474 -0.09316317 -0.11419316 -0.08445667 -0.012966101 -0.18652341 0.06470807 -0.0021952786
0.09577426 -0.092053145 -0.11995452 -0.04525091 -0.042083263 -0.025392186 -0.011878261 -0.047894843
0.018763714 -0.13834274 0.068969324 -0.12132465 -0.0059935637 0.16052714 0.043396603 -0.15799545
-0.024996588 -0.0060756025 0.10179427 -0.04511006 -0.035999276 -0.03752864 0.04248413 -0.0039763115
-0.07047288 0.032806054 0.087106064 -0.16791683 -0.04681583 0.045276 -0.036839176 -0.030771865

sequential_1/conv2d_2/BiasAdd/ReadVariableOp:0 f4 [64]
00000000: 690e 193e 6c80 3f3e 822b 06be d03b 62bc
00000010: 0038 58be 2964 4e3d e72c 57be 8a97 a5be
00000020: b401 593d 4b9f 2fbe ecc8 1ebd 7690 c3bd
00000030: 8b9f 13be 423b 6cbe aa53 debc 250c afbd
00000040: ca40 0e3e 3bc5 57be 00c5 abbc 9d4b 2e3d
00000050: 1f77 18be 8d6c 6abe 7dff 75be a54c f4bd
00000060: 1fd7 10be a022 103c 6761 7bbd 35f3 63be
00000070: a33c 0cbe 25b2 b43d f206 44be 9e3b 2b3d
00000080: 0ed4 143e 753c 6cbc b875 abbd 2d18 fcbc
00000090: 2286 46be a8ff c0be df04 babe bea5 453d
000000a0: 159c d3bd 86fa e73c 713e 83be d0b1 c2bc
000000b0: cf08 793d 4074 8cbe ab7d 81bc 6d00 c6bd
000000c0: 8e0d 86bd 921e d9bc 9163 42bc ce06 13be
000000d0: 06e8 2cbe b6e3 4dbe e77d 823d 1261 e9be
000000e0: a9d3 1dbe 2ca4 fbbd 942c 63be e8c9 fdbd
000000f0: 3d2b 69be bafb c6bd 7761 81bd a7fc 65be
0.14946903 0.18701333 -0.13102534 -0.013808206 -0.21115112 0.05038849 -0.21013223 -0.32342178
0.05298014 -0.17150609 -0.038765833 -0.09549038 -0.1441633 -0.2306948 -0.027139504 -0.08547238
0.13891903 -0.21071331 -0.02096796 0.04255258 -0.14889191 -0.22892971 -0.24023242 -0.11928681
-0.14144562 0.008797318 -0.061372187 -0.22260745 -0.13695006 0.08823041 -0.19143274 0.041804902
0.14534017 -0.014418711 -0.083720624 -0.030773247 -0.19387105 -0.3769505 -0.3633184 0.048253767
-0.10332505 0.028317701 -0.25633577 -0.023766428 0.060799416 -0.27432442 -0.015806993 -0.0966805
-0.06545554 -0.026503835 -0.011864559 -0.14358065 -0.16885385 -0.20106396 0.0637167 -0.4558187
-0.15412773 -0.12287173 -0.22184974 -0.12392026 -0.227704 -0.09715982 -0.06317418 -0.2245966

sequential_1/conv2d_1/Conv2D/ReadVariableOp:0 f4 [32, 1, 3, 3]
00000000: 955e 81bd e5b7 92bd 2f01 37bc 64e3 743c
00000010: c91f db3b a232 9fbd 9390 333d cae4 2e3d
00000020: 3a6d 0c3c 4480 9fbd cae1 d0bc 0321 953c
00000030: 445e 52bd ca10 683c 850c 4f3d 56a4 96bd
00000040: 2f84 c9bd 6c32 35bd 5813 c6bd 76cd 643c
00000050: f437 d13c d173 f63d ed20 cbbc 1b70 81bc
00000060: 5268 b7bd 6d01 c0bd 4265 1fbe 40ea 5c3d
00000070: 8119 a43c 6854 7dbe 5175 6cbd e2e2 aebc
00000080: 996d 54be db33 1ebd 5f4b acbc 305a 1bbd
00000090: ac17 10be d426 b2bb cd49 84bb 22c6 29bd
000000a0: 78e5 52bd 0cfe 763d b445 5b3d e056 7cbe
000000b0: 9bb7 f9bb 7bfd 30be 1664 eebc d12c a73c
000000c0: 953c 0dbe 3a93 99bd 5aed 023d bd0a 00bd
000000d0: b393 5bbc 981c ecbd eb9c 9d3c fd03 79bd
000000e0: 428f 153c 7161 b2bc 0bd9 b33d c3af 0fbe
000000f0: cc3f e43c 5deb e9bc 0453 39bc 6263 8cbd
00000100: 699d f33d 762f acbc 7e55 b9bd db06 23be
00000110: 5ff5 b3bd 1b2b 163d c97d 563d a0be 67bd
00000120: 1834 50bd fb64 7bbd de8c 84bc e269 87bc
00000130: 291f 52bd 555a 75bd c6b6 d2bd bc58 b73d
00000140: 398e 663c 5f6d 04bd 8fa6 473c a54f e3bb
00000150: f4a7 fbbc 8907 653d e51d f6bd 43a2 a0bc
00000160: 7b50 6e3d b91e 5bbd 170b 383c 9b19 0c3d
00000170: 13c9 93bd fc5e f2bc 82ad 803d 6439 8b3d
00000180: 55d6 a3bd d859 82bd d6b5 6ebd 0a9b f1bd
00000190: ed8c 8abe 02c9 3cbe 59ff 9fbd 1d85 3b3d
000001a0: 7b9a f0bd 7ac6 cabd 15af 0b3e 6028 e3bd
000001b0: 8027 193d 8f81 7e3d ba1c 4cbd 3ba5 76bd
000001c0: 4a42 453c 4cc0 7ebd 0f18 65bd 15cf dcbd
000001d0: d9e1 02be 1fef 683c 9dac d0bc 7690 dbbd
000001e0: 9d9e 31bc 96f7 943d a7ac 62bb 7b95 de3c
000001f0: a675 61bc 4acc 64bb 7c0c bd3c 6edb 51bd
00000200: ad23 53bd d964 103c 65f8 46bd fc87 913c
00000210: 9934 403c 1e60 a53c d9d2 a73c 6210 ccbd
00000220: c643 d1bd b538 b6bc bf34 acbc 7514 083d
00000230: 2f52 21be 1ea2 513d 991b 18bc e2eb c1bd
00000240: 1980 bcbd 075d d3bd 4a5a aebd 130c 26be
00000250: 4228 ea3c af14 bd3d 0d16 18be 3cef a1bd
00000260: 15c6 56ba 2133 bbbb eb15 8ebd 7501 6ebe
00000270: d3ee 083d cda4 be3c f7a8 8fbd 37bf 8f3a
00000280: 4ccd 1fbd f3cd 29be 0dd3 6dbd f0d4 8ebe
00000290: ff2e 12be 2320 8e3d 3b59 cfbd 7675 54bd
000002a0: 878a 0d3c 7045 6abd 35ad 1fbd b070 d0bb
000002b0: c79b 38be 8d47 f4bd 7249 9cbd 6c14 a23d
000002c0: 892a 5dbd 43bd a8bd 0c23 053c 08b7 803d
000002d0: 9b42 0bbd 8fd3 e5bd 314f 1bbc 804e 053d
000002e0: 81e0 bbbd a871 2e3d 8293 e2bc ef20 14bd
000002f0: 07d6 39bb 5a9d f1bc c00a 1fbd eb8d 09be
00000300: b73b 683d 629f 8d3c 231b 93bc 21fd 33be
00000310: ac3f 863c e16b d53c cf12 fcbd bcea d5bc
00000320: cc3e 4cbd b69e e13c 7b2a 203d afdd 5d3d
00000330: f8eb bf3c 51b0 0e3c 9f3f 91bd ac93 de3b
00000340: 2758 bd3c 7379 2e3d 565b c3bd 9d4e 82bd
00000350: 24f8 aebc f462 5b3c 92f8 3dbc c9a8 4bbd
00000360: 3eab f33b 1c79 3b3c 61a4 ffbd 58fe b13d
00000370: 9e76 bfbd 2a8e 11bd cb99 d6bd 306e dbbd
00000380: 2fc1 4e3d 1212 ffbb f356 b9bb 5a5c 133d
00000390: c9b7 963c 7c23 d83b a647 36bd 4a8d 95bd
000003a0: f044 80bd bfc0 88bd 216e 24bd f1f8 1ebd
000003b0: 63d8 393c 8a68 c2bd 3dcc 933d 7e5d 0b3c
000003c0: 4470 b5bd f152 45bd 83b9 1c3d 4187 32bd
000003d0: b6b6 50bd 3b5b 1fbe 14ed a73d de83 ad3d
000003e0: 20b5 fdbc c05c 1ebd c275 03be 8f08 56be
000003f0: 3524 3d3d 9e82 593a ac14 7ebd 3882 a73b
-0.06316868 -0.07163981 -0.011169716 0.014946792 0.0066871387 -0.07773329 0.04383905 0.04269866
0.0085709635 -0.077881366 -0.02549829 0.018204218 -0.05135943 0.014164159 0.05054905 -0.07355563
-0.09839665 -0.04423754 -0.09671658 0.013965001 0.025539376 0.12033809 -0.024795974 -0.015800526
-0.089554444 -0.09375272 -0.1556597 0.053934336 0.020031692 -0.2473923 -0.05772907 -0.02134842
-0.20744933 -0.038623672 -0.021032033 -0.037927806 -0.1407153 -0.0054367576 -0.004037118 -0.04144872
-0.05148837 0.06030087 0.05353327 -0.24642515 -0.0076207644 -0.17284195 -0.02910046 0.020407112
-0.13792641 -0.07498784 0.031964637 -0.03126024 -0.013401913 -0.11528891 0.019239863 -0.06079482
0.009128394 -0.02177498 0.08781632 -0.14031892 0.027862452 -0.028554613 -0.011311296 -0.06854893
0.11895258 -0.021018725 -0.090495095 -0.15920584 -0.08787035 0.036662202 0.05236605 -0.05657828
-0.05083093 -0.0613756 -0.016180452 -0.016529981 -0.051299248 -0.0599006 -0.102887675 0.089524716
0.014071994 -0.032330867 0.012185707 -0.0069369846 -0.030719735 0.05591539 -0.12017421 -0.019608622
0.05818222 -0.053496096 0.011233113 0.034204107 -0.07216086 -0.029586308 0.06283094 0.06798056
-0.07999865 -0.063647926 -0.05827888 -0.117971495 -0.27060643 -0.18436053 -0.078123756 0.045781244
-0.11748215 -0.09901138 0.13641007 -0.11091685 0.037391186 0.062135275 -0.049832083 -0.06021617
0.01203973 -0.062195107 -0.055931147 -0.10781685 -0.12781467 0.014217167 -0.025472933 -0.10720913
-0.010841039 0.07273786 -0.0034587772 0.027170887 -0.01376096 -0.0034911805 0.023077242 -0.051234655
-0.051547695 0.008813106 -0.04857673 0.017765038 0.01173129 0.020187434 0.020486282 -0.09964062
-0.10218005 -0.022243837 -0.021021245 0.033222634 -0.15754007 0.051179998 -0.009283924 -0.09468819
-0.0920412 -0.10320478 -0.08513315 -0.16215543 0.02858365 0.09232461 -0.14852162 -0.079069585
-0.00081929687 -0.005712882 -0.06937774 -0.23242743 0.033430886 0.023271943 -0.07014649 0.0010967021
-0.039014146 -0.1658247 -0.0580626 -0.27896833 -0.1427574 0.06939723 -0.10124441 -0.051869832
0.0086389845 -0.057195127 -0.038983542 -0.0063610896 -0.18028174 -0.1192771 -0.07631196 0.079140514
-0.053995643 -0.08239224 0.008126032 0.062849104 -0.033999067 -0.11221992 -0.00947933 0.032545567
-0.0917368 0.04258886 -0.027658228 -0.03616422 -0.002835633 -0.029493976 -0.03882861 -0.13433044
0.056697574 0.017287914 -0.017957276 -0.1757703 0.016387783 0.026052417 -0.12308275 -0.026112907
-0.049864575 0.0275415 0.039103013 0.054166492 0.023427948 0.008709029 -0.07092213 0.006792506
0.023113323 0.04259629 -0.09538905 -0.063626505 -0.021358557 0.0133902915 -0.011594908 -0.049721513
0.007436185 0.011442449 -0.12482525 0.0869109 -0.09348796 -0.03553597 -0.104785524 -0.10714376
0.050477203 -0.0077841366 -0.005656117 0.035976745 0.018398182 0.006596027 -0.044501923 -0.073023394
-0.06263149 -0.066773884 -0.04014409 -0.038811628 0.0113430945 -0.094925955 0.0721669 0.008506177
-0.088593036 -0.048174802 0.038262855 -0.04358602 -0.050955497 -0.15562145 0.08199516 0.08472417
-0.030970156 -0.038662672 -0.1283789 -0.20901702 0.046177108 0.00082973565 -0.062031433 0.005111959

sequential_1/conv2d_1/BiasAdd/ReadVariableOp:0 f4 [32]
00000000: da37 45bd 224c 1fbd f209 363e c47d 833e
00000010: d8d1 9c3b 7dfa 273e 4e04 18bf ba82 593e
00000020: c252 853d efaa e2be 9ccf c1be 2249 1a3e
00000030: 2b14 983e 7fec 10bf 2ffb 37bf 07c4 973d
00000040: dc8f 0b3d 3876 48be 7c27 743e b3dd 803d
00000050: ec83 86be 9135 fbbd 71cf 10bf 2917 5cbd
00000060: 0f15 483e b803 7ebe 205c 9fbe f142 89bd
00000070: 0547 923e bc0b 6ebe da2f 28bf 2bbe c1be
-0.048148967 -0.038890965 0.17777231 0.2568189 0.0047857575 0.16404147 -0.5938157 0.21241274
0.065099254 -0.44271037 -0.37853706 0.1506696 0.29702887 -0.56610864 -0.7186765 0.07410436
0.034072742 -0.19576347 0.23843187 0.06292286 -0.26272523 -0.12266076 -0.5656653 -0.053733025
0.19539283 -0.24806106 -0.31124973 -0.06702221 0.2856981 -0.23246664 -0.65698016 -0.378404
