models/model14.onnx (onnx, 436627 bytes, 12 tensors)

sequential/dense_1/MatMul/ReadVariableOp:0 f4 [128, 10]
0.03829814 -0.15853778 0.06744857 0.21581502 -0.3858049 0.111787856 -0.11172154 0.08815231
0.1485184 -0.23854704 0.04088453 -0.1432774 -0.08742848 -0.207265 -0.021788098 0.19713515
0.095581144 -0.09087257 0.009224456 0.01792731 -0.28695172 0.055190463 0.24297045 -0.40590328
0.14513922 0.11371492 -0.021539513 0.042165425 -0.121559106 0.021862095 -0.12860434 0.11414713
0.11206857 -0.38206944 0.23963608 -0.38679755 -0.23923746 0.120248035 0.040613316 0.085632555
-0.15214871 0.19388795 0.00619249 0.013525829 0.013561398 0.19822903 0.09912039 -0.0092789885
0.043961786 0.045225956 -0.107263036 -0.24005526 -0.17563592 0.2223934 0.09790243 -0.17654744
-0.13645445 -0.06734383 0.12066314 -0.17120734 -0.30443642 0.19686094 0.08008135 0.17594938
-0.30502343 -0.44233397 -0.46792182 -0.03684172 0.25766936 -0.38943467 0.058126878 -0.00971274
0.16446921 0.19315435 -0.033321857 -0.28674853 -0.12560318 -0.3176304 0.047663957 0.030429503
0.08874487 0.19801489 -0.18552126 -0.06581745 -0.3960544 -0.10331343 -0.15823026 -0.32853708
-0.10942012 -0.11326489 -0.19841146 0.004448299 -0.18900324 0.11942655 0.11411049 -0.03946321
0.13600741 -0.23019779 -0.36330292 -0.2154235 -0.22646314 -0.08617378 0.1299621 0.04844562
-0.38228384 -0.08832721 0.23947877 -0.36291307 -0.14149596 -0.27968958 -0.22059655 -0.07984244
-0.3302398 0.10569055 -0.03231076 -0.24012057 -0.24288404 -0.2557548 -0.15007184 0.27426106
-0.0066586407 -0.18216473 0.055592805 0.110487975 -0.1459138 0.03188206 -0.0966766 -0.18100071
0.17597155 -0.06792599 -0.50409675 -0.012435859 0.19217168 0.08932389 -0.059911333 -0.502336
-0.37865728 0.18635614 -0.39589262 -0.09974401 -0.24756992 0.15374745 -0.30844626 0.121894896
0.001151487 0.24026124 -0.39500389 0.031022858 0.040671162 0.13588567 0.015486128 -0.29322678
-0.037222266 -0.23368022 0.21361524 0.18065056 -0.24347916 -0.2866933 -0.37051812 -0.21177445
-0.1413183 -0.24928372 0.31084678 -0.025732733 -0.30905354 0.16831727 -0.3196916 -0.112358525
-0.44628647 -0.040731516 0.19935942 0.10957484 -0.04794722 -0.08622247 0.043776006 0.04197303
-0.08805356 -0.07622309 -0.029002989 0.11417981 -0.16850227 0.3903907 -0.3059473 -0.1981607
-0.37786904 -0.16733213 -0.44566935 -0.34175825 -0.4097368 -0.016886562 -0.15809566 0.047017284
0.08333116 -0.014942049 -0.11686517 0.051349543 -0.105285116 -0.031286206 0.021529607 0.043465696
-0.20352589 0.20581502 0.18163009 -0.3869644 -0.09197963 -0.2931733 -0.052560996 -0.15204528
-0.05379353 0.16459279 -0.26983038 -0.33888832 -0.1737919 0.16242607 -0.22327156 0.14758947
-0.3721216 -0.45115304 -0.32506716 0.28441873 -0.22474477 0.10874782 -0.05200041 0.003818485
-0.23602462 -0.4022446 -0.39055488 0.053245466 -0.23966077 -0.048438653 -0.2225987 0.22656012
-0.3016008 -0.33457837 0.051279813 0.15886307 0.1511122 -0.25529954 0.18794869 0.018194657
-0.21761487 -0.15758838 0.16647479 -0.24961293 -0.050210807 -0.121060066 0.183178 -0.21108648
-0.2527926 0.059606977 -0.050386902 0.037610155 0.13931559 0.09210652 0.19651213 -0.14478685
00000000: 83de 1c3d ba57 22be 7a22 8a3d 9dfe 5c3e
00000010: 3888 c5be 08f1 e43d 43ce e4bd 3389 b43d
00000020: 3515 183e ad45 74be 8976 273d 50b7 12be
00000030: b40d b3bd 473d 54be f47c b2bc ccdd 493e
00000040: 0cc0 c33d 661b babd 2c22 173c 4bdc 923c
00000050: 56eb 92be 650f 623d 3fcd 783e 8ed2 cfbe
00000060: 609f 143e 5ee3 e83d a273 b0bc a7b5 2c3d
00000070: fbf3 f8bd 2318 b33c dbb0 03be f8c5 e93d
00000080: 3584 e53d 9b9e c3be 2963 753e 540a c6be
00000090: aafa 74be 9a44 f63d 265a 263d 1f60 af3d
000000a0: dfcc 1bbe 908a 463e 5fea ca3b 709b 5d3c
000000b0: a030 5e3c 8dfc 4a3e a2ff ca3d e606 18bc
000000c0: 4611 343d da3e 393d b9ac dbbd 0cd1 75be
000000d0: e7d9 33be 18bb 633e 1281 c83d dac8 34be
000000e0: b7ba 0bbe 90eb 89bd 3d1e f73d fa50 2fbe
000000f0: 17df 9bbe ea95 493e b101 a43d 132c 343e
00000100: 082c 9cbe 9979 e2be 7393 efbe 58e7 16bd
00000110: 3ded 833e fb63 c7be 7316 6e3d 2f22 1fbc
00000120: 9e6a 283e 41ca 453e 807c 08bd b4d0 92be
00000130: 1f9e 00be 74a0 a2be 483b 433d 4b47 f93c
00000140: dfbf b53d 6ac4 4a3e 49f9 3dbe 4dcb 86bd
00000150: a4c7 cabe fe95 d3bd 1d07 22be 0336 a8be
00000160: a817 e0bd 6cf7 e7bd 602c 4bbe 09c3 913b
00000170: 118a 41be e895 f43d c3b2 e93d 2da4 21bd
00000180: 8745 0b3e f8b8 6bbe d702 babe fa97 5cbe
00000190: f4e5 67be e17b b0bd c914 053e ea6e 463d
000001a0: b5ba c3be e5e4 b4bd ec39 753e becf b9be
000001b0: 51e4 10be 7933 8fbe 10e4 61be 6f84 a3bd
000001c0: 3115 a9be 4974 d83d 4a58 04bd 2be2 75be
000001d0: 98b6 78be 4bf2 82be 6fac 19be f26b 8c3e
000001e0: ba30 dabb 6489 3abe 48b5 633d 8547 e23d
000001f0: 6d6a 15be c396 023d 62fe c5bd 4058 39be
00000200: e331 343e c81c 8bbd 7c0c 01bf c6bf 4bbc
00000210: a7c8 443e 72ef b63d 9665 75bd 1899 00bf
00000220: 5edf c1be 25d4 3e3e 70b2 cabe 9646 ccbd
00000230: f882 7dbe f96f 1d3e abec 9dbe 08a4 f93d
00000240: 7eed 963a 0b07 763e f33d cabe a623 fe3c
00000250: ce96 263d 9d25 0b3e 87b9 7d3c d221 96be
00000260: 6076 18bd de49 6fbe f4bd 5a3e 76fc 383e
00000270: 9a52 79be 77c9 92be 8db4 bdbe 67db 58be
00000280: bfb5 10be 3b44 7fbe 4f27 9f3e 74cd d2bc
00000290: 443c 9ebe 5d5b 2c3e 9eae a3be 3a1c e6bd
000002a0: a97f e4be 17d6 26bd e024 4c3e c668 e03d
000002b0: 4e64 44bd 6895 b0bd 784e 333d e9eb 2b3d
000002c0: 6d55 b4bd da1a 9cbd ad97 edbc 1bd7 e93d
000002d0: dc8b 2cbe 4ae1 c73e 20a5 9cbe a3ea 4abe
000002e0: 0d78 c1be 1d59 2bbe c62e e4be f0fa aebe
000002f0: 06c9 d1be b055 8abc d4e3 21be 3295 403d
00000300: 87a9 aa3d 7fcf 74bc 0257 efbd e653 523d
00000310: b99f d7bd f725 00bd dc5e b03c 1609 323d
00000320: 1769 50be 2cc1 523e 3dfd 393e 3320 c6be
00000330: d15f bcbd d01a 96be 334a 57bd c2b1 1bbe
00000340: 9b56 5cbd 038b 283e 3527 8abe c582 adbe
00000350: 81f6 31be 0553 263e 4da1 64be b221 173e
00000360: b986 bebe 88fd e6be 346f a6be 559f 913e
00000370: 7e23 66be 2db7 de3d 62fe 54bd 8c3f 7a3b
00000380: 70b0 71be 01f3 cdbe cff6 c7be eb17 5a3d
00000390: a269 75be 9c67 46bd eaf0 63be 60ff 673e
000003a0: 6c6b 9abe db4d abbe c80a 523d 00ad 223e
000003b0: 28bd 1a3e 9fb6 82be 9f75 403e f60c 953c
000003c0: 6fd6 5ebe d95e 21be 5e78 2a3e 889a 7fbe
000003d0: d9a9 4dbd 57ee f7bd 0393 3b3e 0e27 58be
000003e0: 086e 81be 7226 743d 7f62 4ebd 1b0d 1a3d
000003f0: bfa8 0e3e 58a2 bc3d 7a3a 493e 0143 14be

sequential/dense_1/BiasAdd/ReadVariableOp:0 f4 [10]
0.09786385 0.13717394 0.07870829 0.11475921 0.110957764 0.06361436 0.08989711 0.06457782
0.16571794 0.06879404
00000000: d86c c83d 5377 0c3e d031 a13d e006 eb3d
00000010: d33d e33d 3f48 823d fa1b b83d 6041 843d
00000020: f7b1 293e e4e3 8c3d

sequential/dense/MatMul/ReadVariableOp:0 f4 [576, 128]
0.10367699 -0.016774498 0.03824919 0.038468182 -0.0831272 -0.018243426 -0.14262022 -0.11891087
-0.06868054 0.007658435 -0.029060133 0.030722477 0.03734266 0.17291473 -0.033547312 0.34292233
-0.011409781 -0.10592898 -0.06769146 0.047626883 -0.1231852 0.050864615 0.057458293 0.03504178
0.062057566 0.052801766 -0.08282082 -0.019501563 0.16238697 0.2622993 -0.0018693897 0.09478973
-0.053799015 0.022315007 0.067054264 0.06299795 0.080838285 0.14094666 0.10551985 0.035506934
0.1178488 0.0054046065 -0.034230195 -0.05010979 -0.043869834 -0.01960177 -0.045102403 -0.0034431173
-0.14259534 -0.09901507 -0.0072998838 0.20254663 -0.048420724 0.09796425 -0.027221983 -0.029258793
-0.06827189 -0.024145268 -0.038090046 0.013510048 0.0037031446 0.035798993 0.048838027 0.030169088
-0.12015188 -0.07732633 0.04911586 0.09977605 -0.02624023 -0.10445057 -0.09609411 0.24364205
0.07621189 -0.16631773 0.13152644 -0.035828386 -0.17096967 0.19346172 0.036097102 -0.09537805
0.0728477 -0.0743983 -0.1471949 -0.101643346 0.008647054 -0.050415706 -0.013581173 -0.04206922
-0.04528447 0.006836794 -0.04925643 -0.09037078 0.11920718 0.018676654 -0.05639827 0.1561582
-0.026623402 -0.043235034 -0.08068653 -0.16665648 0.02044863 -0.03171058 -0.04269421 0.19323434
0.05751162 0.24229811 0.040865816 -0.051820178 -0.09917277 -0.11368894 -0.015847635 0.19329171
-0.22520241 0.008317169 0.07789713 -0.15032747 0.0223756 -0.035530094 0.07550047 -0.17917545
0.16343176 -0.08587232 0.10130233 -0.023413537 0.04327095 -0.07511833 0.07935865 0.18383387
0.047237925 0.03763043 -0.09936494 -0.1938668 -0.018285263 -0.081708774 -0.018566372 0.028739342
0.009990578 -0.11753746 -0.13897787 0.0011522715 0.024166455 -0.2185194 -0.096894495 0.054618858
-0.09436901 -0.047207814 0.011127197 -0.051185615 0.15536568 0.12693088 0.007222123 -0.056556992
-0.16184527 0.031728424 0.17210782 -0.010007313 -0.058869105 -0.03448964 0.029794168 -0.1926687
0.05785192 -0.07089601 -0.11565118 -0.11024431 0.097889446 -0.0045627058 0.018590217 -0.05342108
-0.049048383 -0.040733006 -0.12301853 0.12158026 0.18116738 0.051883202 -0.06027568 0.027716123
-0.18396372 0.06138656 0.037589885 -0.031075995 0.009959404 0.103034995 0.09499694 0.08052484
-0.10473561 -0.0017068817 -0.074866705 0.040413737 -0.046599496 -0.055636942 -0.06917091 0.010920458
-0.0036282227 -0.07210093 0.088380806 0.08213469 0.040229816 0.085102834 0.027571449 -0.04397166
-0.08543787 0.2208798 -0.21462448 -0.056718547 0.11920097 -0.18460275 0.014870629 -0.20983978
-0.0013323727 0.04683876 0.13760489 -0.0435396 -0.08178985 0.043226957 -0.10691652 -0.049507625
0.034123477 -0.12212929 -0.03508805 -0.10177015 0.14495245 -0.09385712 0.0012562727 -0.041961756
-0.078994446 -0.021038616 -0.08009692 -0.042510934 -0.057955366 0.058940776 -0.044691466 -0.019991236
0.05761189 -0.059557095 -0.08656315 0.090511255 -0.0077446816 -0.10539108 -0.099830434 0.06770261
0.19385254 0.011452052 0.043708242 0.017504867 0.056656003 -0.08726784 0.05393596 -0.023894066
-0.028710691 -0.036453668 -0.04362554 -0.01963858 -0.002328222 0.055112 -0.33601052 -0.15342349
00000000: 9a54 d43d ac6a 89bc 2fab 1c3d d090 1d3d
00000010: 983e aabd 3d73 95bc 090b 12be 8b87 f3bd
00000020: 62a8 8cbd 9cf3 fa3b 840f eebc b4ad fb3c
00000030: 9ef4 183d 8f10 313e e868 09bd 8493 af3e
00000040: 17f0 3abc 4bf1 d8bd d2a1 8abd 6814 433d
00000050: 8648 fcbd 6a57 503d 6359 6b3d f887 0f3d
00000060: 1330 7e3d aa46 583d f69d a9bd bec1 9fbc
00000070: c548 263e 184c 863e 4f06 f5ba 1e21 c23d
00000080: 5b5c 5cbd f6cd b63c bf53 893d 1205 813d
00000090: 8b8e a53d 5254 103e cb1a d83d b86f 113d
000000a0: b65a f13d 2019 b13b f634 0cbd ec3f 4dbd
000000b0: dbb0 33bd e493 a0bc 4cbd 38bd eca5 61bb
000000c0: 8304 12be 6ac8 cabd dd33 efbb 6268 4f3e
000000d0: cf54 46bd 7ba1 c83d a300 dfbc 23b0 efbc
000000e0: 22d2 8bbd 4ccc c5bc 4f04 1cbd 4059 5d3c
000000f0: 75b0 723b f7a1 123d 620a 483d 2a25 f73c
00000100: 3012 f6bd 445d 9ebd b62d 493d 6357 cc3d
00000110: c0f5 d6bc 2eea d5bd fdcc c4bd 4d7d 793e
00000120: fb14 9c3d 324f 2abe deae 063e c9c0 12bd
00000130: ac12 2fbe d41a 463e 8eda 133d 9155 c3bd
00000140: 2d31 953d 235e 98bd 43ba 16be 632a d0bd
00000150: 60ac 0d3c b380 4ebd 9183 5ebc c650 2cbd
00000160: 357c 39bd 2f07 e03b 1cc1 49bd 5114 b9bd
00000170: e522 f43d c8ff 983c df01 67bd efe7 1f3e
00000180: 5219 dabc 3817 31bd fb3e a5bd ffa7 2abe
00000190: e383 a73c f4e2 01bd 20e0 2ebd 39df 453e
000001a0: 4e91 6b3d ff1c 783e ea62 273d 6541 54bd
000001b0: 181b cbbd bfd5 e8bd e6d2 81bc 43ee 453e
000001c0: 769b 66be bc44 083c 8888 9f3d 72ef 19be
000001d0: 094d b73c 0188 11bd fe9f 9a3d c579 37be
000001e0: a85a 273e d4dd afbd 9977 cf3d bfcd bfbc
000001f0: e13c 313d a4d7 99bd ca86 a23d f23e 3c3e
00000200: 8e7c 413d 5e22 1a3d d87f cbbd 0585 46be
00000210: faca 95bc ee56 a7bd 8118 98bc c56e eb3c
00000220: 85af 233c 7bb7 f0bd 3750 0ebe d107 973a
00000230: bbf8 c53c 8dc3 5fbe 9f70 c6bd 06b8 5f3d
00000240: 8a44 c1bd fb5c 41bd d94e 363c 02a8 51bd
00000250: 2e18 1f3e 2bfa 013e 8fa7 ec3b 4ea8 67bd
00000260: c4ba 25be aaf5 013d 083d 303e b7f5 23bc
00000270: bb20 71bd 0245 0dbd e612 f43c f24a 45be
00000280: 23f6 6c3d ed31 91bd 87da ecbd c5c7 e1bd
00000290: 437a c83d c082 95bb 834a 983c 10d0 5abd
000002a0: f5e6 48bd a7d7 26bd 24f1 fbbd 12ff f83d
000002b0: f183 393e 7b83 543d a2e3 76bd ec0c e33c
000002c0: fc60 3cbe 7970 7b3d daf7 193d 1693 febc
000002d0: c52c 233c 0304 d33d c18d c23d 35ea a43d
000002e0: a07f d6bd 72b9 dfba b753 99bd e088 253d
000002f0: 1ddf 3ebd 90e3 63bd 7aa9 8dbd b8eb 323c
00000300: 7ac7 6dbb a7a9 93bd ff00 b53d 3b36 a83d
00000310: 05c8 243d 654a ae3d 85dd e13c a11b 34bd
00000320: 0dfa aebd 502e 623e 85c6 5bbe b551 68bd
00000330: a31f f43d 8108 3dbe f0a3 733c 3de0 56be
00000340: 02a3 aeba 00da 3f3d 4ce8 0c3e 9456 32bd
00000350: 7081 a7bd c00e 313d 0cf7 dabd 82c8 4abd
00000360: 0fc5 0b3d ec1e fabd 7db8 0fbd de6c d0bd
00000370: 6a6e 143e 2938 c0bd 84a9 a43a 17e0 2bbd
00000380: d7c7 a1bd 2d59 acbc db09 a4bd f21f 2ebd
00000390: 9b62 6dbd e26b 713d 660e 37bd a9c4 a3bc
000003a0: 72fa 6b3d 24f2 73bd 0548 b1bd f75d b93d
000003b0: 19c7 fdbb 47d7 d7bd e673 ccbd aaa7 8a3d
000003c0: 4881 463e 63a1 3b3c 6a07 333d 5e66 8f3c
000003d0: 2010 683d 7bb9 b2bd f4eb 5c3d 7dbd c3bc
000003e0: af32 ebbc 7150 15bd b2b0 32bd 16e1 a0bc
000003f0: 1595 18bb 1fbd 613d 9209 acbe 0c1b 1dbe

sequential/dense/BiasAdd/ReadVariableOp:0 f4 [128]
0.006597358 -0.046483114 0.010824788 -0.016873417 -0.010706995 0.044628516 0.08489732 0.01821847
-0.049330536 -0.09068242 -0.10241703 -0.110597424 -0.007563547 -0.07247209 0.091568016 -0.14402819
-0.097499885 -0.026066517 0.113491654 -0.06545749 0.005106053 -0.119509384 -0.09083877 0.03558381
-0.059583556 -0.0062244628 -0.08229734 -0.061742775 0.04126137 -0.085661344 -0.030737022 -0.09875433
-0.024732664 0.08058461 -0.07403053 0.028217146 -0.030635322 0.008715901 -0.06508449 -0.032772534
-0.08546924 -0.020566147 -0.058824584 0.06842783 -0.16321069 -0.08863311 0.029364496 -0.087913096
-0.08975878 -0.031773977 -0.06363994 -0.17342503 -0.011364258 0.0010257644 -0.14069057 -0.012191582
-0.10868097 -0.09594116 -0.14683656 -0.019353135 -0.0048396955 -0.07741881 -0.042451818 -0.06636258
-0.030692687 -0.033454012 -0.006300647 0.053668845 -0.012768456 -0.11662116 -0.082916014 -0.19034648
-0.011794287 -0.053343125 -0.024649233 -0.034372725 -0.08063619 0.044791844 -0.0072683343 -0.07862609
-0.047177587 -0.056188866 -0.06686849 0.011663975 -0.024924574 -0.013804774 -0.040124156 0.0051745865
-0.007664758 -0.1243048 -0.10778795 -0.011036816 -0.09904022 -0.009516265 -0.0061652497 -0.15961525
-0.017339014 -0.19475007 -0.10135868 -0.050022718 -0.032742053 -0.0280499 0.08991349 -0.057415165
-0.009908373 -0.12400021 -0.057437953 -0.093205616 -0.1984961 -0.004836685 -0.049475823 -0.0638616
-0.041869383 -0.06857461 -0.011264186 -0.1033876 -0.10108312 0.05176278 -0.14319079 -0.052711908
-0.027266452 -0.01733211 -0.09259799 -0.014900096 -0.011031795 -0.13083082 -0.07927659 -0.08042221
00000000: a62e d83b 1465 3ebd 745a 313c 1f3a 8abc
00000010: 646c 2fbc 64cc 363d a5de ad3d e73e 953c
00000020: d10e 4abd b4b7 b9bd 05c0 d1bd e780 e2bd
00000030: a2d7 f7bb 3f6c 94bd 0388 bb3d 207c 13be
00000040: 05ae c7bd 7389 d5bc 506e e83d 940e 86bd
00000050: ad50 a73b 56c1 f4bd ad09 babd 54c0 113d
00000060: e30d 74bd 94f6 cbbb 828b a8bd fee5 7cbd
00000070: af01 293d 376f afbd 35cc fbbc b63f cabd
00000080: 289c cabc 8b09 a53d 529d 97bd a527 e73c
00000090: edf6 fabc 23cd 0e3c 044b 85bd 7e3c 06bd
000000a0: 7f0a afbd 567a a8bc 0cf2 70bd e423 8c3d
000000b0: b420 27be 4785 b5bd d08d f03c c80b b4bd
000000c0: 74d3 b7bd 6e25 02bd a855 82bd 5596 31be
000000d0: 2731 3abc f172 863a 3011 10be 33bf 47bc
000000e0: 2194 debd cd7c c4bd 535c 16be 778a 9ebc
000000f0: 4f96 9ebb c18d 9ebd f5e1 2dbd 1be9 87bd
00000100: 3b6f fbbc 1307 09bd a875 cebb ddd3 5b3d
00000110: c932 51bc 13d7 eebd dfcf a9bd 30ea 42be
00000120: d33c 41bc 527e 5abd 30ed c9bc 6aca 0cbd
00000130: 9624 a5bd a777 373d 352b eebb b706 a1bd
00000140: 493d 41bd 4c26 66bd 59f2 88bd 421a 3f3c
00000150: 9f2e ccbc 6b2d 62bc 3a59 24bd 948f a93b
00000160: a628 fbbb 8493 febd eebf dcbd c3d3 34bc
00000170: 99d5 cabd 1cea 1bbc dd05 cabb 2e72 23be
00000180: 8c0a 8ebc 906c 47be 2495 cfbd 9fe4 4cbd
00000190: 881c 06bd e7c8 e5bc 9024 b83d 2a2c 6bbd
000001a0: ba56 22bc d2f3 fdbd 0f44 6bbd 96e2 bebd
000001b0: 9042 4bbe 0e7d 9ebb 29a7 4abd dfc9 82bd
000001c0: 3b7f 2bbd d870 8cbd 6c8d 38bc e1bc d3bd
000001d0: ab04 cfbd 3505 543d 9ba0 12be 71e8 57bd
000001e0: e55d dfbc 12fc 8dbc 04a4 bdbd 881f 74bc
000001f0: b4be 34bc 84f8 05be c45b a2bd 66b4 a4bd

sequential/conv2d_3/Conv2D/ReadVariableOp:0 f4 [64, 16, 3, 3]
-0.26284716 0.04127914 0.09123976 0.10038087 -0.26698717 -0.2390809 -0.2535095 -0.4947665
-0.2139132 -0.08597961 -0.02126147 -0.08635836 -0.09087782 0.08613998 0.13335794 -0.028200235
-0.18818283 -0.05462993 -0.09845896 -0.07896638 -0.11359182 0.09233611 -0.25506696 -0.13631193
-0.06259766 0.07385013 0.06328177 -0.06446484 0.1661624 -0.18959439 -0.40095574 0.038743034
0.0033217808 -0.116087146 0.03689224 0.2201019 -0.1202092 -0.04734517 -0.12483062 0.07066371
-0.12968718 -0.122081526 0.2584938 -0.0017584871 -0.41140705 0.0023396397 -0.087984286 0.024967998
-0.10417253 -0.29168385 -0.20341665 0.39112788 0.16209629 -0.24765095 0.055002045 0.075182706
-0.051673558 0.043961372 0.13996337 0.21949485 -0.07906768 -0.018320315 0.21997283 -0.12614155
-0.22444794 0.15096253 0.26190352 -0.008493834 -0.39436892 0.05258288 -0.03173862 0.030352209
0.12069466 0.13583131 -0.12624456 -0.02953629 0.16237798 -0.21914455 0.005071204 -0.018535528
0.015028238 -0.07657056 0.007373113 0.12813209 0.014453407 -0.10539722 -0.0690996 0.066523366
0.27936637 0.019245625 -0.1153374 -0.061614733 0.059836973 -0.25386608 -0.05721203 -0.1713211
-0.27067775 -0.20009436 0.19289573 -0.1253039 0.10685284 0.03226093 -0.46871933 -0.08310601
-0.15472724 -0.32226738 -0.055141818 0.34762183 0.18467623 0.017390333 0.089236744 0.10638964
0.08926049 -0.14435565 0.19179282 -0.11525982 -0.13158292 0.08453776 -0.015267171 0.00066081027
0.11105739 0.25757557 -0.14281102 -0.10369614 -0.074517205 -0.06629964 -0.3475534 -0.15092741
0.10992468 -0.21983112 -0.104091875 -0.010283247 -0.023575196 0.061464265 -0.12396191 0.15225375
-0.11180093 -0.18167411 -0.57793 -0.13895598 -0.118848704 -0.36632583 0.08516185 0.16204682
-0.0640226 0.14347178 -0.231056 -0.15920173 -0.07293721 0.024099011 -0.13112882 0.11875035
-0.17013067 -0.3140631 -0.028585102 -0.060964003 -0.13086638 -0.15371798 -0.16510415 -0.0061405716
0.005996628 0.033442885 -0.046373643 0.10686636 0.038359273 -0.07775967 -0.14671996 -0.07117311
-0.12894323 -0.27081412 -0.23873769 0.090019554 0.20760682 -0.15950581 0.10957889 0.06731745
-0.31320253 -0.06923549 -0.20383227 0.1070629 0.021425344 -0.16865008 -0.114105746 -0.13139756
-0.23408462 0.06320831 0.11204205 0.10796191 0.19933599 0.063235916 -0.07791659 -0.21457309
-0.17720401 -0.15988995 -0.1345711 0.06371264 0.07922551 0.12772338 0.12577039 -0.023990257
0.053549133 0.19721705 0.15613315 -0.034431648 -0.04960069 0.10664205 0.03231531 -0.04087318
0.08731875 0.064519815 -0.20421776 0.013392796 -0.006586554 -0.089638814 -0.26372656 -0.28082785
0.11626734 0.0837126 0.20541658 0.1308894 0.068198696 0.015754407 -0.07181887 9.3903276e-05
0.07697411 0.061525244 0.18950193 0.049340386 0.02994902 -0.24246584 -0.067238696 -0.08045104
-0.024679737 0.020256756 -0.08796802 -0.114242874 -0.17469576 0.10398177 0.025547702 -0.24476287
-0.12106649 -0.03851495 -0.12081305 -0.12904732 0.052307025 -0.07179257 -0.15729696 0.100144655
-0.18953353 0.13674134 0.13470396 -0.14980367 0.08137936 -0.11843402 0.13849004 0.092632
00000000: e793 86be 5114 293d e9db ba3d 7c94 cd3d
00000010: 8bb2 88be a0d1 74be ffcb 81be 0952 fdbe
00000020: 100c 5bbe 1416 b0bd 892c aebc a7dc b0bd
00000030: 271e babd 286a b03d fc8e 083e 2e04 e7bc
00000040: 00b3 40be a2c3 5fbd daa4 c9bd 20b9 a1bd
00000050: d4a2 e8bd b71a bd3d 2398 82be 5b95 0bbe
00000060: 3433 80bd bd3e 973d df99 813d 2406 84bd
00000070: 7a26 2a3e 0825 42be 124a cdbe 04b1 1e3d
00000080: 3cb2 593b 19bf edbd 511c 173d 6462 613e
00000090: 3e30 f6bd 02ed 41bd 32a7 ffbd 23b8 903d
000000a0: b7cc 04be e105 fabd 4d59 843e 097d e6ba
000000b0: f2a3 d2be a454 193b 1b31 b4bd b089 cc3c
000000c0: 6858 d5bd 9657 95be 744c 50be ea41 c83e
000000d0: 92fc 253e 3698 7dbe d349 613d 64f9 993d
000000e0: a7a7 53bd d710 343d 8f52 0f3e 42c3 603e
000000f0: 3cee a1bd 7c14 96bc 8f40 613e 402b 01be
00000100: aed5 65be ec95 1a3e 3818 863e b929 0bbc
00000110: b9ea c9be 2561 573d 5b00 02bd 32a5 f83c
00000120: c32e f73d 5d17 0b3e 4146 01be 17f6 f1bc
00000130: 6a46 263e 6e67 60be 582c a63b d2d7 97bc
00000140: 0039 763c 07d1 9cbd 289a f13b 0f35 033e
00000150: fccd 6c3c 7fda d7bd 1784 8dbd 673d 883d
00000160: 1c09 8f3e 00a9 9d3c 0436 ecbd bb5f 7cbd
00000170: 9d17 753d bcfa 81be 2957 6abd cc6e 2fbe
00000180: 4696 8abe 89e5 4cbe 7586 453e aa4f 00be
00000190: a9d5 da3d 0924 043d fbfb efbe 7c33 aabd
000001a0: d170 1ebe 3b00 a5be 63dc 61bd 7dfb b13e
000001b0: c41b 3d3e 2c76 8e3c c1c1 b63d d0e2 d93d
000001c0: 34ce b63d f8d1 13be 5665 443e 570d ecbd
000001d0: acbd 06be 2222 ad3d 2823 7abc 3a3a 2d3a
000001e0: 0f72 e33d f2e0 833e 0d3d 12be a45e d4bd
000001f0: 7a9c 98bd 1bc8 87bd 85f2 b1be b78c 1abe
00000200: 3120 e13d 691b 61be 1f2e d5bd 107b 28bc
00000210: c520 c1bc f4c1 7b3d bedf fdbd 68e8 1b3e
00000220: e3f7 e4bd c708 3abe 38f3 13bf 7a4a 0ebe
00000230: f366 f3bd 0f8f bbbe 5669 ae3d 9aef 253e
00000240: 481e 83bd 44ea 123e f299 6cbe c705 23be
00000250: 1b60 95bd 4a6b c53c a246 06be 6233 f33d
00000260: bc36 2ebe e1cc a0be 4e2b eabc 64b5 79bd
00000270: d601 06be 3f68 1dbe 1011 29be d936 c9bb
00000280: 5d7f c43b 68fb 083d 4af2 3dbd c0dc da3d
00000290: 9d1e 1d3d 7640 9fbd c23d 16be 35c3 91bd
000002a0: b209 04be 26a8 8abe a777 74be 2c5c b83d
000002b0: e296 543e 7e55 23be e66a e03d bbdd 893d
000002c0: 155c a0be 56cb 8dbd 68b9 50be cb43 db3d
000002d0: 3484 af3c 9bb2 2cbe 46b0 e9bd 158d 06be
000002e0: e1b3 6fbe 5c73 813d 4d76 e53d 221b dd3d
000002f0: bc1e 4c3e d581 813d bc92 9fbd 0cb9 5bbe
00000300: f874 35be 31ba 23be 02cd 09be c67b 823d
00000310: fc40 a23d ebc9 023e f4c9 003e 3787 c4bc
00000320: 5656 5b3d 44f3 493e 5ee1 1f3e 3308 0dbd
00000330: 182a 4bbd 2667 da3d 0f5d 043d a36a 27bd
00000340: 2cd4 b23d f722 843d 761e 51be 756d 5b3c
00000350: 05d4 d7bb 8e94 b7bd 2b07 87be abc8 8fbe
00000360: 921d ee3d 8371 ab3d b958 523e df07 063e
00000370: c2ab 8b3d 630f 813c c615 93bd f0ed c438
00000380: 9aa4 9d3d e501 7c3d cb0c 423e 2519 4a3d
00000390: a657 f53c f748 78be 71b4 89bd 84c3 a4bd
000003a0: 292d cabc 7ff1 a53c 9428 b4bd 2bf8 e9bd
000003b0: 72e3 32be 65f4 d43d 6a49 d13c 1ea3 7abe
000003c0: b5f1 f7bd dac1 1dbd d56c f7bd fb24 04be
000003d0: e43f 563d fc07 93bd 7412 21be a418 cd3d
000003e0: 1415 42be ec05 0c3e d6ef 093e 2266 19be
000003f0: 39aa a63d 898d f2bd 55d0 0d3e d9b5 bd3d

sequential/conv2d_3/BiasAdd/ReadVariableOp:0 f4 [64]
-0.09942349 -0.20999573 -0.18647051 -0.076670036 -0.049268216 -0.23577487 -0.30167082 -0.13396223
-0.059827805 -0.04304917 -0.24747147 -0.1407023 -0.28269053 -0.16685627 -0.19806424 -0.12153212
-0.017115317 -0.11106239 -0.07394713 -0.05838052 -0.25202957 -0.15476882 -0.0050508496 -0.24060576
-0.18356007 -0.24942309 -0.1289526 -0.17723906 -0.15603033 -0.23261327 -0.1697714 -0.23448886
-0.2218842 -0.19023454 -0.14435866 -0.18717231 -0.017903162 -0.17727819 -0.31606954 -0.21947154
-0.12291522 -0.18454029 -0.12664567 -0.12816228 -0.24758542 -0.06886715 -0.18373097 -0.16539644
-0.115938276 -0.01689418 -0.1506712 -0.24546431 -0.19090536 -0.049838465 -0.08478064 -0.093699254
-0.23601113 -0.09037137 -0.09358231 -0.22214422 -0.15321293 -0.21294259 -0.2339833 -0.04541249
00000000: 8b9e cbbd 1f09 57be 20f2 3ebe 2e05 9dbd
00000010: 78cd 49bd f86e 71be 9974 9abe 652d 09be
00000020: 000e 75bd 5454 30bd 2969 7dbe 4414 10be
00000030: d0bc 90be 5fdc 2abe 5ad1 4abe d5e5 f8bd
00000040: 6c35 8cbc ae74 e3bd 9871 97bd 6a20 6fbd
00000050: 050a 81be b87b 1ebe 9981 a5bb 5b61 76be
00000060: 2cf7 3bbe c468 7fbe 260c 04be 287e 35be
00000070: 6ac6 1fbe 2c32 6ebe 8ed8 2dbe d91d 70be
00000080: 9d35 63be d8cc 42be c2d2 13be 19aa 3fbe
00000090: a7a9 92bc 6a88 35be ded3 a1be 26bd 60be
000000a0: faba fbbd 21f8 3cbe 67af 01be f93c 03be
000000b0: 0887 7dbe 380a 8dbd f923 3cbe af5d 29be
000000c0: 0c71 edbd aa65 8abc 8d49 1abe ff5a 7bbe
000000d0: b27c 43be 6b23 4cbd 79a1 adbd 65e5 bfbd
000000e0: e7ac 71be a014 b9bd 15a8 bfbd c679 63be
000000f0: dae3 1cbe 9f0d 5abe 5199 6fbe 7202 3abd

sequential/conv2d_2/Conv2D/ReadVariableOp:0 f4 [16, 32, 3, 3]
0.06463492 0.0154362675 0.25814658 -0.09450266 -0.09900798 -0.18396267 -0.019552493 -0.2408848
-0.29510128 -0.32681453 0.030350031 0.2397307 -0.1608661 -0.4847271 -0.3662913 0.10592962
0.14399561 -0.20778269 -0.39507958 -0.38654214 -0.23860495 -0.24313863 -0.2418149 -0.34967032
0.2956818 0.12697664 0.24301818 0.12513955 -0.060578592 -0.3811721 0.3283954 0.21812375
-0.035094023 0.13485636 0.1578036 0.43953347 -0.019567842 0.10463609 -0.0034238861 0.098688275
0.09371044 -0.09067088 -0.06290164 0.005483923 -0.13171047 0.14341727 0.08676607 0.11269961
-0.5076047 -0.0074138944 0.16776365 0.0446525 0.30876112 -0.018470788 -0.67150307 -0.5352779
-0.18903415 -0.17013018 -0.306803 -0.38929752 0.3005602 -0.07149012 -0.08038898 -0.17764716
-0.2996983 -0.015294512 -0.10381407 -0.0041016173 -0.19279225 0.20859061 0.20610546 0.08245423
-0.5944887 -0.12913957 0.124532 -0.010681036 -0.059107 -0.25556475 0.100097574 0.21934862
0.015396096 -0.5903905 -0.37127706 -0.20619255 -0.18565115 -0.30444697 -0.24364863 0.33058193
0.18396406 0.32471004 -0.064480744 0.047263123 0.0068318136 0.116926976 -0.019799944 0.08273879
0.11224673 -0.11408601 -0.08611108 0.09114932 0.34604862 0.18241371 -0.35948443 -0.0057481374
0.2638667 -0.02392829 0.01768069 -0.11787798 -0.10607764 -0.016988523 0.18017898 -0.059728805
-0.08327482 -0.22021033 0.012014321 0.1553952 -0.09274968 -0.57519186 -0.23611392 -0.2452209
0.15700734 0.11426443 -0.19430535 0.23207167 0.28520644 0.2018188 0.048867986 0.10838822
0.24337763 -0.27316758 -0.22182694 -0.11062419 0.14553288 0.1076388 -0.08093293 -0.14071293
-0.110133715 -0.02671373 -0.2957996 -0.067710154 -0.11930507 0.12402539 0.20266402 0.078917615
0.037845045 0.1532187 0.40805712 -0.19509347 0.004878374 0.04572813 -0.17418641 -0.2741064
-0.6861812 -0.1991423 -0.111859165 0.3266706 -0.23634855 -0.5927793 -0.44029737 0.19350664
-0.045882277 -0.17162734 -0.15110789 -0.12691344 0.11063507 0.027854253 -0.29807854 -0.17219028
0.107310876 0.06587184 -0.16954638 -0.47564998 -0.49830252 -0.0857686 0.14095643 -0.073854774
-0.07882396 0.05461242 0.047735106 0.02363765 -0.527326 -0.32309464 0.10774408 0.07130173
-0.051263344 -0.10116562 0.047965854 0.23786932 0.15705799 -0.11780272 -0.09197494 -0.25488493
-0.24204299 -0.28162274 -0.37198958 0.031156817 0.28853226 0.151457 -0.24605328 -0.15214927
0.23058023 -0.04360746 -0.32614404 -0.28286058 0.23841032 -0.00837372 -0.11804081 0.19932207
0.26372504 0.23837392 -0.01254123 0.11718164 0.44766012 0.016157575 0.08105943 0.11782661
0.21322164 0.25006804 0.21307062 -0.45044217 -0.12295621 0.002674425 0.027509486 0.16858466
-0.23081319 0.018196413 0.006559572 -0.056964748 0.037460916 0.10000052 -0.12736088 -0.01895586
0.12796207 0.20796351 -0.25949097 -0.36003038 -0.08584968 0.14583917 0.031854622 -0.14384805
0.0124675995 0.18561767 0.24215744 -0.15567186 -0.22617021 0.09053179 -0.5007346 -0.40464294
-0.23339687 0.32521328 0.008895387 0.049362116 -0.09692206 0.20240796 0.38328457 -0.16235279
00000000: 505f 843d 66e8 7c3c ca2b 843e 9c8a c1bd
00000010: b2c4 cabd b660 3cbe 8d2c a0bc 81aa 76be
00000020: 8417 97be 3c54 a7be a1a0 f83c f77b 753e
00000030: 15ba 24be 272e f8be 898a bbbe a1f1 d83d
00000040: 9673 133e fcc4 54be df47 cabe dae8 c5be
00000050: db54 74be 55f9 78be 539e 77be fd07 b3be
00000060: 9b63 973e 2a06 023e c2d9 783e 9524 003e
00000070: 4221 78bd fd28 c3be 7123 a83e d55b 5f3e
00000080: c0be 0fbd c917 0a3e 4497 213e 880a e13e
00000090: bd4c a0bc 724b d63d 4763 60bb 141d ca3d
000000a0: 42eb bf3d a8b1 b9bd 93d2 80bd 7bb2 b33b
000000b0: 1cdf 06be fadb 123e 69b2 b13d 0ecf e63d
000000c0: 62f2 01bf 41f0 f2bb 3cca 2b3e 8ae5 363d
000000d0: f015 9e3e 0d50 97bc a0e7 2bbf f907 09bf
000000e0: 2b92 41be 9b36 2ebe 4815 9dbe 0152 c7be
000000f0: 07e3 993e 6969 92bd faa2 a4bd 23e9 35be
00000100: 0e72 99be d595 7abc 799c d4bd dc66 86bb
00000110: 556b 45be c798 553e 4f0d 533e c3dd a83d
00000120: 6930 18bf 2a3d 04be a20a ff3d 83ff 2ebc
00000130: 2e1a 72bd 62d9 82be f5ff cc3d ed9c 603e
00000140: e83f 7c3c d523 17bf 0718 bebe 2424 53be
00000150: 561b 3ebe 79e0 9bbe 077f 79be 0942 a93e
00000160: 1361 3c3e 6540 a63e 7b0e 84bd fa96 413d
00000170: 68dd df3b 6977 ef3d 7e33 a2bc f472 a93d
00000180: 9de1 e53d eda5 e9bd 025b b0bd 7fac ba3d
00000190: 492d b13e a9ca 3a3e 580e b8be df5a bcbb
000001a0: 8919 873e 4305 c4bc 18d7 903c 036a f1bd
000001b0: 3c3f d9bd 842b 8bbc d780 383e 31a6 74bd
000001c0: fd8b aabd d17e 61be b7d7 443c eb1f 1f3e
000001d0: 8bf3 bdbd c63f 13bf d9c7 71be 301b 7bbe
000001e0: 88c6 203e 7803 ea3d fbf7 46be 32a4 6d3e
000001f0: 9406 923e 96a9 4e3e cc29 483d a5fa dd3d
00000200: fc37 793e 9fdc 8bbe 9a26 63be ef8e e2bd
00000210: 9206 153e bb71 dc3d 2ac0 a5bd 0d17 10be
00000220: c98d e1bd c1d6 dabc 0c73 97be 9fab 8abd
00000230: 3756 f4bd 0601 fe3d 2887 4f3e 8f9f a13d
00000240: 6803 1b3d 5de5 1c3e ddec d03e 95c6 47be
00000250: c4da 9f3b 6b4d 3b3d ec5d 32be ad57 8cbe
00000260: 92a9 2fbf f6eb 4bbe 6b16 e5bd 5e41 a73e
00000270: 5b05 72be 62c0 17bf a86e e1be 9b26 463e
00000280: 0eef 3bbd 14bf 2fbe 07bc 1abe 99f5 01be
00000290: a494 e23d 9a2e e43c c09d 98be a652 30be
000002a0: cec5 db3d d1e7 863d 919d 2dbe 6588 f3be
000002b0: 8221 ffbe 73a7 afbd e256 103e 2c41 97bd
000002c0: 756e a1bd 46b1 5f3d e385 433d bfa3 c13c
000002d0: d6fe 06bf a96c a5be eea8 dc3d a406 923d
000002e0: 83f9 51bd ec2f cfbd d877 443d 0494 733e
000002f0: cfd3 203e 8d42 f1bd 5b5d bcbd 4780 82be
00000300: 1eda 77be db30 90be 6b75 bebe 953c ff3c
00000310: 80ba 933e 8b17 1b3e 64f5 7bbe 05cd 1bbe
00000320: 391d 6c3e bc9d 32bd 5afc a6be 1ad3 90be
00000330: d621 743e ed31 09bc 61bf f1bd 161b 4c3e
00000340: f806 873e 4b18 743e bb79 4dbc edfc ef3d
00000350: b533 e53e e45c 843c 7d02 a63d 144f f13d
00000360: c656 5a3e eb08 803e 2f2f 5a3e 5ba0 e6be
00000370: 77d0 fbbd 6845 2f3b 935b e13c 75a1 2c3e
00000380: 4b5a 6cbe a510 953c aef1 d63b de53 69bd
00000390: 9e70 193d 13cd cc3d e46a 02be 5249 9bbc
000003a0: 7d08 033e 63f4 543e 00dc 84be e755 b8be
000003b0: f5d1 afbd dd56 153e fe79 023d e74c 13be
000003c0: e744 4c3c 8f12 3e3e 1ff8 773e 7268 1fbe
000003d0: 2a99 67be bb68 b93d 2530 00bf 5c2d cfbe
000003e0: 97ff 6ebe 5b82 a63e f5bd 113c ee2f 4a3d
000003f0: 137f c6bd 0844 4f3e e03d c43e cf3f 26be

sequential/conv2d_2/BiasAdd/ReadVariableOp:0 f4 [16]
0.06588045 -0.08315924 -0.14763771 0.013803509 -0.18515171 -0.058237325 -0.020545172 -0.01876007
0.17222537 -0.064351164 0.112529576 0.12231771 0.09510047 0.009953904 0.012568088 -0.033954486
00000000: 54ec 863d 644f aabd 572e 17be 1d28 623c
00000010: 6998 3dbe 438a 6ebd 594e a8bc b8ae 99bc
00000020: d95b 303e 8bca 83bd e875 e63d b581 fa3d
00000030: 09c4 c23d b315 233c 62ea 4d3c dc13 0bbd

sequential/conv2d_1/Conv2D/ReadVariableOp:0 f4 [32, 64, 3, 3]
0.18011492 0.019327564 -0.14544746 0.008198706 -0.06612525 -0.22174068 -0.051654316 -0.07809218
0.099136256 -0.10137959 -0.06839359 -0.06763478 -0.20084235 -0.12340181 -0.015240343 -0.17713465
-0.0045382055 0.1476819 -0.23962578 -0.31818256 -0.29867473 -0.5042052 -0.3935296 -0.025465216
-0.39497703 0.07299791 0.20586202 0.15266487 0.03765124 -0.2419564 0.07575615 -0.067096725
-0.2975623 0.16180858 -0.12402248 -0.19129615 0.2563467 0.18708882 0.07243033 0.13736421
0.050923906 -0.31311986 -0.067679 -0.26719517 -0.3603635 -0.07374613 -0.03766816 0.041986488
0.17677265 0.07962257 0.024389228 0.16172497 0.19201636 0.17101108 -0.011586915 -0.09795078
-0.19759206 -0.16415021 -0.07391619 -0.024379145 -0.1792479 0.012345125 0.11983637 -0.057406083
-0.38818437 -0.4840391 -0.17438166 -0.44241318 -0.20633192 -0.5432481 -0.19897683 0.06295074
-0.16413765 -0.30781874 -0.4022865 -0.42162153 -0.31217644 -0.09653713 -0.3444488 0.013525883
0.19769555 0.17126259 0.06586584 -0.04434774 0.115831025 0.023865849 0.0106464615 0.051669076
0.03499534 -0.03181738 -0.13836208 -0.5225494 -0.41808215 -0.40240997 -0.5237076 -0.09110827
-0.5283987 -0.15857592 0.1663099 -0.19235866 -0.11286594 -0.14673057 -0.110129274 -0.31246483
-0.01197916 -0.22079179 -0.1432926 0.15828949 0.27789277 0.09024961 -0.26476586 0.042053293
0.0072167334 -0.35391846 -0.14428441 -0.34613705 -0.4547542 0.2321316 0.23698479 0.16159877
0.13676392 0.09486771 -0.24058245 0.12567882 -0.09268007 -0.46760628 -0.19631869 -0.447012
-0.34585765 -0.36500588 -0.40267447 -0.048116107 -0.52605873 -0.117960885 0.15254278 -0.042121954
-0.3162632 -0.57686186 -0.17028043 -0.5040322 -0.29360995 -0.569676 -0.16521661 0.04772375
0.22531472 0.15055676 0.21317685 0.31996843 0.14514418 0.017282568 0.4227131 0.14163697
-0.081150234 0.11697748 0.098870695 0.09974933 0.30298182 0.07719907 -0.059330072 0.23976548
0.053941876 -0.09872496 0.11822795 -0.14530154 -0.33795443 0.06633517 -0.19179705 -0.20249592
-0.16315806 -0.15867347 -0.023745228 0.09746716 0.03252104 -0.09292074 0.18557255 -0.07404975
-0.16129966 -0.010047131 -0.20283867 -0.09031668 0.11281752 -0.05435299 -0.24887195 0.0030864878
-0.30266452 -0.29785398 -0.1448523 -0.3071379 -0.07319352 0.15728323 0.25734246 0.3732049
0.13057214 0.22673431 0.15644062 0.13648552 0.017205594 -0.08625067 0.100685365 -0.11943492
-0.41295984 -0.040995456 -0.37110505 -0.3385234 -0.30517465 -0.28841862 -0.06383785 -0.20237185
-0.42018336 -0.20861009 -0.32448 -0.37025136 0.008992662 -0.16662218 0.01962996 0.23987044
0.26031044 0.19770335 -0.0651809 0.18707532 0.027484199 -0.18011288 0.064755306 -0.14765772
-0.46551138 0.23572864 0.23376721 0.24304438 0.08395511 0.17943388 0.13720883 0.021442723
0.0066097723 -0.09359392 0.03059499 -0.2743729 -0.47267658 -0.16992824 -0.4789563 -0.2545452
-0.33100554 -0.33208025 -0.040958717 -0.20335862 -0.34542218 -0.33532164 -0.21188065 -0.33546513
-0.071576595 -0.33688936 -0.24468793 0.2796045 0.16974047 0.08821574 -0.20108849 0.11476416
00000000: 0c70 383e d754 9e3c 2ef0 14be de53 063c
00000010: ad6c 87bd fd0f 63be 7a93 53bd cbee 9fbd
00000020: f307 cb3d 1aa0 cfbd f011 8cbd 1b84 8abd
00000030: 9ea9 4dbe 17ba fcbd a2b2 79bc c962 35be
00000040: 3ab5 94bb ed39 173e 7660 75be d3e8 a2be
00000050: e5eb 98be 9813 01bf b67c c9be 6e9c d0bc
00000060: 6e3a cabe ee7f 953d 7ecd 523e 2e54 1c3e
00000070: 3038 1a3d 6bc3 77be 0a26 9b3d 026a 89bd
00000080: 165a 98be 26b1 253e 7fff fdbd 23e3 43be
00000090: e03f 833e 3694 3f3e 5a56 943d 34a9 0c3e
000000a0: 9695 503d 3f51 a0be 4a9b 8abd cecd 88be
000000b0: 9181 b8be 3608 97bd ee49 1abd 06fa 2b3d
000000c0: e403 353e 2811 a33d ebcb c73c 3b9b 253e
000000d0: f09f 443e 871d 2f3e 0bd7 3dbc 6b9a c8bd
000000e0: 9355 4abe fe16 28be 5f61 97bd c6b6 c7bc
000000f0: c38c 37be 3543 4a3c c56c f53d a422 6bbd
00000100: 1ac0 c6be f9d3 f7be 1b91 32be fb83 e2be
00000110: ad48 53be 4f12 0bbf 95c0 4bbe 51ec 803d
00000120: b313 28be 6b9a 9dbe 7ff8 cdbe c7de d7be
00000130: 97d5 9fbe 42b5 c5bd 985b b0be aa9b 5d3c
00000140: b470 4a3e 765f 2f3e abe4 863d faa5 35bd
00000150: d138 ed3d 5082 c33c 7f6e 2e3c f4a2 533d
00000160: 4657 0f3d f152 02bd caae 0dbe ccc5 05bf
00000170: dd0e d6be ae08 cebe b411 06bf f996 babd
00000180: 2345 07bf ba61 22be 244d 2a3e abf9 44be
00000190: 4226 e7bd 8a40 16be 758b e1bd 64fb 9fbe
000001a0: 3d44 44bc 3e17 62be 4cbb 12be a416 223e
000001b0: f647 8e3e cad4 b83d 648f 87be 1340 2c3d
000001c0: 597a ec3b cd34 b5be 4bbf 13be e038 b1be
000001d0: 8bd5 e8be e8b3 6d3e 24ac 723e 267a 253e
000001e0: d70b 0c3e 004a c23d 3f5b 76be f3b1 003e
000001f0: 0ccf bdbd 176a efbe c407 49be c2de e4be
00000200: 4114 b1be 0de2 babe 592b cebe 6515 45bd
00000210: c9ab 06bf 7a95 f1bd 2d34 1c3e 1288 2cbd
00000220: 40ed a1be 38ad 13bf fe5d 2ebe 4108 01bf
00000230: 0b54 96be 49d6 11bf 8b2e 29be fb79 433d
00000240: e7b8 663e 8d2b 1a3e 084b 5a3e e7d2 a33e
00000250: ada0 143e 2c94 8d3c da6d d83e 4809 113e
00000260: 1832 a6bd e491 ef3d b87c ca3d 6049 cc3d
00000270: 6f20 9b3e 8c1a 9e3d 1704 73bd 1585 753e
00000280: 28f2 5c3d 5030 cabd 7f21 f23d edc9 14be
00000290: 5d08 adbe bcda 873d 7266 44be 175b 4fbe
000002a0: e812 27be 4c7b 22be 5a85 c2bc dd9c c73d
000002b0: c834 053d 3b4d bebd bb06 3e3e 65a7 97bd
000002c0: bd2b 25be b99c 24bc f1b4 4fbe f4f7 b8bd
000002d0: df0c e73d 3ea1 5ebd 4ad8 7ebe ac46 4a3b
000002e0: d8f6 9abe 5180 98be 2954 14be 2e41 9dbe
000002f0: 7ce6 95bd db0e 213e 64c2 833e b614 bf3e
00000300: b4b4 053e 0a2d 683e f831 203e dcc2 0b3e
00000310: bff2 8c3c 31a4 b0bd 2134 ce3d 4c9a f4bd
00000320: 796f d3be daea 27bd 7b01 bebe f052 adbe
00000330: da3f 9cbe 9bab 93be 6bbd 82bd 913a 4fbe
00000340: 4622 d7be e29d 55be 3e22 a6be 9691 bdbe
00000350: f555 133c 019f 2abe 03cf a03c 99a0 753e
00000360: 6947 853e bf72 4a3e 907d 85bd ac90 3f3e
00000370: 8b26 e13c 836f 38be 6e9e 843d 9633 17be
00000380: 8257 eebe d962 713e ac60 6f3e a0e0 783e
00000390: a8f0 ab3d 84bd 373e 7980 0c3e a6a8 af3c
000003a0: ca96 d83b 2bae bfbd 58a2 fa3c 9b7a 8cbe
000003b0: aa02 f2be ab01 2ebe c339 f5be c053 82be
000003c0: 8f79 a9be 6c06 aabe 54c4 27bd 3e3d 50be
000003d0: 2ddb b0be 47af abbe 3ef7 58be 16c2 abbe
000003e0: c096 92bd c37c acbe 798f 7abe 5228 8f3e
000003f0: 72d0 2d3e 74aa b43d 24ea 4dbe 7909 eb3d

sequential/conv2d_1/BiasAdd/ReadVariableOp:0 f4 [32]
0.09621096 0.03870031 0.034985926 0.040986605 -0.015198998 0.023987172 0.12803853 0.0048767515
0.038171362 0.033008438 -0.019242909 0.034291435 -0.014863936 0.110233754 0.020674778 0.039877113
0.07635088 0.046516772 -0.033937953 -0.04775922 0.07388152 0.05340318 -0.022940772 -0.037186086
0.037299324 -0.009576589 -0.040147837 0.02896965 0.0011135568 -0.012771061 -0.03840782 -0.068208374
00000000: 400a c53d 3784 1e3d 674d 0f3d 92e1 273d
00000010: 3805 79bc bf80 c43c 881c 033e 28cd 9f3b
00000020: 9359 1c3d db33 073d 4ea3 9dbc 2d75 0c3d
00000030: de87 73bc 3cc2 e13d 275e a93c 2f56 233d
00000040: da5d 9c3d 5f88 3e3d 8602 0bbd 2c9f 43bd
00000050: 324f 973d 4bbd 5a3d 49ee bbbc 7050 18bd
00000060: 2dc7 183d 20e7 1cbc 0f72 24bd c251 ed3c
00000070: c4f4 913a b63d 51bc 8551 1dbd d5b0 8bbd

sequential/conv2d/Conv2D/ReadVariableOp:0 f4 [64, 1, 3, 3]
-0.024622908 -0.10430261 -0.103794344 0.050570752 0.15388578 0.044836402 -0.11705178 0.044103563
-0.06539482 -0.20957159 -0.36998987 -0.16318336 0.016672539 0.072637156 0.04420353 0.15077794
0.24249038 0.3093766 -0.017072234 -0.17184052 -0.076903805 -0.1656341 0.11507856 0.2035998
-0.040023085 0.11726135 0.2975403 0.07565325 -0.004095059 0.14624226 0.018179957 0.12470541
0.10639937 -0.175457 -0.12594897 0.07404296 0.13002305 -0.09110493 -0.09191645 0.21517234
0.034726642 -0.3557147 0.31302065 0.05406328 -0.0540305 0.15518782 0.18797335 0.11442611
-0.22156347 -0.23752089 -0.06972335 -0.30348673 -0.08538737 0.24857196 -0.2870989 -0.16950305
0.1573836 -0.28444558 -0.091087416 0.21140769 -0.11070955 0.052625746 0.269249 0.037651196
-0.1397256 -0.1323609 -0.017310454 0.116647 0.0987981 -0.25326973 0.15290895 0.14447083
-0.14243405 -0.121664874 -0.10914847 -0.16964276 0.21902066 0.21404268 -0.122925654 0.16400965
0.28197452 0.07553361 0.012511395 -0.09164488 -0.12482837 0.026199218 -0.12860759 -0.15476994
-0.100197814 0.09615666 -0.102100305 -0.22062288 -0.07419757 -0.07771652 0.14965433 0.02030252
-0.036772348 0.32352915 0.18263833 -0.21416004 -0.4358534 -0.17609039 0.092654765 -0.10758822
0.015897635 0.24132481 0.22435497 0.3671886 0.013822125 -0.0018257017 -0.1749603 0.16240625
0.09274344 -0.056932118 0.09816837 -0.0057013785 -0.05367281 0.117610045 0.031296715 -0.010284665
0.22429653 -0.16198093 -0.37942106 0.14265408 -0.109930634 -0.112574324 -0.06978139 -0.20029837
-0.21083732 -0.13475382 0.21607962 0.1841473 -0.09977036 0.31865323 0.33447897 0.004157525
-0.13257663 -0.063421525 -0.03370859 0.19336584 0.19698468 -0.23310567 0.11878435 0.16444665
0.28713262 0.22373281 0.15489903 0.033201728 -0.05887452 -0.071550064 -0.3616137 -0.41602007
-0.27918962 0.24582571 0.16303298 0.24188 0.025012888 -0.15561433 0.00089413335 -0.085397914
-0.3194683 -0.197111 -0.017362356 0.023964133 -0.07275041 -0.09227992 0.08825904 0.040135078
-0.14390042 -0.047910567 -0.0058167777 -0.10769885 0.006922554 -0.15292427 0.020902496 -0.013614878
0.107227445 -0.06268022 -0.15236905 -0.013197484 -0.09122262 0.013008266 -0.09528495 -0.020510122
0.03686748 0.071771786 -0.09078123 0.06329945 -0.1753405 0.3325798 0.03913746 -0.22204466
0.16276044 0.06541055 -0.33366248 0.29020745 -0.12772904 -0.10783995 -0.14207211 0.07541416
0.12295163 -0.09415331 0.18322279 0.13026923 -0.144954 -0.12675701 0.08382191 -0.106531665
-0.2642008 -0.05554535 -0.107363105 0.06881194 0.16151227 0.01941983 0.117650144 0.39193213
0.24444215 0.06974521 0.1833175 0.20109311 0.19937839 -0.16739975 0.15017068 -0.09694593
-0.33865383 0.26237375 -0.045001537 -0.29972848 0.3066343 -0.09819256 -0.33174255 0.22330989
0.09249515 -0.08928722 0.031669922 -0.052038323 -0.12151886 -0.09867439 0.1660308 0.12733762
-0.15891929 0.062656626 0.014622667 -0.28987426 -0.40782538 -0.12649153 0.01498756 -0.041766245
0.25932994 0.20421669 0.3837146 0.24822287 0.064291775 -0.19665389 -0.23713855 0.08359549
00000000: fbb5 c9bc 9b9c d5bd 2192 d4bd 4723 4f3d
00000010: 3c94 1d3e 60a6 373d d8b8 efbd f0a5 343d
00000020: b8ed 85bd ef99 56be 506f bdbe 8a19 27be
00000030: d994 883c cac2 943d c30e 353d 8865 1a3e
00000040: 664f 783e 9c66 9e3e 12db 8bbc f6f6 2fbe
00000050: be7f 9dbd fc9b 29be 4fae eb3d 777c 503e
00000060: 3fef 23bd b826 f03d 3457 983e 17f0 9a3d
00000070: d82f 86bb 88c0 153e 22ee 943c 8d65 ff3d
00000080: eae7 d93d 00ab 33be c4f8 00be d6a3 973d
00000090: c324 053e 3995 babd b13e bcbd 2356 5c3e
000000a0: 863d 0e3d 3d20 b6be 3e44 a03e 7571 5d3d
000000b0: 164f 5dbd 8ee9 1e3e 167c 403e 3d58 ea3d
000000c0: 89e1 62be ad38 73be 1ecb 8ebd 9d62 9bbe
000000d0: 93df aebd a689 7e3e a1fe 92be 3592 2dbe
000000e0: 2b29 213e daa2 91be 0a8c babd 427b 583e
000000f0: b0bb e2bd 188e 573d 01db 893e 2438 1a3d
00000100: 3a14 0fbe 9e89 07be a7ce 8dbc 9fe4 ee3d
00000110: a956 ca3d 92ac 81be 2a94 1c3e 29f0 133e
00000120: 3bda 11be 6f2b f9bd 3c89 dfbd d5b6 2dbe
00000130: f446 603e 012e 5b3e 72c0 fbbd 25f2 273e
00000140: f75e 903e 5eb1 9a3d 98fc 4c3c 50b0 bbbd
00000150: 04a6 ffbd be9f d63c b5b1 03be 037c 1ebe
00000160: 8334 cdbd c8ed c43d f719 d1bd f7ea 61be
00000170: e5f4 97bd d729 9fbd fc3e 193e 7851 a63c
00000180: 9a9e 16bd 9da5 a53e 8b05 3b3e c54c 5bbe
00000190: 2d28 dfbe 0a51 34be c8c1 bd3d 3657 dcbd
000001a0: c23b 823c da1d 773e 4fbd 653e 2500 bc3e
000001b0: 3276 623c 624c efba cb28 33be d34d 263e
000001c0: 46f0 bd3d a731 69bd 800c c93d a1d2 babb
000001d0: 05d8 5bbd 89dd f03d fc30 003d 0381 28bc
000001e0: fdad 653e 54de 25be 7a43 c2be e913 123e
000001f0: 5023 e1bd 5e8d e6bd 8ce9 8ebd 041b 4dbe
00000200: bde5 57be e8fc 09be fa43 5d3e 1c91 3c3e
00000210: 6754 ccbd 8426 a33e d440 ab3e d93b 883b
00000220: 2bc2 07be 25e3 81bd 0512 0abd b201 463e
00000230: 5ab6 493e 41b3 6ebe 3645 f33d b464 283e
00000240: 0c03 933e 371a 653e da9d 1e3e 89fe 073d
00000250: 6926 71bd d788 92bd 6e25 b9be 9500 d5be
00000260: f1f1 8ebe bcb9 7b3e 1ef2 263e 64af 773e
00000270: d4e7 cc3c 5d59 1fbe 4664 6a3a 1ae5 aebd
00000280: 5991 a3be 77d7 49be 803b 8ebc 6e50 c43c
00000290: 2bfe 94bd 41fd bcbd 28c1 b43d ae64 243d
000002a0: a25a 13be df3d 44bd ab9a bebb 3791 dcbd
000002b0: 98d6 e23b 2e98 1cbe b63b ab3c f010 5fbc
000002c0: 109a db3d 7d5e 80bd a206 1cbe 433a 58bc
000002d0: edd2 babd 9f20 553c c224 c3bd d804 a8bc
000002e0: 5b02 173d 16fd 923d 82eb b9bd 24a3 813d
000002f0: 768c 33be e647 aa3e 9a4e 203d ad5f 63be
00000300: acaa 263e f7f5 853d cfd5 aabe 1296 943e
00000310: 67cb 02be 31db dcbd 5a7b 11be bd72 9a3d
00000320: 10ce fb3d 73d3 c0bd c19e 3b3e 4c65 053e
00000330: d26e 14be 97cc 01be d2aa ab3d 462d dabd
00000340: 5445 87be 8583 63bd 30e1 dbbd 46ed 8c3d
00000350: 7963 253e 5616 9f3c 8ff2 f03d 54ab c83e
00000360: 0b4f 7a3e 94d6 8e3d 95b7 3b3e 5aeb 4d3e
00000370: d929 4c3e d76a 2bbe 58c6 193e 968b c6bd
00000380: 0964 adbe da55 863e 8853 38bd 0376 99be
00000390: 2cff 9c3e 2e19 c9bd 29da a9be 59ab 643e
000003a0: 196e bd3d 38dc b6bd 52b8 013d 2326 55bd
000003b0: e1de f8bd cc15 cabd fa03 2a3e cb64 023e
000003c0: bdbb 22be 1e52 803d e993 6f3c 666a 94be
000003d0: 7dce d0be ff86 01be 628e 753c 1513 2bbd
000003e0: e5c6 843e 2e1e 513e 3d76 c43e 232e 7e3e
000003f0: 68ab 833d a35f 49be 73d4 72be 1d34 ab3d

sequential/conv2d/BiasAdd/ReadVariableOp:0 f4 [64]
-0.005223045 0.068254404 0.007913673 -0.04938735 -0.036511853 0.1087476 0.018484948 -0.074835934
0.0049143955 -0.11370174 -0.002220975 0.08894341 -0.123619184 -0.047204636 -0.004333009 -0.03410927
0.18104836 0.12699316 -0.10494875 -0.08078526 -0.046549555 0.104022466 -0.0148972785 0.011439237
-0.012357821 0.059813708 -0.06182939 0.04627828 -0.117085874 -0.013298813 -0.116592646 -0.007843221
-0.07369409 0.015287278 -0.006815367 0.116452895 -0.020936863 -0.09738097 0.081888966 -0.01132424
0.061859056 0.14874236 -0.036229197 0.084803596 -0.11381772 0.0074237348 0.119394355 -0.021921398
0.01794878 -0.0624861 0.009006814 -0.12442747 0.039143167 -0.02708047 0.16047946 -0.0028136075
-0.041745573 -0.01980543 0.0038110376 -0.051897015 0.21111467 -0.025828063 -0.044633787 0.10053471
00000000: 1426 abbb f7c8 8b3d 5aa8 013c 644a 4abd
00000010: 748d 15bd 10b7 de3d bf6d 973c 9543 99bd
00000020: f008 a13b 75dc e8bd c78d 11bb f627 b63d
00000030: 0e2c fdbd a659 41bd eafb 8dbb 29b6 0bbd
00000040: be64 393e 7f0a 023e 5fef d6bd be72 a5bd
00000050: bfaa 3ebd bb09 d53d b713 74bc a36b 3b3c
00000060: 7578 4abc 38ff 743d d040 7dbd 4b8e 3d3d
00000070: b8ca efbd 44e3 59bc 20c8 eebd da80 00bc
00000080: edec 96bd 7e77 7a3c 7153 dfbb db7e ee3d
00000090: c983 abbc ad6f c7bd 67b5 a73d 4e89 39bc
000000a0: ec5f 7d3d eb4f 183e 1165 14bd 82ad ad3d
000000b0: 4419 e9bd cd42 f33b 0785 f43d 8194 b3bc
000000c0: 5209 933c 6df1 7fbd 5191 133c d4d3 febd
000000d0: 9654 203d ddd7 ddbc ba54 243e 8064 38bb
000000e0: 68fd 2abd ff3e a2bc 9ac2 793b f791 54bd
000000f0: 722e 583e 6095 d3bc ebd1 36bd 24e5 cd3d
