models/model1.onnx (onnx, 935951 bytes, 10 tensors)

sequential/dense_2/MatMul/ReadVariableOp:0 f4 [64, 10]
000000 e8 e0 27 bd ed 11 21 3e b4 ea 29 3e e4 72 11 3e
       -0.04098597 0.15729494 0.16593438 0.14203984
000010 b9 d8 67 be 17 21 47 be d5 5a 14 bd eb ac 5a 3d
       -0.22641267 -0.19446217 -0.036219437 0.053387564
000020 28 2f 30 be 07 67 8c bd b8 cc 01 be a4 b9 52 be
       -0.17205489 -0.068555884 -0.1267575 -0.20578629
000030 4b d4 70 3e d2 b9 c2 bd ac 15 7a 3d 30 be 63 be
       0.23518483 -0.09508099 0.061055824 -0.2224052
000040 3e f2 18 bd f6 2c 2c 3d 94 be 35 3e 68 a7 cd 3d
       -0.037340395 0.042035066 0.17748481 0.10041696
000050 62 ae 88 3e 33 56 04 3e ca 0d 29 3e c0 fd 5a be
       0.26695544 0.12923507 0.16509166 -0.2138586
000060 e3 48 59 bd 74 fe 50 3e 10 e7 84 bd 40 86 6e 3d
       -0.053048026 0.20409566 -0.06489384 0.0582335
000070 21 74 8c be 68 f1 80 be 65 b6 c5 3d 38 f9 2d be
       -0.2743235 -0.25184178 0.096539296 -0.169896
000080 20 35 b6 3d fe 7b b3 3c 8f b9 92 be 32 84 c6 3b
       0.088968515 0.02190971 -0.28657195 0.0060582394
000090 79 24 96 3c cb 7a b5 bd dd 53 42 3e 53 54 45 3e
       0.018327938 -0.088613115 0.18977304 0.19270448
0000a0 3d 28 b8 3c 66 98 5c 3e 78 d6 94 3d fc 10 89 be
       0.022480125 0.2154251 0.07267469 -0.2677077
0000b0 db 47 a3 bd 73 35 88 3e 73 74 8c be 54 3f 05 3e
       -0.0797269 0.2660328 -0.27432594 0.13012439
0000c0 41 64 e0 bd 3a b6 98 3d f7 bd 09 3c c3 94 a3 3d
       -0.10956622 0.07456632 0.008407108 0.079873584
0000d0 9d 30 87 3e 17 49 01 3e f3 65 84 3d 8f 51 a1 bd
       0.26404276 0.12625538 0.06464758 -0.07876884
0000e0 7c 46 d5 3d 1e b9 8b be 4e 41 81 3e 10 85 70 3e
       0.104138345 -0.2728967 0.25245136 0.2348826
0000f0 64 0c c9 bd 5b d9 47 3d 3e 55 16 be 43 c9 5f 3e
       -0.098168164 0.04879127 -0.14680955 0.21854119
000100 c0 d9 4f be 03 28 82 be 43 86 ae bd da 1a 45 be
       -0.20297909 -0.25421152 -0.08521702 -0.19248524
000110 02 bc 86 3e d9 d3 f3 bc 69 90 c3 bd 04 34 01 3e
       0.26315314 -0.029764103 -0.095490284 0.12617499
000120 6e 51 9c bd 59 e9 80 3e 41 99 ed bd e8 3b 80 be
       -0.07632719 0.2517803 -0.116014965 -0.25045705
000130 81 c9 0e be 34 db 91 be 29 23 4f be 09 eb 1b be
       -0.13944055 -0.2848755 -0.20228256 -0.15226378
000140 e6 84 ca 3d e9 90 1d be dc e6 4f 3e ea 40 e0 bd
       0.098886296 -0.1538731 0.2030291 -0.109498814
000150 cd 71 4b 3e 10 e7 89 3e 4f 8b 11 3e b3 47 8f be
       0.1986763 0.269341 0.14213298 -0.2798439
000160 6a fd 31 be ff 10 69 be dc c8 f6 3d cf b7 76 bd
       -0.17381826 -0.2276039 0.1205003 -0.060233887
000170 0a f4 a3 bd 15 a8 12 be 11 6f 49 bd dd 80 98 be
       -0.08005531 -0.1432193 -0.049178187 -0.29785815
000180 22 7e d8 3d 8c 06 5b be 1f 8d 90 be 78 7f 88 3e
       0.10570933 -0.21389216 -0.28232667 0.2665975
000190 ae e2 86 bc be c1 39 3e ad 17 0f bc 1c 4b 7d be
       -0.016465511 0.18140313 -0.008733672 -0.24735683
0001a0 f4 53 38 3c b2 66 0a 3e 26 7f 85 be 2c dc 81 be
       0.011250485 0.13515738 -0.2607357 -0.2536329
0001b0 f4 42 e8 bc a3 9b 27 be 06 c1 94 bd 4d 20 c0 3d
       -0.028352238 -0.16367964 -0.07263379 0.09381161
0001c0 80 87 d9 bd c0 60 24 be 81 18 8a be 97 7a 75 be
       -0.10621548 -0.16052532 -0.2697182 -0.23972546
0001d0 47 db e5 bd 92 a4 58 bd 0f a5 54 bb b1 d1 43 3e
       -0.112234645 -0.05289132 -0.0032447015 0.1912296
0001e0 d8 01 e1 bd 92 49 ea bd 14 47 04 bd 54 31 8a be
       -0.1098668 -0.11439814 -0.032294348 -0.2699076
0001f0 89 8e 28 3e c3 92 90 be ad 00 82 bc 85 99 67 bd
       0.16460623 -0.2823697 -0.015869463 -0.056542892
000200 08 f2 f0 3d 79 06 74 3e 31 10 16 3e c9 3f f1 3c
       0.11764914 0.23830594 0.14654614 0.02944936
000210 35 85 09 3e 77 5f 17 3e 16 55 74 3d 48 08 37 bd
       0.1342972 0.1478251 0.059651457 -0.044685632
000220 41 e8 69 bd a3 6d e1 bb 97 bf 7b 3e c7 55 95 be
       -0.05710626 -0.006879525 0.24584804 -0.29167005
000230 6a a0 64 3e 9e a2 68 3e 43 8e 75 bd 86 de 52 3e
       0.22326818 0.22718284 -0.059950124 0.20592698
000240 a7 ed 16 be 1f 23 8a be 72 ec 15 be ae db 56 be
       -0.14739095 -0.2697992 -0.14640978 -0.20982239
000250 7c 76 64 3e 7f 0b 06 3e 5e 74 90 be 2f 57 28 be
       0.22310823 0.13090323 -0.2821378 -0.16439508
000260 13 e3 fc bd ab 24 8a be 98 bd 8f 3e bb 78 bc 3d
       -0.123479985 -0.269811 0.28074336 0.09202715
000270 32 d6 60 be 96 fb fb 39 4f 46 0d 3e 31 0f 89 3e
       -0.21956709 0.00048061897 0.13796352 0.26769403
000280 db cf 6d 3e fe d0 0f 3d 11 38 89 3e dc 01 55 be
       0.23223822 0.03511142 0.26800588 -0.2080149
000290 29 66 5e be e3 f5 8f 3c 61 45 71 be 98 0d e3 3c
       -0.21718659 0.017573303 -0.23561622 0.027716443
0002a0 79 bc ff bc 84 4f 8a be 3e a5 18 be a1 d5 87 3c
       -0.0312178 -0.2701379 -0.14906785 0.016581358
0002b0 00 e6 30 3e 45 63 9d 3c 41 cb 45 3e cb 73 07 be
       0.17275238 0.019212374 0.19315816 -0.13227765
0002c0 53 3a 53 be cb e1 93 3e 30 9f 4e 3e b3 d0 ae 3d
       -0.20627718 0.28883204 0.20177913 0.085359
0002d0 e5 62 82 3e a5 66 e3 bd 9b d2 b4 bc ee 9e 1e bd
       0.25466076 -0.11103562 -0.02207308 -0.038725786
0002e0 47 b0 be bd 9b 13 5b 3d 38 6f 87 be 38 bd 74 bd
       -0.09310966 0.053485494 -0.2645204 -0.059750766
0002f0 7c c8 43 3d 98 43 e7 3d cf b7 ec 3d ca b1 eb bd
       0.04779862 0.11292189 0.11558496 -0.1150852
000300 e0 2a 4a be cb 04 14 bd ef 2d b6 bd 7e 9f 26 3e
       -0.19742918 -0.036137383 -0.0889548 0.16271779
000310 81 f4 3d 3e a5 46 14 3e 52 4e 81 be 77 9b 8e be
       0.18550302 0.14480074 -0.25255066 -0.27852985
000320 cb c4 71 be a6 51 25 bd eb c6 85 3e 2e bc 0b be
       -0.23610227 -0.04036107 0.26128325 -0.13646004
000330 9a a2 d2 3c 36 ae 60 be cb e9 5d bd 07 a4 61 3d
       0.0257123 -0.21941456 -0.05417804 0.05508807
000340 6f f6 86 bd 7c f6 6c 3d 37 28 4b bd b4 5c 8f be
       -0.06589972 0.057852253 -0.0495989 -0.28000414
000350 17 8d 5e 3e ec cd 2c be d2 80 63 bb da c2 ae b9
       0.21733509 -0.16875428 -0.0034714234 -0.00033333042
000360 59 3a 02 3e 28 27 c8 3d b8 d4 ed 3d 93 76 06 3e
       0.1271757 0.097730935 0.116128385 0.1313117
000370 73 92 86 be 25 ae c7 3d 83 90 19 bd 2c ef 11 be
       -0.26283607 0.09750012 -0.037491333 -0.14251393
000380 39 20 5e be ad 28 57 bd 96 9a 56 3e ca 22 56 bd
       -0.2169198 -0.052529026 0.20957407 -0.05227927
000390 70 4b 8e bd 11 e1 82 3e c5 19 8b 3e 23 19 05 be
       -0.06947982 0.25562337 0.27168098 -0.1299787
0003a0 eb 29 d4 3c ed ea 3a 3e 40 5a 48 bd ed 40 83 3e
       0.025898894 0.1825368 -0.048914194 0.25635472
0003b0 c3 f0 5a be b7 19 43 3b 6a 58 18 3e 49 80 8c 3e
       -0.21380906 0.0029769966 0.14877477 0.27441624
0003c0 81 95 83 3e 72 df 37 3e 9a f2 ef 3c 1d 9a 2b be
       0.257 0.17956331 0.029290486 -0.16758008
0003d0 17 40 2b 3e 5f 8f 2b 3d c4 5f 7d be b1 81 fe bd
       0.16723667 0.041884776 -0.24743563 -0.124270804
0003e0 7a 72 4b 3e 2e b9 66 be 6b a7 ce 3c 0e 53 50 3e
       0.19867888 -0.22531578 0.025226315 0.20344183
0003f0 cd 1d 38 3e d9 93 17 3e 20 4b cb 3d fa 9f 65 3d
       0.17980118 0.14802493 0.09926438 0.05606077

sequential/dense_2/BiasAdd/ReadVariableOp:0 f4 [10]
000000 21 44 e6 bb 13 58 63 3c a5 0b 91 bc 2f da a5 3b
       -0.0070271646 0.013875979 -0.017705748 0.00506141
000010 2c 59 06 bc 7b 88 12 bb 87 52 46 3b 11 51 62 3c
       -0.008199971 -0.002235918 0.0030261592 0.013813273
000020 4c c9 e8 ba 68 1a d6 bb
       -0.0017760186 -0.0065339096

sequential/dense_1/MatMul/ReadVariableOp:0 f4 [128, 64]
000000 b3 9c e0 bb 09 62 d3 3c 2a 0c 25 be 5f 31 20 3e
       -0.0068546175 0.025803583 -0.16117921 0.15643834
000010 f7 04 02 bd ff 88 f9 bd b6 7c ef bd 01 5c c6 bc
       -0.031743016 -0.12184333 -0.116937086 -0.024213793
000020 9d 93 f7 3d 13 19 20 3e ce 84 12 be aa f9 8a 3d
       0.12088702 0.15634565 -0.14308473 0.06785901
000030 eb e1 f4 3d 04 f9 b6 3c 1b 87 2e be 7a 6d 97 bc
       0.11957153 0.022335537 -0.17043726 -0.01848482
000040 04 4c ae 3d ad 67 01 3b 16 23 e4 bd 54 76 25 3d
       0.085105926 0.0019745633 -0.111395046 0.04039605
000050 fa fc ce 3d e1 1f 23 bc 7a 79 f3 bc cf ff 17 3e
       0.10106845 -0.009956331 -0.02972101 0.14843677
000060 64 e4 af 3d 72 8c 1a be b8 cc 9b 3d 4c 84 b6 bd
       0.08588484 -0.15092638 0.076074064 -0.089119524
000070 e9 bf ee 3d d3 af 89 3d e7 d5 4f bd 76 67 ba bd
       0.11657698 0.06722989 -0.050741103 -0.09101765
000080 a8 66 6c 3d 36 76 ff bc d1 a6 69 3d c2 6e 24 3e
       0.057715088 -0.031184297 0.057043854 0.16057876
000090 ad 1b 9d bd 9c b0 98 3d 1d bd 7e bd 0a 76 de 3a
       -0.07671294 0.074555606 -0.06219207 0.0016972434
0000a0 a2 8b 1d 3e 67 70 a7 bc 0d 01 10 3e f8 99 15 3e
       0.15385297 -0.02043934 0.14062901 0.14609516
0000b0 7b 32 2f be e8 e2 30 3e 78 f0 4b bb 39 64 cd 3d
       -0.171091 0.17274058 -0.0031118672 0.100288816
0000c0 31 44 99 3d bc 10 39 3d d3 4d b4 3a 7d 56 fe bd
       0.074837096 0.045181975 0.0013756104 -0.1241884
0000d0 5d 0d 50 b9 ba d2 f0 3d 30 47 cd bc 3b 72 7b 3d
       -0.00019841404 0.11758943 -0.025058359 0.061388236
0000e0 2b ae ca bd 45 ae ee bd 61 ff 8d bd 10 59 2c 3d
       -0.09896501 -0.11654333 -0.06933475 0.042077124
0000f0 bb 2a 20 be 5a 4a 75 bd 4d 4f e3 bd 87 ce ff bd
       -0.156413 -0.05988536 -0.1109911 -0.12490564
000100 7e 91 dd bc f6 bd 01 3e 23 58 2a be a4 fb b6 bd
       -0.027046915 0.1267012 -0.16635184 -0.089347154
000110 73 da 13 3e 07 35 1f be b0 19 e4 bd a3 9b e6 bd
       0.144388 -0.15547572 -0.11137712 -0.11260154
000120 93 30 c2 bd fc b7 2d 3d 67 56 02 3e f8 ab 64 bd
       -0.09481921 0.04241179 0.12728272 -0.055828065
000130 58 ff 60 3b 0e bc 20 be 41 ce 07 be d6 fe e9 3d
       0.0034331884 -0.15696737 -0.13262273 0.11425559
000140 2a 78 f3 bd 99 1a c2 3d 80 9e f6 bd d8 ce 02 bd
       -0.11888154 0.09477729 -0.1204195 -0.031935543
000150 b7 6d 25 3e 16 5e 99 bb d4 75 fe bc 8f 4c 26 be
       0.16155134 -0.0046804054 -0.031062044 -0.16240142
000160 80 a1 d5 bd e7 ff 00 3e e6 ec 51 3d 94 76 0d be
       -0.10431194 0.12597619 0.051251315 -0.13814765
000170 11 02 6f 3d 7f fb 46 bd af 38 1f 3e 1c f9 24 be
       0.05835158 -0.04857969 0.15548967 -0.16110653
000180 17 97 d7 bd d7 26 0a be 6e f9 a5 3d 4e 84 53 bd
       -0.10526865 -0.13491379 0.081042156 -0.051639847
000190 ff 4f ff 3d a8 a5 25 bc 96 96 0e 3e 73 52 b0 bd
       0.1246643 -0.010110296 0.13924631 -0.08609476
0001a0 51 44 af bd cd 27 11 be d6 66 6c bd a8 93 cb 3d
       -0.08557952 -0.14175339 -0.05771526 0.099402726
0001b0 cb 16 68 bd 9f e4 73 bd 2c cb 11 3e 8a 8b 08 3e
       -0.056662362 -0.059544202 0.1423766 0.1333448
0001c0 63 fb 94 bd 6b bf 7e 3d f0 c2 31 3e 7f eb 7f 3d
       -0.07274511 0.06219427 0.17359519 0.062480446
0001d0 8e 8f 47 bc 19 96 15 3e 9f ab 2a bd 3c 1c 8c bd
       -0.012180222 0.14608039 -0.041667577 -0.06841323
0001e0 93 18 19 3e f0 13 ea 3c 5a 97 33 3d 3e c0 b7 3d
       0.1495078 0.02857396 0.043845512 0.08972214
0001f0 83 46 37 bb 14 cf 39 3c 5b 84 13 be 8b 5e 2a 3e
       -0.0027965612 0.011340875 -0.14405958 0.16637628
000200 40 4a f1 3c 96 2d e1 3d e7 eb 15 be 7c d2 8a 3d
       0.02945435 0.10995023 -0.14640771 0.06778428
000210 a9 35 29 3e 5f 63 a3 3d b7 05 c3 bc ba 10 3a bd
       0.16524376 0.07977938 -0.023806436 -0.045426108
000220 69 a5 06 3e f8 82 dc bd 09 20 ca 3d 9f 5d d9 bb
       0.13149036 -0.10767168 0.098693915 -0.006633475
000230 5b e3 8f bc 6b be c0 bd 57 37 69 bd f7 c4 29 3e
       -0.017564466 -0.09411319 -0.05693754 0.16579042
000240 2e 9d ce bd 59 7a 00 3e 29 7d 8b 3d 8b 3f f3 3c
       -0.100885734 0.12546672 0.06810982 0.029693386
000250 cf 81 aa bd 5e ba 1c 3e ac 2a e9 bd c1 91 30 be
       -0.0832554 0.15305468 -0.11385092 -0.172431
000260 43 d6 c2 bd 08 d5 39 bd e1 02 83 bd e0 cd 0e be
       -0.095135234 -0.045369178 -0.063970335 -0.13945723
000270 34 50 1d be 1e 0f 5e 3d 11 35 c5 3c 21 56 d5 bd
       -0.15362626 0.054213636 0.024073156 -0.104168184
000280 e8 dd 2a 3e 5b f4 08 3e c2 83 74 3d 25 fb 05 3e
       0.16686213 0.13374464 0.059695967 0.13084085
000290 7f 7c 19 3e 90 be c6 bd 02 89 97 bd 37 c4 e6 3d
       0.14988898 -0.09704316 -0.07399179 0.11267894
0002a0 c4 ed ff 3d 15 a0 1b be 06 ba cf bd f1 b2 82 3d
       0.12496522 -0.15197785 -0.10142903 0.063817866
0002b0 e1 19 06 be 66 bc a8 bd 0e b6 07 3e 13 5f 2b be
       -0.1309581 -0.08239059 0.13253042 -0.16735487
0002c0 22 37 df 3d 80 3f 71 bd 44 6f cc bc 41 4b ef bc
       0.108991876 -0.05889845 -0.0249554 -0.029210689
0002d0 c3 c8 77 bd 84 74 00 bd e1 bb 87 3b 4d 9a e7 3c
       -0.060494196 -0.031361118 0.00414227 0.028271819
0002e0 7a d3 01 bd 25 c3 15 be 80 a0 05 be b7 23 10 bd
       -0.03169582 -0.14625223 -0.13049507 -0.03519031
0002f0 f2 ff 11 3e 05 50 e9 bd 38 b1 a1 3d 24 9b 7f bd
       0.14257792 -0.11392216 0.0789513 -0.062403813
000300 36 27 58 3d 85 17 0d 3e 23 59 05 be 19 6c 1a be
       0.05277177 0.13778503 -0.13022284 -0.15080298
000310 b0 f0 c8 3d 9f 3d 37 bd 4e 2e dc 3c 06 7f 55 3d
       0.098115325 -0.0447365 0.026877549 0.052123092
000320 0c e7 02 3d de 29 a7 bd 4c 95 15 be 2f 14 84 3d
       0.031958625 -0.081622824 -0.14607733 0.06449162
000330 2f b8 11 3e 3a 48 d3 3d ac c3 04 bd 9d 3a 7d bc
       0.14230417 0.103165105 -0.03241317 -0.015455869
000340 2d b7 29 3e 2f 18 30 3d 11 34 33 be 50 4a c2 3d
       0.16573782 0.042991813 -0.1750033 0.0948683
000350 1a 67 06 3e 11 a9 0c be 2f 2d 31 3e 94 5a 8c bd
       0.13125268 -0.13736369 0.17302392 -0.06853214
000360 2f 2f 1c be a5 43 12 3d 4e b6 33 be aa d9 08 be
       -0.15252374 0.035709042 -0.17550012 -0.13364282
000370 f9 7e e5 3c 86 a0 30 3e 25 e7 b2 3d 74 70 1c 3e
       0.028014647 0.17248735 0.087354936 0.15277272
000380 24 2b 36 bd 5c d5 d0 bd 10 1a f6 3d 34 a7 19 be
       -0.044474736 -0.10196945 0.1201669 -0.15005189
000390 3b 2f 22 be b8 ac 0c be d5 d4 30 be b8 49 7e 3c
       -0.1583833 -0.13737762 -0.17268689 0.015520506
0003a0 a3 3a 25 be e8 dc c6 bd b9 18 de 3d 6b 07 03 be
       -0.1613565 -0.09710103 0.10844559 -0.12795798
0003b0 df cf b9 bc 75 ae fe bd 6e 6c 0a 3d 83 3c 97 bd
       -0.022682128 -0.12435619 0.033794813 -0.073845886
0003c0 0f c3 32 bc e5 d0 fb 3d 87 c7 0e be 3b 98 e5 bd
       -0.010910763 0.12295703 -0.13943301 -0.11210676
0003d0 fd 53 23 be 8e f7 f8 bd 97 41 54 bc 75 10 db 3d
       -0.15950008 -0.12156592 -0.012955091 0.10696498
0003e0 98 c1 07 be 54 63 23 be 11 bf 5c 3a 90 2e 03 be
       -0.13257444 -0.1595586 0.0008420805 -0.12810731
0003f0 ad fa 84 3d 24 bd 28 be 57 3f 2e bd cc af 22 3e
       0.06493125 -0.16478401 -0.042540874 0.15887374

sequential/dense_1/BiasAdd/ReadVariableOp:0 f4 [64]
000000 c1 ed 01 3b dc 9c 37 3b 13 5f 94 3b d1 33 1c bb
       0.001982555 0.002801708 0.0045279353 -0.0023834596
000010 7e d7 0c 3c c0 d0 fd ba dc 46 27 3c 3e 7a d5 3b
       0.008596299 -0.001936458 0.010209765 0.0065148165
000020 33 82 01 3b 17 27 c2 3b 92 c8 2e 3b 6a b4 c3 b9
       0.0019761443 0.00592507 0.0026669842 -0.00037327717
000030 b5 18 a7 3a 25 9e 0e 3b d6 45 96 ba 30 1e 99 38
       0.0012748452 0.0021761742 -0.0011464905 7.3012314e-05
000040 be e3 f7 3b f5 d1 23 3c ac 44 04 bc 80 b3 79 3b
       0.007564991 0.009998788 -0.008073013 0.0038101375
000050 3d 32 bc 3b 3d 11 92 bb 58 ad af 3b 9f 46 eb bb
       0.0057432936 -0.0044576214 0.0053612404 -0.0071800495
000060 3e c6 00 3c 66 6a 58 bb f0 5e 22 bb 48 ec ba ba
       0.007859765 -0.0033022403 -0.0024775825 -0.0014261091
000070 2a 53 df bb 84 95 40 3c ef d6 64 3b 75 ee 11 bc
       -0.006815334 0.011754397 0.003491815 -0.00890695
000080 8b 67 f9 3a db ea 52 3b 00 97 99 bb 45 8d 37 3c
       0.0019028051 0.0032183442 -0.00468719 0.011203115
000090 67 6d 48 3b 5d c9 b3 bb d9 b6 f8 3b 92 88 21 bb
       0.0030582787 -0.005486651 0.0075901565 -0.0024648053
0000a0 4f 94 c1 3b d5 ca ec 3a 94 32 5f 3b 44 f2 4b 3a
       0.0059075723 0.001806582 0.0034057247 0.0007779936
0000b0 57 c2 ef 3a 49 6e ce ba b2 be 04 3a 96 15 ec b8
       0.0018292171 -0.001574942 0.0005063816 -0.000112573776
0000c0 61 2f fb 3b 6c 97 e6 3b 21 bf 86 3b 24 20 02 3c
       0.00766556 0.007037094 0.00411214 0.007942233
0000d0 12 bd b8 ba c4 66 80 bb b8 82 83 ba b5 f1 c5 3b
       -0.0014094433 -0.0039185006 -0.0010033464 0.0060407766
0000e0 32 37 8d 39 cf 6c 1c bc ba 10 50 3c d8 88 27 bb
       0.0002693474 -0.009547426 0.0126993 -0.0025563743
0000f0 48 0b e3 3b b0 1e bd 3b e9 48 bb ba 36 a7 e6 3b
       0.006928835 0.0057714805 -0.0014288697 0.007038976

sequential/dense/MatMul/ReadVariableOp:0 f4 [1600, 128]
000000 1e f2 dc bb e3 62 45 bd a2 e4 9b 3c bb 50 0f 3d
       -0.00674273 -0.04819001 0.019029919 0.0349891
000010 07 16 93 bc 77 1b 53 bd 7a 61 3c bd a1 4c 2d 3d
       -0.01795484 -0.051539864 -0.0459914 0.042309407
000020 5c 07 ee ba b4 71 01 bd 8b 8c e9 bc 42 a6 64 3d
       -0.0018160152 -0.031602576 -0.028509399 0.05582262
000030 d9 5f de 3a 66 60 63 bd c2 ad 2f bd 7b b5 61 3d
       0.0016965821 -0.055511855 -0.042890318 0.055104714
000040 41 de 1c 3d 47 8b 28 bd f6 e3 79 bc 5a 95 bc bc
       0.038297895 -0.04114845 -0.015252104 -0.023020435
000050 f1 6c 63 bd a7 98 6c bc ef 05 90 bc 79 74 28 3d
       -0.055523816 -0.014440692 -0.017580954 0.041126702
000060 10 37 f9 3c b9 22 37 3c e4 98 47 bb 07 1d 8d bc
       0.030421764 0.011177712 -0.003045612 -0.017225755
000070 b2 20 88 3c ef 8c 89 3c 74 1f 71 3d f9 fc 8f bc
       0.016617153 0.016790835 0.058867887 -0.017576681
000080 53 7a 07 3d a5 56 d1 b9 6c 7b 91 3c 84 51 ff ba
       0.03307564 -0.00039928142 0.017759047 -0.001947925
000090 f2 8f 47 bc 8f b5 b1 3b 44 d9 70 bd fb 18 59 bd
       -0.012180315 0.005423255 -0.05880095 -0.05300234
0000a0 37 68 04 3d 0c 55 14 bc 25 c6 5d 3d 73 7f 30 bd
       0.03232595 -0.00905348 0.054144043 -0.043090295
0000b0 b3 9a bc bc c1 95 11 bc 03 b6 02 bd 35 df 42 3d
       -0.023022985 -0.008885802 -0.03191186 0.047576148
0000c0 ae 52 30 3d c8 14 ec 3c 68 87 29 bd 21 d0 64 bd
       0.0430476 0.028818503 -0.0413889 -0.05586255
0000d0 ab 7b 81 3c 59 e6 64 3d 2a a0 68 bd 43 ec 1c bd
       0.01580604 0.05588374 -0.05679337 -0.038311254
0000e0 f1 b7 fc bc 2c 3f 08 bb 75 6f f0 3c fb 46 05 bd
       -0.030849429 -0.0020789606 0.029350022 -0.032538395
0000f0 84 24 a3 bc 69 3e 48 3d e3 50 aa bc 8b ec 2c bd
       -0.019914873 0.048887644 -0.020790523 -0.042217772
000100 0e 04 28 bd 8e ce 25 3d 05 f4 64 3d a5 03 c3 3c
       -0.04101949 0.04048019 0.055896778 0.023805449
000110 c8 89 2e bd f0 f8 52 bc 3b d3 53 3d 17 ed 0f 3d
       -0.042611867 -0.012876734 0.051715117 0.035138216
000120 5c 7a 1f bb 52 d7 44 3d 37 6a 32 bd ab 53 63 bd
       -0.0024334406 0.048056908 -0.043558326 -0.055499714
000130 e4 15 45 bd a0 93 a0 bc 34 04 ab 3c 09 7f 0e 3b
       -0.04811658 -0.019601643 0.020876028 0.00217432
000140 30 b5 2e 3d cc 89 7e 3b a1 a9 fc 3c 36 ef 48 3d
       0.042653263 0.0038839458 0.030842604 0.049056254
000150 fb 30 64 bd a8 38 14 bd 12 de 49 3d 79 60 4e 3c
       -0.055710774 -0.036186844 0.04928405 0.012596243
000160 21 af 70 bd 1b ec 0b bd d9 a9 5a 3c 86 a8 10 3d
       -0.058760766 -0.034160715 0.013346159 0.035316966
000170 a6 65 49 bd 2a ab 26 bb 37 e9 66 bd db 3f d0 bc
       -0.049169205 -0.0025431612 -0.056374755 -0.025421074
000180 8c 23 5e bd 4f 98 62 bd 8b 31 67 bc 2e 01 37 ba
       -0.05423312 -0.055321034 -0.014110933 -0.0006981072
000190 bf 8a 43 3d 7d 88 20 3d e1 30 09 3c 7a 3a 27 3d
       0.04773974 0.039192665 0.00837347 0.040827252
0001a0 0f 50 87 bc f0 1d be bc ea 53 7b bc fd 8a 23 bd
       -0.016517667 -0.023207635 -0.015339831 -0.03992747
0001b0 d2 88 03 bd e3 8c bf bb 13 90 fb 3c 70 a2 e7 bb
       -0.032112904 -0.0058456524 0.030708348 -0.0070689246
0001c0 69 57 96 3c 80 df 14 3c 6d 72 84 3c e6 16 06 3d
       0.018352227 0.00908649 0.016167844 0.03273668
0001d0 33 bd 36 bd 25 bf 2a bd 07 97 87 3c 11 b5 40 bd
       -0.04461403 -0.041686196 0.016551508 -0.04704768
0001e0 00 c4 8b bc 10 6e 2c 3d d0 d5 b9 bc 5f 38 ee bb
       -0.017061234 0.04209715 -0.022684962 -0.0072699036
0001f0 de 50 59 3d 7f 3f 99 3b 9f 18 2d bd 2e a3 b8 3c
       0.053055637 0.004676759 -0.04225981 0.022538748
000200 c9 8d 61 bb 26 69 6e 3c 56 1e fc 3c 2f fb 28 3d
       -0.0034416786 0.0145514365 0.030776184 0.041255172
000210 b2 66 3d 3d ee 6b 8a 3c f5 4d 1f bd 85 c7 15 bd
       0.046240516 0.016897168 -0.038892705 -0.03656723
000220 17 19 71 bd b7 d7 37 bd 07 0d f5 bc 86 bc 79 3c
       -0.05886182 -0.044883456 -0.029913438 0.015242701
000230 88 6c 4c bd c4 36 30 bd 4d 86 30 bd 05 51 1d bc
       -0.04990819 -0.04302098 -0.04309683 -0.009601836
000240 d7 ba 84 3c 46 db 5e bd be 6f ca bc 37 af ab bc
       0.016202373 -0.054408334 -0.024711486 -0.020957572
000250 81 7c cf 3c f6 64 65 3c b5 c2 56 3d 9b 47 2a 3d
       0.025327923 0.014001122 0.05243178 0.041572195
000260 1d 2e a2 3c b3 e5 35 3c ee 25 df 3c 4f 6e b1 bc
       0.01979738 0.011102128 0.027239766 -0.021659045
000270 54 b8 35 3d d1 2b 03 bd 5b 84 49 3d 0a 27 51 3d
       0.044365242 -0.03202421 0.04919849 0.05106262
000280 81 b9 00 bd a8 cf 5b bb 10 56 ee 3b 03 04 e7 3b
       -0.03142691 -0.003354052 0.007273443 0.007050039
000290 30 6d f1 bc e1 20 27 bd 80 53 ab 39 e9 20 62 bd
       -0.02947101 -0.04080284 0.00032677874 -0.055207167
0002a0 78 dc e3 3c d6 bb 4a bd fe 6a 1c bd 7d d0 80 3c
       0.027815089 -0.04949554 -0.038187973 0.015724415
0002b0 64 19 78 3d 05 cb db 3c c2 47 5d bd 28 c3 39 bd
       0.06057109 0.026830206 -0.05402351 -0.04535213
0002c0 95 0f 75 bb 78 b5 85 bc d8 0b df b9 f0 16 a2 3b
       -0.003739332 -0.016321883 -0.000425427 0.004946582
0002d0 73 90 45 3d b5 ac 2c 3d b5 d6 5d bd 62 a3 9a 3c
       0.04823346 0.042156894 -0.05415984 0.018876735
0002e0 b3 7a 81 3c ad 61 43 3d 39 38 07 3d 2c 6b 43 3d
       0.015805578 0.047700573 0.033012602 0.04770963
0002f0 bd ab 89 3b e8 93 c4 3c 1a 57 f3 3c 0f 4b 59 3d
       0.004201381 0.023996308 0.02970462 0.053050097
000300 6b 4d 53 3d 16 67 36 bc aa d6 3f 3d 32 5d 5d bd
       0.051587503 -0.011132976 0.04683558 -0.054043956
000310 ac d1 af 3c ec ae f5 bc c3 2f 2d bc 30 19 f2 bb
       0.021462284 -0.029990636 -0.010570469 -0.0073882565
000320 e3 71 dd 3b 7e 36 38 3d 5e 80 5a 3d 77 88 e0 bc
       0.006757961 0.044973843 0.053345077 -0.027408822
000330 10 40 64 3d 15 3a 93 3b f3 4a 3b bd 3f f2 88 bc
       0.055725157 0.004493008 -0.045725774 -0.016717074
000340 f3 42 17 3d f9 8a cb bb e1 0b 48 bd a6 60 fe bc
       0.036929082 -0.006211635 -0.048839454 -0.031051945
000350 c9 ce 55 ba ff a5 17 3d 7d 95 cd bc ce 11 1d 3d
       -0.00081561186 0.03702354 -0.025095696 0.038347058
000360 17 83 6d 3c cd dc 56 3c f3 cb 75 bd c1 eb 14 bb
       0.014496586 0.013114166 -0.060008954 -0.0022723528
000370 4d 4a 1a 3d 87 a2 17 bd f5 7e 56 bd de 55 18 bb
       0.037668515 -0.037020233 -0.05236717 -0.002324454
000380 27 83 14 bc 00 ed 73 bd f1 30 cf 3c 6e c2 38 3d
       -0.009064472 -0.059552193 0.025291892 0.045107298
000390 9b 72 e9 bb 94 4f 4c 3d 67 aa 9e bb 31 f5 8f 3a
       -0.0071242577 0.04988058 -0.004842091 0.0010983107
0003a0 fb ca f5 bc 6a 1c ca 3c 27 53 3f 3d f5 53 e5 bc
       -0.030004015 0.024671752 0.04671016 -0.027994135
0003b0 0c f5 41 bc 0c 85 8f bc 82 62 f0 bb 57 95 da bc
       -0.011838209 -0.017519496 -0.007335962 -0.026682539
0003c0 af a7 39 3d 2b 49 04 3b c6 14 44 3c 96 42 49 bd
       0.04532593 0.0020185213 0.011967843 -0.049135767
0003d0 44 0d 12 bc 32 79 02 3c 6e 98 62 bd ea 51 c9 36
       -0.008914296 0.0079634655 -0.05532115 5.999803e-06
0003e0 75 8d 67 bd 7e 78 8e 3c 47 87 0b 3d 78 bf 70 3d
       -0.05653139 0.01739144 0.034064557 0.05877635
0003f0 f5 06 16 bd e6 1d 08 3d 9e 28 e4 3c 0d fd a7 bc
       -0.03662773 0.03323164 0.027851399 -0.020506406

sequential/dense/BiasAdd/ReadVariableOp:0 f4 [128]
000000 d4 cf 10 bb c3 03 90 3b 84 03 5a b9 d7 4a 6b 3b
       -0.0022096531 0.0043949797 -0.0002079141 0.0035902762
000010 ab ee 5d bb 78 a5 e9 ba 00 00 00 00 3c 3e ab b6
       -0.003386418 -0.0017825803 0.0 -5.103442e-06
000020 3f c4 84 3b f5 30 32 ba 8b 1b 81 b9 5e 0a 82 ba
       0.0040517147 -0.00067974563 -0.00024625318 -0.0009921303
000030 18 e7 03 3b f8 f4 1b 38 55 11 7c b9 56 9f ce 3a
       0.0020126756 3.7183025e-05 -0.0002403905 0.0015764039
000040 d3 f6 c7 3b ec 9f 3a bb 68 69 d5 ba df 9a b5 39
       0.006102422 -0.0028476669 -0.0016282024 0.00034638398
000050 68 56 22 ba e7 81 23 bb b4 97 01 ba 7c aa cc ba
       -0.0006192685 -0.0024949254 -0.0004943565 -0.0015614773
000060 02 61 4e ba de 48 21 ba 1e e4 40 ba c9 8b 23 38
       -0.00078727317 -0.00061525207 -0.0007358211 3.8992413e-05
000070 fe 87 86 3a 18 f6 88 3b 63 90 3f b9 0c a0 16 3b
       0.0010263918 0.0041797273 -0.00018268968 0.002298358
000080 2b 85 4d 3a 4d e6 ae ba 14 c3 67 3b 2b 68 d0 ba
       0.0007839973 -0.0013343781 0.0035364078 -0.0015900185
000090 61 2f 10 bb cd 07 87 3b 00 00 00 00 04 ee 6a bb
       -0.0022000896 0.004120803 0.0 -0.0035847435
0000a0 4b a7 aa bb e0 a1 b8 3a 2a 79 95 b9 8c 1c 52 3b
       -0.005207931 0.0014086328 -0.0002850977 0.0032060472
0000b0 eb 92 d4 3a d3 1b 77 3b 02 bd 2a bb b0 9d 5e ba
       0.0016218101 0.0037705794 -0.00260526 -0.0008492125
0000c0 c6 5c 8c ba bb f5 44 ba 55 84 2f bb fc cc 46 ba
       -0.0010708801 -0.00075134233 -0.0026781757 -0.00075836456
0000d0 39 70 3a 3b 39 29 62 ba 28 20 17 bb 20 f5 82 b9
       0.0028448238 -0.00086273585 -0.0023059938 -0.00024978165
0000e0 8f 48 22 bb cf 0d 7b 3a 59 42 00 bb 2a c5 a8 bb
       -0.0024762487 0.0009576948 -0.0019570796 -0.005150457
0000f0 7e 16 2a ba bf e4 36 3b b5 b6 49 3b a0 db e8 ba
       -0.0006488337 0.002790734 0.0030779068 -0.0017765649
000100 df 4a 1a 39 49 8c 56 3b 37 a1 cc 3a be e6 88 3b
       0.00014714476 0.0032737425 0.0015612011 0.0041778972
000110 f8 da 41 ba d6 02 24 ba 0f a8 15 ba d9 fe c1 ba
       -0.00073949946 -0.0006256526 -0.00057089416 -0.0014800682
000120 94 72 18 ba 8f 3a e8 ba b6 05 92 3b 05 f1 07 b9
       -0.00058154133 -0.0017717647 0.004456247 -0.0001296439
000130 72 c5 09 39 e9 3d 0d 3a 6f 28 c0 39 0e 97 56 bb
       0.00013138892 0.00053879485 0.0003665122 -0.0032743844
000140 01 39 fe b9 95 55 9d 3b bf c1 b0 3b 3f 8f d3 3b
       -0.00048489126 0.004801462 0.00539419 0.0064562852
000150 77 60 de ba bd 63 8d ba 71 14 c0 ba 9e c4 b5 ba
       -0.0016966005 -0.0010787171 -0.001465453 -0.0013867801
000160 75 63 33 bb 12 08 db 39 ba 58 e5 3a 01 ed 52 3a
       -0.0027372513 0.00041776948 0.0017497756 0.00080461806
000170 56 f8 08 3b 21 b8 78 3b a8 8c 85 38 0f 52 8f 3b
       0.0020899973 0.0037951546 6.3681335e-05 0.004373796
000180 fa 91 80 3a 91 50 81 ba 9c 24 9a 3b 00 dc cc b9
       0.0009809129 -0.000986593 0.004704071 -0.00039073825
000190 28 00 17 bb 19 b2 53 3b 84 59 a0 b8 e9 cb 70 3b
       -0.0023040865 0.00323022 -7.646068e-05 0.0036742634
0001a0 d1 b5 8b 3a 79 99 1b ba d1 3d f0 3a e2 63 de 3a
       0.0010659044 -0.000593565 0.001832897 0.0016967023
0001b0 46 b3 49 3b b8 1a 50 b9 a0 94 b4 ba 18 36 ec b7
       0.0030777021 -0.0001984638 -0.0013777204 -2.8158582e-05
0001c0 d5 cb e8 bb 0a 06 b2 3a 31 ef b1 3a 14 ea c4 bb
       -0.007104377 0.0013582122 0.0013575313 -0.0060093496
0001d0 59 bf 71 b9 3d f1 17 bb 36 33 7d 3b d9 f7 14 ba
       -0.00023054834 -0.002318456 0.003863526 -0.0005682684
0001e0 16 67 33 3a b4 b3 b4 3b 4a b3 7a bb c6 28 45 bb
       0.0006843669 0.0055145863 -0.0038253837 -0.0030084117
0001f0 5b 56 80 3b b0 07 76 bb ca 95 df 3a 22 71 da b9
       0.0039165444 -0.0037541203 0.001705819 -0.0004166449

sequential/conv2d_1/Conv2D/ReadVariableOp:0 f4 [64, 32, 3, 3]
000000 f1 da 30 bd 68 d9 05 3d f9 33 bb 3c 8e ff a2 3d
       -0.04317755 0.032678038 0.02285193 0.079588994
000010 08 8e 51 3c fa 99 1e bd 66 d0 c4 3c ae aa 67 3d
       0.012790211 -0.038721062 0.024025153 0.056559257
000020 c4 5d 92 bc 00 ae 97 bd 3d b4 1e bd 7e e8 96 3c
       -0.017866977 -0.07406235 -0.038746107 0.018421408
000030 84 f2 9d 3d 23 25 a9 bd c2 52 e6 bc 32 38 66 3d
       0.07712272 -0.082590364 -0.028115634 0.056205936
000040 43 d0 95 bd 78 3f 26 3c 27 d6 01 bd 93 43 a3 3d
       -0.073151134 0.010146968 -0.031698372 0.07971873
000050 8d a8 a3 bd 12 22 6c 3d bb 62 90 bc 4e d3 81 bd
       -0.07991133 0.05764968 -0.017625203 -0.06339131
000060 0f fc 29 bd 19 72 97 bd b3 b7 df 3b 1a da 88 3c
       -0.041500147 -0.07394809 0.0068273186 0.016705561
000070 62 d2 46 3c 8b 9b 8a bd 89 44 23 bd f2 64 9e bd
       0.01213512 -0.06767949 -0.039860282 -0.077340975
000080 c9 a6 6a 3d 59 45 16 3b b9 10 07 3d 9f 88 a7 bd
       0.057287965 0.0022929518 0.032974932 -0.08180355
000090 d1 b8 e5 3b 19 41 fc 3c 39 37 6a bd b4 62 74 3d
       0.007010557 0.03079276 -0.05718157 0.059664443
0000a0 7e 7f 70 bc fd 03 41 bd 31 dc 60 3d 25 e5 5d 3d
       -0.014678834 -0.047122944 0.05489749 0.054173607
0000b0 69 4b 8b bc 28 e7 91 3d fb d1 3d bd c8 a7 96 bd
       -0.017003732 0.07124168 -0.04634283 -0.073562205
0000c0 18 39 04 bc 37 8b 1d bd 6b b4 7f bc 6c 0d 1d 3b
       -0.008070253 -0.038462844 -0.01560698 0.00239643
0000d0 e3 95 bf 3c d5 b4 77 3c 76 ed 3e 3d 54 ad 8f bd
       0.023386901 0.015118797 0.04661318 -0.070154816
0000e0 ab 61 40 bc 3d 55 a0 3d b1 50 17 bd b3 ef c5 bc
       -0.011742036 0.07828758 -0.036942188 -0.024162149
0000f0 24 ea 9d 3d b8 05 9a 3d 39 d0 05 3d 1a 21 18 3d
       0.077106744 0.07520622 0.03266928 0.037140943
000100 5d 37 20 bd 20 13 4a bd 29 ff 92 3d cb 6f 5c bd
       -0.0391153 -0.049334645 0.07177574 -0.05381755
000110 0e b4 12 3d 95 2d a6 bc 61 c1 12 3b 23 77 98 3c
       0.035816245 -0.020285407 0.0022393095 0.018611496
000120 0e b2 8c bd 6e 61 aa bd 17 61 75 bd 36 cc 73 bc
       -0.06869899 -0.083193645 -0.059907045 -0.014880231
000130 54 23 6b 3d d9 22 c9 3c f4 42 2c 3d 25 3e f0 bc
       0.05740674 0.02455275 0.04205604 -0.029326508
000140 f9 a6 14 bd ad d2 bd bb a6 cd a2 bc 28 2f 29 3d
       -0.03629205 -0.005792937 -0.019873451 0.041304737
000150 66 06 8f 3d a6 06 eb bc f4 78 9f bc 2c c1 20 3c
       0.06983642 -0.028689694 -0.019466855 0.009811681
000160 7c 45 06 3d ea 6d 68 bd 40 76 e5 3c a0 b9 a7 bd
       0.03278111 -0.056745447 0.028010488 -0.08189702
000170 49 8c 8f 3d e2 c6 a9 3d 8d 3e d2 bb cf 71 e1 3c
       0.07009179 0.08289887 -0.006416148 0.027520088
000180 49 19 93 3d 42 a2 67 3d 92 dc 07 3d ff 0c 07 3d
       0.07182557 0.056551225 0.033169337 0.03297138
000190 45 6f 1d 3d 0d 46 1d bd a7 56 5f bd c7 87 9f 3d
       0.038436193 -0.038396884 -0.054525997 0.07789569
0001a0 18 07 86 3d b0 c0 2f 3b bb 65 51 bd af 32 b3 3b
       0.06544322 0.0026817732 -0.05112241 0.0054686884
0001b0 bb 57 2d bd 7b 28 4b 3d c5 c4 0d 3c ec 85 1e bd
       -0.042319994 0.049599152 0.008652871 -0.038701937
0001c0 41 e6 0f 3d 12 2b 53 bc ea 0f b0 3d 37 59 30 bd
       0.035131697 -0.012888687 0.08596785 -0.043053832
0001d0 fd c9 89 bd df e9 e8 3c 5f fe a9 bb e3 e0 50 3d
       -0.06727979 0.02843183 -0.005187794 0.05099572
0001e0 d5 76 bd 3c a5 0f db bb c4 26 ea 3c d8 36 58 3b
       0.023127953 -0.0066852146 0.028582938 0.0032991674
0001f0 7e 92 87 3d 73 c0 2c bd ae 2e 21 3d 4c a6 a8 bc
       0.06619738 -0.04217572 0.039351158 -0.020587109
000200 12 bd 0c 3d 56 2e 38 bd 79 31 e1 3c c5 fc 92 bb
       0.03436 -0.044966064 0.02748941 -0.004485699
000210 23 64 53 bd a8 48 96 3d c5 bf 7a 3d 6a 11 e6 bc
       -0.05160917 0.07338077 0.061218042 -0.028084476
000220 49 95 93 3d 5e 3d 91 bd a5 c9 69 bd 9b 4f 9d bc
       0.07206208 -0.07091783 -0.05707707 -0.019202998
000230 80 ab 7d bd dc ab 5e bd 2b 0b 6b bd c8 4a 27 bd
       -0.061931133 -0.054363117 -0.057383697 -0.0408428
000240 5c b7 9f 3c 0d 76 89 bd a9 25 27 3b e8 17 c7 bb
       0.019496612 -0.067119695 0.0025504625 -0.006075848
000250 12 62 82 3d 76 c0 86 ba c5 b1 84 3d 6d bb 80 bd
       0.06366362 -0.0010280747 0.06479219 -0.06285749
000260 55 12 66 bd 45 4b 89 bd 28 35 23 3d f5 ab e5 3c
       -0.056169827 -0.0670381 0.039845616 0.028036097
000270 c0 57 f7 3b 12 ad 08 bd d6 39 9d bd 24 83 bb 3c
       0.0075483024 -0.033368178 -0.07677047 0.022889681
000280 d3 5c cf 3c 8a a4 13 3d 88 61 3d bc ba 44 a8 bb
       0.025312817 0.03604559 -0.011558898 -0.005135146
000290 46 0f 9e bc 79 7d 8d bc 0b ea 33 3d 39 1b ac bd
       -0.019294392 -0.017271744 0.043924373 -0.0840363
0002a0 b8 4d ac bc d2 2d a5 3d ca d9 61 bd 08 c0 2d 3d
       -0.021033153 0.0806538 -0.05513934 0.042419463
0002b0 b8 90 13 bd f4 93 37 bd 54 f2 81 bd 0f 59 cc 3c
       -0.036026686 -0.044818833 -0.063450485 0.02494481
0002c0 8a 7b 83 3d 0b 54 36 3d 2f e1 d0 3c 59 07 39 bd
       0.064200476 0.044513743 0.025498 -0.045173023
0002d0 a5 d6 3e bb bf f7 9f bc 20 cc 8b bd 16 2a 01 3d
       -0.0029119637 -0.019527314 -0.06826043 0.031534277
0002e0 1a b2 0a bd e7 14 ea bc 89 56 11 bc 77 f9 17 3d
       -0.033861257 -0.02857442 -0.008870729 0.037103143
0002f0 c5 b9 20 3b 1d d3 8e 3b 26 3f 3f bd aa cb 84 3d
       0.002452479 0.0043586628 -0.046691082 0.06484158
000300 9a 5e 91 3d 97 be 54 bd c3 ee d1 bc 04 2f 41 3d
       0.07098122 -0.051939573 -0.025626546 0.04716398
000310 59 ac dc bc a9 08 65 3c ae 21 68 bd e6 76 1e 3d
       -0.02693765 0.0139791155 -0.056672744 0.03868761
000320 53 1d ee 3b c1 31 4f bc a6 f4 d3 3c a4 95 17 3d
       0.0072666793 -0.01264614 0.025873493 0.037007943
000330 2c 93 de 3c da ac 33 b9 0f a4 a5 bd 7a cf a6 3d
       0.027169786 -0.00017135162 -0.08087932 0.08145042
000340 53 4d 96 bd 25 e4 c6 bc 81 04 40 bd bf d0 4d bd
       -0.07338967 -0.02427871 -0.046879295 -0.050247904
000350 81 30 95 3c a2 c8 09 bd 01 99 2c 3c 2b fa aa 3d
       0.018211605 -0.033638604 0.010534526 0.08348497
000360 2d 50 0c bd 65 f3 92 bd d7 7d 91 bd b7 e2 8a 3d
       -0.03425615 -0.0717533 -0.0710408 0.06781524
000370 03 d3 7c bd 41 da 17 3d ed ca 88 bc d5 80 98 3d
       -0.061724674 0.037073378 -0.016698325 0.07446448
000380 9f 91 ef 3c 08 3f 43 3d 27 6e a2 bd b8 39 41 3d
       0.029244242 0.047667533 -0.07931166 0.047174186
000390 87 ec 80 3d 09 94 51 bd 96 f8 9b 3d 52 dc 54 3c
       0.06295114 -0.051166568 0.076157734 0.012991982
0003a0 58 63 20 bd d7 f5 51 3a 34 eb e6 3c 43 af 48 bd
       -0.03915724 0.000800935 0.028188325 -0.048995268
0003b0 47 62 e5 3c 98 ce 7b bd 4e 6c a7 3d 9f 62 9b 3d
       0.028000964 -0.06147632 0.08174954 0.0758717
0003c0 06 d5 98 bd 24 53 1a bc 8a d0 94 bd ba fa 7c 3c
       -0.07462506 -0.009419236 -0.07266338 0.015440637
0003d0 f7 25 07 bd b9 98 0e bd 66 75 59 3d d2 00 a3 bd
       -0.03299519 -0.034813616 0.053090475 -0.07959141
0003e0 cd e0 9f bd 9a 28 86 bd ff 68 33 bc 99 f6 4f 3d
       -0.07806549 -0.06550713 -0.010950326 0.050772283
0003f0 aa d8 87 3d 7c 82 cf bb 8f b3 95 bd c2 9e 99 3c
       0.06633122 -0.0063326936 -0.07309639 0.01875246

sequential/conv2d_1/BiasAdd/ReadVariableOp:0 f4 [64]
000000 e9 23 ee 3b ea 56 11 3b d2 bb 3c 3c 12 b4 5b 3b
       0.0072674644 0.002217705 0.011519389 0.0033524078
000010 8f 26 95 3b bd 94 1d 3b ac cb 8c 39 9c e6 91 3b
       0.0045517157 0.0024044954 0.00026854628 0.0044525396
000020 b8 1a 4d bb 5c d5 1d bb ff f4 da 3b 75 31 92 ba
       -0.0031296443 -0.002408347 0.006682038 -0.0011153655
000030 70 cb 82 ba 87 f2 8e 3b 19 40 96 b9 0f 99 e0 38
       -0.0009978842 0.0043624076 -0.00028657986 0.00010709662
000040 12 bd db 3b 12 9f 23 3b db f1 a5 b9 0e 56 a2 3a
       0.0067058885 0.002496664 -0.0003165145 0.0012385265
000050 80 8c b0 3b 45 5c 6e 3a 52 ef 0e 3b b2 a4 80 3b
       0.0053878427 0.0009092729 0.0021810126 0.003925883
000060 5c 9e ea 3b e5 4e 8b b9 23 90 45 3c 0b 2f 1c 3b
       0.007159991 -0.00026570927 0.012058291 0.002383175
000070 cf 2d b7 3b 99 c7 8c 3b 7f 78 67 3b f6 0f a8 3b
       0.0055901776 0.004296255 0.0035319624 0.005128856
000080 82 1f a5 3b 63 fa c7 39 2f e7 43 3b 4a 6a 3a 3b
       0.0050391564 0.0003814279 0.0029892435 0.00284447
000090 e3 83 43 3a 3b 89 10 bb d6 bd 41 3b a6 75 4d bb
       0.00074583123 -0.0022054452 0.0029562614 -0.0031350642
0000a0 b4 83 13 3b 29 cf ab 3b 3e 5f 7f 39 6a cf cb 3a
       0.002250892 0.0052432013 0.00024354176 0.0015549485
0000b0 dc 63 13 3c ac 30 07 3c a5 c4 ea 3b df 8d 02 3a
       0.008995976 0.00825135 0.007164555 0.0004980247
0000c0 2c 9e 6e 3b 63 60 52 bb 30 2b ae ba 73 ad a9 3a
       0.0036410196 -0.0032100908 -0.0013288017 0.0012945369
0000d0 9d 9d a3 3b 57 a2 cc bb 12 4f 20 3c 0e 18 df 39
       0.004993154 -0.0062449384 0.009784477 0.00042551797
0000e0 0e 87 a2 ba b1 ec 2d 3a 3d 4f 96 ba a2 bf a4 3a
       -0.0012399869 0.0006634696 -0.0011467707 0.0012569318
0000f0 b0 c3 81 3b a1 dc 43 bb 31 be 4c bb a2 73 fd ba
       0.0039600953 -0.0029886144 -0.0031241293 -0.001933683

sequential/conv2d/Conv2D/ReadVariableOp:0 f4 [32, 1, 5, 5]
000000 38 f4 a4 bc fa 55 fe 3c e8 3d 5d bd ad 01 6d 3c
       -0.020135984 0.031046856 -0.054014117 0.014465732
000010 40 6a bd 3d 84 c7 12 bd f7 c3 41 bd d9 83 91 bd
       0.09248781 -0.035834804 -0.047306027 -0.07105226
000020 e5 ef 7f bd 99 13 ad 3d c0 c1 37 bd be 01 ff bc
       -0.06248464 0.084510036 -0.04486251 -0.03112876
000030 35 d2 98 3d 48 c1 90 bd ba 44 6d 3d 54 2a ac bc
       0.07461969 -0.070681155 0.05792687 -0.021016277
000040 48 24 fe 3c f3 e6 e2 bc f6 a9 10 3d 96 a4 e8 bc
       0.03102316 -0.027698016 0.035318337 -0.028398793
000050 fe 63 ae bb da 3a 98 bc ff 4c f7 bc b6 29 9b bd
       -0.0053219786 -0.01858275 -0.030188082 -0.07576315
000060 62 68 dd 3b f2 39 8d 3d 37 85 8d 3d 76 58 c6 3d
       0.006756828 0.06895818 0.06910174 0.09684841
000070 1c ce f5 3c 16 f5 ad 3d 62 f6 10 3d 91 5f cc 3c
       0.030005507 0.08494012 0.03539122 0.024947913
000080 87 79 4f bc 5a 4c 06 3c 7c a3 8e bc 54 97 8b bd
       -0.012663252 0.008196915 -0.01741194 -0.06815973
000090 a7 11 1d bd 84 6f 36 3d dd b1 8a 3c cc d2 a1 3c
       -0.038346913 0.044539943 0.016930515 0.019753836
0000a0 da ac 81 bd 4d ae 95 bc 72 5b 76 bb b9 ae a3 bd
       -0.06331797 -0.01827159 -0.0037591127 -0.0799231
0000b0 f4 02 36 bc aa 30 2f 3d 29 c1 a0 bd cb 64 a5 3c
       -0.0111091025 0.04277102 -0.078493424 0.020189663
0000c0 87 87 8e bc 98 e7 8c 3b 92 74 1c 3d 6c 44 bb bd
       -0.017398609 0.004300069 0.038197108 -0.0914391
0000d0 21 87 80 bd 11 0b 17 bb e2 74 18 bc 7e 44 b0 bc
       -0.06275774 -0.0023047368 -0.009305211 -0.021517035
0000e0 fe 6d ae bd 8e 1a 37 bd 7d 01 15 3d 96 c4 8e bd
       -0.08517073 -0.04470306 0.036378372 -0.069710895
0000f0 f4 b5 5f bd fc 2c 9c bc 03 d9 25 bd e3 8d 6c bd
       -0.054616883 -0.019064419 -0.04049016 -0.0577525
000100 44 23 5d 3c 2b 60 10 3d 84 1c 32 3d d6 74 0d 3d
       0.0134971775 0.035247963 0.043484226 0.03453525
000110 08 48 89 3d ee 00 95 3d 55 78 b5 bc 55 72 57 3d
       0.06703192 0.07275568 -0.022152105 0.05259927
000120 7e a9 b0 3d 45 61 51 3c cc e1 9e 3d 5e 34 2c 3c
       0.08626078 0.0127795385 0.07757911 0.010510532
000130 38 10 b5 bc 3d 0c 1a bd 38 80 23 bd 62 1f 0e 3d
       -0.02210246 -0.037609328 -0.0399172 0.034697898
000140 e0 56 84 bc 40 c3 57 3d 01 b2 bc 3d c6 5a db bc
       -0.016154706 0.05267644 0.09213639 -0.026776683
000150 9c a4 d5 3d ed 47 25 bc ed 9b 81 3d f7 48 56 bc
       0.10431787 -0.010087949 0.063285686 -0.01307892
000160 4a cb c8 3d 35 16 a9 3d 05 d4 69 bc ea bc 8a bd
       0.09804399 0.08256189 -0.014271741 -0.06774314
000170 48 1b 8e 3d 9b 6b a4 3d 87 bd 01 bd c9 d5 f9 bc
       0.06938797 0.080283366 -0.031674888 -0.030497449
000180 d9 2f 41 bd 83 ae 07 3b 94 b6 b3 3d d6 6f 47 bc
       -0.04716477 0.0020703382 0.087750584 -0.01217266
000190 a9 76 30 bc d5 62 22 3d d8 0a 0f 3d b2 57 c7 3c
       -0.010770478 0.039645035 0.03492245 0.024333809
0001a0 d6 00 a6 bd f3 58 ae 3a 77 67 1e bd 50 82 80 3d
       -0.08105628 0.0013301655 -0.03867289 0.06274855
0001b0 3b 11 47 bd 1a 7d dc 3c ff a7 0a 3d fc b1 48 bd
       -0.048600417 0.026915122 0.03385162 -0.048997864
0001c0 83 4f 53 bd f1 11 d1 bc f5 da 84 3d ce 38 c0 3d
       -0.0515895 -0.02552125 0.06487075 0.09385835
0001d0 3b 21 5e bd 99 28 89 bd 09 d2 c9 3d e9 a7 0c 3d
       -0.05423091 -0.066971965 0.09854514 0.03433982
0001e0 a0 18 90 3d e7 b1 9e 3d db 5d 99 3d bb bc 6c 3d
       0.07035947 0.07748776 0.07488605 0.057797175
0001f0 1f f8 1e bd 61 6e 64 3d 6d 58 a1 bc da 8f 42 3d
       -0.038810845 0.055769328 -0.019695485 0.04750047
000200 6d 08 a8 3d 5e 96 a8 bc 0c bf 75 bd e4 fe 8e bd
       0.08204732 -0.020579513 -0.05999665 -0.0698221
000210 a4 a2 00 3d b9 99 fc 3b b9 b2 51 bd 65 47 19 bc
       0.031405106 0.007708755 -0.051195834 -0.009355401
000220 ed 31 a6 3c 30 61 13 3d 49 b9 1b bd 32 25 a3 3d
       0.020287478 0.035981357 -0.0380185 0.07966079
000230 79 d1 3c 3d 98 d6 41 3d e4 bf 35 3d cd ef b0 3b
       0.046098206 0.047323793 0.044372454 0.00539968
000240 84 67 53 bd 18 78 03 3b 38 b0 97 3c 17 cd 95 3c
       -0.051612392 0.0020060595 0.018516645 0.018286271
000250 f2 cf 3b 3d 45 9e 95 3d 35 05 9c 3d 2d 7e c6 3c
       0.04585261 0.07305578 0.07618181 0.024230087
000260 c9 0c 34 3d b3 05 45 3d de f2 77 3d d4 4b e2 3d
       0.043957505 0.04810114 0.06053435 0.11049619
000270 ac ee bf 3d 03 3a b0 3d a9 d1 b0 3d 19 d0 1e 3d
       0.09371695 0.08604815 0.086337395 0.038772676
000280 f1 2c 91 3d 8c 39 4f 3d 33 aa 50 bd 2a 60 54 3d
       0.0708865 0.05059199 -0.050943565 0.05184952
000290 33 fa 47 3d 4a cf b8 3a e7 47 52 3d 63 23 9e 3d
       0.048822593 0.0014099863 0.051338103 0.07721593
0002a0 28 7e f3 bc 59 f9 8f 3d 1c 1d ad 3c 99 6d 50 bd
       -0.029723242 0.07029981 0.021132044 -0.05088577
0002b0 6a cc 89 bd 04 65 24 bd ff 1f 47 bd bc 38 68 bd
       -0.06728442 -0.0401354 -0.0486145 -0.05669473
0002c0 97 21 ba bc 89 f3 b6 3d a8 c9 7d 3d 0c e6 8f bd
       -0.022721095 0.089331694 0.061959893 -0.070263
0002d0 30 a5 8a bd d9 f2 8e bd 36 47 73 bd 09 ed 24 3d
       -0.06769788 -0.06979913 -0.059394084 0.040265117
0002e0 8d fe 90 bd 95 5f b1 3d c1 dd 95 3d 33 5e bf bc
       -0.07079802 0.08660809 0.07317687 -0.023360347
0002f0 94 36 a0 3c 60 c5 bb bc 71 88 1c bd 79 57 c4 3d
       0.019557275 -0.022921264 -0.03821606 0.095869966
000300 7e 96 6a bd a5 8b dd 3b c5 a1 91 3d 55 9d 9d 3d
       -0.057272427 0.0067610317 0.07110933 0.07696024
000310 e7 db cd 3d 4b 5e 99 3d 56 88 2c 3d 04 05 ef 3c
       0.10051709 0.07488688 0.042122208 0.029177196
000320 3f 83 1c 3d c4 dc f6 bc d2 f8 b0 3c 9d e8 dc 3c
       0.038211104 -0.030134566 0.021603022 0.026966387
000330 d4 1a a5 bc c7 a0 40 bd 83 b7 a3 3d 84 04 66 bd
       -0.020154394 -0.04702833 0.079939865 -0.05615665
000340 43 c9 b4 bc 4f 4e 03 3d 61 a3 81 3d d1 5d 88 3d
       -0.022068625 0.032057103 0.0632999 0.06658519
000350 08 59 5e 3c bd f7 18 bc 12 3c de bb 02 b2 7a 3c
       0.013571031 -0.009336409 -0.0067820633 0.015301229
000360 fc f3 d6 bc 01 e9 c2 3d af 2e 6e 3d 64 f4 74 3d
       -0.026239388 0.09517098 0.05814999 0.05980338
000370 77 1c ec bc be df e0 bb b2 5c 2c 3d 12 dc 50 bd
       -0.028822167 -0.0068626096 0.04208059 -0.050991125
000380 af 17 b3 3d 05 34 8f 3d b6 be 11 bd 40 43 e4 bc
       0.08744752 0.06992344 -0.035582267 -0.027864099
000390 75 50 15 bd 9d 0c 7b bd 3a d1 81 3d d4 55 af 3a
       -0.036453683 -0.061291326 0.06338735 0.0013377019
0003a0 86 64 84 bd 24 a5 89 3d c1 97 73 3c 59 ff e3 bc
       -0.06464486 0.06720951 0.014867724 -0.02783172
0003b0 80 eb ab 3d f2 46 58 3d eb 8d 17 ba f8 d9 0c 3d
       0.083945274 0.052802034 -0.00057813403 0.03438756
0003c0 d0 25 06 3d d0 3a 55 3d 51 98 d6 3d ab 36 d8 3c
       0.032750905 0.05205804 0.10478271 0.026393255
0003d0 78 2d 9f bc 07 fe 9f 3d 16 55 6c 3d 63 2e 82 bd
       -0.01943086 0.07812124 0.05769833 -0.06356504
0003e0 94 a1 57 bd c0 3a 94 3c ad 5f 66 bd 94 b9 92 bd
       -0.052644327 0.01809442 -0.056243587 -0.071643025
0003f0 b4 c8 ba 3c 2e 60 80 bd 6a 5c 3d 3d 6c ca 44 bd
       0.02280078 -0.06268345 0.04623071 -0.048044607

sequential/conv2d/BiasAdd/ReadVariableOp:0 f4 [32]
000000 ea 2f be 3b 68 51 fa 3a dc b0 00 3c bf 09 83 3a
       0.0058040516 0.0019097747 0.007854667 0.0009997411
000010 9f 45 a3 38 61 52 55 37 23 a9 d3 3b b7 e2 28 3c
       7.7854136e-05 1.271497e-05 0.0064593717 0.010307959
000020 1a a8 d6 36 79 f4 41 3b 3a 5b cc 3b c6 4a c5 3a
       6.3972666e-06 0.002959518 0.006236461 0.0015052191
000030 b2 0d 44 36 7d 10 07 3c 10 82 c5 3b f1 e6 3f bb
       2.9214248e-06 0.008243677 0.0060274675 -0.002928194
000040 e5 d9 46 3c 76 fa 99 3a d4 cb 0e b5 ad e2 78 3b
       0.012136911 0.0011747617 -5.319573e-07 0.0037976906
000050 ed fe 97 3b 4f 7a 1f 3c fb e0 eb 3b d7 cd 9c 3b
       0.004638544 0.0097337505 0.0071984506 0.00478528
000060 aa 3e 83 3b 0c 48 25 bb 7d 1b 05 3b 7f fc ea 37
       0.004005273 -0.0025219945 0.0020310574 2.8012551e-05
000070 c7 92 ae 3b cc f3 6f 3b 4b 6a 91 3b 23 0d 8f b5
       0.005327556 0.003661382 0.00443772 -1.0658154e-06
