models/model31.onnx (onnx, 26323 bytes, 6 tensors)

sequential/dense/MatMul/ReadVariableOp:0 f4 [256, 10]
000000 aa b1 34 3e d2 6a e6 bd 8f da 96 bc cc c2 e2 be
       0.17645898 -0.11250843 -0.018414764 -0.44289243
000010 6c 23 45 bd 1d 73 08 3e f5 ce b7 3e e9 0e ca be
       -0.048129484 0.13325162 0.35900083 -0.394645
000020 45 3b 96 3e 27 b0 0b 3e e0 2a e1 bd fa d6 4b 3e
       0.29342094 0.13641416 -0.10994506 0.19906226
000030 54 dc 3d 3e db 64 8e bd 5a 68 5c 3c be 23 fb bc
       0.1854108 -0.069528304 0.013452614 -0.030656692
000040 e0 21 c5 be a5 6c 2f 3e d3 46 a4 3d 0b ee 7e be
       -0.38502407 0.17131288 0.08021321 -0.24895494
000050 65 f1 c1 bd 2a 1b 2e be ac 52 07 3d 29 82 30 3e
       -0.094698705 -0.1700255 0.033037826 0.17237152
000060 1d df 04 bc 29 38 24 be 8c 67 79 3e cc fb f9 3d
       -0.008109835 -0.16037048 0.24355906 0.122062296
000070 6c da 0f be 8d 28 8c be 8f 9d 76 3d a3 9c 54 be
       -0.14048165 -0.27374688 0.060208853 -0.20762877
000080 85 cf f8 3d 37 63 14 3e db 37 99 bd 5c 9f 27 be
       0.12148956 0.14490972 -0.07481357 -0.16369385
000090 11 a4 87 be 2f 90 db ba 8e 6e 43 bb ad 48 33 3c
       -0.2649236 -0.0016751344 -0.0029820534 0.01094262
0000a0 3d dc 81 bc 31 21 25 3e 97 eb 55 bd 60 b5 1d 3e
       -0.015852088 0.16125943 -0.05222663 0.1540122
0000b0 68 2e 06 bf b9 42 c3 3c 17 5a 19 be fd 5e 24 3e
       -0.5241456 0.023835527 -0.14975773 0.1605186
0000c0 fd c2 c2 3c 7f ed 4a 3d 86 f0 6b be a2 27 c4 be
       0.023774618 0.0495429 -0.23040971 -0.38311487
0000d0 34 8f 28 3e ca af 23 3e 2a de 4b 3d 19 cf 96 be
       0.16460878 0.15985027 0.04977242 -0.29454878
0000e0 2e a5 3c bd 8b 56 54 bc e4 7f b0 bc e5 ea 94 bd
       -0.046055965 -0.012960087 -0.021545358 -0.07271365
0000f0 af ba 1e 3e c3 7c ae bd e7 9b 63 be 54 3f 8a be
       0.15500902 -0.0851989 -0.22227441 -0.2700144
000100 61 8a 54 3e 6f c4 ad 3d 4c 1a 44 3e 4b ac c2 bc
       0.20755912 0.08484732 0.19150656 -0.023763796
000110 72 f4 14 3e 04 58 7a 3d a5 3a e0 3c 47 4c ea bd
       0.14546373 0.061119094 0.027371714 -0.1144033
000120 3c 4d 55 be bb ed cb bd 62 99 62 bd 1b c4 28 3e
       -0.20830244 -0.09957453 -0.05532206 0.16481058
000130 a8 8e 35 3e 5a c8 a7 bd 06 d6 b2 3d 25 81 47 bb
       0.177302 -0.08192511 0.08732228 -0.0030441966
000140 eb 44 f3 bd 7c 55 05 3e 82 db cb 3d 1e 0a 33 3b
       -0.118783794 0.13020891 0.09953977 0.0027319263
000150 73 04 92 bd d7 50 02 bb eb b6 db bd 6b 09 ae 3d
       -0.07129755 -0.001988461 -0.10728248 0.0849789
000160 c6 71 1c be ab 8a da be 46 86 7c be 10 b9 8c 3e
       -0.15277776 -0.4268392 -0.24660596 0.2748494
000170 a5 e8 fa 3c 48 5e 3f bd 87 63 81 bc 42 8e ba 3c
       0.030628512 -0.046720773 -0.015794529 0.022772912
000180 40 70 43 bd 7c 96 9b 3e db 7d 32 be 56 ef 6c be
       -0.04771447 0.30388248 -0.17430823 -0.23138174
000190 ba 06 63 bd 5e aa 49 3e ae 54 5b bd 3d 83 99 bc
       -0.055426337 0.19693896 -0.053547554 -0.018739337
0001a0 f9 3d 96 bd ac 28 60 3d 99 28 ff be 5e 35 79 3e
       -0.07336039 0.054726288 -0.4983566 0.24336764
0001b0 7a 9e 12 bb 59 db 5c be 58 b7 39 3e 07 a6 9e bd
       -0.0022372291 -0.2156805 0.18136346 -0.07746511
0001c0 f3 05 4d be 72 5c a7 bd 98 a5 80 bd 6f e7 ce bd
       -0.200218 -0.081719294 -0.062815845 -0.10102736
0001d0 9a 27 14 be 65 c0 08 3e 96 da 36 3d f1 0b 0a 3e
       -0.14468232 0.13354643 0.044642054 0.13481118
0001e0 49 46 5c 3e 7b 32 9f 3e e3 86 cd bd 82 52 e3 be
       0.21511187 0.310932 -0.10035493 -0.44398886
0001f0 69 da fe 3d 58 c5 09 bc c4 83 73 3e c7 10 2a bd
       0.12444002 -0.008408867 0.23780733 -0.041519906
000200 a1 cc 5a be 7d 1b 32 be f1 5c 93 3b 89 c2 ba 3d
       -0.21367122 -0.17393298 0.0044971635 0.09119136
000210 af c6 6d 3d e1 53 31 3d f5 43 30 3e 0d 7b be bc
       0.058050808 0.043292884 0.17213424 -0.023252035
000220 ff 90 7c be ac 17 77 bd 84 6d d6 bd 44 6c 71 be
       -0.24664687 -0.06032531 -0.10470107 -0.23576456
000230 f7 02 e4 bd 3c 8c 8b bd 3a ef 9b bd 4f bc cc 3d
       -0.11133378 -0.06813857 -0.07613988 0.099968545
000240 f3 6e bf 3d 0f 20 b3 3d 08 a7 6a 3d a1 81 2a 3e
       0.09347334 0.08746349 0.0572882 0.16651012
000250 41 6c f2 3d 7e 0e 19 3c 9b 0f fd bd 3e e0 74 3a
       0.11837054 0.009341834 -0.12356492 0.0009341276
000260 34 7e c8 bd 58 04 ee bd 48 d6 48 3e 82 be b1 3d
       -0.09789696 -0.11621922 0.19612992 0.086789146
000270 0d eb 36 3e cb 33 ee 3c 26 59 c1 3d 9d 06 27 bd
       0.17863102 0.029077431 0.09440832 -0.04077779
000280 46 25 8e bd 16 a9 97 3d 05 5e 1c 3e b8 c4 40 be
       -0.06940703 0.074052975 0.1527024 -0.18825042
000290 c5 8e 52 be 6b fb 1c 3e e0 b0 72 3d 5e d4 48 be
       -0.20562275 0.15330283 0.059250712 -0.19612262
0002a0 58 bd c6 3d 4b dc cb bc 54 d2 86 3d 9e e9 1d bd
       0.09704083 -0.024885317 0.06583086 -0.038552873
0002b0 c7 ff 12 3e b5 5f 59 3c f3 b4 4e 3b 34 6a 42 be
       0.14355384 0.013267447 0.003154096 -0.18985826
0002c0 a3 5d 87 be 59 b7 50 3e 24 81 5d 3b 7c 80 e4 bd
       -0.26438627 0.20382442 0.0033798898 -0.11157319
0002d0 7e 98 aa be 92 98 a5 bd fc 1e 47 3e 38 30 cb 3e
       -0.33319467 -0.08085741 0.19445413 0.39685225
0002e0 08 e1 27 bd 4c 56 c3 bd bc c4 20 3e bd 52 2e 3d
       -0.04098609 -0.09537944 0.15700048 0.042559374
0002f0 bd 3c 19 be 56 b2 13 bf 5a f9 93 3c 9b 28 20 be
       -0.14964576 -0.57693994 0.018063236 -0.1564049
000300 16 04 70 bd d2 01 36 bb eb f8 02 be d6 ab a3 bb
       -0.058597647 -0.002777208 -0.12790267 -0.0049948497
000310 02 b9 5b bc 99 8c d5 3c 9c 0a c7 bd a2 58 e8 bb
       -0.0134108085 0.026068019 -0.097188205 -0.007090644
000320 07 fd 61 be 50 5f 6e 3b 91 22 d7 3d 40 48 87 3c
       -0.22069179 0.0036372729 0.1050464 0.016513944
000330 4a 24 86 be 09 59 b0 3d 7e f2 86 be 01 aa 5d 3d
       -0.2619956 0.08610732 -0.26356882 0.054117206
000340 cd 89 e9 3d fc 36 37 be 43 34 f8 3c 86 d1 6d be
       0.114032365 -0.17892069 0.030298358 -0.23224458
000350 a8 4e c0 3d 94 e6 20 be 6d a4 95 be 86 00 33 be
       0.093900025 -0.15712959 -0.2922701 -0.17480668
000360 3a cb 6e be 6d 54 21 3d 94 4a be 3d 3c 9d 62 3e
       -0.23319712 0.039387155 0.092915684 0.22130293
000370 14 eb 2a bd f0 ef f2 3d 98 1d 8a be 48 ee 44 be
       -0.041728094 0.11862171 -0.26975703 -0.19231522
000380 be c9 6b 3e 30 46 ac 3d 7d 6b 36 be 8c 20 23 be
       0.23026177 0.08411825 -0.17814441 -0.15930384
000390 cb a6 65 3e 83 bb b1 bc 4f 43 0b be 6b b6 10 be
       0.22426908 -0.021695858 -0.13599895 -0.14132087
0003a0 24 68 cc bd e0 c4 7a bd 59 18 d1 bc 0b 28 11 3e
       -0.09980801 -0.06122291 -0.025524305 0.14175431
0003b0 2c bd f7 3d 3e 43 9b 3c 6b 17 de 3d 3f 10 bc 3d
       0.120966285 0.018952962 0.108443104 0.09182786
0003c0 b5 1e 11 3d 49 2a 39 3e ee 45 3b 3e f7 a1 12 3e
       0.035429675 0.18082537 0.18288395 0.14319597
0003d0 12 3e 1d bf 7e 67 4c be 33 c9 0c be 05 a6 8a 3e
       -0.61422837 -0.19961354 -0.13748626 0.27079788
0003e0 8a 01 43 be fe 29 95 be a9 7e 4b be 84 97 b3 3d
       -0.19043556 -0.291336 -0.19872536 0.08769134
0003f0 d2 18 96 3d ac 28 b2 3c d0 a0 c9 3e 2b e6 ef 3d
       0.07328953 0.02174791 0.39380503 0.11713823

sequential/dense/BiasAdd/ReadVariableOp:0 f4 [10]
000000 09 56 0e 3c 20 33 57 3d d8 32 06 bd b1 df a8 bd
       0.008687505 0.05253899 -0.032763332 -0.08245791
000010 56 89 bd bc 1c 95 67 3c 10 3f 99 bc c5 50 0e 3c
       -0.023136776 0.014134672 -0.018706828 0.008686249
000020 19 47 25 3d 2f 1c be 3c
       0.040351007 0.023206798

sequential/conv2d_1/Conv2D/ReadVariableOp:0 f4 [16, 8, 5, 5]
000000 a3 7b ac 3d a3 3c 43 bd 60 4b af be c0 6a 0b be
       0.08422019 -0.04766525 -0.34237194 -0.1361494
000010 f5 9c ad bd 89 04 62 3d 0a a8 c0 be 3e 6d 61 be
       -0.08477203 0.055180106 -0.37628204 -0.22014329
000020 53 76 b6 3d 35 21 11 be 5e 97 eb bd 8d c6 a5 be
       0.08909287 -0.14172824 -0.115034804 -0.32378045
000030 8a 00 8a bb 22 d6 81 3d b8 96 ab bd 17 d0 19 bd
       -0.00421149 0.06339671 -0.08378357 -0.037551966
000040 08 71 79 be db 28 86 3d 74 1e db 3d 6d ad 7c 3e
       -0.24359524 0.06550761 0.10699168 0.24675532
000050 33 5d 6a be 8e 1a 99 bd 14 1b 34 3e 5e 09 c8 3e
       -0.22887115 -0.07475768 0.17588454 0.39069647
000060 71 f5 91 3e fe b6 42 3d 3d 9a 82 3c 08 78 10 3e
       0.2850757 0.047537796 0.015942687 0.14108288
000070 d4 e1 3c 3e e2 22 00 3e 86 0a 52 3e 91 b0 97 3e
       0.18445522 0.12513307 0.20511827 0.29626897
000080 12 fb eb 3e aa 5f 9f 3e d8 14 01 bd 78 ef 88 3e
       0.4608999 0.31127673 -0.03151402 0.267452
000090 b7 4e d9 3e ff ed 8f 3e 59 50 1a be cb 46 55 bd
       0.42442867 0.28111264 -0.15069713 -0.052069467
0000a0 1f 95 6d 3e 97 53 64 3c 83 05 49 be 06 79 05 be
       0.23201416 0.013935945 -0.19631009 -0.13034448
0000b0 db 61 f1 bd 18 90 b8 3d d4 de c1 be 85 62 96 be
       -0.117862426 0.09011859 -0.37865317 -0.2937204
0000c0 6c 27 48 be e0 8f ca be f9 14 00 be 0c 1a 81 be
       -0.19546288 -0.39562893 -0.12508 -0.25215185
0000d0 f8 36 a2 3d a9 fe 49 3e e5 a7 1e 3d 4f ee 93 be
       0.07920641 0.19726051 0.038734335 -0.28892753
0000e0 1a 5f 60 be 05 e2 10 3e cb dd 65 3d fc d3 18 be
       -0.21911278 0.1414872 0.05611972 -0.14924616
0000f0 78 50 44 be 24 bf 06 be 51 be 86 3d 26 6e ae 3d
       -0.19171321 -0.13158852 0.06579269 0.08517103
000100 39 ec 83 bd a7 7a eb bc e9 c6 d4 3d 5f a1 0c 3d
       -0.0644154 -0.028745009 0.103895016 0.034333583
000110 03 86 49 3d e1 78 1a 3d e3 b7 8d 3d a3 92 a2 bc
       0.04920007 0.037712935 0.06919839 -0.019845312
000120 33 19 b3 bd 8d 22 15 3e 90 4d a2 3d 32 d1 53 bc
       -0.08745041 0.14563961 0.0792495 -0.012928294
000130 f7 91 bd bd 1e d8 5b bc a1 a1 1c 3e 84 b2 3a 3d
       -0.09256356 -0.013418226 0.15296032 0.045580402
000140 27 1c d3 3b bc c6 c2 3d ec cc c4 3d ba 7e ed 3d
       0.006442565 0.09510562 0.09609398 0.11596437
000150 af fe 68 bd e1 33 72 3e ff 73 39 3d 2f 52 bd 3d
       -0.05688351 0.23652603 0.045276638 0.09244191
000160 e6 74 aa bd f6 a0 d0 bd bc f1 30 3e d1 f9 24 bd
       -0.08323078 -0.10186951 0.17279714 -0.040277306
000170 15 81 96 bc 89 43 65 be c2 1a 58 be d1 36 8b bd
       -0.018372098 -0.22389044 -0.21103957 -0.06797565
000180 a8 d4 a3 3d 62 06 2e be 2c 5f f5 bd fa ca 11 be
       0.07999545 -0.16994622 -0.11981043 -0.14237586
000190 11 d7 fe bd 30 4c 1d be 82 98 25 3d 40 db 39 3d
       -0.124433644 -0.15361094 0.040428646 0.04537511
0001a0 cc 7e 2e 3e 4a eb ef be 0d 60 83 be d4 a6 ec bc
       0.17040557 -0.468592 -0.25659218 -0.028888144
0001b0 82 51 9b 3d 61 06 7e 3d 64 c4 0f bf 18 6c 39 be
       0.07583906 0.062017802 -0.56159043 -0.1810764
0001c0 76 0d a5 3d f7 98 d1 bc 94 bf f4 bc 82 10 68 be
       0.08059208 -0.025585635 -0.029876508 -0.22662547
0001d0 75 b1 02 3e 3c 15 79 3e 28 70 15 3e 60 f2 89 3d
       0.12763007 0.24324507 0.14593565 0.067356825
0001e0 76 d0 69 3e be 9c bf 3e 37 77 aa 3e ae 37 34 3e
       0.22833428 0.37424272 0.3329408 0.17599365
0001f0 de 09 88 bd e2 c9 0a be db a3 67 bd 54 36 8e 3e
       -0.06642507 -0.13553575 -0.05655275 0.27775824
000200 67 61 18 3e 55 83 01 bd 23 e6 b5 3d 20 84 97 3e
       0.14880906 -0.03161939 0.08881786 0.2959299
000210 b4 d0 7c 3e 77 53 f7 bc 40 77 3c be 20 11 bd 3e
       0.24688989 -0.030191166 -0.18404865 0.36927128
000220 cf de b1 3e cf 97 b6 3d 95 bc 01 bd 8a 40 43 be
       0.34740302 0.08915674 -0.031673986 -0.19067588
000230 9a 30 64 3d 30 b7 b6 bc 27 14 50 bd 12 48 40 be
       0.055710413 -0.022304147 -0.05080047 -0.18777493
000240 f9 cd a4 bd c0 47 03 be 18 0f 35 bd ca 09 b3 bd
       -0.08047099 -0.12820339 -0.044203848 -0.087421015
000250 c9 04 92 bd 92 b0 44 3d ca 38 de 3d 8a ef 99 3d
       -0.07129819 0.048019953 0.108506754 0.075163916
000260 cd b0 df ba fd 68 3d 3d bb 83 06 be aa d0 40 be
       -0.001706624 0.046242703 -0.13136189 -0.18829599
000270 7f f5 a3 bd 02 e3 a0 3c df 83 98 3c a3 26 56 3c
       -0.08005809 0.019639496 0.018617569 0.013070735
000280 62 1d cf 3c 37 b2 cd 3d c8 09 66 3e c1 92 e4 ba
       0.025282566 0.100437574 0.22464669 -0.0017438756
000290 c7 20 2c bd 62 21 29 be 0b e5 5f 3e 1a 71 75 3e
       -0.042023446 -0.16516641 0.21864717 0.23968926
0002a0 be 27 7e bd eb b7 36 bc 9f 47 ac bc 0f f5 b3 3e
       -0.06204962 -0.011152248 -0.021030245 0.35147902
0002b0 65 39 10 3e 83 5d 63 3d 1d 41 0f be 0c 1f a7 3d
       0.14084394 0.0555091 -0.13989682 0.081602186
0002c0 06 fd 06 3e d7 78 09 3e db 9d bb bd 73 40 a3 bc
       0.13182458 0.13425003 -0.09160968 -0.019928193
0002d0 61 d8 b8 3d 3b 56 0f bd b4 cb 97 ba f6 24 59 be
       0.09025646 -0.034994345 -0.0011581094 -0.21205506
0002e0 41 86 73 bd 93 99 da 3d 42 2b 3d be 07 79 48 be
       -0.059454206 0.10673823 -0.18473533 -0.19577418
0002f0 e1 21 a1 bd 41 ae bb bd 10 b8 a7 3d 6a 0c 01 be
       -0.0786779 -0.09164096 0.08189404 -0.12602392
000300 b7 52 3d be a1 58 e6 bd 28 c2 5d be 7d 68 8d 3a
       -0.18488584 -0.11247373 -0.21656096 0.0010788586
000310 c7 2c ff bd 10 ae ef bd 21 2a 43 be b6 48 11 be
       -0.124597125 -0.11703122 -0.1905904 -0.14187893
000320 ca f4 8b 3d b7 7b cb bc 7d b3 3c bd 0d fb 29 be
       0.06833799 -0.024839265 -0.04606961 -0.16599675
000330 33 09 e7 bc 7a 0a 2b 3e eb 77 d3 bc 7d 21 ba bd
       -0.028202629 0.16703215 -0.025814017 -0.09088419
000340 d6 21 00 3e 20 b2 6e 3e 58 d8 89 bd 95 4d d6 3d
       0.12512907 0.23310137 -0.067307174 0.10464016
000350 a6 34 33 3e 10 b2 f1 3d 9b 65 71 3e 89 55 9b be
       0.17500553 0.11801541 0.23573916 -0.30338696
000360 33 03 8c bd cb 9e 05 3e 28 36 ed 3d 72 0c 21 3e
       -0.06836548 0.13048856 0.11582595 0.15727404
000370 e7 70 aa bd 34 23 43 be 43 5c 9d bd a6 26 64 bc
       -0.08322316 -0.19056398 -0.07683613 -0.01392523
000380 bf e7 cf 3d e3 ce ee bd 56 cf f4 3b 49 42 2e 3e
       0.10151624 -0.11660554 0.0074710054 0.17017473
000390 e4 a0 04 3e c4 c8 3c 3e 68 a6 84 bd c6 16 28 be
       0.12952 0.18435961 -0.06477052 -0.16414937
0003a0 2b db c3 3c a7 f6 9e bd ed 3a 10 3e 96 80 fb bd
       0.023908218 -0.07761889 0.14084978 -0.12280385
0003b0 14 48 00 bd 0f 85 41 be f1 5e ab be 45 58 0e 3c
       -0.03131874 -0.18898414 -0.33470872 0.008688037
0003c0 c1 f4 81 3d 28 be 52 3d f9 36 11 3d b6 04 b1 be
       0.06345511 0.05145088 0.035452817 -0.34573907
0003d0 62 84 0d bf c6 21 8b bc d3 36 0b 3e 9a 68 49 3e
       -0.55280125 -0.016983878 0.13595133 0.19668809
0003e0 1a 20 3d 3d 59 1f e8 be b8 a7 2f be 5f 60 85 be
       0.046173193 -0.45336416 -0.17153823 -0.26050088
0003f0 db de 53 be d5 fd 8c bd 0c b7 5c be ba 1c 48 3e
       -0.20690481 -0.06884352 -0.21554202 0.19542208

sequential/conv2d_1/BiasAdd/ReadVariableOp:0 f4 [16]
000000 70 ae af bd c3 7c 7a 3a fd 45 1e bd 1d df 0c be
       -0.08578193 0.0009555334 -0.038640965 -0.13756986
000010 67 b0 54 3d 11 76 66 3d b7 7d 93 3d e7 a7 f8 3c
       0.051926043 0.05626494 0.072017126 0.0303535
000020 8c a5 47 3e 67 4f b5 3d 4a 3c 21 3d 8e 3e 80 3c
       0.19496745 0.088530354 0.039364137 0.015654828
000030 e0 02 e4 3d cb dc 8a bc b5 31 d4 bd 35 28 a0 3c
       0.11133361 -0.016950985 -0.10361043 0.019550422

sequential/conv2d/Conv2D/ReadVariableOp:0 f4 [8, 1, 5, 5]
000000 d5 8e 65 3e fc 60 5e 3e 91 e9 82 3e 24 10 2e 3e
       0.22417767 0.21716684 0.25568822 0.16998345
000010 ba 32 28 3e 40 f7 5b b7 7b d9 c0 3e aa 13 c9 3e
       0.164256 -1.3110985e-05 0.37665924 0.39272815
000020 f7 37 9c 3e 76 8f 0c 3e d0 dd 86 be ff 87 a3 be
       0.30511448 0.13726601 -0.26341105 -0.31939694
000030 fa 1d 75 be 91 62 90 be 99 f2 4d be 13 a3 00 bf
       -0.23937216 -0.282002 -0.20112075 -0.5024883
000040 c5 9a 1a bf df f3 1e bf 46 6a b3 be 20 1a 07 be
       -0.6039241 -0.6209087 -0.35042018 -0.1319356
000050 00 50 97 3e 1e 06 31 3e ce 03 68 3e d1 ac 2c 3e
       0.29553223 0.1728749 0.22657701 0.16862799
000060 b6 1b 3e 3d 4a 9d cb 3e dd e5 b1 bc 26 dc a3 be
       0.046413146 0.3976844 -0.021716053 -0.32003897
000070 91 0c 97 be 33 06 99 bd f4 73 90 be 97 ff 46 bf
       -0.29501775 -0.074718855 -0.28213465 -0.7773375
000080 de a1 fe be 1e a9 70 be 11 bd 65 3e 4b 02 24 bf
       -0.4973287 -0.23502013 0.22435404 -0.64066
000090 77 75 ab be 5a 25 84 be b7 7f 21 3e 41 ed 8d 3e
       -0.33488056 -0.25809747 0.15771376 0.27720073
0000a0 c9 dc cf be 2a 63 54 be f0 2f 85 3e b3 0f 12 3e
       -0.40598133 -0.20740953 0.26013136 0.14263801
0000b0 64 34 f9 3e 91 23 4e bd 2b 17 d9 3d 62 81 b4 3e
       0.48672783 -0.050326888 0.10600122 0.3525496
0000c0 f1 5a 96 3e c7 43 ae 3e 4c c4 da 38 68 aa 97 3e
       0.29366258 0.34036085 0.00010431613 0.29622197
0000d0 b3 87 56 3e 69 82 70 3e 95 22 a1 3d c4 7a a9 3e
       0.20950203 0.23487248 0.07867924 0.33101475
0000e0 cf 78 5b 3e ae 98 29 3e ce 97 2e 3e ac ac 9a 3e
       0.21432804 0.16562149 0.17050096 0.30209863
0000f0 61 36 84 3e 25 b4 ae 3c 39 5f 27 3e 27 dd 13 3e
       0.25822738 0.021326134 0.16344918 0.14439832
000100 7d 2e 9d 3e 31 89 50 be e5 cc 01 bd f4 66 66 bd
       0.3069953 -0.20364834 -0.031689543 -0.056250528
000110 8e ae 76 be 42 56 3c be f2 f4 a0 be 81 05 e9 be
       -0.24090025 -0.1839228 -0.31436878 -0.45512012
000120 77 38 e3 be a8 3f b6 be 3c d5 ec be 9c ba 5f 3e
       -0.44379017 -0.3559544 -0.46256435 0.2184853
000130 76 21 ce 3d 60 6f 69 3e 90 bb 32 3e 89 e3 ef 3d
       0.10064976 0.22796392 0.17454362 0.11713321
000140 cf e5 b6 3d 3f 85 2b 3e 32 69 9a bd 83 28 b2 3d
       0.08930551 0.16750048 -0.07539596 0.08699133
000150 e7 e1 34 3e f0 ed 7e 3e 77 5c 00 3d 5a 21 bd 3d
       0.176643 0.24895453 0.03133818 0.09234877
000160 f2 74 b8 3b 5b 53 27 3e d6 33 9d 3e c2 12 b8 3d
       0.0056291753 0.16340391 0.3070361 0.08987953
000170 bf b3 a4 3d 35 8c 14 3e 51 1f 5b 3d 8e bf 5b 3e
       0.08042096 0.1450661 0.053496663 0.21459791
000180 8d 26 5e bd e5 62 fa bd a6 f9 82 3e 87 e2 ef 3d
       -0.054235984 -0.12225894 0.25581092 0.117131285
000190 be 44 d2 3d 84 78 98 3c c6 d8 59 bd 3d e5 e4 be
       0.10267018 0.018612154 -0.053185247 -0.44706145
0001a0 a9 65 27 be 30 72 b8 bc 7d da 33 3e 84 cc aa 3d
       -0.16347374 -0.022515386 0.17563815 0.083397895
0001b0 bd 7f f2 be 3b c3 12 bf 75 44 7b bc be 36 d3 3e
       -0.47363082 -0.5732915 -0.015336146 0.41252702
0001c0 62 12 c2 3e 54 3e 56 3d b7 7c 01 bf 59 28 2f be
       0.3790465 0.052305534 -0.50580925 -0.17105235
0001d0 86 f3 84 3e c6 cd 21 3f ee 45 d7 3d ae 44 87 be
       0.25967044 0.6320461 0.10511385 -0.26419586
0001e0 b9 c5 c2 be b8 d7 34 bd 0e ea cf 3e b1 f6 e4 3e
       -0.38041475 -0.044151038 0.40608257 0.4471946
0001f0 ea 59 10 3e 5c 5e 48 3e b3 36 89 3d fa b5 81 be
       0.140968 0.19567245 0.06699886 -0.2533415
000200 e1 11 25 be 7a 96 1c 3d cf 6a 0a bd e4 c8 eb 3d
       -0.16120102 0.038229443 -0.033793267 0.11512926
000210 67 2b f8 3d 99 76 d8 3e 78 2e 81 3e 60 66 35 3e
       0.12117653 0.42277983 0.25230765 0.17714834
000220 f7 ff 84 3e 77 7f c0 3e 2c b0 2c 3e 24 1c 13 3d
       0.25976536 0.37597248 0.16864079 0.03591551
000230 04 59 bd 3e 16 77 da 3e 46 de 83 3e cb 07 06 be
       0.36981976 0.4266898 0.2575552 -0.1308891
000240 40 a2 8d be ab 27 c2 3e 19 72 7b 3e ed b2 58 be
       -0.2766285 0.3792089 0.24555244 -0.21162005
000250 e3 ea c2 be 35 33 e0 be 09 20 93 3e 21 43 5b 3d
       -0.3806983 -0.43789068 0.28735378 0.053530816
000260 a1 ad a6 be 63 70 f8 be d3 20 d7 be 4b ea 61 3e
       -0.32554343 -0.48523244 -0.4201723 0.22062032
000270 a2 8a 09 3e 5f 00 44 3d 2d d5 cd 3e be 98 a9 3e
       0.1343179 0.047851916 0.40201703 0.33124346
000280 2e 6f e1 3d 7a de c8 bc 78 94 63 3e 4b 68 b0 3e
       0.11007534 -0.024520148 0.22224605 0.3445457
000290 4c ee 27 3e 8b f1 67 bb 44 fe 65 be e8 fe 7e 3d
       0.16399497 -0.0035391774 -0.22460276 0.062254816
0002a0 2d 7f fd 3b d4 28 1e 3e 01 b9 ce bc 5c 97 2c be
       0.007736108 0.15445262 -0.025234701 -0.16854614
0002b0 0a 9a bd be da 1f e0 be 4c 2e 62 be e0 45 08 3e
       -0.37031585 -0.437743 -0.22087973 0.13307905
0002c0 2f ac 6e 3e 44 dd b1 3e 77 5a 80 3e 6e 81 6e bc
       0.2330787 0.34739125 0.2506902 -0.014557226
0002d0 06 59 96 be a8 28 dc bd 06 2a 68 3e 3a 61 c8 3d
       -0.29364794 -0.10749942 0.2267228 0.097841695
0002e0 bb d3 69 3e 3a 30 d5 be 63 64 99 3d cf 37 76 3e
       0.22834675 -0.41638356 0.0748985 0.24044727
0002f0 b8 e9 b4 3d 16 1e 7b 3e 2f 03 dd be c2 bb 0b 3d
       0.08833641 0.24523196 -0.4316649 0.034114607
000300 bc 6a e1 bd e4 92 69 3e 42 a5 7a 3e b5 7e b4 be
       -0.11006686 0.2280994 0.24477103 -0.3525292
000310 90 7b 01 be ad c2 87 3c 75 93 54 3e 10 24 df 3d
       -0.12644792 0.01657232 0.20759375 0.1089555

sequential/conv2d/BiasAdd/ReadVariableOp:0 f4 [8]
000000 87 af c3 3b be 5b f6 3d 6e 9c 03 3b e3 ac 2d bc
       0.005971852 0.12029217 0.0020082253 -0.010600301
000010 17 1b ed bc ce 4b d5 bc 2b fb df bb 7e f5 16 bc
       -0.028943582 -0.026037123 -0.0068353615 -0.009213803
