models/model15.onnx (onnx, 552694 bytes, 12 tensors)

sequential/dense_2/MatMul/ReadVariableOp:0 f4 [128, 26]
0	0x3e2116d9	0.15731372
1	0x3e618dcc	0.22026747
2	0xbcd02a5a	-0.02541082
3	0x3e499afe	0.19688031
4	0xbe9416e1	-0.28923705
5	0xbf212850	-0.62952137
6	0x3e34ae74	0.17644674
7	0x3da040cb	0.07824858
8	0xbeb7dcb6	-0.35910577
9	0xbd3be4bf	-0.045872446
10	0x3d5d7937	0.054070678
11	0x3e1505b6	0.1455296
12	0xbe1e517e	-0.15460774
13	0xbc38c046	-0.01127631
14	0x3de50b4e	0.11183797
15	0x3dea4b66	0.11440162
16	0xbddbec34	-0.107384115
17	0x3d994c03	0.07485201
18	0x3db7bd12	0.08971609
19	0xbd3a5d6d	-0.045499254
20	0x3d782696	0.060583673
21	0xbe8c7847	-0.27435514
22	0xbe94337e	-0.28945535
23	0xbe37ed10	-0.17961526
24	0xbe359b52	-0.17735031
25	0xbe9bfc89	-0.30466107
26	0x3e3a2189	0.18176855
27	0xbea24434	-0.3169266
28	0xbd60b46d	-0.054859567
29	0x3d2c716a	0.042100348
30	0xbe05e10f	-0.13074134
31	0xbef6af75	-0.48180738
32	0xbe542e10	-0.20720696
33	0x3ca3e12d	0.020004833
34	0x3e0e7bd0	0.13914418
35	0x3db7c2ea	0.08972724
36	0xbcffbe39	-0.031218635
37	0x3d907880	0.070542336
38	0xbd92f295	-0.07175175
39	0xbd6cf941	-0.057854895
40	0xbe2b8eeb	-0.16753738
41	0xbec41c3d	-0.38302794
42	0xbe77b9d7	-0.24191986
43	0xbe8d5749	-0.27605656
44	0xbd74695f	-0.059670802
45	0xbdfc150c	-0.12308702
46	0x3cbb4344	0.022859223
47	0xbe8405d9	-0.2578571
48	0xbe6e6ef5	-0.23284514
49	0x3e435e81	0.19079019
50	0xbdd47455	-0.10373751
51	0x3dc4713f	0.095919125
52	0x3cdad03c	0.026710622
53	0xbe7bf8ce	-0.2460663
54	0x3c370e68	0.011172868
55	0x3de69796	0.112593815
56	0xbe812478	-0.25223136
57	0x3da1d8ef	0.07902705
58	0xbe8df76a	-0.27727824
59	0xbe819202	-0.25306708
60	0xbedbcf2c	-0.42931497
61	0xbe02fad9	-0.12791003
62	0xbf653c91	-0.8954554
63	0xbe7fc2ab	-0.24976604
64	0xbe9e6320	-0.30935
65	0xbdc686cc	-0.09693679
66	0x3d4ec4f4	0.050480798
67	0x3e2df09b	0.16986315
68	0x3d87c6d2	0.06629719
69	0xbe2c003f	-0.16796969
70	0xbd61acb3	-0.05509634
71	0xbe8353e6	-0.25649947
72	0xbe289964	-0.16464764
73	0xbd5a0e03	-0.05323602
74	0xbd954b1c	-0.072897166
75	0xbf6157fe	-0.8802489
76	0xbe37b2a4	-0.1793924
77	0xbeadfc1a	-0.339814
78	0xbe6a1ef0	-0.22863364
79	0xbe92c750	-0.28667688
80	0xbe952a8e	-0.2913403
81	0xbdb62f5b	-0.08895751
82	0xbec7eaf3	-0.3904644
83	0xbf14c7a0	-0.58117104
84	0xbebccf00	-0.36876678
85	0xbe84d752	-0.25945526
86	0xbe82f420	-0.25576878
87	0xbcb99b44	-0.022657044
88	0xbf657ef1	-0.8964682
89	0xbd5bf6f0	-0.053702295
90	0xbf22654c	-0.63435817
91	0xbec2aac8	-0.3802092
92	0xbe8ce23b	-0.2751635
93	0xbde684c5	-0.112557925
94	0xbeb11aae	-0.34590667
95	0xbf09864f	-0.53720564
96	0xbdac8fa5	-0.084258355
97	0xbe66f1c0	-0.22553158
98	0xbd5d77b2	-0.05406923
99	0xbdedec65	-0.11617354
100	0xbe37d64e	-0.17952845
101	0xbe6070e9	-0.21918072
102	0x3d1d98ea	0.03847591
103	0xbeb5356b	-0.35392317
104	0xbe068392	-0.13136128
105	0xbe921def	-0.28538463
106	0xbe480ad7	-0.19535385
107	0xbf29d861	-0.66345793
108	0xbec3c13e	-0.3823337
109	0xbee2d71d	-0.44304743
110	0xbcb82630	-0.022479147
111	0x3c5e85ab	0.013581674
112	0xbe77ec79	-0.24211301
113	0xbeb01d49	-0.34397343
114	0xbe567d06	-0.2094613
115	0xbed2ac14	-0.4114691
116	0xbdba9d65	-0.09112052
117	0xbef8e73c	-0.48613918
118	0xbd4b06d1	-0.049567048
119	0xbf3bd442	-0.73370755
120	0xbee8bd07	-0.45456716
121	0xbee26e4d	-0.44224778
122	0xbdcfdab8	-0.10149139
123	0xbe946c39	-0.28988817
124	0xbdc22970	-0.0948056
125	0xbe99da46	-0.30049342
126	0xbd718f71	-0.058974687
127	0xbee75295	-0.45180193
128	0xbe74b0fd	-0.2389564
129	0xbedbd901	-0.42938998
130	0xbcaf2cbd	-0.021383638
131	0x3d4a07f9	0.04932401
132	0x3e04f189	0.12982763
133	0x3d7a24ee	0.061070375
134	0x3e556b25	0.20841654
135	0x3dc8b927	0.0980094
136	0x3d8f6462	0.070015684
137	0xbd17bcbe	-0.037045233
138	0xbeb35ad8	-0.35030246
139	0xbd8ce9a0	-0.06880498
140	0x3ca65892	0.020305905
141	0xbe2a60de	-0.16638514
142	0x3d55188c	0.052025363
143	0xbdd3b00e	-0.10336314
144	0x3d8210f1	0.063508876
145	0xbe7f4717	-0.24929462
146	0xbde03155	-0.10946909
147	0xbe1570a3	-0.14593749
148	0x3e632c97	0.22184978
149	0xbddadef1	-0.10687054
150	0xbcf67bc9	-0.030088322
151	0x3bd1bc76	0.00640064
152	0x3e03c8b9	0.12869538
153	0xbe0c2817	-0.13687168
154	0x3df64968	0.1202572
155	0xbebf370d	-0.37346688
156	0x3d05f0b6	0.032700263
157	0x3e1e5cf2	0.15465143
158	0xbe6f0ffc	-0.23345941
159	0xbdd0091b	-0.10157987
160	0xbe003ea6	-0.12523898
161	0x3e03d3b6	0.1287373
162	0xbe64600e	-0.22302267
163	0x3d0b01b3	0.033937167
164	0xbd6f218b	-0.0583816
165	0xbe5ab114	-0.21356612
166	0xbdc9baf7	-0.09850114
167	0x3ddcbe55	0.107784905
168	0xbd83273c	-0.06403968
169	0x3c52c61c	0.012864616
170	0xbd3b9f5c	-0.045806274
171	0x3dd53c93	0.10411944
172	0x3d6191d7	0.055070724
173	0xbdb8db00	-0.09026146
174	0x3ceb9632	0.028758142
175	0xbda171d0	-0.07883036
176	0xbd01757f	-0.031606194
177	0xbe36603e	-0.17810151
178	0xbcb9830a	-0.022645492
179	0xbe1b3f14	-0.15160781
180	0x3d81c85d	0.063370444
181	0x3df2b10c	0.11850175
182	0x3d118f1a	0.035536863
183	0xbdc709de	-0.09718679
184	0x3d14cfb3	0.03633089
185	0xbedd01f2	-0.43165547
186	0x3e256c04	0.16154486
187	0x3bd6664c	0.0065429565
188	0x3dc93e04	0.09826282
189	0x3da5e554	0.081003815
190	0x3e69ee0e	0.22844717
191	0x3d60f88e	0.05492454
192	0xbd02972e	-0.031882457
193	0xbe82f439	-0.25576952
194	0x3cea2e94	0.028586663
195	0xbe3cc047	-0.18432723
196	0xbe1d9375	-0.15388282
197	0xbce44650	-0.027865559
198	0x3c891fa1	0.016738715
199	0xbdb0f074	-0.08639613
200	0xbcbed3f0	-0.023294419
201	0x3d68bfdd	0.0568236
202	0xbe13b903	-0.14426045
203	0xbeeb03cd	-0.45901337
204	0xbe2d88a3	-0.16946654
205	0xbe90618c	-0.28199422
206	0xbe72174a	-0.23641697
207	0x3cd36dee	0.025809254
208	0xbe461002	-0.19342044
209	0xbdc59b2b	-0.096487366
210	0x3d127b89	0.035762344
211	0x3dcbeab4	0.099568754
212	0xbf5ead79	-0.8698345
213	0xbece45ac	-0.4028753
214	0xbe0178ec	-0.12643784
215	0xbd942d42	-0.07235195
216	0xbe2074fa	-0.15669623
217	0x3d1ef99d	0.03881227
218	0xbccb022a	-0.024781305
219	0xbd522546	-0.051305078
220	0xbe8d8849	-0.2764304
221	0x3e5bdff7	0.21472155
222	0xbe783056	-0.24237189
223	0x3da61215	0.081089176
224	0xbf1480a9	-0.5800882
225	0x3bed3198	0.007238578
226	0xbcb83fd5	-0.022491375
227	0xbe34cc13	-0.17655973
228	0x3d9db1b5	0.076999106
229	0x3dcc4192	0.09973444
230	0x3d7e8d9b	0.062146764
231	0x3ddb57f9	0.10710139
232	0x3dc02a4e	0.09383069
233	0xbe5101dc	-0.20410866
234	0xbe11a8f4	-0.14224607
235	0xbe56dc30	-0.20982432
236	0xbf1b64a4	-0.6070044
237	0xbd57e9bd	-0.052713145
238	0xbeae77df	-0.3407583
239	0xbebb3461	-0.365634
240	0xbd8826d4	-0.06648031
241	0x3e3faf0a	0.18719116
242	0xbeb577bb	-0.3544291
243	0xbe5b7d90	-0.21434617
244	0xbe149e71	-0.14513566
245	0xbef5fe9d	-0.48045817
246	0xbddbbb1f	-0.1072905
247	0x3e66c6ac	0.22536725
248	0xbef0207e	-0.4689979
249	0x3daf3226	0.08554487
250	0xbe50f69d	-0.20406576
251	0xbd06e3c0	-0.032932043
252	0xbd9a9627	-0.075481705
253	0xbe0e171f	-0.13876007
254	0xbd5aa9ca	-0.05338458
255	0xbdd8519f	-0.10562443

sequential/dense_2/BiasAdd/ReadVariableOp:0 f4 [26]
0	0x3e8f4268	0.2798035
1	0x3d41a704	0.04727842
2	0x3d33d126	0.04390063
3	0x3c9814a3	0.018564528
4	0x3d699b0b	0.057032626
5	0x3d926dbc	0.071498364
6	0xbe130b58	-0.14359796
7	0x3d6a2580	0.05716467
8	0xbc731664	-0.014836881
9	0x3b64d8cf	0.0034919267
10	0xbd6abc16	-0.05730828
11	0x3d803205	0.062595405
12	0xbe3a1804	-0.18173224
13	0x3d75bb06	0.059992813
14	0xbc7265e3	-0.0147947995
15	0x3db00554	0.08594766
16	0x3b799548	0.0038083363
17	0xbe173ae8	-0.14768565
18	0xbdd3a9ac	-0.10335097
19	0x3dd26731	0.102735884
20	0xbd54b27d	-0.051928032
21	0xbe58a02a	-0.21154848
22	0x3c80b3b9	0.015710698
23	0xbe09545d	-0.13411088
24	0x3e11dc1e	0.14244124
25	0xbe369f73	-0.17834263

sequential/dense_1/MatMul/ReadVariableOp:0 f4 [64, 128]
0	0x3d06d799	0.032920454
1	0xbdbdc9c2	-0.09266998
2	0x3bfb06c4	0.0076607186
3	0x3d3e52c3	0.046465646
4	0xbc7411e3	-0.014896843
5	0x3d8cb856	0.06871097
6	0xbc8b5679	-0.017009007
7	0x3e1f346e	0.15547344
8	0xbcf0a92c	-0.029377542
9	0xbe268f15	-0.16265519
10	0x3d985790	0.07438576
11	0x3e32cefc	0.17461771
12	0xbc042f93	-0.008067983
13	0xbb35e19d	-0.0027752884
14	0x3c22347a	0.009900207
15	0x3d78965e	0.060690276
16	0x3e5b73fe	0.21430966
17	0xbd0069c3	-0.031350862
18	0xbd2c975f	-0.042136546
19	0x396e9d30	0.00022756006
20	0x3d947357	0.07248562
21	0x3d8fabdc	0.070152014
22	0x3dd8ff11	0.10595525
23	0x3e0bd96b	0.13657157
24	0x3db804e3	0.08985307
25	0x3e8e4a01	0.27790835
26	0x3c17bf8f	0.00926198
27	0xbe227c17	-0.15867649
28	0x3e2e9e5c	0.17052597
29	0xbd841709	-0.06449706
30	0x3d798e4d	0.060926724
31	0x3e03c8ac	0.12869519
32	0xbe1f82cb	-0.15577237
33	0xbd48ad6a	-0.048993506
34	0x3d134967	0.035958674
35	0x3e2cc90d	0.1687357
36	0x3e7d9c21	0.2476659
37	0xbca197ba	-0.01972567
38	0x3e6cc4be	0.23121926
39	0xbde54c78	-0.11196226
40	0x3be8d5a8	0.007105548
41	0x3e0f3ff5	0.13989241
42	0x3decf89e	0.115708575
43	0xbe04d872	-0.12973192
44	0x3db0c7cd	0.08631859
45	0x3d54c4db	0.05194555
46	0xbc8032ed	-0.015649283
47	0x3d60e041	0.054901365
48	0x3e65c9ae	0.22440216
49	0x3c67b399	0.0141419405
50	0xbc064829	-0.008195915
51	0x3df1a8f5	0.11799804
52	0xbd092b34	-0.033488467
53	0x3e038854	0.12844974
54	0x3df07378	0.11740774
55	0xbdd6ae0a	-0.10482414
56	0xbd7e5341	-0.062091116
57	0x3e7edf87	0.24889956
58	0x3d484ea2	0.048903115
59	0x3dd60b92	0.104514256
60	0xbd34e959	-0.04416785
61	0x3e0862b4	0.13318902
62	0xbdfc5acc	-0.12322006
63	0xbe0e86c7	-0.13918601
64	0x3d0db0e4	0.034592524
65	0xbd4a4d23	-0.04938997
66	0xbe3ff246	-0.18744764
67	0x3da9fedc	0.08300564
68	0x3c809049	0.0156938
69	0xbd7f41b4	-0.06231852
70	0xbe5db4d1	-0.21651007
71	0xbdc8a832	-0.09797706
72	0x3cc68107	0.024231447
73	0x3d3226db	0.043494087
74	0x3d907e24	0.070553094
75	0x3db2bdc7	0.087276034
76	0x3d37de03	0.04488946
77	0xbe0e64ab	-0.1390559
78	0x3d2a79ad	0.041619945
79	0xbd0d149b	-0.03444348
80	0xbe2051ab	-0.15656154
81	0x3e771c0f	0.24131797
82	0xbe0f4912	-0.13992718
83	0x3d21fb4b	0.039546292
84	0xbd67d523	-0.056599747
85	0x3d8848a6	0.066544816
86	0x3e774da6	0.24150714
87	0xbda70649	-0.08155496
88	0xbc077f60	-0.008270115
89	0x3caccf9e	0.021095093
90	0x3ccbb43f	0.024866221
91	0xbdb01cbd	-0.085992314
92	0xbda6d74f	-0.081465356
93	0x3e18ca87	0.14921008
94	0xbdd52c80	-0.10408878
95	0xbd2c90e0	-0.04213035
96	0x3dca332e	0.09873043
97	0x3e455aa2	0.19272855
98	0x3d1cb9a0	0.038262963
99	0x3bc9e375	0.006161148
100	0x3d94615d	0.07245133
101	0x3e71a2f3	0.23597316
102	0x3d331e7d	0.043730248
103	0x3c52f80e	0.012876524
104	0x3ddf9c7f	0.10918521
105	0x3d2ab2e3	0.041674506
106	0xbd90b98a	-0.07066639
107	0x3c5f7cf9	0.013640636
108	0x3e756057	0.23962532
109	0x3e1e88d9	0.1548189
110	0x3c553bf2	0.01301478
111	0xbd0ec272	-0.034853406
112	0xbb2c384e	-0.0026278677
113	0x3daf2c6f	0.08553397
114	0x3dbab187	0.09115892
115	0x3d8433e2	0.06455208
116	0x3de71f22	0.11285235
117	0x3cfe8309	0.031068342
118	0x3c271e14	0.010200042
119	0x3e9ab2b1	0.30214456
120	0x3d82e2ce	0.06390916
121	0x3d7e71b4	0.062120155
122	0xbdf1af4b	-0.118010126
123	0x3de7d5a7	0.11320048
124	0x3e13ec24	0.14445549
125	0x3e7e556d	0.24837275
126	0xbd34c24b	-0.044130605
127	0x3e19cc8c	0.15019435
128	0x3d924cdf	0.07143568
129	0xbd4cddc3	-0.050016176
130	0xbd883028	-0.0664981
131	0xbe2e98a1	-0.17050411
132	0xbd2de54f	-0.042455014
133	0xbe037d51	-0.12840773
134	0x3e25d2dc	0.16193718
135	0xbdbf34b6	-0.09336226
136	0x3d86ae56	0.06576221
137	0xbd85f244	-0.06540349
138	0xbde5bc09	-0.112175055
139	0xbe320048	-0.1738292
140	0xbd8414c8	-0.06449276
141	0x3d8340ab	0.06408819
142	0x3d44e1fb	0.048067074
143	0x3e2484cb	0.16066281
144	0xbde2d539	-0.11075825
145	0x3e230850	0.1592114
146	0x3dac01dd	0.08398793
147	0x3d9a1de2	0.07525231
148	0x3d54017f	0.05175924
149	0x3d68661c	0.056738004
150	0xbde71655	-0.11283556
151	0x3d034e18	0.032056898
152	0x3cb11888	0.021618143
153	0x3c435bd3	0.011923748
154	0xbdddecb2	-0.10836162
155	0xbe4b0b36	-0.19828495
156	0x3e2591f6	0.16168961
157	0xbd7dc06b	-0.061951082
158	0x3e336336	0.17518315
159	0xbcc3d5c7	-0.023905648
160	0xbbd5e801	-0.006527901
161	0xbe18761b	-0.14888804
162	0xbdae7720	-0.08518815
163	0x3d85176f	0.0649861
164	0xbdcad7e8	-0.09904462
165	0xbbf74499	-0.0075460193
166	0x3df02864	0.11726454
167	0xbb93cd58	-0.004510563
168	0xbd48947f	-0.048969742
169	0xbe2f3b5f	-0.17112492
170	0xbd9fbe7c	-0.07800004
171	0x3c7b04cf	0.015320971
172	0x3d677ed3	0.056517433
173	0xbe00f4f9	-0.1259345
174	0x3dc5a678	0.09650892
175	0x3ddd1448	0.10794884
176	0xbd768de2	-0.060193904
177	0xbdf7c625	-0.1209834
178	0xbd5e62a3	-0.054293286
179	0xbd45fa61	-0.048334483
180	0xbdfbda66	-0.122975156
181	0xbe115af7	-0.14194857
182	0x3d6760f4	0.056488946
183	0xbc82345a	-0.015894104
184	0xbdd8a26e	-0.10577856
185	0xbe1ab022	-0.15106252
186	0xbd4b5358	-0.04964003
187	0xbe387b22	-0.18015721
188	0x3ba5f599	0.005064678
189	0x3de9f4e4	0.11423662
190	0xbe026a33	-0.12735824
191	0xbc346322	-0.011009963
192	0x3d9a3639	0.075298734
193	0xbd9b4498	-0.075814426
194	0x3cc3674a	0.023852963
195	0xbce1817b	-0.027527561
196	0xbe0d533a	-0.1380128
197	0x3d87498a	0.06605823
198	0x3d3dd19e	0.046342485
199	0xbe09106b	-0.13385169
200	0xbe088aec	-0.13334244
201	0xbdf12b61	-0.11775852
202	0x3d8bef7e	0.06832789
203	0xbd1366ff	-0.035986897
204	0xbdc68f8f	-0.096953504
205	0xbd8e6f49	-0.0695482
206	0xbd76235a	-0.060092308
207	0xbe1087c7	-0.14114295
208	0x3d8dcf4b	0.069243036
209	0xbdccc624	-0.0999873
210	0xbe02aa0c	-0.1276018
211	0x3dcbbfde	0.09948705
212	0xbdff62a5	-0.12469987
213	0xbd8bad24	-0.06820133
214	0x3c189687	0.009313232
215	0x3dd879d6	0.10570113
216	0xbcd7764a	-0.026301522
217	0xbe26d5ba	-0.16292468
218	0xbdbc1cb6	-0.09185164
219	0xbda57cca	-0.08080442
220	0x3e014fbc	0.12628073
221	0xbbfba058	-0.0076790266
222	0x3c8d3997	0.017239375
223	0xbc3698ad	-0.011144799
224	0x3d79aa4a	0.060953416
225	0xbcc8d4df	-0.024515567
226	0x3d16b95a	0.03679786
227	0x3e318447	0.17335616
228	0x3debfae7	0.11522465
229	0xbe16227e	-0.14661595
230	0x3e176850	0.14785886
231	0x3d389013	0.045059275
232	0xbe1ee6a2	-0.15517667
233	0xbbfca6a0	-0.007710293
234	0xbd6e8853	-0.058235478
235	0x3e14af08	0.14519894
236	0x3e3adba4	0.18247849
237	0x3d9393e7	0.072059445
238	0xbd2367dd	-0.039893974
239	0x3e45893b	0.1929063
240	0xbe008fe7	-0.12554894
241	0xbd479b1c	-0.04873191
242	0x3e1636f6	0.14669403
243	0xbe4a7c27	-0.19773923
244	0xbe4e591e	-0.20151183
245	0x3c015f62	0.007896276
246	0xbcc57145	-0.024101863
247	0xbcecd996	-0.028912347
248	0xbdfb7459	-0.12278051
249	0x3e207ba6	0.15672168
250	0xbcadd88a	-0.021221418
251	0xbd815853	-0.06315675
252	0x3b9c9356	0.004778306
253	0xbdc55a97	-0.09636419
254	0xbe13a0f8	-0.14416873
255	0xbd78b152	-0.06071598

sequential/dense_1/BiasAdd/ReadVariableOp:0 f4 [128]
0	0xbd82ba5c	-0.063832015
1	0xbd18aa2b	-0.03727166
2	0xbddeb7de	-0.10874914
3	0xbd94ac21	-0.072593935
4	0xbe3d6dfe	-0.1849899
5	0xbdd8b217	-0.10580843
6	0xbe593ae4	-0.21213871
7	0x3a90f7aa	0.0011060138
8	0xbd813bbd	-0.06310222
9	0x3cac4a58	0.021031544
10	0xbd595144	-0.053056017
11	0xbd01a6fb	-0.031653386
12	0x3dd6d71b	0.10490247
13	0xbe17f47e	-0.1483936
14	0x3e056c8d	0.1302969
15	0xbd112fb4	-0.035445884
16	0xbe60e41e	-0.2196202
17	0xbda249cf	-0.07924234
18	0xbdcbee25	-0.09957532
19	0xbe59a9eb	-0.21256225
20	0xbdaddba3	-0.08489158
21	0xbd81843b	-0.06324049
22	0xbc1f9f8f	-0.009742632
23	0xbe1e1860	-0.15438986
24	0x3d2a107c	0.041519627
25	0xbd9bc8f6	-0.0760669
26	0xbe2d250c	-0.16908664
27	0x3bcfcadf	0.006341323
28	0x3d51d41e	0.05122768
29	0xbcaf6082	-0.021408323
30	0xbd99cc7a	-0.07509704
31	0xbb2a091b	-0.0025945369
32	0xbdd36285	-0.103215255
33	0xbe4ec2d0	-0.20191503
34	0xbe0dbc66	-0.138414
35	0xbd87d914	-0.06633201
36	0xbd8a8d1a	-0.06765194
37	0x3d8fa803	0.070144676
38	0xbe31ca87	-0.17362414
39	0x3daf7c00	0.08568573
40	0x3dd93b05	0.1060696
41	0xbdab5834	-0.08366433
42	0xbe1f90d1	-0.15582587
43	0xbd47084a	-0.04859189
44	0xbe2f5ae3	-0.17124514
45	0x3cb4288d	0.021991992
46	0x3cb17bf9	0.02166556
47	0xbcf94524	-0.030428477
48	0x3da9fec3	0.08300545
49	0xbdddc1d1	-0.10827983
50	0xbd8572d5	-0.06516043
51	0xbdc32239	-0.09528012
52	0xbe304773	-0.17214756
53	0xbc27b9ad	-0.01023714
54	0xbe038626	-0.12844142
55	0xbdb4a369	-0.088202305
56	0x3b2d9801	0.0026488306
57	0x3c7bbf28	0.015365399
58	0xbdcc607e	-0.09979342
59	0xbe15ad8f	-0.14616989
60	0x3cf303a2	0.029664818
61	0xbaefdf94	-0.0018300884
62	0xbe353c59	-0.17698802
63	0xbe3a4d86	-0.18193635
64	0xbccc87a6	-0.024967026
65	0xbe82d636	-0.25554055
66	0xbe4c45e8	-0.19948542
67	0xbdbd1f6b	-0.09234508
68	0xbe0d326b	-0.13788764
69	0xbdf82cef	-0.121179454
70	0xbd1ec3f7	-0.038761105
71	0xbdd9d66e	-0.10636602
72	0xbdafccec	-0.085840076
73	0xbd7e0f78	-0.06202647
74	0xbd47c927	-0.04877582
75	0xbdc94966	-0.09828453
76	0xbe136728	-0.1439482
77	0xbe1f4143	-0.15552239
78	0xbd8cf1ef	-0.06882083
79	0xbe03ee50	-0.12883878
80	0xbdd09b4b	-0.1018587
81	0x3e18bf01	0.14916612
82	0x3c9d9588	0.019236341
83	0xbddadf50	-0.10687125
84	0xbdb1ecaa	-0.08687718
85	0xbe041941	-0.12900259
86	0xbe0c9636	-0.13729176
87	0xbe4462ea	-0.19178358
88	0xbe14536f	-0.14484952
89	0xbcf3cc30	-0.02976045
90	0xbe7d0a86	-0.24711046
91	0xbe2808b0	-0.16409564
92	0xbe1bfc19	-0.15232886
93	0x3c432430	0.011910483
94	0xbdc4668a	-0.0958987
95	0xbca1410c	-0.019684337
96	0xbd93a5fd	-0.07209394
97	0xbe0c08fa	-0.136753
98	0xbe25a4a4	-0.16176087
99	0xbcc4851d	-0.023989255
100	0xbcef974c	-0.029246949
101	0xbe214b6c	-0.15751427
102	0xbe0298f0	-0.12753654
103	0xbdbec74b	-0.09315356
104	0xbe2ebfe6	-0.17065391
105	0xbdc933d7	-0.09824341
106	0xbc03e369	-0.008049824
107	0x3d1d57a9	0.038413677
108	0xbddb4f04	-0.107084304
109	0x3cb30ec0	0.02185762
110	0xbc6382a8	-0.013886131
111	0xbe04d04f	-0.12970088
112	0xbdbd5f61	-0.09246708
113	0x3e010c59	0.12602367
114	0xbdbd5aa6	-0.092458054
115	0xbe1576b2	-0.1459606
116	0xbe1fe776	-0.15615639
117	0xbe14256b	-0.14467399
118	0xbe30e3dd	-0.17274423
119	0xbe4ae5c6	-0.19814214
120	0xbdcb4e74	-0.09927073
121	0xbe1923ea	-0.14955106
122	0xbd1e20ec	-0.038605615
123	0xbda0cb63	-0.07851293
124	0xbdbfc417	-0.09363573
125	0xbcc0065f	-0.023440538
126	0xbe02c039	-0.1276864
127	0xbda6aaee	-0.08138071

sequential/dense/MatMul/ReadVariableOp:0 f4 [512, 64]
0	0x3e16f3c2	0.14741424
1	0x3dadfae4	0.08495119
2	0x3d6c9119	0.057755563
3	0x3e2a4097	0.16626202
4	0xbc9acb73	-0.01889584
5	0x3c83fc50	0.016111523
6	0xbd94f310	-0.07272923
7	0x3bfff2f4	0.0078109447
8	0x3e323770	0.1740396
9	0x3e9a7811	0.30169728
10	0x3d8cf8bf	0.06883382
11	0xbd10c45b	-0.03534351
12	0xbc506d1c	-0.012721326
13	0xbd620b0b	-0.055186313
14	0x3dcebed8	0.10094994
15	0x3d8a0002	0.06738283
16	0xbdd4abbb	-0.103843175
17	0x3da9dea0	0.082944155
18	0x3df6594b	0.1202875
19	0x3e37010d	0.17871495
20	0x3dbd42fd	0.092412926
21	0x3ddd0707	0.10792356
22	0xbdb063fc	-0.086128205
23	0x3e23d193	0.15997915
24	0x3ca35ec4	0.019942649
25	0x3e1eeac8	0.1551925
26	0x3c8bb1f2	0.017052624
27	0x3d2a008d	0.04150443
28	0x3c1cedb8	0.009578161
29	0xbc5c51f0	-0.01344727
30	0xbdc752db	-0.097326
31	0x3d50456b	0.050847452
32	0xbd331702	-0.043723114
33	0xbe087711	-0.1332667
34	0x3c1f676b	0.009729247
35	0xbd19fd39	-0.037595008
36	0x3c4e6496	0.012597224
37	0xbd410093	-0.04711969
38	0xbd94648f	-0.072457425
39	0x3dac694c	0.08418521
40	0x3b7969ab	0.0038057368
41	0x3de8baba	0.1136374
42	0xbe41be23	-0.18920188
43	0x3daeb916	0.08531396
44	0xbe155a81	-0.14585306
45	0xbe8b5037	-0.27209637
46	0xbbd2dabe	-0.0064347675
47	0xbd926b31	-0.071493514
48	0xbda702d1	-0.08154834
49	0x3d9f812d	0.0778831
50	0xbdb5336a	-0.08847697
51	0xbd2ab894	-0.041679934
52	0xbda7866c	-0.08179936
53	0xbdc0372d	-0.09385524
54	0xbe3e43dd	-0.18580575
55	0x3e33ded5	0.17565472
56	0xbe15f507	-0.14644252
57	0x3d4892f7	0.04896828
58	0xbe2320bf	-0.1593046
59	0xbd7a812e	-0.06115835
60	0x3b99866e	0.0046852147
61	0x3d883ac7	0.06651836
62	0xbd81d76f	-0.06339919
63	0x3cb7082a	0.02234276
64	0xbdc7df35	-0.0975937
65	0x3c31f475	0.010861506
66	0xbd9ecd0f	-0.077539556
67	0xbda170f7	-0.078828745
68	0x3db4da08	0.08830649
69	0xbddf3d1e	-0.10900329
70	0xbe107bcc	-0.14109725
71	0xbdb041c6	-0.08606295
72	0xbde1409c	-0.109986514
73	0xbe86e70e	-0.26348156
74	0xbdfd3e88	-0.123654425
75	0xbd2671fb	-0.040636044
76	0x3d62f861	0.055412654
77	0x3debdb6d	0.115164615
78	0xbdd2e0b4	-0.10296765
79	0xbe05cba3	-0.13065962
80	0x3e00fbc8	0.12596047
81	0xbd3e2594	-0.046422556
82	0x3cbc7946	0.023007046
83	0x3e460a16	0.19339785
84	0xbddbcdf3	-0.10732641
85	0x3d9d83b7	0.07691138
86	0xbe69c272	-0.22828081
87	0x3a86cad4	0.0010283836
88	0xbe0d2cf6	-0.13786682
89	0x3e34e642	0.17665961
90	0xbd2cca83	-0.042185318
91	0xbd6a6616	-0.057226263
92	0x3cb72639	0.022357093
93	0x3d57e111	0.052704874
94	0xbe7230fd	-0.236515
95	0xbdc3bbab	-0.09557279
96	0xbd9b5245	-0.07584051
97	0x3db75c0c	0.089531034
98	0xbc5d84aa	-0.013520399
99	0xbe37c0c3	-0.17944627
100	0x3df49a22	0.11943461
101	0xbd05a2c6	-0.032625936
102	0x3e09e790	0.1346724
103	0xbe8e2cb6	-0.27768487
104	0x3e86ddc7	0.26341078
105	0xbc8e8118	-0.017395541
106	0x3e3fc93b	0.18729107
107	0xbe88df38	-0.26732802
108	0x3d18f74e	0.037345223
109	0x3cac92de	0.021066125
110	0x3bff74a1	0.0077958857
111	0xbbb856bf	-0.0056255753
112	0x3e8a2d8d	0.26987877
113	0x3d611944	0.054955736
114	0x3e0705de	0.13185832
115	0x3d1f3e3a	0.038877703
116	0xbd00e4a5	-0.031468052
117	0x3def9e80	0.11700153
118	0x3cb1093e	0.021610852
119	0x3e632236	0.22181019
120	0x3dea23dc	0.11432621
121	0xbc327585	-0.010892277
122	0x3d8b3768	0.06797677
123	0xbd2a0735	-0.04151078
124	0xbd19ce32	-0.03755016
125	0xbdcd1c0a	-0.10015114
126	0xbe7bdbc3	-0.24595551
127	0x3e1dcc72	0.15410021
128	0xbdb1710e	-0.086641416
129	0xbda26f4b	-0.07931384
130	0xbd3e474b	-0.04645471
131	0x3e559dfd	0.20861049
132	0x3df0260e	0.11726008
133	0x3ced5e11	0.028975518
134	0xbe2fafd4	-0.17156917
135	0xbdd9ac22	-0.10628535
136	0xbe73e4b6	-0.23817715
137	0x3bd79299	0.006578755
138	0xbd2e346e	-0.04253047
139	0x3dfde13d	0.123964764
140	0xbe0e4d6a	-0.13896719
141	0x3d4a3c26	0.04937377
142	0xbcf37e03	-0.029723173
143	0x3d1dcc3b	0.038524847
144	0xbcace028	-0.02110298
145	0x3dd357be	0.1031947
146	0x3e3f8fa4	0.18707138
147	0xbd8df42b	-0.06931337
148	0x3d9b79d3	0.075915955
149	0xbc4c808a	-0.012481818
150	0xbe2d70aa	-0.16937509
151	0xbd36d5be	-0.044637434
152	0xbda3fa6c	-0.080067486
153	0xbe16fa1c	-0.14743847
154	0x3c975e69	0.018477635
155	0x3dce07e4	0.10060099
156	0xbde21948	-0.11039978
157	0xbe09c467	-0.13453828
158	0x3d553346	0.05205085
159	0x3d743a15	0.059625704
160	0xbdf485b1	-0.11939562
161	0xbcf91c5b	-0.030409029
162	0xbdb6429d	-0.08899424
163	0x3dbcc1fb	0.09216686
164	0xbcf46c09	-0.029836671
165	0xbc8ca9cc	-0.01717081
166	0x3d584963	0.052804362
167	0xbe89b7f8	-0.2689817
168	0x3d0e33a6	0.034717225
169	0xbe12cb69	-0.14335407
170	0xbd4717ad	-0.048606563
171	0x3d0811eb	0.033220213
172	0xbbe9b87c	-0.007132588
173	0x3d50a3c9	0.050937448
174	0x3da6c979	0.081438966
175	0xbe035bc4	-0.12827975
176	0xbd7fd195	-0.062455732
177	0x3d88442d	0.066536285
178	0xbe00cdf1	-0.1257856
179	0xbe0b6d97	-0.13616024
180	0xbde3a74f	-0.11115896
181	0xbda11d6a	-0.078669384
182	0x3dc9dba7	0.098563485
183	0xbceb8811	-0.028751405
184	0x3dd47133	0.103731535
185	0xbda8465b	-0.08216544
186	0x3e5ba9a7	0.21451436
187	0xbcc824dd	-0.02443164
188	0xbbd3ae57	-0.006459992
189	0xbcecf387	-0.028924717
190	0x3da57c2f	0.08080327
191	0x3e120632	0.14260176
192	0x3c979b99	0.018506812
193	0xbdb8ea61	-0.09029079
194	0xbd998b1f	-0.07497238
195	0x3ea213b6	0.31655663
196	0x3d81c856	0.06337039
197	0x3e1f0ea2	0.15532926
198	0xbdfc2ec3	-0.123136066
199	0x3d962be7	0.073325925
200	0xbca1ac60	-0.019735515
201	0x3e08e142	0.13367179
202	0x3d814e7b	0.06313797
203	0x3dae0d1f	0.084985964
204	0x3d8372b1	0.0641836
205	0x3dc51de8	0.09624845
206	0x3dc7d9d3	0.097583435
207	0xbcc9a2f4	-0.024613835
208	0xbe59ece8	-0.21281779
209	0x3dcd9561	0.100382574
210	0x3e04252a	0.12904802
211	0xbc7ecb17	-0.01555135
212	0x3de1e4f4	0.110299975
213	0x3eb57abe	0.35445207
214	0xbd200e7e	-0.03907632
215	0xbe66399f	-0.22482918
216	0x3d3dfecb	0.046385568
217	0x3d200d98	0.039075464
218	0xbd0c9175	-0.034318406
219	0x3d06266d	0.03275149
220	0x3bf0c3d4	0.0073475633
221	0xbd869906	-0.06572156
222	0x3dbca7f5	0.09211723
223	0x3d4e5a73	0.050379228
224	0x3d37dd2c	0.04488866
225	0x3e14b84e	0.14523432
226	0x3d3122f4	0.043246225
227	0xbd0502e2	-0.032473452
228	0xbea02463	-0.3127776
229	0x3b56d54b	0.003278094
230	0xbddca80f	-0.10774242
231	0x3e4415f7	0.19149004
232	0xbe8b0f0d	-0.2715992
233	0x3e95ac92	0.29233223
234	0xbd4a19fa	-0.04934118
235	0x3cd7af77	0.026328785
236	0x3cc30a63	0.023808664
237	0x3e91566b	0.28386244
238	0xbcfad189	-0.030617492
239	0xbe814511	-0.25248006
240	0xbd5e1a7b	-0.054224472
241	0xbde11cc7	-0.10991817
242	0x3d88a795	0.06672589
243	0x3dbb8ee7	0.09158116
244	0x3d73e050	0.059540093
245	0xbca8171a	-0.020518828
246	0x3d5541ba	0.052064635
247	0x3c753ba2	0.014967831
248	0xbdf11637	-0.11771815
249	0x3d3c22bd	0.045931567
250	0xbc757ab5	-0.014982869
251	0xbe88341a	-0.2660225
252	0x3a97ea4e	0.0011590214
253	0xbcdee9ee	-0.027211156
254	0x3e2493c2	0.1607199
255	0xbca73c2d	-0.020414436

sequential/dense/BiasAdd/ReadVariableOp:0 f4 [64]
0	0xbe66a441	-0.22523595
1	0xbd8addd8	-0.067805946
2	0xbd9d4742	-0.07679607
3	0x3d33dcde	0.043911807
4	0x3e12076d	0.14260645
5	0xbe1a3641	-0.15059759
6	0xbd937589	-0.072001524
7	0xbdedbd42	-0.11608364
8	0xbd40bdce	-0.04705601
9	0x3def726f	0.11691748
10	0xbe035b95	-0.12827905
11	0xbe4a3375	-0.19746192
12	0xbdeb4494	-0.114876896
13	0xbd91ab66	-0.0711277
14	0xbd5f9257	-0.05458292
15	0xbd79c820	-0.06098187
16	0xbd9b67a5	-0.07588128
17	0xbe40a9ac	-0.18814725
18	0x3dec473c	0.115370244
19	0xbd32af56	-0.043624245
20	0x3d6696d8	0.0562962
21	0xbc93cf62	-0.018043224
22	0xbd886e0c	-0.06661615
23	0xbe100ea4	-0.14068085
24	0xbde5533b	-0.111975156
25	0xbda76ef1	-0.08175457
26	0xbd74ee6c	-0.05979769
27	0x3da9afd9	0.082854934
28	0xbd6d1042	-0.057876833
29	0xbd5443da	-0.05182252
30	0xbe22125f	-0.1582732
31	0xbcff7808	-0.031185165
32	0xbd705608	-0.058675796
33	0x3d5d4461	0.05402029
34	0xbd8f32b8	-0.06992096
35	0xbccd5c69	-0.025068479
36	0xbd482a8c	-0.0488687
37	0xbd9fb387	-0.07797914
38	0x3d99ae5f	0.07503962
39	0xbd8f66a8	-0.07002002
40	0x3ccedc09	0.025251405
41	0x3e0dd165	0.13849409
42	0xbdbdd970	-0.092699885
43	0xbe7225d5	-0.23647244
44	0xbe2790f2	-0.16363886
45	0x3d30b318	0.043139547
46	0xbe36cbd5	-0.17851193
47	0xbde6416b	-0.11242946
48	0x3d1c44ce	0.038151555
49	0xbd97ef3d	-0.07418678
50	0xbe551d38	-0.20811927
51	0xbe34befb	-0.17650978
52	0xbd7e9c3f	-0.062160727
53	0xbd834efb	-0.06411549
54	0x3d47c95d	0.04877602
55	0xbe252b20	-0.16129732
56	0xbdfea8b4	-0.12434521
57	0xbda0b81f	-0.07847618
58	0xbd894b88	-0.067038596
59	0x3d221d19	0.03957853
60	0xbd8bfae4	-0.06834963
61	0xbdc36a1f	-0.09541725
62	0xbc8a6505	-0.016893873
63	0xbd32b91f	-0.043633576

sequential/conv2d_2/Conv2D/ReadVariableOp:0 f4 [128, 64, 3, 3]
0	0xbe0c9318	-0.13727987
1	0x3e209494	0.15681678
2	0xbe138cd5	-0.14409192
3	0x3ca91103	0.020637995
4	0xbaa77f7a	-0.001277908
5	0x3d5a5acb	0.053309243
6	0x3c194397	0.009354494
7	0xbe133345	-0.14375027
8	0xbddc2afe	-0.107503876
9	0x3e334131	0.17505337
10	0x3dc16b24	0.094442636
11	0x3db0e68a	0.08637722
12	0x3d9e7501	0.077371605
13	0xbd972060	-0.07379222
14	0xbe1df661	-0.15426017
15	0x3d3823a3	0.04495586
16	0x3e0e9292	0.139231
17	0x3e4e0712	0.20119885
18	0x3d922d18	0.07137507
19	0x3e4dcd24	0.20097786
20	0x3e3fbde5	0.18724783
21	0xbe0df2ca	-0.13862148
22	0xbe13bd7a	-0.14427748
23	0x3dc18f19	0.09451122
24	0x3dd74550	0.10511267
25	0xbd18a228	-0.03726402
26	0xbc30aba6	-0.010783112
27	0xbe63e1b8	-0.22254074
28	0xbc2e8427	-0.010651625
29	0x3d79cabf	0.06098437
30	0x3dde2321	0.10846544
31	0xbd927fbc	-0.0715327
32	0x3c0de484	0.008660439
33	0xbe0877fb	-0.13327019
34	0xbe03ef07	-0.1288415
35	0xbe04f4ec	-0.12984055
36	0x3e366d59	0.1781515
37	0x3a571802	0.00082051766
38	0x3dae5bcb	0.08513602
39	0x3bbeb67b	0.005820093
40	0xbe48cf12	-0.19610241
41	0xbd63cba8	-0.055614144
42	0xbda56d72	-0.08077516
43	0x3e1d68a9	0.15371956
44	0xbe07ef61	-0.1327491
45	0x3e0ade8e	0.1356146
46	0xbe145f73	-0.14489536
47	0xbde0840d	-0.10962687
48	0xbda0a04f	-0.078430764
49	0xbe281f77	-0.16418253
50	0xbddf5e30	-0.10906637
51	0xbe5391be	-0.20661065
52	0xbe32808f	-0.17431854
53	0x3d0ae5cd	0.03391056
54	0xbdc9516c	-0.09829983
55	0xbd8266c0	-0.06367254
56	0xbe49d32e	-0.19709465
57	0xbe3446be	-0.17605111
58	0xbe338bed	-0.17533846
59	0xbc0f3bef	-0.008742317
60	0x3c9536e0	0.018214643
61	0x3d72c5c2	0.059270628
62	0x3dd6461d	0.10462592
63	0xbd3e7cf4	-0.046505883
64	0x3d4333d8	0.047656864
65	0xbe2dc53d	-0.16969772
66	0x3d9a8ecc	0.075467676
67	0xbd433006	-0.04765322
68	0x3d837bd1	0.064201005
69	0x3be45e44	0.006969245
70	0x3c873604	0.016505249
71	0xbd91cb68	-0.07118875
72	0x3da57ed2	0.0808083
73	0xbcdcfbf7	-0.026975615
74	0xbd5dbaab	-0.0541331
75	0xbe2e3ec3	-0.17016129
76	0x3c170ec9	0.009219834
77	0x3d7daf42	0.061934717
78	0xbcade92c	-0.02122935
79	0xbee5dedc	-0.4489659
80	0x3dc1e07e	0.094666466
81	0x3c2e69a5	0.010645305
82	0xbda67a3c	-0.08128783
83	0xbdf19ce5	-0.117975034
84	0x3e089603	0.13338475
85	0x3d913c4d	0.070915796
86	0x3d2c6919	0.042092416
87	0xbe262fb9	-0.16229142
88	0x3c652d02	0.0139877815
89	0xbc26f1c4	-0.010189477
90	0x3e08f6fe	0.1337547
91	0xbd4b83a5	-0.049686093
92	0x3e171a62	0.14756158
93	0xbd63ff79	-0.05566356
94	0xbc8c7b92	-0.017148767
95	0x3d5ba280	0.05362177
96	0xbe2b79ac	-0.16745633
97	0x3de2b3e7	0.1106947
98	0xbdd60080	-0.10449314
99	0x3d1d411d	0.038392175
100	0x3dd40a73	0.103535555
101	0xbe505cdc	-0.20347923
102	0x3de8e92e	0.113726005
103	0x3d2fa44c	0.042881295
104	0xbd41f986	-0.047357105
105	0x3e1c0701	0.15237047
106	0xbe5b5be0	-0.21421766
107	0x3d8fa9c9	0.07014806
108	0xbcf0ffb8	-0.029418811
109	0xbd13a644	-0.036047235
110	0x3a0fc4a4	0.0005484319
111	0xbe765425	-0.24055536
112	0xbd87aa8a	-0.066243246
113	0xbdd0a50f	-0.101877324
114	0x3d84c004	0.064819366
115	0xbe85d2e2	-0.26137453
116	0x3e3108ee	0.17288563
117	0xbcb8a4e0	-0.022539556
118	0xbcf5599d	-0.029949958
119	0xbd947db7	-0.07250541
120	0x3dbcc526	0.092172906
121	0x3ca431f4	0.02004335
122	0xbe2463e8	-0.16053736
123	0xbcbdf3c8	-0.023187533
124	0xbdf9c7ef	-0.121963374
125	0xbdfa4832	-0.122208014
126	0xbb94c2f0	-0.00453984
127	0x3d5d144b	0.05397443
128	0xbd17fe99	-0.037108038
129	0x3bc758ae	0.0060835695
130	0xbd0b9af7	-0.034083333
131	0x3d83cc7e	0.06435488
132	0x3d93210e	0.07184039
133	0x3cf3f6ba	0.029780734
134	0x3df6eea5	0.120572366
135	0x3a93eb6e	0.0011285373
136	0xbccf6661	-0.025317373
137	0x3d2fa218	0.042879194
138	0xbd17158c	-0.036885783
139	0xbc3bc886	-0.011461383
140	0x3d22ff09	0.039794
141	0x3cd56182	0.026047472
142	0xbd88b6ef	-0.06675517
143	0x3cce075b	0.025149992
144	0xbd13e35a	-0.03610549
145	0x3d5f9da1	0.054593686
146	0xbdd69d9e	-0.10479282
147	0xbdb1cd53	-0.086817406
148	0xbe2631fe	-0.16230008
149	0xbdfa240a	-0.12213905
150	0xbdb497ed	-0.0881804
151	0x3c2c33db	0.01051041
152	0xbe2e6ba9	-0.17033257
153	0xbc1c07e0	-0.009523362
154	0xbe094820	-0.1340642
155	0xbbcc2d62	-0.006230996
156	0xbdee9062	-0.116486326
157	0xbd3ba2e3	-0.045809638
158	0xbec7c63c	-0.39018428
159	0xbc8dbc9d	-0.017301852
160	0x3d98d9d7	0.07463425
161	0xbeefcaaf	-0.46834323
162	0x3d3319ea	0.043725885
163	0x3d8a4bc1	0.0675273
164	0x3e0a2661	0.13491203
165	0x3e06e0f5	0.13171752
166	0x3dc520c1	0.09625388
167	0xbb15f753	-0.0022883012
168	0xbc0ca815	-0.008584996
169	0x3d7f9df4	0.062406495
170	0xbdd0345e	-0.10166238
171	0xbd9fa3ca	-0.07794912
172	0xbdc87dcb	-0.09789618
173	0xbd8bc2c6	-0.068242595
174	0x3e2d8df1	0.16948678
175	0x3debcaa3	0.11513259
176	0x3e49d88a	0.1971151
177	0x3e21ccdc	0.15800804
178	0x3c7465ca	0.0149168465
179	0x3dff9650	0.12479842
180	0xbd52f6b0	-0.05150479
181	0x3de350d4	0.11099401
182	0x3c02a035	0.007972767
183	0x3d7510e5	0.059830565
184	0x3c9b7233	0.018975353
185	0xbd127cdb	-0.035763603
186	0x3da186d1	0.07887042
187	0x3c17806b	0.009246926
188	0xbd222eb2	-0.039595313
189	0x3d0276f4	0.031851724
190	0xbdc132f1	-0.094335444
191	0xbd0d16dc	-0.03444563
192	0x3cc59d3f	0.024122832
193	0xbe4ba33f	-0.19886492
194	0xbe4a034d	-0.19727822
195	0xbd73fcde	-0.059567325
196	0xbe96427e	-0.29347605
197	0xbed2f9d0	-0.41206217
198	0x3d52a78e	0.051429324
199	0x3c67c248	0.014145441
200	0x3d093349	0.033496175
201	0x3df3c104	0.11902049
202	0x3d46cb29	0.048533592
203	0x3e3adbd2	0.18247917
204	0x3a88282b	0.0010387948
205	0x3d1a3b21	0.037654046
206	0x3c8273d3	0.01592437
207	0xbd5afffb	-0.05346678
208	0x3da79903	0.081834815
209	0x3ce4b8f2	0.02792022
210	0x3e0d1e82	0.13781169
211	0x3da9aba4	0.08284691
212	0x3c418bcc	0.011813115
213	0x3d94b40b	0.07260903
214	0x3cead0fe	0.028664108
215	0xbd98d8e6	-0.07463245
216	0x3d0e98b6	0.034813605
217	0x3d8ce780	0.068800926
218	0x3df90851	0.12159789
219	0x3d0ca6d7	0.0343388
220	0xbe194209	-0.14966597
221	0xbdea68f1	-0.11445797
222	0x3de53245	0.11191229
223	0x3df084ca	0.117440775
224	0x3d93dbfd	0.07219694
225	0xbe879ec1	-0.26488307
226	0xbe026cef	-0.12736867
227	0xbe22a598	-0.15883482
228	0xbdca3ccd	-0.09874878
229	0xbe2a737f	-0.16645621
230	0xbdbcec1d	-0.092247225
231	0x3d138e15	0.03602417
232	0xbcf46c8c	-0.029836915
233	0xbe32a754	-0.17446643
234	0xbe37dbeb	-0.17954986
235	0x3c927ee5	0.017882774
236	0xbe30039f	-0.17188881
237	0xbb438ff7	-0.0029840448
238	0xbe11cb9d	-0.14237829
239	0xbd9f9905	-0.07792858
240	0xbd9f92d0	-0.07791674
241	0xbd30cbbe	-0.043163054
242	0x3e29a379	0.16566266
243	0x3d1984ab	0.037480038
244	0x3d84d8b0	0.06486642
245	0xbd3f0be0	-0.046642184
246	0x3c154506	0.009110695
247	0xbdcae55f	-0.0990703
248	0xbd53ddcb	-0.05172519
249	0x3d43f92f	0.047845062
250	0xbcb85048	-0.022499219
251	0x3d35360a	0.04424099
252	0x3ca0d819	0.019634293
253	0xbe6ea1ec	-0.23303956
254	0xbe256446	-0.16151533
255	0x3db4a921	0.08821321

sequential/conv2d_2/BiasAdd/ReadVariableOp:0 f4 [128]
0	0xbcaf00b9	-0.02136265
1	0xbde4f312	-0.111791745
2	0xbe03e500	-0.12880325
3	0xbc241850	-0.010015562
4	0xbe6f8a36	-0.23392567
5	0xbe579b81	-0.21055414
6	0x3c5eef13	0.013606804
7	0xbdc9b125	-0.09848241
8	0xbdce6d7a	-0.10079475
9	0x3e1caf76	0.15301308
10	0x3e372525	0.17885263
11	0xbdbb15e1	-0.091350324
12	0xbd9af5a8	-0.075663865
13	0xbdea2163	-0.11432149
14	0xbdb32148	-0.08746582
15	0xbdd36f0b	-0.10323914
16	0xbc9fda79	-0.019513356
17	0xbdd2d430	-0.10294378
18	0xbdf9c818	-0.12196368
19	0xbe477399	-0.19477691
20	0xbe1f6a1c	-0.15567821
21	0xbdeec035	-0.11657754
22	0xbdf6e60a	-0.12055595
23	0x3c84ca19	0.016209649
24	0xbd860562	-0.065439954
25	0xbe143d56	-0.14476523
26	0xbe10e986	-0.14151582
27	0xbd55d2d4	-0.052203014
28	0xbc24f846	-0.010068959
29	0xbdaca020	-0.08428979
30	0x3d27a358	0.04092726
31	0xbdad0a91	-0.08449281
32	0xbd84d019	-0.06485004
33	0x3e89d58a	0.2692073
34	0x3c3ee8fe	0.011652229
35	0xbdc335fa	-0.095317796
36	0xbe01b51b	-0.12666743
37	0xbdad7de8	-0.0847128
38	0xbd952279	-0.07281966
39	0xbd7b8f26	-0.061415814
40	0xbc717f35	-0.014739801
41	0xbd946e4d	-0.07247601
42	0xbe060c7f	-0.13090704
43	0xbdda84d7	-0.106698684
44	0xbde4205a	-0.11138983
45	0xbe21b6b8	-0.15792358
46	0xbd013ff0	-0.031555116
47	0xbd8b4c67	-0.06801682
48	0x3ca182ae	0.019715633
49	0xbdd3c99b	-0.103411876
50	0xbc59aaf0	-0.013285384
51	0x3cece74a	0.028918881
52	0xbdb0d880	-0.08635044
53	0xbda47bbe	-0.080314144
54	0xbe7738a9	-0.24142708
55	0x3e46be84	0.19408613
56	0xbd740530	-0.05957526
57	0xbd9c8fce	-0.07644616
58	0xbe032475	-0.12806876
59	0xbdff1883	-0.12455847
60	0xbe24c111	-0.16089274
61	0x3d502345	0.050814886
62	0x3c09166c	0.008367162
63	0x3ea69a32	0.32539517
64	0xbe021cd7	-0.12706314
65	0xbe104b9e	-0.14091346
66	0x3b349416	0.0027554086
67	0xbe46b5e2	-0.1940532
68	0xbb72744c	-0.0036995588
69	0xbca267bd	-0.019824857
70	0xbc9cd440	-0.019144177
71	0xbe824533	-0.2544342
72	0xbdaf3fd9	-0.085571
73	0xbd59be14	-0.05315979
74	0xbdc7431e	-0.097295985
75	0xbd298b68	-0.041392714
76	0xbdf2e350	-0.11859763
77	0xbde7b26b	-0.113133274
78	0xbd91324e	-0.07089673
79	0xbdb1e049	-0.08685357
80	0xbe051fb3	-0.13000374
81	0x3c2a6eb5	0.010402371
82	0x3ce62e51	0.028098257
83	0x3d416dd1	0.04722387
84	0xbd13f228	-0.03611961
85	0xbd84cda2	-0.06484534
86	0xbcebb9e0	-0.028775156
87	0xbca310c2	-0.019905452
88	0x3e3a1ed4	0.18175822
89	0x3b8c281c	0.0042772423
90	0xbd3f8438	-0.046756953
91	0xbdf076b4	-0.11741391
92	0xbd649a13	-0.055811
93	0xbca1ff3e	-0.01977503
94	0x3e36c80d	0.17849751
95	0xbde8ee7b	-0.113736115
96	0xbe1ce748	-0.15322602
97	0xbe1b3daf	-0.15160249
98	0x3ce4eed3	0.027945912
99	0xbd9356c4	-0.071942836
100	0xbdb9b69d	-0.09068034
101	0x3d842216	0.06451814
102	0xbd328fde	-0.043594234
103	0x3dbddc23	0.09270503
104	0xbd2648b1	-0.040596668
105	0xbde5c067	-0.112183385
106	0xbe561d07	-0.2090951
107	0x3d860a97	0.065449886
108	0x3e303c67	0.17210542
109	0xbd9d9b9d	-0.076956965
110	0xbe172c77	-0.14763056
111	0xbdf6cce8	-0.120508015
112	0xba36a496	-0.0006967274
113	0xbe0ef87e	-0.1396198
114	0xbda746ef	-0.081678264
115	0x3ce7af23	0.028281754
116	0xbe335828	-0.17514098
117	0xbe3bd56f	-0.18343137
118	0x3bcdb1e7	0.006277311
119	0xbde2c3c9	-0.11072499
120	0xbd9766cd	-0.073926546
121	0xbd7a6a8c	-0.061136767
122	0xbd161f3a	-0.036650874
123	0xbe13632a	-0.14393297
124	0xbc7cde4f	-0.015433862
125	0xbdd63c98	-0.10460776
126	0xbe40547a	-0.18782225
127	0x3bb9e154	0.005672613

sequential/conv2d_1/Conv2D/ReadVariableOp:0 f4 [64, 32, 3, 3]
0	0xbd9e859c	-0.07740328
1	0xbd66783a	-0.056267
2	0xbe002b8c	-0.12516612
3	0x3d428571	0.04749054
4	0xbb1f4037	-0.002429975
5	0xbd825089	-0.06363017
6	0xbd70255c	-0.05862938
7	0xbc8772ca	-0.016534228
8	0xbe0b9602	-0.13631442
9	0xbe220e63	-0.158258
10	0xbc9fc75e	-0.019504245
11	0x3cd67dee	0.026183095
12	0xbd7f2d01	-0.06229878
13	0xbe192e6c	-0.14959115
14	0x3c964a47	0.018345965
15	0x3d034d57	0.03205618
16	0xbd6781f4	-0.056520417
17	0x3d8726f6	0.06599228
18	0xbe0f26b7	-0.13979612
19	0xbe3eac09	-0.18620314
20	0xbc0189df	-0.007906406
21	0xbd5a5a7b	-0.053308945
22	0xbe2f69f8	-0.17130268
23	0xbe06a572	-0.1314905
24	0xbe31d6ca	-0.17367092
25	0xbd39833c	-0.04529117
26	0xbc3124bb	-0.01081198
27	0x3cf69a4f	0.030102877
28	0x3d416b22	0.04722131
29	0xbd115519	-0.035481546
30	0xbd4c546a	-0.04988519
31	0x3b7d2102	0.003862441
32	0xbc809c3a	-0.015699495
33	0x3c962101	0.018326284
34	0xbcd3e842	-0.025867585
35	0x3d0879a4	0.03331913
36	0xbe3e2baa	-0.18571344
37	0xbe67c69f	-0.22634362
38	0xbe13adc7	-0.1442176
39	0xbda5711b	-0.08078214
40	0x3c3bf45b	0.011471833
41	0xbe577124	-0.21039253
42	0x3e08fb96	0.13377222
43	0xbceed943	-0.029156333
44	0xbe5813be	-0.21101281
45	0xbdcfc4a2	-0.101449266
46	0x3bce83fd	0.0063023553
47	0xbc4d5ce6	-0.012534356
48	0xbd9dce22	-0.07705332
49	0xbcfcb3c7	-0.030847443
50	0xbd51f0c0	-0.051254988
51	0x3d649e21	0.055814866
52	0xbd364a58	-0.044504493
53	0xbda6ef48	-0.08151108
54	0xbdb07bde	-0.08617376
55	0xbdfa8050	-0.12231505
56	0xbe0be223	-0.13660483
57	0xbe571653	-0.2100461
58	0xbb991606	-0.004671815
59	0x3d058bfa	0.032604195
60	0xbdb55bd4	-0.088554054
61	0xbcb36851	-0.021900328
62	0x3de13313	0.1099607
63	0xbd20879a	-0.03919182
64	0x3dbdd619	0.092693515
65	0xbd5ab679	-0.053396676
66	0xbe633689	-0.22188772
67	0x3d50bd02	0.050961502
68	0xbcc4f24b	-0.024041316
69	0xbbcb87b4	-0.0062112454
70	0xbb983b6e	-0.0046457564
71	0xbd64bfa7	-0.055846836
72	0xbc27dee6	-0.010246014
73	0x3c8e71d0	0.017388254
74	0xbdaeb189	-0.08529956
75	0xbe27f12a	-0.1640059
76	0xbe955b72	-0.2917133
77	0xbd46b3fb	-0.048511487
78	0xbda44116	-0.08020227
79	0xbd1d8f30	-0.038466632
80	0xbde35e15	-0.11101929
81	0xbdf48ff2	-0.11941518
82	0x3da37956	0.07982127
83	0xbe02281d	-0.12710615
84	0x3d15efb9	0.03660557
85	0xbde9da3e	-0.114185795
86	0xbd93af6e	-0.07211195
87	0xbe50ee98	-0.20403516
88	0x3d21181e	0.03932964
89	0xbd2f2086	-0.042755626
90	0xbe370fb4	-0.17877084
91	0xbde427c4	-0.11140397
92	0xbe28da34	-0.16489488
93	0xbe86c856	-0.2632472
94	0xbdf1e279	-0.11810774
95	0xbe1e49cb	-0.15457837
96	0x3d68c95f	0.056832667
97	0xbe77848c	-0.24171656
98	0xbd97ca64	-0.0741165
99	0xbd3e2d17	-0.04642972
100	0x3d7a6139	0.061127875
101	0xbd8110c3	-0.06302025
102	0x3cf20796	0.029544633
103	0x3d1efb8b	0.03881411
104	0x3cd13ec9	0.025542634
105	0x3ac71a8d	0.0015190408
106	0x3bb7827e	0.0056002727
107	0x3d242e51	0.040083233
108	0x3c067619	0.008206868
109	0xbc949115	-0.018135587
110	0xbe3f5391	-0.18684222
111	0xbdaf8998	-0.08571166
112	0x3d22ce81	0.03974772
113	0xbe1d17dc	-0.15341133
114	0x3b69b084	0.003565819
115	0xbdcc22ab	-0.0996755
116	0xbd1f2dc3	-0.038862
117	0xbdbe2104	-0.09283641
118	0xbd9b192b	-0.0757316
119	0xbd782986	-0.060586475
120	0xbdc80f31	-0.097685225
121	0xbdfea46f	-0.12433707
122	0xbdca5070	-0.098786235
123	0xbc0f8e14	-0.008761901
124	0xbd25b4a2	-0.040455468
125	0xbcdd669d	-0.027026469
126	0x3d83a911	0.06428731
127	0xbd386f5d	-0.04502808
128	0xbc0cf6d1	-0.0086037675
129	0xbbe712f7	-0.0070518213
130	0xbd30ad9a	-0.04313431
131	0xbcf4149c	-0.029794984
132	0x3ce9dcbf	0.028547643
133	0xbdaa16df	-0.083051436
134	0xbcc1dbaf	-0.023664324
135	0x3cd6c9b7	0.026219232
136	0xbbf50832	-0.0074777836
137	0xbd4a37a1	-0.049369458
138	0xbd065de9	-0.032804403
139	0x3d7be754	0.06149991
140	0xbd94d42c	-0.07267031
141	0xbdbc6e38	-0.0920071
142	0xbd874eec	-0.0660685
143	0xbdd1990e	-0.10234271
144	0xbe80cfe4	-0.25158608
145	0xbd05f89c	-0.032707796
146	0xbe1a497c	-0.15067095
147	0xbe153ad5	-0.14573224
148	0xbdc6dc3c	-0.09709975
149	0xbcea2f56	-0.028587025
150	0xbe3ac1aa	-0.1823794
151	0xbdb8ad2d	-0.09017406
152	0xbe6b3af8	-0.22971714
153	0x3d24b12d	0.04020803
154	0xbe14a84f	-0.1451733
155	0xbea1db75	-0.31612745
156	0x3e42678d	0.18984814
157	0xbe05d2fe	-0.13068768
158	0xbe571936	-0.21005711
159	0xbe02f00f	-0.12786888
160	0x3d17f2e8	0.037096888
161	0x3e0499b4	0.12949258
162	0xbd7e9d4b	-0.062161725
163	0x3cd4bd6d	0.025969232
164	0xbd663262	-0.056200393
165	0x3ccc1be7	0.024915649
166	0xbcfa5f84	-0.030563124
167	0x3cd10ad8	0.025517866
168	0xbd5ef762	-0.05443514
169	0x3c0fa9ee	0.008768542
170	0x3d719b6f	0.058986124
171	0x3ce20116	0.027588408
172	0x3daa8cc9	0.08327634
173	0x3db26419	0.08710498
174	0xbc5dcabf	-0.013537108
175	0xbce2d2bf	-0.027688382
176	0xbdaa1c7a	-0.08306213
177	0x3c88977c	0.016673796
178	0xbdf6c718	-0.12049693
179	0x3d0b72f7	0.034045186
180	0xbdb86483	-0.09003546
181	0xbd775718	-0.060385793
182	0xbd61edc3	-0.055158388
183	0xbd8d8330	-0.06909788
184	0xbe843325	-0.2582027
185	0xbe47a69b	-0.19497149
186	0xbe6b7df0	-0.2299726
187	0xbe1cf68d	-0.15328427
188	0xbda93ca2	-0.08263518
189	0xbd9cef13	-0.07662787
190	0xbd047f82	-0.032348163
191	0xbd814ff9	-0.06314082
192	0xbdb36270	-0.0875901
193	0xbdaf48df	-0.08558821
194	0xbd401842	-0.046898134
195	0xbddb6056	-0.10711734
196	0xbc30988a	-0.010778556
197	0xbda32af8	-0.0796718
198	0x3cf5d982	0.030010942
199	0x3e43d641	0.191247
200	0x3c24d17d	0.0100597115
201	0x3dd46d08	0.103723586
202	0xbdde9eb2	-0.108701125
203	0xbdf286e8	-0.118421376
204	0xbceb823c	-0.028748624
205	0xbe36e668	-0.1786133
206	0x3e2a86ad	0.16652937
207	0x3ccd44c5	0.025057206
208	0xbe099142	-0.13434318
209	0xbe39aa9a	-0.18131486
210	0xbd92e36e	-0.07172285
211	0xbdc8de12	-0.098079816
212	0xbe200cb1	-0.15629841
213	0xbe4d8508	-0.20070279
214	0xbeeeb257	-0.46620438
215	0xbdd7c134	-0.105348974
216	0xbe03cdf7	-0.12871538
217	0xbcb89d4c	-0.022535942
218	0x3d9eb5a1	0.07749487
219	0xbe5fea97	-0.21866833
220	0xbd99052b	-0.07471689
221	0xbdab5eeb	-0.083677135
222	0x3d3673d2	0.04454405
223	0xbe1cc8d1	-0.1531098
224	0x3d3f55b7	0.046712603
225	0xbe05c666	-0.13063964
226	0xbe053744	-0.13009363
227	0xbca2656a	-0.019823749
228	0x3d940fe5	0.07229594
229	0xbe120750	-0.14260602
230	0xbda8bfaa	-0.08239682
231	0xbdad8b4a	-0.08473833
232	0xbe2d58f8	-0.1692847
233	0xbe011f22	-0.12609532
234	0x3dba8d99	0.09109039
235	0xbe26f08c	-0.16302699
236	0xbe8f47f6	-0.2798459
237	0xbd8cb06e	-0.06869589
238	0xbd832d10	-0.06405079
239	0xbd34f21b	-0.044176202
240	0xbe3e8190	-0.18604112
241	0x3c7a3c05	0.015273099
242	0xbdc1e39d	-0.09467242
243	0x3ba4c8a9	0.0050288034
244	0x3cfbb1de	0.030724462
245	0xbd25ff6a	-0.040526785
246	0xbe561f9d	-0.20910497
247	0xbe1e7f83	-0.1547833
248	0xbd2ada92	-0.04171235
249	0xbdd763db	-0.10517093
250	0xbdc0c73f	-0.09413003
251	0x3bf74c9b	0.007546974
252	0x3cf06998	0.029347226
253	0x3dbd8568	0.09253961
254	0x3c8e16f3	0.017344927
255	0xbe529802	-0.20565799

sequential/conv2d_1/BiasAdd/ReadVariableOp:0 f4 [64]
0	0xbdd3dcfb	-0.10344883
1	0xbe9f3dd5	-0.31101862
2	0xbe509b12	-0.20371655
3	0x3d8a2e21	0.0674708
4	0xbe1c5ce1	-0.15269805
5	0xbe6d0b3c	-0.23148817
6	0xbdcc7c73	-0.09984674
7	0xbeacb4c2	-0.33731657
8	0x3e9086a7	0.28227732
9	0xbe440632	-0.19142988
10	0xbd528373	-0.05139489
11	0xbc31068c	-0.010804784
12	0xbe957126	-0.29187888
13	0xbe706fe1	-0.23480178
14	0xbe0c0221	-0.13672687
15	0xbe268375	-0.16261084
16	0x3e76abd9	0.24088992
17	0xbe126f4e	-0.14300272
18	0x3d72509f	0.059158918
19	0xbda75220	-0.08169961
20	0xbe0d07ff	-0.13772582
21	0xbe550889	-0.20804037
22	0xbd94556a	-0.07242854
23	0xbd84dd44	-0.064875156
24	0xbe92f829	-0.28704956
25	0xbe13daa4	-0.14438874
26	0xbdcc815d	-0.099856116
27	0x3a8f0e32	0.0010914265
28	0xbe9b2a24	-0.30305588
29	0x3e48b2ce	0.19599459
30	0xbe5841a1	-0.21118785
31	0xbe30fc9e	-0.17283866
32	0xbdc1599c	-0.0944092
33	0xbe638864	-0.22219998
34	0xbe62f004	-0.22161871
35	0xbda4b008	-0.08041388
36	0xbee36b5d	-0.4441785
37	0x3d058e46	0.032606386
38	0xbde6c3f7	-0.11267846
39	0xbd6deff0	-0.05809015
40	0xbe10013f	-0.14062975
41	0xbe300784	-0.17190367
42	0x3d840811	0.06446851
43	0x3d40942a	0.0470163
44	0xbe53e1fd	-0.20691676
45	0xbe9416ed	-0.2892374
46	0x3e7812ce	0.24225923
47	0xbc4f0f1c	-0.01263788
48	0x3e1be5f8	0.15224445
49	0xbdef878f	-0.116957776
50	0xbe02e61e	-0.12783095
51	0xbe8fb753	-0.28069553
52	0x3d049ceb	0.03237621
53	0xbeacee14	-0.3377539
54	0xbe46f0c6	-0.19427785
55	0xbe6d57a5	-0.23177965
56	0x3c6f9478	0.0146228
57	0xbe8f4e67	-0.27989504
58	0x3e38596d	0.18002863
59	0xbe611142	-0.2197924
60	0xbe02b564	-0.12764508
61	0xbd12da9f	-0.035853025
62	0xbec8d9cc	-0.39228666
63	0xbd606fee	-0.054794244
