models/model36.onnx (onnx, 153271 bytes, 8 tensors)

sequential/dense_1/MatMul/ReadVariableOp:0 f4 [128, 10]
000000 a2 0d 96 be b3 ca 4b 3e 8e 69 bc bd 1f 75 92 3d
       -0.29307276 0.19901542 -0.091998205 0.07151245
000010 28 91 2b 3e a1 db 4d be 60 48 43 be 34 a3 0c 3d
       0.16754591 -0.20103313 -0.19070578 0.03433533
000020 6a 66 83 be e8 82 6e 3e c7 cb fa 3d 68 65 6a be
       -0.25664073 0.23292124 0.12245899 -0.22890246
000030 13 8b 25 3e 50 00 f8 bc 48 e7 67 be d0 ed 0a bd
       0.16166334 -0.030273587 -0.2264682 -0.033918202
000040 e9 5a ec bd b3 61 2b 3e 81 7a 72 3d 93 7f 15 3e
       -0.11540777 0.16736488 0.05919886 0.14599447
000050 c8 71 54 be 76 d9 79 3e 4d d9 5a 3e 41 b2 69 3e
       -0.20746529 0.24399361 0.21371956 0.22821905
000060 5c 69 b9 bd a7 30 0f be d9 11 5a bd 50 57 61 3e
       -0.09053299 -0.13983403 -0.053239677 0.22005963
000070 43 70 29 be 39 1b 94 be 70 8b cf be a4 05 19 3e
       -0.1654673 -0.2892702 -0.4053607 0.14943558
000080 e9 23 55 bd e8 11 ee 3d 75 aa 95 be 66 04 0c 3e
       -0.0520362 0.11624509 -0.2923161 0.13673553
000090 c6 97 85 be 4c 79 8d be 9c 43 0a 3e cd 40 16 be
       -0.26092356 -0.27631605 0.13502353 -0.14673157
0000a0 7b ea 41 be c0 30 da 3d 95 49 78 bd 99 c8 ee be
       -0.18937103 0.106538296 -0.06061705 -0.4663742
0000b0 ec a5 9a 3d 33 bd 7e be 30 cd 1e 3e 10 e2 7d be
       0.07551178 -0.24876861 0.1550796 -0.24793267
0000c0 f2 96 8e bd b3 35 d3 be 8d e6 94 3d 1b ea 15 3e
       -0.06962384 -0.41251907 0.072705366 0.14640085
0000d0 17 1a 1a be 4f 74 22 bd 53 aa f1 3b 76 12 c9 bd
       -0.15049015 -0.0396617 0.0073750406 -0.09817974
0000e0 a6 71 8f 3e 09 cd aa be d0 83 5f be 00 c6 24 be
       0.28016394 -0.33359554 -0.21827626 -0.16091156
0000f0 c3 7e 25 3b 31 15 01 be 1f 33 ec bb 95 55 c0 3c
       0.0025252558 -0.1260574 -0.0072082425 0.023478309
000100 b3 53 cf 3d 36 b9 b3 bd ec 65 3c be 8a 3d 68 bd
       0.10123386 -0.087755606 -0.18398255 -0.056699313
000110 1e 73 0f bc 41 d8 1e bc 94 db a5 3c 8b 9d cd bd
       -0.008755473 -0.009695114 0.020246305 -0.100398146
000120 65 58 2c 3e fe 8e 38 bd ae bb 24 3e 00 f8 c8 3d
       0.16830595 -0.045058243 0.16087219 0.09812927
000130 b0 b9 3e 3e 49 f5 28 3e bd 97 95 3c 4c 5a 50 be
       0.18625522 0.16499819 0.018260831 -0.20346946
000140 d6 31 e3 be d8 19 2e 3e a0 d9 92 3c 76 c0 2c 3e
       -0.4437396 0.17002046 0.017926037 0.16870293
000150 16 43 a6 3d cf 81 d3 3d 2a d8 cf 3d df 2f 9a be
       0.081182644 0.103274934 0.10148652 -0.30114648
000160 a9 ac d2 bd 79 cb ed bd 78 96 2e be 4c 1e 2a 3e
       -0.102868386 -0.11611075 -0.17049587 0.1661312
000170 2b 32 9d bd 7f 51 a9 be 20 bc a8 3d 41 0e a5 be
       -0.076755844 -0.3306999 0.08239007 -0.32237437
000180 f0 ec da bd d7 fc c5 3a 1f 6a 0b 3e 7e a5 bd 3d
       -0.106897235 0.0015105259 0.136147 0.09260081
000190 e2 0e 15 3e 4b ef 09 3c 3d 0c 1e 3e e3 59 a2 3d
       0.14556459 0.008418868 0.15434356 0.07927301
0001a0 4c 62 66 be 39 1a 9d 3d b0 16 10 3e 73 b7 27 be
       -0.22498435 0.07671017 0.14071155 -0.16378574
0001b0 1b a8 d1 3d 37 bb 18 3e af c9 2e 3e b6 5b b3 3d
       0.10237142 0.14915167 0.17069124 0.08757727
0001c0 a0 68 21 3e 13 f2 a9 bc 45 78 84 be e3 9d 29 bd
       0.15762568 -0.020745313 -0.25873008 -0.041410338
0001d0 46 52 30 3e 37 91 86 be c0 ac f0 3d e1 e9 cf be
       0.17218885 -0.26282665 0.117516994 -0.40608123
0001e0 fc 48 db bd ca 5a 9f 3d b1 49 b0 bd 52 d1 b0 3d
       -0.1070728 0.077809885 -0.086078055 0.08633675
0001f0 3d ee 80 bc 51 aa a4 3c 4a 1c 5f be 17 9f dd 3d
       -0.0157386 0.020100744 -0.21788135 0.108213596
000200 b8 2a d2 bd 94 ea f4 3a e9 bd a5 be 35 6e a9 be
       -0.10262054 0.0018685632 -0.32371452 -0.33091894
000210 e0 80 84 bd 1d 45 c7 3d f1 23 8c 3d a7 4b 9a 3d
       -0.064698935 0.09729979 0.06842793 0.07533961
000220 42 0b 3a be 53 9a 78 3d 02 d2 c3 3d 27 43 af 3d
       -0.18168357 0.06069405 0.0956154 0.0855773
000230 35 7a 39 3e 58 72 24 be 79 80 1f 3e 12 7f fe 3d
       0.18113025 -0.16059244 0.15576352 0.124265805
000240 f4 e8 30 be c9 f0 aa 3d a5 88 94 bd 64 74 aa bd
       -0.17276365 0.083467074 -0.072526254 -0.08322981
000250 12 f5 06 3e 13 34 06 3e e1 87 17 be f1 ff 9b 3d
       0.13179424 0.13105802 -0.14797927 0.07617176
000260 ce ce d6 bd 35 59 f2 bd 78 ee 0c 3e 9b 99 ab bb
       -0.104886636 -0.11833421 0.13762844 -0.005236817
000270 f8 a7 2a 3e 10 89 12 3e 04 c1 9a 3c 1b 80 ef be
       0.16665637 0.14310098 0.018890865 -0.46777424
000280 95 0b 08 3e 35 bb cf bd 86 92 07 be 43 a6 5a bc
       0.13285668 -0.10143129 -0.13239488 -0.013345304
000290 b3 b2 04 bd 17 fa 48 3d c3 e0 40 3d d1 cf dc 3b
       -0.032396983 0.04906663 0.04708935 0.006738641
0002a0 06 ee 1c 3d 90 1d 2e 3d 29 32 24 3d be 9a 7b 3e
       0.038312934 0.04250866 0.0400869 0.24570748
0002b0 c1 1c 64 3e c0 ff 60 3e 4f 78 84 be 35 d3 a4 3c
       0.22276594 0.21972561 -0.25873038 0.020120243
0002c0 a3 94 76 be d3 1f 99 bd 9f f6 29 be 2e eb d7 be
       -0.24080138 -0.07476773 -0.16597985 -0.42171615
0002d0 06 75 5f be 7f 04 b6 3d f1 83 24 3e ca 4e 84 bd
       -0.21821985 0.08887576 0.16065957 -0.0646034
0002e0 dc 71 1f be ad d6 5a be e4 a8 18 be f7 ca 46 3e
       -0.15570778 -0.21370955 -0.14908177 0.19413362
0002f0 d0 f9 62 3e d9 32 f6 39 3e 51 66 be 36 d1 cc bd
       0.22165608 0.0004695866 -0.22491929 -0.10000841
000300 8c 4f 53 3e 75 a8 a1 3d 27 01 0a be 3d fe 10 3e
       0.20635813 0.07893459 -0.13477002 0.14159484
000310 9e 15 80 3e 50 5f 0a be cb 01 2f 3e fa 66 4b be
       0.25016493 -0.13512921 0.17090528 -0.19863501
000320 77 c4 6e 3e 4a a7 d7 3d 75 71 cf bd 72 5c 41 3d
       0.23317133 0.10529955 -0.10129062 0.047207303
000330 c0 cc d0 be 46 27 06 3e 00 f4 a5 3d 2a 5c 2d 3d
       -0.40781212 0.13100919 0.0810318 0.042324223
000340 51 0c 2a 3e bd f9 59 be 32 2e b4 3d ac 0c 35 3d
       0.16606261 -0.21286674 0.087978736 0.044201538
000350 41 0b 58 3d 18 d0 d6 bc 04 a4 ba bd 48 8d 57 bd
       0.052745108 -0.026222274 -0.09113315 -0.05262497
000360 a4 05 68 bc 88 64 52 3c 16 51 7a 3c 2a ad 79 b8
       -0.014161501 0.012841351 0.015278121 -5.9527498e-05
000370 50 44 29 be dc 6a db be c0 5b df bc a1 97 e6 3d
       -0.16529965 -0.42854965 -0.02726543 0.1125939
000380 95 c0 10 3e 28 5b e5 3d 0b 58 53 be c2 9f 2e be
       0.14135964 0.11199027 -0.20639054 -0.1705313
000390 b3 a0 34 3e 5d 4d 27 3e 03 fe 6e 3d cd 9e 3e 3e
       0.17639427 0.16338105 0.058347713 0.18615265
0003a0 ff c0 19 3e c7 70 ad 3d da 52 32 3e ce 76 86 be
       0.15015028 0.08468776 0.17414418 -0.26262516
0003b0 cf 84 8e 3d af 28 9e bd 12 5b 3d be ef 58 8b be
       0.06958925 -0.077226035 -0.18491772 -0.27216288
0003c0 f7 63 d3 bd 9f b6 df 3a f7 21 86 3d 72 48 ce bc
       -0.10321801 0.0017067975 0.06549447 -0.025181029
0003d0 1b cb 3d 3e af 9a 43 be 9b ca b7 3d 54 be 82 be
       0.1853451 -0.19101976 0.08974191 -0.25535834
0003e0 bc 4d 20 3e fb fd 20 3e fa 8b c5 3d 5e 63 78 3e
       0.15654653 0.15721886 0.09645839 0.24256656
0003f0 bd 0f 46 be b4 60 0a be 2b fa d9 3d 52 f2 a8 be
       -0.19341941 -0.13513452 0.10643419 -0.32997376

sequential/dense_1/BiasAdd/ReadVariableOp:0 f4 [10]
000000 7e d8 96 bc 05 10 9b bc 20 3f e7 bc 13 38 cd bd
       -0.018413778 -0.018928537 -0.028228343 -0.10020461
000010 d9 92 5a bc d5 df bb bc 03 a0 04 be c7 1a bb bc
       -0.013340675 -0.02293388 -0.12951665 -0.022839917
000020 a3 84 7c 3e 08 68 9b 3c
       0.24659972 0.018970504

sequential/dense/MatMul/ReadVariableOp:0 f4 [256, 128]
000000 12 0e eb 3d 97 07 c9 3d cf 49 57 bd b1 27 ab be
       0.11477293 0.09815901 -0.052560624 -0.3342872
000010 17 a7 08 3e 02 ca 43 3d ac 55 9a bd 80 a3 1a 3e
       0.1334499 0.04780007 -0.07535872 0.15101433
000020 b8 1e 88 3c 9b 8e da bd 6a 75 67 bd a3 fb ac 3c
       0.01661621 -0.10671731 -0.05650846 0.021116083
000030 66 93 3e bd 70 7b 94 3d 64 f7 e1 3c a0 06 8c 3d
       -0.04652729 0.07250106 0.027583785 0.06837201
000040 05 8e 89 3d 3d 49 a6 3d d4 96 fb 3d 49 7d 91 bb
       0.06716541 0.08119438 0.122846276 -0.004439984
000050 f7 4f 89 3d 80 b3 59 bb db 17 1d be 37 ae 50 3e
       0.06704705 -0.0033218563 -0.15341131 0.20378958
000060 a7 56 50 be 28 76 5e 3d 3c c0 6e 3d 8f 54 af 3d
       -0.20345555 0.0543119 0.058288798 0.0856105
000070 c3 e5 22 3e 3c da 59 bd 5f e4 3e 3d e0 0a 6a 3e
       0.1590796 -0.05318664 0.04660451 0.22855711
000080 42 79 0b be 23 13 12 3d c0 a4 1e 3d fb 38 6f 3e
       -0.13620475 0.03566278 0.038731337 0.2336158
000090 0f dc 9e bd 64 ce 4f 3d 7c 31 32 3c 4c 45 da bd
       -0.077568166 0.05073394 0.010876056 -0.106577486
0000a0 c2 f9 0f be 60 da ac 3d fd 73 81 3e 2f ee d6 be
       -0.14060119 0.08440089 0.25283805 -0.41978595
0000b0 12 dc 2d 3e 64 f8 6f 3c af 11 c4 3c de 6f 19 bd
       0.16978481 0.014646623 0.023934213 -0.0374602
0000c0 01 1e cf 3d 49 2a 79 bc 3a af e4 3d 0a ed d6 3c
       0.10113145 -0.0152078355 0.11166234 0.026236076
0000d0 47 d6 8d be f4 e0 eb 3c 63 08 22 3e ae b5 7c 3e
       -0.27702543 0.02879379 0.15823512 0.2467868
0000e0 6e c0 70 bd ff 09 2b 3e 8d 37 46 be 12 a6 d2 bd
       -0.058777265 0.16703032 -0.19357128 -0.10285582
0000f0 06 f6 87 bc b1 94 17 be 24 2d 10 3d b3 40 82 3c
       -0.016596805 -0.14802815 0.0351993 0.015899992
000100 10 6b f7 3c cc bc 3e 3d 91 ea 80 3d dc ff 1f 3e
       0.030202419 0.04656677 0.0629474 0.15624946
000110 36 56 f6 bd 7c 3f c5 3d bf 65 02 be 64 15 34 3e
       -0.12028162 0.09631249 -0.12734126 0.17586285
000120 7a 7e f1 bd e7 94 29 3d 5d 1f c9 3c 3e a9 26 be
       -0.117917016 0.04140177 0.024551088 -0.16275498
000130 bb 1e a1 bd 49 2c 08 be 73 c9 a2 3d ca 69 46 be
       -0.078671895 -0.13298143 0.0794858 -0.19376293
000140 fa db 93 bc 9c 63 39 3e 88 b0 0e bd 45 a8 be 3d
       -0.018049229 0.18104404 -0.034836322 0.093094386
000150 5f 96 f8 bc f3 13 70 be c9 23 7a bd ed 3c d0 3d
       -0.03034514 -0.2344511 -0.061069284 0.10167871
000160 a8 61 09 bc 0d 59 5f 3e 45 13 49 3e a1 48 7e be
       -0.0083850995 0.21811314 0.19636257 -0.24832393
000170 38 48 b7 bd ab 1b 41 be 88 ee 2c 3e 7c 91 12 be
       -0.089493215 -0.1885821 0.16887867 -0.1431331
000180 93 15 5a be 3e 9e 01 3d e9 5a 4f 3e 0f 8a 63 3d
       -0.21297292 0.031645052 0.20249523 0.055551585
000190 04 b9 20 be 8a 04 06 bd b7 8e 15 3d 94 cf e5 bd
       -0.15695578 -0.032719173 0.036513057 -0.11221233
0001a0 9b 90 b0 3c e0 e8 96 3e 3d 87 40 bd 9e b2 dd 3d
       0.021553328 0.29474545 -0.047003973 0.10825084
0001b0 57 04 8f 3d f9 91 7a 3d 33 87 ae 3e 9d 88 cc 3e
       0.0698325 0.061174367 0.34087524 0.39947978
0001c0 4c 11 9c bd 55 86 9c be 0f 86 f9 3c d0 49 b5 3d
       -0.076204866 -0.30571237 0.030459432 0.08851969
0001d0 9c 03 a0 3e 98 4c 01 be 0a d7 ee bc 55 6c 86 3d
       0.31252754 -0.12626874 -0.029155273 0.065636314
0001e0 57 85 6d 3c d6 b4 f2 bd fb 44 4a bc eb 89 f5 bc
       0.014497123 -0.11850898 -0.012345548 -0.029972991
0001f0 99 34 dd 3d 0a 49 d1 3d e2 87 36 bd e1 61 e1 bd
       0.10801048 0.10219009 -0.04456318 -0.11004997
000200 f2 f3 dd bd 6f 38 9e 3c 39 42 0c 3c bb b9 b9 3c
       -0.108375445 0.019314019 0.008560711 0.022671571
000210 a3 9d b2 3c 81 de 86 be 87 2e 4c bd 8f 6c 95 be
       0.021803683 -0.26341632 -0.04984906 -0.29184386
000220 37 4c 8d 3d b7 d5 26 be db ea c6 bd 91 2a 0a be
       0.068993025 -0.16292463 -0.09712764 -0.134928
000230 88 b2 bc bc ae 88 20 3d 3a bf 1f 3c 0c 1d 51 bd
       -0.02303435 0.039192848 0.009750182 -0.051053092
000240 74 22 96 3d c6 59 03 3e ad d0 f0 3d 93 da a2 ba
       0.0733079 0.12827215 0.11758552 -0.0012424759
000250 86 a3 c7 3c 51 8b 8b bd 4f 32 2c be 2e 7f 90 bd
       0.024369966 -0.06813682 -0.16816066 -0.070555076
000260 c4 0f 81 be 06 d1 55 3d 59 9f e2 3d d6 b9 a8 3d
       -0.2520734 0.052201293 0.110655494 0.082385704
000270 d5 49 66 3c b5 3c 14 be b0 54 ab bd d2 c3 b1 3d
       0.014055689 -0.14476283 -0.08365762 0.08679928
000280 e8 5c 36 bd c0 70 2d bd 1d 15 57 be 8e df 13 3d
       -0.044522196 -0.042343855 -0.21004148 0.03610187
000290 0b f2 bb 3d f2 00 8e be a7 bf 70 be 7e e1 49 be
       0.091770254 -0.27735096 -0.2351061 -0.19714925
0002a0 2d cb d1 bd 5f a8 5e bd 78 5c d0 3d 2b 64 0f be
       -0.10243831 -0.05435979 0.10173887 -0.14003055
0002b0 e1 a1 45 be 7b 56 1c be a5 3c 43 be 5a 0c 08 be
       -0.19300033 -0.15267365 -0.19066103 -0.13285962
0002c0 43 85 2c 3c 98 ce 7f be a4 06 e4 3c 23 a1 22 3e
       0.010529819 -0.24981153 0.027835198 0.15881781
0002d0 b3 6e a1 bd 1a 0a 0e 3d 23 1e fb bb 61 3e 95 3e
       -0.07882442 0.034677602 -0.0076635047 0.29149154
0002e0 09 f6 27 3e 82 51 21 3e ca dd cc bd 4c 9f 7e bd
       0.16402449 0.15753749 -0.100032404 -0.062163636
0002f0 62 a6 e3 bd 7d b3 8a bc b1 50 08 3d 8a 6a 00 be
       -0.111157194 -0.01693129 0.03328008 -0.12540641
000300 7d 4a c5 3d bc 5c 87 3e e5 a8 20 3e 5a c2 a0 3d
       0.09633348 0.26437938 0.15689428 0.078495696
000310 44 3e cb bd f6 a0 18 3d 1b 67 d9 3c 24 85 ec 3c
       -0.099239856 0.03726288 0.026538422 0.02887208
000320 7a 83 cf 3c 5a d2 8c bd 66 07 19 be d9 d4 88 be
       0.025331248 -0.06876059 -0.14944229 -0.2672489
000330 0c aa 10 3e c5 09 1e be 9a e8 3a 3c 5b bd 20 be
       0.14127368 -0.15433414 0.011407996 -0.15697233
000340 de ff f2 bd ef 9a 10 be 3a 75 cb bd 2f da 96 bc
       -0.11865209 -0.14121602 -0.099344686 -0.018414585
000350 ec d2 80 be 60 0f 82 bd 33 cd 00 be 46 c3 d1 bc
       -0.2516092 -0.06350589 -0.12578277 -0.025605809
000360 38 55 45 be a7 57 04 3b 3f 61 5b 3d 04 1a 6b bd
       -0.1927079 0.0020193846 0.053559538 -0.057397857
000370 7e 69 99 bd 57 82 3b bd f9 17 11 3e aa 2d 88 bd
       -0.07490824 -0.0457786 0.14169301 -0.06649335
000380 af db 70 be 08 ed a9 b8 0b b7 90 3e 2f 60 18 3e
       -0.23521303 -8.1026985e-05 0.2826465 0.14880441
000390 e4 df 08 be e6 46 ae bd 0d 6b db bd da 39 b9 39
       -0.13366657 -0.085096166 -0.10713778 0.00035329052
0003a0 f4 62 ae 3c 40 22 26 3e 57 e5 ad 3d 1c 63 4e 3d
       0.021287419 0.16224003 0.08491009 0.050387487
0003b0 d7 5b 24 be fe ef 30 be cc 69 20 3e 20 0c be 3c
       -0.16050659 -0.1727905 0.15665358 0.023199141
0003c0 58 ce 30 be 22 7b ae be ff e5 60 be f0 06 32 bd
       -0.17266214 -0.34078318 -0.21962737 -0.043463647
0003d0 84 91 29 3d c2 de 91 3c ea aa 0d be e8 ee 14 bd
       0.04139854 0.017806415 -0.1383473 -0.03636065
0003e0 23 49 1b bd f5 a6 e7 bd 41 4e 3f bd 1c ff 35 bb
       -0.037911545 -0.113111414 -0.046705488 -0.0027770465
0003f0 15 e8 a3 ba c7 ad e8 3c c0 62 1b 3c 2d 6b 38 3c
       -0.0012505079 0.028403176 0.009483993 0.011256021

sequential/dense/BiasAdd/ReadVariableOp:0 f4 [128]
000000 2f d7 2e 3d 0f ef 1c bc ed af 2b bd 3c 1a 0e 3d
       0.042685684 -0.00957848 -0.041915823 0.034692988
000010 5e f2 27 3d ce 6f 8b 3d 78 1f 92 b9 d4 58 4b 3d
       0.041002624 0.068084344 -0.00027870736 0.04964526
000020 9a 3f e6 bc 13 fc 1d 3e f5 de b0 3c c7 46 de 3d
       -0.0281065 0.1542819 0.02159069 0.108533435
000030 42 d5 6a bc be 24 be bc 86 eb 32 3d 01 12 9c 3c
       -0.014333071 -0.02321088 0.043681644 0.019051554
000040 12 11 20 bd ad e8 65 bb 2c dc 50 3d 99 20 dd 3d
       -0.03907878 -0.0035081313 0.050991222 0.10797233
000050 26 17 b6 3d ff 29 f8 bc f8 f8 8b 3d 98 3b 02 3c
       0.08891134 -0.030293463 0.068345964 0.007948779
000060 9c cf 22 3d 70 29 1f 3d df 67 e9 bc b5 f4 85 bb
       0.039748773 0.038857877 -0.028491912 -0.0040880092
000070 20 2a 5f bc 52 5d 77 3c 5d 54 13 3d dd 3e 9f bc
       -0.013620883 0.015097933 0.035969127 -0.019439155
000080 a1 50 06 3d 35 22 00 bb da e9 cf 3c 60 1d 32 bd
       0.032791737 -0.001955164 0.025380064 -0.043485045
000090 7e 3d 64 bd 31 01 84 bc 32 f1 85 3c 57 f4 71 3d
       -0.055722706 -0.01611385 0.016350362 0.05907091
0000a0 77 5a 2a 3d b4 57 82 bc b4 f4 70 bd 9c 4e 20 3d
       0.04159018 -0.01591096 -0.058827117 0.039137468
0000b0 c0 3c 91 bc f8 47 66 3d 94 81 da bb 4c ad fa ba
       -0.017729163 0.05622098 -0.006668279 -0.0019125133
0000c0 65 0e 0a bd 6b 54 ee 3d da 3a a8 3c 5a ed 29 3c
       -0.033705134 0.11637195 0.020535875 0.01037153
0000d0 60 d8 83 3d b6 aa 84 bc 69 99 8e bd 4f 2a 3b bd
       0.06437755 -0.016194683 -0.069628544 -0.045694645
0000e0 91 6f 96 bc ba 30 42 bd 70 1e 07 3d 83 e9 0e 3c
       -0.018363746 -0.04740975 0.03298801 0.008722666
0000f0 f9 3b 4b 3c 2d b7 83 3d 88 44 9f 3c 6e 0c d1 3b
       0.012404435 0.064314224 0.019441858 0.0063796556
000100 05 fe 82 bb 0c 47 50 3b fc 08 2d 3d c6 ef c1 3c
       -0.0039975666 0.0031780628 0.042244896 0.023673903
000110 ab 1a 47 3d 2e 20 62 bc 33 ce 4b bc ce 13 b3 bc
       0.048609417 -0.013801618 -0.012439298 -0.02186003
000120 49 22 55 bc de 91 d7 3c 4c 80 14 bd c1 c1 57 3d
       -0.0130086625 0.026314672 -0.036255166 0.052675012
000130 ea 3e cd ba 89 5d d9 3d 05 f9 6a 3b 89 60 99 3d
       -0.0015659009 0.106135435 0.0035853994 0.07489116
000140 71 d7 88 3d 28 3d fb 39 df fb 0b bd db 5d 03 bd
       0.06681717 0.00047920016 -0.03417575 -0.03207193
000150 a2 3f 25 3d 42 b2 ba 3d 34 24 e6 3c 47 64 b4 3b
       0.040343888 0.09116031 0.028093435 0.005505118
000160 5c 17 28 3c 8b 3b 51 bc a9 3f e9 3c ce f0 16 bc
       0.010259476 -0.012770544 0.028472738 -0.009212686
000170 6e 64 00 3e 33 a0 9a bd 2d 19 34 bc 4a fe 1a bc
       0.12538311 -0.07550087 -0.0109923305 -0.009460041
000180 af eb 13 bd 6d a9 35 3d 99 5d 2a bd 00 17 87 bd
       -0.036113437 0.04435103 -0.041593168 -0.06596184
000190 83 d1 65 3d fe 85 d4 3c f2 b3 49 bc c3 3e 50 bd
       0.05610801 0.025942799 -0.012310969 -0.050841104
0001a0 73 10 09 3d 94 1d d3 bd 6c b5 bb 3d 50 7f 2b 3c
       0.033462953 -0.10308376 0.09165463 0.010467365
0001b0 33 2c 64 bc 4a 3d 9d 3c 9b 70 db bd 3c 62 50 bd
       -0.013926554 0.019194264 -0.10714837 -0.050874934
0001c0 92 a3 b8 3d 59 64 78 3d 1a 11 f6 3d 3d d1 35 3c
       0.090155736 0.060642574 0.120149806 0.01109725
0001d0 46 9e 7a bb 43 98 27 bc 15 59 5a bc 57 f9 3c bc
       -0.003824131 -0.010229173 -0.013326903 -0.011534057
0001e0 b6 d0 81 3c 1f bd 75 bc ec cd 34 3d 7b 42 53 3c
       0.015846591 -0.014998703 0.044141695 0.012894268
0001f0 a8 f8 f5 bc ba be ae 3b f1 90 ed bb 8c 65 c2 3c
       -0.030025795 0.005332795 -0.0072499444 0.023730062

sequential/conv2d_1/Conv2D/ReadVariableOp:0 f4 [16, 8, 5, 5]
000000 37 69 70 3d 69 5e 53 bd 80 bf d0 bc 79 63 37 3d
       0.05869409 -0.05160371 -0.02548194 0.0447726
000010 e1 78 d7 bc 6f b4 83 bd 7b 7a 81 bd 02 31 4e bd
       -0.026302757 -0.06430899 -0.063221894 -0.050339706
000020 37 ee 71 bb 37 bc 16 3e bb 58 1a 3d 22 07 34 be
       -0.0036915669 0.14720236 0.037682276 -0.17580846
000030 15 64 ed bc 56 a9 d0 3d 18 2f 32 3e e3 f4 04 be
       -0.028978387 0.10188548 0.17400777 -0.12984042
000040 c9 5c a0 be 49 72 88 be 12 fd 2c bd 44 10 0d be
       -0.3132079 -0.26649693 -0.042233534 -0.13775736
000050 74 20 9f bd fb 6b 08 be 0a 6d fc bd 69 0c 80 bc
       -0.07769862 -0.13322441 -0.12325485 -0.015630918
000060 a4 87 57 bd 58 0b ac 3d 13 20 51 3d de f1 16 3e
       -0.05261959 0.08400601 0.05105598 0.14740703
000070 3f f4 21 bc d4 82 9e ba 4b de 68 bd e6 9f 49 bd
       -0.009884893 -0.0012093433 -0.05685262 -0.049224757
000080 47 de e6 bd 80 f7 8c bd 2e 98 32 3e b8 de 4c bd
       -0.11272865 -0.068831444 0.17440864 -0.05001709
000090 b2 78 40 bb 7c 2c 34 bc c7 e7 d3 3d a0 53 cd 3d
       -0.0029368815 -0.010996934 0.103469424 0.10025716
0000a0 42 aa 03 be 8a de 31 be 69 22 49 be 6c 4c 57 bd
       -0.12857917 -0.17370048 -0.19642033 -0.052563116
0000b0 50 d9 fd bc 89 5d 50 be b9 a1 10 be 7a 41 ff bd
       -0.030987412 -0.20348181 -0.14124192 -0.124636605
0000c0 84 97 93 bd f1 d0 c4 bc 46 54 c5 3c 31 aa eb 3d
       -0.07206634 -0.024025412 0.024088036 0.11507071
0000d0 9d ab bd 3d be 91 bb 3d 27 34 5f bc d5 7d db 3b
       0.09261248 0.091586575 -0.013623274 0.00669835
0000e0 6c 50 27 3d 83 82 04 be 5b 68 e4 bc 37 c2 de bd
       0.04084818 -0.12940411 -0.027881792 -0.10876887
0000f0 b1 1b fd 3b 52 6c fd bd ca 62 68 be 4f 35 87 bd
       0.0077242483 -0.12374176 -0.22693935 -0.06601965
000100 5c 07 cb bd fd c2 89 bd 49 bd 4a be 14 5e 70 3c
       -0.09913513 -0.06726644 -0.19798769 0.0146708675
000110 71 f9 21 bd 5d a1 3f bd e7 e1 41 be 7a 3d dd 3d
       -0.039544526 -0.046784747 -0.18933831 0.10802741
000120 bc 71 19 bb af 0c ef 3c 07 72 2f 3c 23 38 ce bd
       -0.0023413738 0.029180853 0.010708339 -0.10069301
000130 72 1c 93 3d 83 b2 57 bb 68 a4 10 bc 04 24 5b bd
       0.0718316 -0.0032912798 -0.00882826 -0.053501144
000140 ae ea 14 3e 73 c0 ce 3d ea fa 60 bd 96 da 08 3d
       0.14542648 0.100953005 -0.05492679 0.033411585
000150 dd 41 4f 3d ff 04 de 3d 38 ac e7 3d a8 54 b2 bd
       0.05059992 0.10840797 0.11312145 -0.08707553
000160 e6 7a d9 3d 9e e2 1a 3e 2f 79 f6 3d 64 58 66 bb
       0.10619144 0.1512551 0.12034833 -0.00351479
000170 4a 4f 8e bd a2 2b 04 3e 30 8a 09 3e 47 44 2d 3e
       -0.06948717 0.1290727 0.1343162 0.16920577
000180 d3 93 c6 3d 81 e8 d9 3d 3e d6 8b 3e 6b 3e 72 3e
       0.09696164 0.1064005 0.2731189 0.23656623
000190 39 84 60 be 9b fe 30 be 0c c6 d5 b9 8b 56 a2 3d
       -0.21925439 -0.17284624 -0.00040774082 0.07926663
0001a0 3c c1 dc 3b eb 78 dc bb a3 cf 2c 3c 77 26 f0 3d
       0.0067369025 -0.0067282817 0.010547551 0.117260866
0001b0 04 14 a4 3d 72 a1 ec bd 02 c1 e4 3d e0 0e 92 bd
       0.0801163 -0.11554231 0.11169626 -0.071317434
0001c0 be 79 f2 3d 0a c9 18 3e cb 39 93 3e 7c 74 23 3e
       0.11839627 0.1492044 0.2875503 0.15962404
0001d0 12 65 ac 3c c8 29 5b be a9 8b 5e 3a de 11 23 3e
       0.021044288 -0.21402657 0.0008489439 0.15924785
0001e0 70 e3 53 3e 1d b8 a8 bd f7 d3 4a be 35 76 94 bd
       0.2069223 -0.08238242 -0.1980742 -0.07249109
0001f0 71 e9 37 3e 15 87 89 3d 36 be 9f 3d 2d 60 13 3e
       0.17960145 0.06715218 0.07799952 0.14392157
000200 31 26 9d 3d 14 49 08 3c ad 77 d8 3d 0e 8a 07 3e
       0.076733 0.008318204 0.10569701 0.13236257
000210 30 bf a7 3c de b6 2c 3d 86 b0 0b 3d d1 8e 00 3c
       0.020476907 0.042166583 0.034103893 0.00784655
000220 d6 e1 2d bd 20 1d 12 be 53 3c 8d bd 7c f1 26 3d
       -0.042451702 -0.14268923 -0.068962716 0.04075764
000230 47 a9 c2 bc 10 72 02 be 3e 69 d2 bd fc 54 45 3d
       -0.023762358 -0.12738824 -0.102739796 0.04817675
000240 8f 4d 13 be e7 95 4d bd 66 90 17 3d 5e cf 79 3d
       -0.14385055 -0.050191786 0.037002943 0.060988776
000250 45 8b 8a 3b 5a 99 8e bc 2e be 61 3c 1d f3 ce 3d
       0.004228028 -0.017407108 0.0137782525 0.10104964
000260 4f c6 fb bc 3d 43 d5 3d 72 04 a2 3d e1 00 e5 3c
       -0.03073421 0.10413215 0.07911004 0.02795452
000270 3b 3c fc bd 9b 3b 58 3d dc 79 fc 3b 68 b0 74 3e
       -0.123161756 0.05279122 0.0077049565 0.23895419
000280 3a 5f ec bd 7e ea ae bd 8b c0 0a be d7 ec e1 bc
       -0.115416005 -0.085408196 -0.13550012 -0.027578754
000290 82 79 d4 3d db 55 95 3c 26 4e 9e 3d ed 2b 51 be
       0.10374738 0.018229416 0.077297494 -0.20426913
0002a0 8e b8 f6 bd d7 40 4f 3d 2e 1c 8c 3c c5 58 46 be
       -0.1204692 0.050598945 0.01710328 -0.193698
0002b0 6c ca 07 3d 99 0c c5 3d 84 dd 9d 3d 89 7d 3c bc
       0.03315203 0.096215434 0.077082664 -0.011504539
0002c0 f8 68 ce bd 25 e6 80 3d d4 7e c9 bd c3 42 81 3d
       -0.10078615 0.062938966 -0.09838644 0.06311562
0002d0 fb bc bc bd f2 dc a7 bd 7a 88 8e be 89 71 9e bd
       -0.09215733 -0.08196439 -0.27838498 -0.07736499
0002e0 6d d2 77 bd 14 d2 41 be 50 10 bd be aa f1 be be
       -0.060503412 -0.18927795 -0.36926508 -0.3729375
0002f0 2b 20 d9 bd 2a e4 c0 bd 15 62 a4 be 16 a0 8b be
       -0.10601839 -0.09418519 -0.3210608 -0.27270573
000300 a9 4d 4c be 84 59 82 bc f1 59 55 3d 91 b0 c7 be
       -0.199515 -0.015911825 0.052087728 -0.39001897
000310 1d dc 62 be 8d 5e d9 bd 3e 5c bf bc e7 51 b2 bc
       -0.22154279 -0.10613737 -0.023359414 -0.02176757
000320 74 f0 16 3e 83 0b 5f 3e 5c c8 e6 3d 03 0a d5 3d
       0.14740163 0.21781735 0.11268684 0.104023
000330 b8 73 a1 3d 4e 01 10 bd 99 9c 7b 3c 25 88 13 3e
       0.078834 -0.035157494 0.01535716 0.14407404
000340 13 a5 2f 3e f2 3a 05 3d cb 42 1c be e5 ba 6b be
       0.17152815 0.032526918 -0.15259854 -0.23020513
000350 f6 4a 6d be 24 16 46 be 84 3d a6 bd a8 f0 5a 3c
       -0.23173127 -0.19344383 -0.08117202 0.013363041
000360 5b 5c 4a 3d 8a 55 46 3e db 9d ec 3b 9f 79 5c be
       0.049404483 0.19368568 0.0072209663 -0.2153077
000370 58 3d 3b 3e cd 43 04 3e a5 fc e4 3d f7 98 5d 3d
       0.1828512 0.12916489 0.111810006 0.054100957
000380 0f 8b 77 3d 2a 00 91 bd 39 ab 01 3e 0a b3 8a 3d
       0.06043535 -0.070801094 0.12662973 0.0677243
000390 0a 40 c2 3b 6b 45 98 3d e5 e4 fe 39 43 36 d5 bc
       0.005928044 0.074351154 0.00048617195 -0.02602685
0003a0 92 25 e6 3d 8e 8e 91 bd cd ae ae bc 9b e2 a2 3d
       0.11237635 -0.07107268 -0.021323586 0.07953378
0003b0 88 19 12 bd 06 15 e8 bd 19 0e 0b be f2 04 9d 3d
       -0.03566888 -0.11332135 -0.13579597 0.07666959
0003c0 eb a7 70 bc e5 2a 5e 3d 5a 69 d6 3c 3f 90 20 be
       -0.014688472 0.054240126 0.026173282 -0.15680026
0003d0 c0 86 be bd 7e fc 29 3d 25 41 f7 3c d3 5c 1c bd
       -0.09303045 0.04150056 0.03018243 -0.03817446
0003e0 1a 24 16 3e 83 8e b7 3d f9 2f d4 3d 13 e5 e2 3b
       0.14662209 0.08962729 0.103607126 0.0069242804
0003f0 95 25 81 bd 1e f0 55 bc 53 dd ac 3b 61 44 03 3e
       -0.06305996 -0.013057737 0.0052754073 0.12819053

sequential/conv2d_1/BiasAdd/ReadVariableOp:0 f4 [16]
000000 70 2b b9 bd 17 87 1f be e9 38 96 bd 26 bc 5a bd
       -0.09041488 -0.15578876 -0.073350735 -0.05340209
000010 bc 52 15 be 6e 49 65 bd d0 75 69 be d1 7d 63 bd
       -0.14582342 -0.05597823 -0.22798848 -0.05553991
000020 5e 97 86 bd 21 15 84 3d ac a3 84 bd 69 6d 08 bc
       -0.0657184 0.064493425 -0.064765304 -0.008326867
000030 dc 40 86 bd 24 ce 1e be 24 f3 a1 3d e1 a7 b3 bd
       -0.0655534 -0.15508324 0.079077035 -0.08772255

sequential/conv2d/Conv2D/ReadVariableOp:0 f4 [8, 1, 5, 5]
000000 e3 14 14 3e dc f8 a5 3e d4 81 cf 3d 02 e4 61 3e
       0.14461093 0.32416427 0.101321846 0.22059634
000010 f2 1e 8c 3e fc 23 8a be 14 1c 96 3e 32 d6 56 3e
       0.2736736 -0.2698058 0.29318297 0.20980147
000020 97 b7 c6 3e 1f 0b 5c 3e 88 cd 1b bf bc df 73 bd
       0.38811943 0.21488617 -0.6086049 -0.05953954
000030 4a 49 bc bd f9 7f 4f 3d 38 5e 28 3f 54 cf 35 bf
       -0.09193666 0.050659154 0.65768766 -0.7101948
000040 a1 eb 08 bf 45 0a 09 bf 8b 71 6f be 8d 0a f3 3d
       -0.5348454 -0.53531295 -0.23383157 0.11867247
000050 0e 28 ed 3d d4 b7 3f be ff 12 34 be 39 ec 8a be
       0.115799055 -0.18722469 -0.17585371 -0.2713335
000060 c9 c2 47 be 4d d7 a9 3e c7 8d b2 3e da 2c ac bd
       -0.19507898 0.33172074 0.34873793 -0.08406992
000070 02 42 c7 3e 04 c8 90 be 37 97 19 3c a4 78 02 bf
       0.38917547 -0.282776 0.009374431 -0.50965333
000080 fe f8 93 bd e2 3a 44 3e 6e 90 69 be 1a d3 91 be
       -0.07225226 0.19163087 -0.22809002 -0.2848137
000090 aa d7 1a be 79 1f fa 3d 58 5f 10 3f 7e 6a 0c 3e
       -0.15121332 0.12213034 0.56395483 0.13712499
0000a0 d5 db 1f be 61 ba 14 bd c3 c9 1c 3d 67 52 8b be
       -0.15611203 -0.036310557 0.038278352 -0.27211305
0000b0 af fa 9b be 7d 7e 82 3e f3 97 19 3d ee 59 16 be
       -0.30464694 0.25487128 0.037498426 -0.14682743
0000c0 f9 02 18 3e 97 0e cd 3d b0 04 f0 bd c2 c6 12 bf
       0.14844884 0.100125484 -0.11719644 -0.5733453
0000d0 e7 eb 80 be fa bc be be cb 8b a9 bc 6f 7c db be
       -0.2517998 -0.37253553 -0.020696541 -0.42868373
0000e0 f1 d2 e6 be 78 99 0a be b3 17 0a 3e 79 75 de 3e
       -0.4508281 -0.13535106 0.13485603 0.43449
0000f0 11 af 44 be 06 fa f1 3d 88 85 ef 3e c9 f1 bb 3e
       -0.19207408 0.11815266 0.46781564 0.36707905
000100 ad 27 5c 3e 9e d4 0a 3d eb f1 bc 3e 7c bd 91 3e
       0.2149951 0.033894174 0.3690332 0.28464878
000110 2c 48 75 3c f2 95 a8 3e 57 a6 eb 3e 4f 70 74 bd
       0.01497082 0.329269 0.46025345 -0.05967742
000120 2a e6 96 3e 0f a2 73 be 29 67 41 be ed 81 e3 3d
       0.29472476 -0.23792289 -0.18887009 0.11108766
000130 70 7d e5 3d dc 13 05 3f 6f 0a 5d 3e 3c 6e 25 be
       0.11205566 0.5198343 0.21586011 -0.16155332
000140 2b fc 9e 3e 81 b4 9b 3e ca 78 cc 3e a3 f6 e1 bd
       0.31051764 0.3041115 0.39935905 -0.1103337
000150 59 a8 33 bf 1b 9c 01 3d 53 94 ae 3e 36 4c f7 3d
       -0.70178753 0.031643014 0.34097537 0.12075083
000160 20 cc 11 bf ca bf 0a bf 66 7e 88 3e e5 93 bc 3e
       -0.56952095 -0.54198897 0.26658934 0.36831585
000170 9e 6a 02 3e f3 11 98 be 21 98 40 bf e4 eb 84 3e
       0.12735984 -0.29701194 -0.7523213 0.2596122
000180 ae 18 6f bd 8e 39 9e be ed 8b 83 be 78 7f 81 bb
       -0.058373146 -0.30903286 -0.25692692 -0.003951963
000190 c8 df 2f 3e fb cf ae 3e a2 de 6b 3d c4 35 fe 3e
       0.1717521 0.34143052 0.057585366 0.49650395
0001a0 ff 73 41 3e fb 8c c1 bd dc ea 0d 3d d3 86 16 3e
       0.18891905 -0.09450718 0.034647807 0.14699869
0001b0 0d a7 90 3d dd 1b 9b 3d 52 75 54 3d 99 3d 0f 3f
       0.070631124 0.07573674 0.051869698 0.55953366
0001c0 9c b0 58 3e c6 af ee bd 5b ac 0c bf 9c 5f c0 be
       0.21161121 -0.1165462 -0.54950494 -0.37572944
0001d0 f4 b7 d2 be 37 51 43 bf 14 a5 4f bf ce eb b3 be
       -0.4115597 -0.762958 -0.81111264 -0.35140842
0001e0 fd 22 eb be 39 3f 31 bf 81 ff ae be 95 7f 66 3e
       -0.4592513 -0.69237095 -0.3417931 0.22509606
0001f0 04 ea a8 3e c1 b2 0e be c1 9a 65 bd d8 4e dc 3c
       0.3299104 -0.13935377 -0.056055788 0.026893064
000200 2f 41 77 3d 3a 16 54 3e 34 d9 4c 3c a8 d7 93 3e
       0.0603649 0.20711604 0.012502957 0.2887547
000210 ce bd 0a be dd 50 6d 3e 3d e5 9d 3e 41 9c b7 be
       -0.13548967 0.23175378 0.30838957 -0.358614
000220 36 88 ea bd 66 4f 0f 3e d4 15 cf 3e 85 78 86 3e
       -0.114517614 0.13995132 0.4044634 0.26263824
000230 13 18 fc 3d a4 d7 6c 3e 26 01 a3 3e fe ca b3 bd
       0.12309279 0.23129135 0.31836814 -0.08778952
000240 be bc 5b 3e d6 13 90 3e 8f ee 5f 3e 19 39 d5 bb
       0.21458718 0.28140134 0.21868347 -0.0065070507
000250 4f 93 59 bd 36 7f cc 3e db 47 63 3e 3a 3c 8c 3e
       -0.053119 0.39940804 0.2219538 0.273897
000260 5f 11 a8 3d ab 23 0d bf 89 00 4c be 95 c5 59 3e
       0.08206438 -0.5513255 -0.19922079 0.21266778
000270 5c 9e a6 3e ae 09 74 be be 99 54 3d c5 a0 6e be
       0.32542694 -0.23831818 0.051904432 -0.23303516
000280 59 91 a1 bc 36 59 6c 3e 9e 09 54 3e c9 88 ce bc
       -0.019722627 0.23080906 0.20706794 -0.025211709
000290 67 6c 00 be b1 0b 37 3e 53 2e e3 3d bd 6e 51 3e
       -0.12541352 0.17875554 0.1109282 0.204524
0002a0 fa df 7e bd 9c ac cb be 87 5e f9 3e 84 bf cd 3c
       -0.06222532 -0.39780128 0.4870493 0.025115736
0002b0 12 77 81 3d 24 c2 0e be da 20 bb be 69 8a 81 bd
       0.06321539 -0.13941246 -0.365485 -0.06325228
0002c0 26 f0 46 be 93 83 88 bd 5e cb f3 bd ae 70 02 be
       -0.19427547 -0.06665721 -0.119040236 -0.12738296
0002d0 53 f3 02 3e d8 df 69 be 42 3c ad be 86 cd 25 bf
       0.12788133 -0.22839296 -0.33835036 -0.6476673
0002e0 36 ff 9f be c9 2b f1 3e f0 67 5e 3e 3f de 90 be
       -0.31249398 0.47103718 0.21719337 -0.2829456
0002f0 6b 8b 6f be 96 f1 b9 be 4b 15 a0 bc 2d 9d b7 3e
       -0.23393027 -0.36317128 -0.019541403 0.35862103
000300 fb f8 dd 3e 14 b7 a3 3e d6 c1 c5 3e 4b 45 c3 3d
       0.4335402 0.31975615 0.38624448 0.09534701
000310 9a 25 a5 3e 21 d6 0a 3f 02 3b cf 3e 78 86 cd 3d
       0.3225525 0.54232985 0.40474707 0.100354135

sequential/conv2d/BiasAdd/ReadVariableOp:0 f4 [8]
000000 05 b8 3d 3b 19 80 0a bd 8f 28 b0 bc b2 d3 b6 bb
       0.0028948796 -0.03381357 -0.021503715 -0.0055794353
000010 69 b3 c0 3d 9e e3 13 bc 48 91 81 3c 8b e2 32 bd
       0.0940922 -0.009026436 0.015816346 -0.04367308
