models/model42.onnx (onnx, 153271 bytes, 8 tensors)

sequential/dense_1/MatMul/ReadVariableOp:0 f4 [128, 10]
000000 8d 87 67 3e 44 c6 b5 be 3e 31 30 bd c7 32 ce 3d
       0.22610302 -0.35502827 -0.04301571 0.10068279
000010 f2 00 8b 3c de 65 66 3e 84 08 0c be ed 67 24 bd
       0.016968224 0.22499797 -0.13675123 -0.040138174
000020 0a 5d 00 be b3 b0 7f be 49 37 10 bf a2 de 63 bd
       -0.12535492 -0.24969749 -0.5633436 -0.05563224
000030 db 07 8f be de e7 40 3e 9b a8 ec 3d 3f 12 82 bd
       -0.2793568 0.1883845 0.115555964 -0.063511364
000040 de 01 9f be e9 c0 2c 3e fe ca e1 be f6 90 d9 3c
       -0.31056112 0.16870464 -0.44100183 0.02655838
000050 9b 2f 6c 3e 63 aa 88 be cd 96 a6 be 08 fc a2 be
       0.23065035 -0.26692495 -0.32536927 -0.3183291
000060 6d 76 52 3e 05 25 40 3e c9 0d 78 3d cf 04 26 3e
       0.20552988 0.18764122 0.06056002 0.16212772
000070 42 f2 73 be 6e 45 2e 3e fc 75 b8 ba 75 72 ae be
       -0.23822883 0.17018673 -0.0014073248 -0.340717
000080 be c6 1c 3e 4e 8f 19 3e fe e3 06 be 2b d3 f9 be
       0.15310189 0.14996073 -0.1317291 -0.4879392
000090 e7 5b 52 be c2 d8 e4 3d eb 1a 16 3e 1f 80 d3 3d
       -0.2054287 0.11174156 0.14658706 0.103271715
0000a0 3b c4 d0 be 63 42 b6 3e 40 09 62 bd ed d6 90 be
       -0.40774712 0.35597524 -0.055184603 -0.28288975
0000b0 17 54 37 3e ee d5 94 be 3e 27 78 3e 58 c0 df 3c
       0.17903171 -0.29069465 0.2423372 0.027313396
0000c0 5f 17 46 be 1d cb 00 be 68 29 d3 bc 2c 2f 16 bc
       -0.19344853 -0.12577482 -0.02577658 -0.00916652
0000d0 68 4f 64 be 24 77 82 be 72 9c a0 be 35 4a 62 3e
       -0.22295916 -0.25481522 -0.31369358 0.2209862
0000e0 8e ee 0a bf b4 22 9a 3e c4 03 fc bd 48 19 2a 3e
       -0.54270256 0.301046 -0.12305406 0.16611207
0000f0 9b 4f b7 be 6b 0b be 3d de 22 dc 3d e3 9a 20 3e
       -0.35802922 0.092795216 0.10748838 0.15684085
000100 f6 a6 8d be 48 62 8c be 80 1c 47 be 40 c6 d7 3c
       -0.27666444 -0.27418733 -0.19444466 0.02633965
000110 bc ae b8 bb ae cb 63 3d 34 42 30 bd 58 89 ba be
       -0.0056360643 0.055614166 -0.043031886 -0.3643291
000120 98 d8 b3 3d 16 1f 81 bc a9 4c d6 3d 53 ce 89 be
       0.08781546 -0.015761893 0.104638405 -0.26915225
000130 be d5 10 3e d5 8a 5e be 02 84 97 3d d2 89 1a be
       0.14144036 -0.21732648 0.07398225 -0.15091637
000140 e5 79 01 bf ad b7 2e be 81 73 1f be 49 62 9c 3d
       -0.5057662 -0.17062254 -0.15571405 0.07635934
000150 47 76 31 3e e5 4f 61 be 18 c2 8b be 59 9e dc 3d
       0.17330275 -0.22003134 -0.2729652 0.1077239
000160 05 da a1 bd c1 b8 b5 3d 49 2c 89 bd 91 ba 32 be
       -0.07902912 0.0887313 -0.066979 -0.17453982
000170 fa ff ba be 71 7f fd be 29 31 24 3e 73 98 a3 be
       -0.3652342 -0.49511293 0.16034378 -0.31952247
000180 2c 2f 00 be a9 b2 42 3e 04 0b b6 3d 81 19 c5 3c
       -0.12517995 0.19013466 0.0888882 0.024060013
000190 a6 7c 82 bd 9a 43 be be cb b3 d4 bd ed a2 b7 3d
       -0.06371431 -0.3716095 -0.10385855 0.089666225
0001a0 df bf bf 3d d8 14 2a be d3 f0 14 3e a9 fd 7b bd
       0.093627684 -0.16609514 0.14544992 -0.061521206
0001b0 ff 02 49 3c ba 33 8c be cd 39 90 3e 07 dd 8c be
       0.012268781 -0.27383214 0.28169098 -0.2751238
0001c0 eb 17 03 3e 01 db 85 be c8 0e f7 bd a1 0a 48 be
       0.12802093 -0.2614365 -0.12063366 -0.19535305
0001d0 e3 d2 4e be 95 29 70 3d a1 d0 33 be 4e 49 f0 3d
       -0.20197634 0.058633406 -0.17560054 0.11732732
0001e0 81 a2 28 be c2 b2 d7 bd 5f 3b 18 be b8 f2 23 3e
       -0.1646824 -0.10532142 -0.14866398 0.16010559
0001f0 03 6f 53 bd e2 71 0b be 6f 9e d4 bd 8f ce 06 3c
       -0.05161954 -0.13617662 -0.10381781 0.008227958
000200 ce 60 fa bd 3a ac 32 3d 29 b5 54 be c4 5d 77 be
       -0.12225495 0.04362128 -0.20772232 -0.24156862
000210 50 29 bd be 16 af 19 be 76 41 57 3e f2 16 44 be
       -0.3694558 -0.15008196 0.21021065 -0.19149378
000220 f1 d9 09 3d 80 ab df bd 6f 01 d8 be ee a3 61 3e
       0.03365511 -0.10921383 -0.42188594 0.2203519
000230 1d 12 8f be b4 e4 44 be e7 0c 31 3e bf 36 ad bd
       -0.27943507 -0.19227868 0.17290078 -0.084577076
000240 ca 06 b8 be c1 46 c7 3d 61 62 12 3e cb c1 a7 be
       -0.3594268 0.09730292 0.14295341 -0.3276504
000250 43 1b 2e 3e 44 29 e5 bd 71 97 9a be fd de 05 bb
       0.17002587 -0.111895114 -0.30193666 -0.00204271
000260 65 5c 15 bd 95 93 3e bd a2 83 86 bd 76 b3 e0 3d
       -0.036465067 -0.046527464 -0.06568076 0.109717295
000270 4d cd 59 be b1 61 cf bd 16 a4 f7 bd ea 28 7c be
       -0.21269722 -0.10126055 -0.12091844 -0.24624982
000280 b6 ef 41 be a6 df 96 bd ab c0 22 3d 60 21 40 bc
       -0.18939099 -0.07366876 0.039734524 -0.011726707
000290 23 9d 34 be 60 d7 e8 3d 75 e7 37 3d e9 84 bf be
       -0.17638068 0.113692045 0.04489847 -0.3740609
0002a0 fc 0e 14 3e f3 20 1f bc 12 78 da 3d c9 53 41 be
       0.14458841 -0.009712446 0.10667433 -0.18879618
0002b0 6f 58 43 3e 06 49 7f be 3a 03 74 3e b1 ad 88 3d
       0.19076703 -0.249302 0.23829356 0.06673754
0002c0 c1 e9 c9 bd eb 13 c1 be 6f 7b f5 3d 17 1a 8a 3d
       -0.09859038 -0.3771051 0.11986434 0.067432575
0002d0 a4 0b 4e bd ae 91 64 be c1 8f ff 3d 34 4a 47 3d
       -0.05030407 -0.22321197 0.12478591 0.04865475
0002e0 c0 48 5f 3d 8e d5 42 3c da 9d 8d bd 2c 6f 8f 3d
       0.05451274 0.011891736 -0.069148734 0.07003626
0002f0 83 01 09 bc 62 f7 02 be cc f4 a7 3d 47 85 32 be
       -0.008362177 -0.12789682 0.08200988 -0.17433654
000300 26 61 b1 3d 79 e3 9f 3d 01 37 bf be 06 24 c4 be
       0.08661108 0.07807059 -0.37346652 -0.38308734
000310 74 a2 4a be c1 ba 16 be 9e de ba 3d b5 e6 8a 3d
       -0.19788533 -0.14719678 0.09124492 0.06782285
000320 3c 27 2f be 6b d6 60 be a1 d1 ac 3e 9c c7 2a be
       -0.1710481 -0.21956794 0.33753684 -0.16677707
000330 c5 91 2c be 77 1f 47 be 64 9d ad be de 31 9f 3e
       -0.16852482 -0.19445597 -0.33909142 0.31092733
000340 f6 4f e0 bd 11 c7 92 bd fe 37 94 be 6c 06 f7 bd
       -0.10952751 -0.07166875 -0.2894897 -0.12061772
000350 17 3a be bc e1 da e8 be 16 e3 50 3e 06 93 51 3e
       -0.023221059 -0.4547949 0.20399126 0.20466241
000360 68 22 a5 3e 09 ed be be cd 08 12 be 7f 1b dc bd
       0.32252812 -0.37290218 -0.1426117 -0.10747432
000370 18 98 c3 be 13 26 af 3d c0 22 39 be 45 ae 8a 3e
       -0.38201976 0.08552184 -0.18079662 0.27086082
000380 d2 f8 df be a8 68 67 3e ae e6 61 be 6d c6 83 be
       -0.43744522 0.22598517 -0.22060654 -0.25737324
000390 50 da 05 3e 5e 98 90 bc 04 a9 1b be 1f f0 31 be
       0.13071561 -0.01765078 -0.15201193 -0.17376755
0003a0 e5 82 35 3e ad 4e 82 be a9 f5 47 3e 4a d9 4b 3e
       0.17725714 -0.2545065 0.19527306 0.19907108
0003b0 5f f8 c2 bd 46 ae 79 3e 46 bb 9f be e2 19 84 3e
       -0.09520029 0.24382886 -0.31197566 0.25800997
0003c0 25 56 14 3e 8a 80 e8 bc f7 f9 66 3b 35 05 17 3e
       0.14485987 -0.028381605 0.0035244206 0.1474808
0003d0 f0 c9 fd be 5c b6 14 3e e3 92 0d be ba 7c b9 3b
       -0.4956813 0.1452269 -0.13825564 0.0056606205
0003e0 5e 13 bb 3d b1 b4 67 be c3 ec f1 bd 83 d5 ac 3d
       0.091345534 -0.22627522 -0.11812737 0.08439162
0003f0 50 51 1c be 1f 5e 36 be 72 0e ac 3d 1d 7b d3 bd
       -0.15265393 -0.17809342 0.08401193 -0.10326216

sequential/dense_1/BiasAdd/ReadVariableOp:0 f4 [10]
000000 5e bf b0 3d 46 c2 36 3d 24 6e 2d bd 05 a8 05 3d
       0.086302504 0.044618867 -0.042341366 0.03263094
000010 9f 08 92 bd 8f d3 01 be 4a e3 9d bd ed dc f6 bc
       -0.071305506 -0.1267836 -0.077093676 -0.030134642
000020 80 2a eb 3d 3f 56 30 3d
       0.114827156 0.043051

sequential/dense/MatMul/ReadVariableOp:0 f4 [256, 128]
000000 c6 2f a8 3e 92 43 33 3d 4b 41 36 bd 46 f1 6e bd
       0.32848948 0.043765612 -0.044495862 -0.058335565
000010 73 38 e2 be 13 38 bd bd 0c b6 fc 3d 48 8a 72 be
       -0.44183692 -0.09239211 0.1233941 -0.23685563
000020 5a 81 b5 bd 34 56 85 3d 4f 3b 0c be 73 f4 bc 3b
       -0.088625625 0.065105826 -0.136945 0.0057664453
000030 4d 6b d0 3d d1 b5 49 3e 90 46 7d bd 42 6e 58 bd
       0.10176716 0.19698264 -0.06183487 -0.052839525
000040 1b 6e e0 bd cb 7c a0 bd 1e 2c 9d bc 41 1d aa 3d
       -0.10958501 -0.07836302 -0.019186076 0.08306361
000050 ab 11 99 3e 5e 88 cd be 30 dd 1c be 5a b1 a4 3c
       0.29896292 -0.40143102 -0.15318751 0.020104099
000060 c6 be f8 3d a7 5e 6b 3e 79 f4 6d 3e 86 13 31 3e
       0.12145762 0.22985326 0.2323779 0.17292604
000070 32 e0 b4 3d fc 21 87 bc d1 39 8b 3d 74 d0 45 3e
       0.08831824 -0.016495697 0.06798137 0.193178
000080 9a 06 13 be b0 27 a3 3e b8 3a a5 3d 95 b2 d9 bd
       -0.14357987 0.31866217 0.0806784 -0.10629765
000090 a3 30 23 be fd 0b 49 be 18 49 27 bc 7e 9e 14 be
       -0.15936522 -0.1963348 -0.010210298 -0.14513585
0000a0 f2 e1 0d 3d 3e 3f 99 be 00 87 8b be f4 3b ca bd
       0.034639306 -0.29931062 -0.27251434 -0.098747164
0000b0 45 bf ff 3d 59 1d 94 bc 20 a8 18 3e 77 4a 09 be
       0.12487654 -0.0180804 0.14907885 -0.13407312
0000c0 8c eb 82 3e 42 84 30 be 96 1c d0 3d 20 90 8a bc
       0.25570333 -0.17237952 0.10161702 -0.016914427
0000d0 9c 9f b5 3c 29 61 84 3e e6 5f 6f be 26 76 d0 bd
       0.022170834 0.25855377 -0.23376426 -0.10178785
0000e0 34 99 86 3d 59 79 55 3e 8a 97 ae be 73 10 78 3e
       0.0657219 0.20847072 -0.3409999 0.24225025
0000f0 1d fd 20 3e 82 18 b0 3e 13 e4 b7 3d 84 ea 26 3a
       0.15721555 0.34393698 0.089790486 0.0006367343
000100 8a cf 64 be 94 b5 35 bc c0 96 8c ba ed e3 75 bc
       -0.22344795 -0.011090655 -0.0010726079 -0.015007955
000110 1b 03 cc 3d f9 b8 bb 3b bf ee 51 3e d6 5b 02 3d
       0.0996153 0.0057288376 0.2050123 0.031825863
000120 6a d7 1e be 06 3e a1 3d a9 c5 10 be 97 de 9e bd
       -0.15511861 0.07873158 -0.14137901 -0.077572994
000130 5a 71 84 3d ab 01 10 bd 71 8e 50 3d 29 70 f9 bd
       0.064669326 -0.03515784 0.050917093 -0.12179596
000140 4e a4 0b 3e b5 a1 5f bd 03 3e 56 3d 09 2b 02 be
       0.13636896 -0.054597575 0.052305233 -0.12711729
000150 75 87 13 be 7f bc 9d bb 8e 70 a2 3e bc d9 df 3c
       -0.14407142 -0.0048137303 0.31726497 0.027325504
000160 fe 0f ae bd 20 43 20 3e a3 54 3b 3e 1a 92 ca bd
       -0.08499144 0.15650606 0.18294005 -0.09891148
000170 3f 4d df bd 6b 59 a1 bc 72 3d ac 3d 65 ab 4f be
       -0.109034054 -0.019695958 0.08410157 -0.20280226
000180 c8 ea 2c 3d f8 70 0b 3d ba c0 b4 3c 21 28 15 3e
       0.042216092 0.034043282 0.022064555 0.14566089
000190 ab bf 41 3d 60 64 22 3d 64 85 ea bd d9 a4 3c bd
       0.04730193 0.039646506 -0.114512235 -0.04605565
0001a0 7b 05 39 be b2 0c 82 3d a1 a5 86 3e 64 b1 83 be
       -0.18068497 0.06350078 0.2629824 -0.25721276
0001b0 84 8e 94 3e 6c 84 62 be ed 98 43 3d fd 72 05 be
       0.2901498 -0.22120827 0.047753263 -0.13032146
0001c0 5f 72 b4 3d b2 96 f9 bd ab 3d 2f be 47 eb 5b be
       0.08810877 -0.12186946 -0.17113368 -0.2147647
0001d0 e3 f7 5f 3d 0e 4c 8e be b8 2f 6d be 5f 15 9a be
       0.054679763 -0.277924 -0.23162735 -0.3009443
0001e0 a6 4f 11 3d f7 b3 f9 3d 8c c2 90 3d 6e 24 20 bd
       0.03547635 0.12192529 0.07068357 -0.039097242
0001f0 7e f3 b7 be 9d 38 e1 bd c9 c8 98 3d 06 bc 0c 3e
       -0.35927957 -0.10997126 0.07460172 0.137436
000200 59 61 ae be e6 69 21 3d 0a 7a 33 3d 56 30 16 bd
       -0.34058645 0.039407633 0.043817557 -0.03666719
000210 88 3c 3f 3e 31 22 ee be 0f c7 41 bd a3 8a 39 3d
       0.18675435 -0.4651046 -0.047308978 0.04529823
000220 24 1b 8b bd a5 30 dd 3d cb e6 af bd be 6f 4a be
       -0.06792286 0.10800294 -0.08588942 -0.19769189
000230 61 c8 f6 bd 76 fa 05 bf 30 7e 0c be 43 9e 34 3d
       -0.12049938 -0.523353 -0.13720012 0.044096243
000240 c1 a8 37 3e 1f 1e a9 bd 05 78 8d 3d c4 f1 09 be
       0.17935468 -0.08257698 0.069076575 -0.13471133
000250 64 d6 04 bd 66 1d 1e 3d a5 83 b8 bd fe 7d 68 3e
       -0.03243102 0.038602255 -0.09009484 0.22704312
000260 02 55 40 be 4f 4e 09 3e c3 6d 55 be 3f c6 4c 3e
       -0.18782428 0.13408779 -0.20842652 0.199975
000270 03 6f 43 3e f1 96 e5 be 4d cb 11 3a 67 68 9e 3e
       0.19085316 -0.44841722 0.0005561605 0.30939028
000280 21 5d 1e bd a3 ad d1 bc 40 72 13 bd 7e ed bf 3d
       -0.038663033 -0.025595492 -0.03599763 0.0937147
000290 d4 34 a4 bd 1c 89 80 3d 8a 0d 3b be a6 22 0a 3e
       -0.08017889 0.062761515 -0.18266883 0.1348978
0002a0 79 63 9d bd 42 95 1d 3e ad 9f 59 bd 8c 27 07 3d
       -0.076849885 0.15388969 -0.053130794 0.0329967
0002b0 b3 44 02 bc 70 48 0b bd ef ea 17 be c9 2d b3 3d
       -0.0079509495 -0.03400463 -0.14835714 0.08748967
0002c0 58 09 40 be e6 2c 8b bb 09 e7 0a be 4e aa aa 3d
       -0.18753564 -0.0042472957 -0.13564695 0.08333264
0002d0 4a 37 02 3e a9 01 a0 3d d8 11 b3 bd da fb 21 3e
       0.12716404 0.07812817 -0.08743638 0.1581873
0002e0 dc 16 36 be ff 6e b3 3d 05 fb c7 bb 99 d8 f3 bd
       -0.17782158 0.08761405 -0.006102922 -0.11906547
0002f0 64 34 4d be c4 58 38 3c ee 5b 78 3d bd 71 e5 bd
       -0.20039517 0.011251632 0.060634546 -0.112033345
000300 77 11 3d 3d 5b a6 6f 3d e7 27 19 bc a7 88 9c be
       0.046159234 0.05850826 -0.009347892 -0.30573007
000310 e6 eb a8 bb 6e 14 ce bd d3 02 72 be 66 7f 3b bd
       -0.0051550744 -0.100624904 -0.2363389 -0.045775793
000320 17 77 11 be 1f a9 f0 bd ac 76 cf 3d 42 c8 6d be
       -0.14205585 -0.11751007 0.10130057 -0.23220924
000330 6c 4e 12 3e 0f fc 9c bd 83 20 f4 3d b0 a4 19 bd
       0.14287728 -0.07665264 0.119202636 -0.037510574
000340 e3 3f 99 3d 69 bd e3 bc 59 5d 9c bd 5b 4d ea 3c
       0.074828885 -0.027800279 -0.07634992 0.02860134
000350 55 12 dd 3d f7 97 87 3d 04 ff ca bd a2 21 f3 bd
       0.10794512 0.06620782 -0.099119216 -0.11871649
000360 82 0b 2f 3d 48 02 46 3e ef 0a 13 3e 01 6a 56 3d
       0.042735584 0.19336808 0.1435964 0.052347187
000370 04 53 1d be c5 30 25 be e1 2a e8 3d 42 85 f0 bd
       -0.15363699 -0.16131885 0.113363035 -0.11744167
000380 16 26 dd bd fe be 80 be 86 13 23 bc 71 b4 3a 3d
       -0.1079828 -0.25145715 -0.009953385 0.04558224
000390 38 be a6 bc 3f 59 7c 3c 6d 02 14 3e b2 24 3f bd
       -0.020354375 0.015402137 0.1445405 -0.046665855
0003a0 0c b4 fe bd ba 52 d6 bd 4f 2c d3 bc f7 d4 20 be
       -0.12436685 -0.104649976 -0.025777964 -0.1570624
0003b0 d2 e1 0c 3c bb 10 a5 bd e6 de d9 bd 32 23 15 be
       0.008598762 -0.08059832 -0.10638218 -0.14564207
0003c0 73 dd 2f bd 2a 93 fa bc 17 32 52 be de 15 ef 3d
       -0.0429358 -0.030587751 -0.2052692 0.11674093
0003d0 28 f1 cd 3c 8f 6c 53 be 64 50 cf 3c d3 5b df 3d
       0.025139406 -0.2064688 0.025306888 0.10906186
0003e0 ea 78 08 3d 18 a8 1e be 81 5b 13 be 7c ee 93 be
       0.033318438 -0.1549381 -0.14390375 -0.28892887
0003f0 c1 21 1e bd 6d 6c dc bd 16 51 55 3e ad 9c e1 bd
       -0.03860641 -0.10762868 0.20831713 -0.11016212

sequential/dense/BiasAdd/ReadVariableOp:0 f4 [128]
000000 eb cc 96 3c 95 dc 56 bc 43 98 b7 bb 86 96 21 3d
       0.01840826 -0.013114114 -0.005602868 0.03945019
000010 1c 87 f6 3c 2b 10 b3 bc fa e9 8a 3c 73 63 87 bd
       0.030093722 -0.021858295 0.016957272 -0.06610765
000020 00 d6 00 bd 83 c5 0e 3d 2f 27 05 bd 9c fa 91 bd
       -0.031454086 0.03485633 -0.03250807 -0.07127878
000030 b1 72 b2 bc be 5a 5d 3c f1 ed ef bd e4 59 2e bd
       -0.021783205 0.013510404 -0.117153056 -0.042566195
000040 dc bf 38 bd 9c f4 ba bd 4a 9e 38 bd c2 d2 b3 3c
       -0.045104846 -0.09128687 -0.04507283 0.021951083
000050 ba 63 c9 bc 1d b9 20 ba 44 8b 15 bb 07 0f 43 bd
       -0.024583686 -0.00061310997 -0.0022818604 -0.047621753
000060 49 72 0b bd b5 7a 13 3d ae 7b 5c bc 9e 2d bb bd
       -0.034044538 0.036005694 -0.013457222 -0.0913956
000070 bb a9 84 3d 90 64 c6 3d 17 84 fa ba d5 9a a3 bc
       0.06477686 0.096871495 -0.0019112852 -0.01997129
000080 41 67 30 bc a7 77 6e bc c3 25 f5 bc 0f 83 bf bd
       -0.010766805 -0.0145548945 -0.029925233 -0.09351169
000090 8e 2d 5b bd 0b 83 af bc e9 c3 36 bd d3 55 5b 3d
       -0.05351024 -0.02142479 -0.04462043 0.053548645
0000a0 04 67 86 3c b1 36 3a bd 4b f5 05 bd 5d 1f ad bd
       0.016406544 -0.045462314 -0.032704633 -0.08453248
0000b0 54 72 c2 bc 73 76 48 bd 5c 3c 2f 3c a7 53 08 3c
       -0.023736157 -0.048941087 0.010695543 0.0083207255
0000c0 9e 77 1c bd 01 f7 53 bd 31 fe 05 be 56 0e 75 bb
       -0.038200013 -0.051749233 -0.13085248 -0.0037392578
0000d0 d8 07 bb 3b 0e d4 3d bd b3 54 81 3c 6a 04 12 bd
       0.005707722 -0.04634481 0.015787458 -0.03564874
0000e0 ae 54 12 3d e2 5f 6e 3d dd fe 6b 3d 2c 30 6f 3d
       0.035725288 0.05819691 0.057616103 0.05839555
0000f0 ad e0 6f bc c1 84 60 3d aa 23 18 3d 31 53 47 bd
       -0.014640969 0.054814104 0.037143387 -0.048663322
000100 e9 97 7d 3d 99 65 41 bd 82 59 67 bc f2 25 6e bb
       0.06191245 -0.04721603 -0.014120461 -0.0036338535
000110 a8 23 9c 3b a4 8d 84 bd 27 e7 b6 bd ce 74 46 bd
       0.0047649927 -0.06472328 -0.089308076 -0.048451237
000120 a4 46 db bc e3 9b 2a bc 1c 67 45 bd 61 af 28 3d
       -0.026767083 -0.010413143 -0.048194036 0.04118288
000130 0b 83 61 3b 0b 13 3c bd 76 c4 ef 3c 88 50 f9 bd
       0.0034410383 -0.0459166 0.029268485 -0.12173563
000140 8d f5 4f 3d 67 b3 37 bb 82 d6 8a bc f9 79 63 3d
       0.050771285 -0.0028030516 -0.016947988 0.055536244
000150 e7 49 3d 3d ee ab 93 bc c4 6a 57 3c e2 4a f2 bd
       0.046213057 -0.018026318 0.0131480135 -0.11830689
000160 68 81 6a bd 09 e0 18 3d 0d 6c dc bc 3b 36 6c bd
       -0.057252318 0.03732303 -0.026906991 -0.057668906
000170 63 ec 42 bc 57 15 b1 3c c0 5e da bb d8 50 c8 3c
       -0.011897179 0.021616621 -0.006664127 0.024452612
000180 8d 2c 42 3d 2e 31 b1 bc 3f e1 08 3b bd 2e cf bb
       0.04740577 -0.021629896 0.002088621 -0.0063227103
000190 f4 19 fc bd 59 b1 13 be 02 6d 91 bd b3 ee 0f bd
       -0.12309638 -0.14423122 -0.0710087 -0.03513975
0001a0 be aa 5e bd 37 d1 39 3d fc 30 b3 bd e7 38 56 bd
       -0.05436205 0.04536554 -0.087495774 -0.05230036
0001b0 95 1a a5 bb 5d 62 8d 3c 9c df 08 bd 8c c3 a3 bc
       -0.005038569 0.017258817 -0.033416376 -0.019990705
0001c0 a9 3f f2 bb d2 74 80 bd 59 c4 2b bd 50 23 34 bd
       -0.007392843 -0.06272282 -0.0419353 -0.04397899
0001d0 98 17 e5 bd 4f cd 04 3d d4 6a 81 39 d4 50 c9 bc
       -0.11186141 0.03242236 0.0002468439 -0.024574675
0001e0 b3 86 b6 bc e4 5a d8 bd 99 d7 95 bd c4 ae 7a 3d
       -0.022281026 -0.10564211 -0.073165126 0.061201826
0001f0 7b 4a 68 bc 7c 10 81 bc 26 eb b5 3c c9 5e 65 3c
       -0.014177914 -0.01575493 0.022206854 0.013999649

sequential/conv2d_1/Conv2D/ReadVariableOp:0 f4 [16, 8, 5, 5]
000000 1b 28 6f 3d ad 4c 49 bd 24 8e 10 bd a5 5a a7 be
       0.058387857 -0.04914539 -0.035291806 -0.32686344
000010 02 9d e9 be b4 d4 93 ba 69 9f 4a be c3 e6 83 3d
       -0.456276 -0.00112786 -0.19787373 0.06440499
000020 82 06 e3 3d f5 4a 9e be b2 d7 4f be 1e 07 65 bd
       0.11085226 -0.30916563 -0.20297125 -0.05591499
000030 8d 5b 22 3e 11 23 9d bc cf 28 c2 bd 49 2c a9 3e
       0.15855236 -0.01918176 -0.0948044 0.330416
000040 93 cb 14 3e ad 3b 80 be ce 83 fa bc fe 2e 2c bd
       0.14530782 -0.2504553 -0.030580427 -0.042037003
000050 a6 f0 fe bc f9 70 f0 bd a9 86 3d bc fe 4f 1f 3e
       -0.03112061 -0.11740298 -0.01156775 0.15557858
000060 3b 86 e5 3d 1f 51 aa be a3 5b 36 3e f6 6f 5d 3e
       0.11207243 -0.33265015 0.17808394 0.21624741
000070 cf e3 6b 3e a3 1e 1a 3e 79 65 3a 3d b8 97 54 be
       0.23036121 0.1505075 0.045506928 -0.20761001
000080 d2 8a 7f be 78 80 b9 bd 6c 72 c6 bb 30 a3 51 bd
       -0.249553 -0.090577066 -0.0060561206 -0.05118102
000090 87 35 ce bc 91 93 41 3d 53 b2 51 be d9 88 01 3e
       -0.025172008 0.04725987 -0.20478182 0.1264986
0000a0 fe c7 03 3c f5 e2 ef bd 59 41 8d 3e ac 81 4c 3e
       0.008043287 -0.117132105 0.2758892 0.19971341
0000b0 a2 fa ac 3d 2e 34 96 3d 21 df 43 3e 55 b9 9a 3e
       0.08446242 0.07334171 0.19128086 0.30219522
0000c0 55 23 e2 bd b2 ea 5f 3d 90 93 80 3e f4 87 40 3d
       -0.11041895 0.054667182 0.2511258 0.047004655
0000d0 4d 99 24 3c 18 c9 23 be c4 c1 fc 3c b9 42 8f 3e
       0.010046315 -0.1599468 0.030854113 0.27980593
0000e0 d3 00 b0 3c 3b 9a 95 be 88 ca 40 be 1e 91 1a 3e
       0.021484768 -0.2921923 -0.1882726 0.1509442
0000f0 58 68 ea be 76 4c 04 bd 27 88 27 bd 8f a7 d4 be
       -0.45782733 -0.03229948 -0.04090133 -0.41534087
000100 ab 0f cc be fc f1 23 3e 4f 74 9c 3e 6b 53 06 bb
       -0.39855704 0.16010278 0.30557486 -0.0020496498
000110 5d 7b 0f be db ab 77 bd da e7 20 3e 91 b6 88 3d
       -0.14011903 -0.06046663 0.15713444 0.06675447
000120 d6 e6 0f 3d 3e 6b 0a 3e 6c bc 76 bd 20 85 84 3e
       0.03513225 0.13517472 -0.060238287 0.25882816
000130 77 48 99 bd d3 51 27 be 36 c0 d1 bd 56 a0 45 3e
       -0.07484525 -0.16339807 -0.102417395 0.19299445
000140 e7 f1 36 3d a9 39 8f 3c 0c 59 d5 be 1d 6b c8 bd
       0.04466429 0.01748355 -0.416695 -0.09786055
000150 e9 fc 28 3e ea 19 d8 be 2c 15 88 bd 6d 67 c1 be
       0.16502728 -0.4220727 -0.06644663 -0.3777422
000160 93 1b e5 be b2 34 a4 be 4c ff 03 be f1 f6 c9 bd
       -0.447476 -0.32071453 -0.12890357 -0.098615535
000170 88 0c b5 bd d5 de 22 3d 09 08 e3 3c 3a bb 83 bd
       -0.08840281 0.03976329 0.027713792 -0.06432195
000180 54 71 91 bc c7 f2 de bc 27 b0 db 3d 2c 79 5a 3e
       -0.017754234 -0.027215375 0.10726958 0.21335286
000190 bd fd af bd c8 cd 8c bd 0d 81 8c 3d dc b7 98 be
       -0.085933186 -0.06875187 0.06860552 -0.29827774
0001a0 71 83 46 be 99 09 c6 bd 0a 6c 1c bd 33 9f 34 3d
       -0.19386078 -0.09669799 -0.03818897 0.044097137
0001b0 07 8a 4e bd 90 42 88 be 13 41 1b 3e 79 a0 2b 3e
       -0.050424602 -0.26613283 0.15161543 0.16760434
0001c0 9e 24 48 3e f9 03 17 3e 50 d1 a5 3e e6 e1 2f 3d
       0.19545218 0.14747609 0.32386255 0.042940043
0001d0 ae 35 de 3d 7e a5 3a 3d 9a 18 6a 3c b5 24 48 3e
       0.10850082 0.045567982 0.014288092 0.19545253
0001e0 4c 12 fe bd ef 21 8c be 88 d9 31 be 0b 8c 80 be
       -0.124058336 -0.2736964 -0.17368138 -0.25106844
0001f0 ae 8e 6a bd aa 7c a7 bd c8 79 d2 bd e5 d4 84 bd
       -0.057264976 -0.08178075 -0.10277134 -0.06485919
000200 7e da 0a be 16 a2 05 3e fc 92 59 3b 7b d8 10 3d
       -0.1355991 0.13050112 0.0033199182 0.035362702
000210 93 7c 34 be 76 cb 24 bd 1e 76 7d 3e 6a ef db bd
       -0.17625646 -0.040233098 0.2475209 -0.10739024
000220 8f fb 48 be e2 dc 45 be 45 bd 87 be f6 e0 52 be
       -0.19627212 -0.19322541 -0.2651159 -0.20593628
000230 d9 74 8a be 58 99 af 3d 8b 41 d4 3c 1c d1 94 bc
       -0.27042273 0.0857417 0.02591016 -0.018166117
000240 9f 7a 19 bc 47 3b 11 be 5c 63 96 3d 66 c5 a6 bc
       -0.009367614 -0.14182769 0.0734317 -0.020357799
000250 f9 b5 0d bc 8f f0 15 bd a7 0d 33 be c6 71 a2 be
       -0.008649343 -0.036606368 -0.17485677 -0.31727427
000260 4c bc 7e be 69 78 b1 ba 34 32 c0 3d 58 a6 0d bf
       -0.24876517 -0.0013539913 0.093845755 -0.55331945
000270 7d ce 55 3c d5 71 a9 3a eb e7 0d be a3 fc a4 be
       0.013049719 0.0012927601 -0.13858001 -0.32223997
000280 44 eb 1c be cb 4f 93 3e 81 fc 56 3e 47 24 a6 3d
       -0.15324122 0.28771815 0.2099476 0.08112388
000290 df d0 cc 3d a8 0a 9a 3c a7 de e6 3d d6 7d eb 3c
       0.100007765 0.01880391 0.11272936 0.028746527
0002a0 db e7 32 3e 21 8c d1 3b 9f 89 4a be fd c8 c1 bc
       0.17471258 0.0063948785 -0.19779061 -0.023655409
0002b0 4f db 81 bd d8 24 d5 bd 03 55 6b be e1 82 e4 bd
       -0.06340658 -0.10407418 -0.22981648 -0.11157776
0002c0 c6 76 57 3e 52 19 51 bb 1b 23 b5 bd b7 8f 09 3d
       0.21041402 -0.0031905961 -0.088445865 0.033584323
0002d0 e0 78 22 3e 63 7c 92 3e e9 5e 41 3e 68 a6 1a 3e
       0.15866423 0.28610525 0.18883862 0.15102541
0002e0 6e 20 84 3e e1 59 90 bd 5e 8e 0e bd d8 61 7d bd
       0.25805992 -0.07048393 -0.03480374 -0.06186089
0002f0 9a 01 8c bd 0d 66 22 be fb 65 37 be 41 4e ef bb
       -0.06836243 -0.15859242 -0.17909996 -0.0073030298
000300 28 0d 08 3b 97 56 12 3e c6 a3 2d 3e bf d0 32 3e
       0.0020759795 0.14290844 0.16957006 0.17462443
000310 98 d3 18 3e 1a f9 77 3d 6e 2c 04 3e bd 77 68 3d
       0.14924467 0.060540296 0.12907574 0.056754816
000320 bd f8 62 3d f4 fa 90 bd 37 5c 5b bb 84 79 9f 3c
       0.055412997 -0.070791155 -0.0033471712 0.019467123
000330 57 27 48 3e 5b 7c 47 3d a3 b6 56 be 9c cc 84 ba
       0.19546257 0.04870258 -0.20968108 -0.0010131779
000340 3b 7e c4 3e 1d 8d 6a 3e f9 40 40 3e 9a 95 f6 bd
       0.38377556 0.22905393 0.18774785 -0.12040253
000350 bc 3a 56 3e 04 ec 35 3e 27 59 c8 3d 62 84 8f be
       0.20920843 0.17765814 0.097826295 -0.28030688
000360 98 33 ac be be 6d d5 bd 80 51 70 3e 73 a2 a4 3e
       -0.33633113 -0.10421322 0.2346859 0.3215519
000370 82 cb c3 bb ac e0 16 be e3 72 2a be f2 bc ad 3d
       -0.0059751878 -0.14734143 -0.16645388 0.08483304
000380 72 96 59 3d 7b 20 82 3e fd 6e 19 bd 4f 04 8f bd
       0.05312199 0.25415406 -0.037459362 -0.06983244
000390 c1 ae 56 3d 43 a4 50 bd 16 b5 d8 3c fd 23 4f be
       0.052412752 -0.050937902 0.026453536 -0.20228572
0003a0 84 4a 2f 3e 93 df 3a 3e 35 a6 24 be a0 d5 da 3d
       0.17118269 0.1824935 -0.16079028 0.10685277
0003b0 97 75 16 bf e5 ed 02 bd f8 d1 72 bd b2 71 30 be
       -0.5877318 -0.031965155 -0.059282273 -0.17230871
0003c0 8f 5a f8 bd 90 42 98 be 16 cc 69 be 99 63 b4 bd
       -0.12126648 -0.29738283 -0.22831759 -0.08808059
0003d0 87 10 9c 3d 76 fd 18 3e 4b cd 74 be fa df 2c bd
       0.0762034 0.14940438 -0.23906438 -0.04220579
0003e0 a8 89 c2 3c 55 05 8a 3e 33 45 41 3e f1 32 c1 bd
       0.02374728 0.26957193 0.18874054 -0.094335444
0003f0 d4 ca 1a be 25 b6 e9 3d fd 2b f7 3d 78 50 9e 3d
       -0.15116435 0.114116944 0.12068937 0.07730192

sequential/conv2d_1/BiasAdd/ReadVariableOp:0 f4 [16]
000000 03 14 0b be 5e fa c9 bd b2 dc 54 3d ba 15 a6 3d
       -0.13581853 -0.09862207 0.051968284 0.08109613
000010 05 c9 d5 bc ec d0 c3 bd b8 d8 8f bd 37 31 b7 bc
       -0.02609683 -0.09561333 -0.07023758 -0.022362335
000020 4e 2c 33 bd ec 28 df bd 08 62 2f be 50 44 6f bd
       -0.043743424 -0.10896477 -0.1712724 -0.058414757
000030 2f 4e 9e bc 49 9e d5 bd 62 36 f5 38 3f c4 00 be
       -0.01932439 -0.10430581 0.0001169264 -0.12574862

sequential/conv2d/Conv2D/ReadVariableOp:0 f4 [8, 1, 5, 5]
000000 f1 68 a0 3d d9 f1 be bd 25 24 1d bf 24 60 50 be
       0.07832516 -0.093234725 -0.6138328 -0.20349175
000010 b3 7d 4e 3c 4c 06 d4 3c da 06 8e 3d b5 2c e3 3d
       0.012603211 0.025881909 0.069349006 0.110925116
000020 27 5d 3c 3e 4d e6 27 3d 2a 2c 08 be d0 91 93 3e
       0.1839491 0.040991116 -0.13298097 0.28822184
000030 a5 48 05 3d 31 b6 81 bd 7b cd b7 be 4a f5 9e 3e
       0.032539982 -0.063335784 -0.35898957 0.31046516
000040 b0 83 30 bd f3 f5 36 be 97 65 f3 be c2 67 31 3e
       -0.043094337 -0.1786726 -0.47538444 0.17324737
000050 84 66 cd 3e 07 6e 58 3e c9 03 7d be 8a 0f d1 3d
       0.40117276 0.21135722 -0.24708475 0.10208042
000060 83 c3 01 3d bc a0 75 3e e4 63 f4 3e 2d 53 a4 3e
       0.031680595 0.23987097 0.4773246 0.32094708
000070 06 ac 69 3e e6 e1 9e bc ac fb 37 bf 23 52 09 bf
       0.22819528 -0.019394826 -0.71868396 -0.53640956
000080 5d 4a cd be 8f e7 43 be 84 f6 81 be e8 30 28 bd
       -0.40095797 -0.19131301 -0.2538339 -0.041062266
000090 a9 b6 45 bf b5 c7 15 bf f9 52 12 bf eb 28 f8 be
       -0.7723184 -0.58507854 -0.57157856 -0.48468718
0000a0 a2 75 1e 3f 34 0d cb 3d c5 21 10 bf 7c 42 95 be
       0.61898243 0.09914628 -0.5630153 -0.29152286
0000b0 c4 df 08 be d2 da 4a 3e f8 7f 1e 3f dc 33 46 be
       -0.1336661 0.19810036 0.61914015 -0.1935572
0000c0 c0 18 1a bf db 1f 9e 3a bc 05 85 be 51 fe df be
       -0.60194016 0.0012063937 -0.25980937 -0.43748716
0000d0 37 fc 9c be f6 39 f2 3e ee 58 be 3d 48 8e 93 bd
       -0.30661175 0.47309846 0.09294306 -0.07204872
0000e0 ff 91 67 3d 83 b1 e2 3e 85 03 ee 3e 5b d2 35 3e
       0.056535717 0.44276056 0.4648706 0.17756025
0000f0 9e f0 6c bd 50 36 14 3f fb b3 56 be 4d d7 0d 3c
       -0.057846658 0.57895374 -0.20967095 0.008657289
000100 e9 3d 02 be 24 49 62 3e 77 87 09 3e cf 97 29 be
       -0.1271893 0.22098213 0.13430582 -0.16561817
000110 b2 d7 e1 be 66 f8 58 3d eb fd 2e bd 7d 5f cd be
       -0.44109875 0.052971266 -0.042722624 -0.40111914
000120 2b e6 c7 be a6 cf bd be 41 25 da bc 8d fc d8 bd
       -0.39042792 -0.37072486 -0.026629092 -0.10595045
000130 b3 5e c0 3e c2 fe 14 be e2 0f a0 3e ea 40 a0 3e
       0.3757225 -0.14550307 0.31262118 0.31299525
000140 17 38 2b be 8d 73 ba bd a5 a3 39 3e b6 5a 40 3e
       -0.16720615 -0.09104071 0.18128832 0.18784603
000150 0d 9b 96 3e 4f dd e7 be 17 a2 1a be 87 f5 d0 bc
       0.2941517 -0.45286033 -0.15100895 -0.025507702
000160 3c ec 0f be 9b 78 95 3e da b8 29 3d 29 18 a7 be
       -0.1405496 0.29193577 0.041436054 -0.3263562
000170 34 44 7b 3d 82 d1 6f 3e 75 a3 c7 3d e0 9f 4d be
       0.06134434 0.23419765 0.09747974 -0.20080519
000180 5c 7d 79 3d 1b 06 0c bf 1f e8 c7 bd 56 18 6c be
       0.060910568 -0.54696816 -0.097610705 -0.23056158
000190 23 a1 17 bd ff 57 16 be fe 1d 8c be c7 63 23 bd
       -0.037018906 -0.14682005 -0.27366632 -0.039890077
0001a0 56 1e f1 bd cd 89 45 3e a2 b7 c3 bd 75 01 83 be
       -0.11773364 0.19290848 -0.095565096 -0.2558705
0001b0 99 9d 02 bf 2d e4 3d be 7c 5c f0 3a e3 34 20 3e
       -0.51021725 -0.18544073 0.0018338109 0.15645175
0001c0 88 6d c2 3d e7 1b 38 bf fc b8 d8 bd 93 33 74 3e
       0.09493548 -0.71917576 -0.10582158 0.23847799
0001d0 18 e0 ab 3e f7 49 c7 3e 36 55 d3 3d 4d 6f a9 3d
       0.33569407 0.38923618 0.10318987 0.08273182
0001e0 38 14 1a be d7 62 25 3d 8d e0 e0 3e 38 1c f3 3e
       -0.15046775 0.040377464 0.4392132 0.47482467
0001f0 04 07 99 3e 8a d3 0b bf 8b 98 21 be 53 d9 58 3e
       0.29888165 -0.5461966 -0.15780847 0.21176653
000200 21 42 97 3e 3e 6a 55 3e 4d 82 8d be 68 f8 1d 3e
       0.2954264 0.2084131 -0.27638474 0.1542679
000210 19 39 8a 3e 19 6d 3f 3d d5 6a 4e 3e 30 30 5a bd
       0.26996687 0.046734903 0.2015794 -0.05326861
000220 2e 61 5e 3c 35 81 40 3e 21 25 b7 3e 04 e4 d9 bd
       0.013572974 0.18799289 0.35770515 -0.10639194
000230 b7 b2 f4 bd 6c 35 81 3c a9 ed a5 bd 0a e7 6f 3e
       -0.1194815 0.015772544 -0.08101971 0.23427978
000240 f1 22 2a be d4 10 1f be 23 82 7d be b4 4a c8 bd
       -0.16614892 -0.15533763 -0.24756674 -0.097798735
000250 bf e5 d8 3e 5c 05 58 bd f6 96 30 bc 20 d8 c8 bc
       0.42362782 -0.052739486 -0.010778179 -0.024517119
000260 1f 0b b6 be de e8 9a be 74 79 9c be 16 c8 c7 be
       -0.3555536 -0.3025579 -0.3056141 -0.3901984
000270 e9 08 0b bf c3 7e b9 be 3c 72 a3 be 1d d0 c8 3e
       -0.5431047 -0.36229524 -0.3192309 0.39221278
000280 47 76 b0 be 7b 12 ff be ea 63 03 be 99 18 a5 bb
       -0.34465238 -0.49818787 -0.12831083 -0.0050383327
000290 22 22 ea 3e dd bf 1b bc 08 21 a1 be b4 88 38 be
       0.45729166 -0.009506193 -0.31470513 -0.18020898
0002a0 79 85 b7 3e a1 e0 66 bc be af ed be dc 17 91 3e
       0.3584402 -0.014091642 -0.46423143 0.28338516
0002b0 a4 b4 c3 3e 46 49 04 3f 40 79 46 3e a6 07 47 b8
       0.38223755 0.51674306 0.1938219 -4.745242e-05
0002c0 a8 21 3c 3e ec ee 1b 3f 1f fe e6 3e db 59 a2 3e
       0.18372214 0.6091144 0.45115754 0.3170918
0002d0 67 16 61 bc f3 ea b9 bd a2 da 15 be 75 4e d7 3d
       -0.013738251 -0.09078016 -0.14634183 0.10513011
0002e0 3d e6 be 3e 7e 85 cf be 86 52 c9 be f2 c8 92 be
       0.37285033 -0.40531534 -0.39320773 -0.28668934
0002f0 06 be 06 be 9e 26 26 be f5 ad eb bd 2f 42 ec be
       -0.13158426 -0.16225669 -0.11507789 -0.46144244
000300 1d 3c 1c bf e8 64 44 bf c6 af 24 bf cb 49 a5 bd
       -0.61029226 -0.7671647 -0.6433071 -0.080707155
000310 36 19 9e 3d 9d 3b 45 bb 84 1e 34 3e 47 62 31 3e
       0.07719652 -0.0030095347 0.17589766 0.17322646

sequential/conv2d/BiasAdd/ReadVariableOp:0 f4 [8]
000000 9a 03 80 bd 41 ab d8 bc 15 9b 19 bd 70 ea 12 be
       -0.06250687 -0.026448848 -0.037501413 -0.14347243
000010 cf 93 ff bd 9c 94 6a be 45 b7 ab 3b cc 6f 57 3d
       -0.12479364 -0.22908252 0.0052403533 0.052596852
