models/model9.onnx (onnx, 971121 bytes, 8 tensors)

sequential/dense_1/MatMul/ReadVariableOp:0 f4 [128, 10]
0.115420684 0.05186446 0.16039063 0.21979983 -0.19964108 -0.23702024 0.13334984 -0.33879033
0.20211175 0.0835721 -0.34597847 0.20522207 -0.2509474 -0.0070470334 0.19920869 0.15725823
-0.2782943 -0.39597785 0.17904831 0.20826451 -0.10717801 -0.10169124 0.19067648 -0.2574005
0.16698459 -0.40230623 -0.2051625 0.22498523 -0.06744085 0.16477174 0.13782299 -0.2340916
0.25454783 -0.20196812 0.20018275 -0.34733337 -0.08234224 -0.28568286 -0.10662971 0.16326204
0.23414756 0.16730541 0.14233908 -0.40737855 -0.14615023 -0.07515844 -0.17970048 0.13853656
0.15968782 -0.27823663 -0.12490204 0.22832781 -0.09268642 0.23538741 0.15137577 -0.10536945
-0.15046553 -0.019241791 -0.21408266 0.256483 0.12632571 -0.20767336 0.16506056 0.17733192
-0.25550702 -0.09942218 -0.29681367 0.16139126 0.15790749 -0.24746078 -0.31227595 0.12743494
-0.26442045 -0.279273 0.14275318 0.23682094 -0.2507166 0.14672388 0.18297978 -0.21507433
0.14893894 -0.26828015 0.16752821 0.09836605 -0.26048398 -0.32593563 -0.39557135 0.16913508
0.10880543 0.14170855 0.12703022 0.091770194 -0.23092513 0.1338049 -0.22707662 0.13041562
0.10876719 -0.2334462 -0.17059374 -0.27954948 -0.29873654 0.31211865 0.20544837 0.20553301
-0.054971166 -0.22244635 -0.14840838 -0.17987864 -0.2647031 -0.084460884 -0.15027174 0.19877042
-0.029899977 -0.20368145 0.18623456 0.20670937 0.17372398 -0.4051774 0.18712881 0.1758854
0.058043133 -0.13220263 0.074388094 0.1641724 -0.07386462 0.043268025 0.08153005 -0.12591377
-0.15939797 -0.07614908 -0.2655393 0.12789007 0.14467442 0.08882283 0.10020696 -0.27563694
-0.14894485 0.11223126 0.017217908 -0.24298355 0.20907664 -0.42553583 -0.15919909 0.03826244
0.20606111 -0.25828832 0.15444194 -0.3020117 -0.13223569 0.1837577 -0.25341156 0.17630517
0.124732256 0.2265953 0.21537551 0.17189881 -0.11077623 0.20377773 -0.28847742 -0.027499821
0.075311214 -0.212597 -0.180248 0.078011066 -0.4163114 0.0847414 -0.38319084 -0.031302195
-0.34957337 0.017711697 -0.24598056 0.032180265 -0.2213749 0.19941758 -0.20950305 0.1063985
0.112419225 -0.3824103 0.167063 -0.34276998 -0.1516799 -0.021231664 0.050164737 0.16099975
-0.08090566 -0.28264773 -0.34239298 -0.2798875 0.14715973 0.27420962 0.04308148 -0.1880664
-0.51901186 -0.34386888 -0.2096713 0.095770836 0.09298118 -0.46613923 0.10347718 -0.09698224
0.124737695 -0.15788941 0.1208369 0.14067912 -0.41476786 -0.17516696 0.00019581875 -0.4175578
0.13405326 -0.15884008 0.23874325 0.14839488 0.18914552 -0.39506617 -0.25473127 0.065406434
-0.2898401 0.14050472 -0.15877746 -0.20916727 -0.102114536 -0.3331876 -0.4173004 0.09560732
-0.5111541 0.09419411 0.06284492 -0.45051774 0.13538358 0.0637626 -0.24357267 -0.16481976
-0.12077827 0.24158472 0.1644211 0.2093111 -0.40189072 0.20318477 -0.31118774 0.18891059
-0.029115897 0.215475 -0.13179156 0.19440168 -0.44024912 0.14993998 -0.24951777 -0.033163693
-0.45355597 -0.14074679 -0.27541044 -0.3246052 -0.3345151 -0.17933017 0.20349535 0.088105306
00000000: ae61 ec3d d46f 543d 713d 243e 3513 613e
00000010: b66e 4cbe 6fb5 72be dc8c 083e ed75 adbe
00000020: 62f6 4e3e d927 ab3d 1724 b1be bc25 523e
00000030: 2d7c 80be cdea e6bb 5dfd 4b3e 4d08 213e
00000040: 977c 8ebe 9cbd cabe 7158 373e 4b43 553e
00000050: 2580 dbbd 7f43 d0bd b240 433e 00ca 83be
00000060: 02fe 2a3e 15fb cdbe 1e16 52be 8762 663e
00000070: 6e1e 8abd ecb9 283e 7821 0d3e b5b5 6fbe
00000080: 1854 823e bbd0 4ebe b5fc 4c3e aed5 b1be
00000090: 0ca3 a8bd 0645 92be ad60 dabd 2a2e 273e
000000a0: 61c4 6f3e 1c52 2b3e 56c1 113e ec93 d0be
000000b0: 68a8 15be abec 99bd 6703 38be 87dc 0d3e
000000c0: 3485 233e 0875 8ebe a4cc ffbd c4ce 693e
000000d0: 61d2 bdbd 6609 713e 4002 1b3e f0cb d7bd
000000e0: a313 1abe f6a0 9dbc 7c38 5bbe bd51 833e
000000f0: 875b 013e 53a8 54be a305 293e 8096 353e
00000100: d1d1 82be db9d cbbd f6f7 97be c043 253e
00000110: 80b2 213e 5c66 7dbe a2e2 9fbe 4e7e 023e
00000120: 1e62 87be dffc 8ebe e42d 123e 3081 723e
00000130: ed5d 80be c93e 163e 0d5f 3b3e 723c 5cbe
00000140: 7383 183e 045c 89be 848c 2b3e 2474 c93d
00000150: 285e 85be 09e1 a6be 5488 cabe bf31 2d3e
00000160: 62d5 de3d 0c1c 113e 3614 023e 03f2 bb3d
00000170: a377 6cbe 2704 093e c686 68be ac8b 053e
00000180: 55c1 de3d 850c 6fbe 20b0 2ebe 1c21 8fbe
00000190: fff3 98be 04ce 9f3e 0f61 523e 3f77 523e
000001a0: 7229 61bd fac8 63be 5ef8 17be 1b32 38be
000001b0: 2a87 87be d4f9 acbd d6e0 19be 798a 4b3e
000001c0: ccf0 f4bc df91 50be 46b4 3e3e 9fab 533e
000001d0: b3e4 313e 6a73 cfbe b29e 3f3e 4d1b 343e
000001e0: a3be 6d3d 2060 07be c958 983d cf1c 283e
000001f0: 5546 97bd d039 313d 3af9 a63d 8aef 00be
00000200: 3939 23be 0df4 9bbd c4f4 87be 9df5 023e
00000210: 8825 143e bee8 b53d 4f39 cd3d 4920 8dbe
00000220: 0085 18be 81d9 e53d 920c 8d3c aed0 78be
00000230: 3018 563e d5df d9be 1605 23be 14b9 1c3d
00000240: af01 533e 5e3e 84be 0726 1e3e 47a1 9abe
00000250: cb68 07be fa2a 3c3e 29bf 81be 5889 343e
00000260: a073 ff3d 9908 683e 668b 5c3e 3e06 303e
00000270: a6de e2bd 1cab 503e 50b3 93be 4e47 e1bc
00000280: c43c 9a3d 07b3 59be ef92 38be 44c4 9f3d
00000290: c526 d5be e68c ad3d 9731 c4be bb36 00bd
000002a0: 48fb b2be 1f18 913c 54e2 7bbe 74cf 033d
000002b0: 1ab0 62be 1f34 4c3e f887 56be 75e7 d93d
000002c0: 0d3c e63d 48cb c3be 9012 2b3e 8c7f afbe
000002d0: fa51 1bbe 07ee adbc 8a79 4d3d 1edd 243e
000002e0: deb1 a5bd 34b7 90be 224e afbe 6a4d 8fbe
000002f0: 0ab1 163e 3465 8c3e 3576 303d 7a94 40be
00000300: f6dd 04bf 950f b0be 13b4 56be 8023 c43d
00000310: eb6c be3d cda9 eebe d8eb d33d a09e c6bd
00000320: 7a76 ff3d c3ad 21be 5679 f73d 300e 103e
00000330: 745c d4be f85e 33be b254 4d39 23ca d5be
00000340: 4245 093e f9a6 22be 1c79 743e d4f4 173e
00000350: 5daf 413e 1d46 cabe 236c 82be cff3 853d
00000360: ec65 94be 78e0 0f3e 8f96 22be f22f 56be
00000370: 6d21 d1bd 9197 aabe 66a8 d5be c5cd c33d
00000380: ffda 02bf d7e8 c03d d6b4 803d 43aa e6be
00000390: fea1 0a3e f795 823d 1d6b 79be 83c6 28be
000003a0: 995a f7bd fc61 773e 015e 283e a655 563e
000003b0: 9fc4 cdbe ab0f 503e 0054 9fbe c771 413e
000003c0: 7684 eebc 7aa5 5c3e 5ef4 06be 3c11 473e
000003d0: 5568 e1be de89 193e 9681 7fbe a7d6 07bd
000003e0: 7d38 e8be ed1f 10be 9902 8dbe a732 a6be
000003f0: 9045 abbe 54a2 37be 1661 503e 8e70 b43d

sequential/dense_1/BiasAdd/ReadVariableOp:0 f4 [10]
0.036625393 0.0670323 0.14987557 -0.015308157 -0.066642605 -0.13174562 -0.10518991 -0.13371418
0.1666798 0.0073768874
00000000: 8204 163d 3b48 893d fb78 193e 10cf 7abc
00000010: eb7b 88bd 53e8 06be cf6d d7bd 5fec 08be
00000020: 1cae 2a3e d1b9 f13b

sequential/dense/MatMul/ReadVariableOp:0 f4 [1764, 128]
0.2231703 -0.09520647 0.032447714 -0.120117806 -0.018216738 0.08763225 -0.024483461 -0.11118575
-0.037751038 0.00012778018 -0.05315586 0.13128535 -0.03204156 -0.037962876 0.024832489 -0.09758397
0.070583165 0.11332707 -0.03481924 0.015031109 0.18504794 -0.10673229 0.02473525 -0.07137989
-0.0976824 -0.043815386 0.04326003 0.050111912 0.009114583 -0.07001888 0.08406674 0.08875148
-0.026526984 0.06791722 -0.028042939 -0.06575583 -0.03732989 -0.023079628 -0.029565286 0.1474862
0.051658038 -0.08910351 0.03886378 -0.11042133 0.038867168 -0.15043345 0.036394447 0.05569266
-0.016315024 -0.15935363 -0.03896237 0.16209666 0.009639294 -0.04114748 -0.062622264 0.090043485
0.09434322 0.07211262 -0.02795986 0.21588182 0.02623476 0.121441714 0.09479829 -0.014476898
0.045751177 -0.105622455 -0.052892085 0.049015816 -0.020542167 -0.0056406497 0.062391657 -0.04432024
0.09486319 -0.10414628 0.0875913 0.0067813518 0.08898781 -0.076339036 -0.01072288 0.18593639
0.06951068 0.03333383 0.047714606 -0.04103689 -0.08092947 0.08816555 -0.02836606 -0.024532728
0.10654632 0.08359643 -0.15676029 0.0017223146 -0.014845187 -0.058354508 0.080932155 0.089206636
0.125004 0.07150076 -0.012093662 0.12650934 0.067512885 0.0065153795 -0.08567002 -0.009103394
0.08799296 0.02890558 -0.0544973 0.042604282 -0.047853157 0.012638583 -0.053689536 -0.04032268
-0.016477162 -0.01640792 0.106837705 -0.04333959 0.07575116 0.0039967434 0.14047378 -0.022967221
0.10580317 0.0066468786 0.0595155 0.06398909 -0.030954447 -0.0014211135 0.07883787 -0.084044926
0.001988421 -0.055899605 0.041621353 -0.10581348 0.21051459 -0.1442018 -0.08203093 0.06013854
-0.007960605 0.018918958 -0.072708406 0.10059964 -0.052453533 0.115924396 -0.11997472 0.017988916
-0.05152073 0.06591311 -0.20705244 0.021480855 -0.08919759 -0.12679121 -0.07128825 -0.038819216
0.07213296 0.09454282 -0.10632115 -0.07039959 0.04297783 -0.10552942 0.060134478 0.061104637
-0.08132133 0.19148096 -0.0077924323 -0.030386344 0.11268108 -0.052251168 -0.0063175964 -0.0039304923
-0.033107333 -0.09570281 -0.10674187 0.09743785 0.14997803 0.06745256 0.033872217 0.13535383
-0.113183655 0.11234483 -0.07316189 -0.07775458 0.072685204 -0.044711225 -0.03520593 0.12111461
0.057511825 -0.01362338 -0.032554373 -0.022397181 -0.023518626 -0.016121801 -0.006674211 -0.0065789185
0.046080396 -0.09313299 0.079988405 0.0027982078 0.06914618 0.057285912 0.013806977 -0.11180677
0.02587783 0.047347195 0.030390427 0.23445104 0.16238134 0.04079581 0.009429917 0.07689662
0.027192732 0.0028702437 -0.0021327776 0.017731275 0.051877685 -0.058809057 0.14367469 -0.022950279
-0.021592453 -0.054533854 0.11642952 -0.10917118 0.07984509 0.011949819 0.0902496 -0.098419376
0.116672575 0.006138378 0.024265455 -0.0017287505 0.06565017 -0.05682752 -0.13846837 0.122721374
0.040143378 0.15530212 0.009306731 0.042839114 -0.20092236 -0.14495833 0.09842548 -0.1580491
0.01441345 0.24620925 0.049711294 -0.04585128 -0.106150426 -0.12895317 -0.0016691615 -0.018339334
-0.0024369955 -0.052778605 0.1227316 -0.038582426 -0.061506476 0.00081699766 -0.0073956824 -0.024872959
00000000: c186 643e 9cfb c2bd e5e7 043d 5300 f6bd
00000010: 453b 95bc 8978 b33d 8a91 c8bc 5bb5 e3bd
00000020: d5a0 1abd bbfc 0539 f6b9 59bd ab6f 063e
00000030: 033e 03bd f67e 1bbd 816d cb3c 1bda c7bd
00000040: e88d 903d 0618 e83d 9f9e 0ebd 0a45 763c
00000050: 357d 3d3e 7596 dabd 94a1 ca3c 9f2f 92bd
00000060: b60d c8bd c377 33bd 6e31 313d 2642 4d3d
00000070: 5555 153c 0f66 8fbd 2f2b ac3d 56c3 b53d
00000080: 1e4f d9bc 2f18 8b3d 4eba e5bc feaa 86bd
00000090: 3ae7 18bd 7d11 bdbc e632 f2bc 9f06 173e
000000a0: 6197 533d e77b b6bd a12f 1f3d 9424 e2bd
000000b0: 2e33 1f3d 3a0b 1abe 5812 153d fd1d 643d
000000c0: 16a7 85bc 992d 23be 0297 1fbd abfc 253e
000000d0: 21ee 1d3c 438a 28bd 1a40 80bd b868 b83d
000000e0: 0537 c13d c8af 933d 140c e5bc 2010 5d3e
000000f0: 48ea d63c 6fb6 f83d 9b25 c23d 8330 6dbc
00000100: 9665 3b3d 9650 d8bd 5fa5 58bd cfc4 483d
00000110: 0c48 a8bc 33d5 b8bb 658e 7f3d 2489 35bd
00000120: a247 c23d a54a d5bd 1163 b33d 1a36 de3b
00000130: 3e3f b63d a457 9cbd 05af 2fbc 1c66 3e3e
00000140: 9e5b 8e3d 0e89 083d 6470 433d 4c16 28bd
00000150: 5abe a5bd 2490 b43d f15f e8bc dcf8 c8bc
00000160: f534 da3d 9b34 ab3d c585 20be 4abf e13a
00000170: 3a39 73bc 2305 6fbd c2bf a53d f8b1 b63d
00000180: 0c01 003e fe6e 923d 7f24 46bc aa8b 013e
00000190: 3244 8a3d f77e d53b c373 afbd 6726 15bc
000001a0: a735 b43d 65cb ec3c 9038 5fbd d481 2e3d
000001b0: ac01 44bd 0f12 4f3c 8fe9 5bbd 6529 25bd
000001c0: 1dfb 86bc e769 86bc bacd da3d db84 31bd
000001d0: 6d23 9b3d 1df7 823b 5cd8 0f3e c125 bcbc
000001e0: 55af d83d 0fce d93b 86c6 733d b60c 833d
000001f0: 2e94 fdbc a844 baba c075 a13d bf1f acbd
00000200: 2b50 023b fcf6 64bd 277b 2a3d bdb4 d8bd
00000210: 2391 573e a3a9 13be d5ff a7bd d453 763d
00000220: 336d 02bc eefb 9a3c 25e8 94bd 2f07 ce3d
00000230: 84d9 56bd c569 ed3d 4eb5 f5bd 7e5d 933c
00000240: 6707 53bd 74fd 863d 8e05 54be 9ef8 af3c
00000250: 3aad b6bd 8ed5 01be 93ff 91bd e600 1fbd
00000260: 72ba 933d aa9f c13d e7be d9bd a92d 90bd
00000270: 8509 303d cf1f d8bd 924f 763d db48 7a3d
00000280: cc8b a6bd 9613 443e a957 ffbb c8ec f8bc
00000290: 57c5 e63d 5205 56bd d703 cfbb 5ccb 80bb
000002a0: 8e9b 07bd d6ff c3bd 7b9b dabd 7f8d c73d
000002b0: d793 193e 9124 8a3d 98bd 0a3d 329a 0a3e
000002c0: d5cc e7bd 0c15 e63d e7d5 95bd cb3d 9fbd
000002d0: fbdb 943d 1e23 37bd 1834 10bd f00a f83d
000002e0: 8591 6b3d 9934 5fbc bc57 05bd 4b7a b7bc
000002f0: 22aa c0bc de11 84bc 57b3 dabb f893 d7bb
00000300: ccbe 3c3d 82bc bebd f6d0 a33d 2362 373b
00000310: 839c 8d3d a2a4 6a3d a936 623c f3fa e4bd
00000320: befd d33c 22ef 413d 58f5 f83c ef13 703e
00000330: 4b47 263e 8219 273d f07f 1a3c fa7b 9d3d
00000340: 4bc3 de3c b31a 3c3b 12c6 0bbb 2e41 913c
00000350: b27d 543d c4e1 70bd 751f 133e 3902 bcbc
00000360: a8e2 b0bc e45e 5fbd 9a72 ee3d 2495 dfbd
00000370: d385 a33d 2cc9 433c c8d4 b83d 1990 c9bd
00000380: 08f2 ee3d 7224 c93b 59c8 c63c 3e97 e2ba
00000390: 9973 863d f9c3 68bd a7ca 0dbe 5855 fb3d
000003a0: 626d 243d 8507 1f3e 427b 183c 1178 2f3d
000003b0: 97be 4dbe f56f 14be 4c93 c93d a0d7 21be
000003c0: 6426 6c3c 471e 7c3e 129e 4b3d 8dce 3bbd
000003d0: 6565 d9bd 4d0c 04be c4c7 daba 5f3c 96bc
000003e0: 00b6 1fbb 612e 58bd b55a fb3d 9b08 1ebd
000003f0: 37ee 7bbd c92b 563a 7b57 f2bb 60c2 cbbc

sequential/dense/BiasAdd/ReadVariableOp:0 f4 [128]
-0.025257248 0.018274518 -0.045079812 0.01680059 -0.00044860502 -0.01070587 -0.019387098 0.017962532
0.0058074547 -0.02542153 -0.035655458 -0.00033296796 -0.01839872 -0.01606664 -0.004396126 -0.07385759
-0.034368485 0.0030811091 0.0035540508 -0.0017335387 0.034454893 -0.03154869 -0.012119765 -0.08025119
-0.07037201 -0.02922493 0.0072757676 -0.05332028 -0.026337024 -0.075988315 -0.053835392 0.021775838
-0.03937414 -0.018500537 -0.032398302 -0.005419921 -0.0044659534 -0.008345557 0.02480904 0.033434562
0.022469822 -0.015665151 0.025896631 -0.07987666 -0.03370521 -0.029886462 -0.011399456 -0.0049142046
-0.012985407 -0.014301805 -0.049055457 -0.070865214 -0.037556503 -0.07603987 -0.059305925 0.0049594166
8.960701e-05 -0.004018128 -0.023109421 0.05191763 -0.02267741 -0.036983773 -0.005628564 -0.0015204598
-0.0028528126 -0.025697388 -0.056622725 0.008803747 0.025955897 -0.015241025 0.03842291 -0.03937234
-0.009437993 -0.02980514 -0.018088587 0.00052591413 -0.0083871875 -0.022896942 -0.010980021 -0.027800867
0.03519786 -0.006170147 -0.010369674 -0.013525139 -0.084208794 0.0012844228 -0.045225352 -0.050338473
-0.06186994 0.012907252 -0.06519467 -0.03073701 -0.034550916 -0.032211665 0.0257999 -0.04113
0.037279453 0.02347938 0.0046305377 -0.0583495 -0.056171592 -0.082392685 -0.0017027046 -0.0010923453
0.0086396765 -0.02008891 -0.022325357 -0.0091163125 -0.04645588 -0.0506477 -0.059951384 -0.035055842
-0.004158488 -0.02256099 0.018730048 -0.0063482234 -0.024150642 0.005610373 -0.043118946 -0.021623388
-0.04699438 0.05994156 -0.008623561 0.028315123 -0.028928977 -0.024548776 -0.0034732586 -0.02278421
00000000: 4ae8 cebc 71b4 953c 9ca5 38bd 64a1 893c
00000010: bf32 ebb9 ac67 2fbc b1d1 9ebc 2926 933c
00000020: 764c be3b d040 d0bc 750b 12bd 3492 aeb9
00000030: eab8 96bc 309e 83bc 610d 90bb a642 97bd
00000040: f8c5 0cbd 6fec 493b 14eb 683b e837 e3ba
00000050: 9320 0d3d 3339 01bd fb91 46bc bc5a a4bd
00000060: 331f 90bd 1f69 efbc 9069 ee3b 5e66 5abd
00000070: bec0 d7bc c39f 9bbd 8082 5cbd 3e63 b23c
00000080: c746 21bd 708e 97bc 15b4 04bd 9899 b1bb
00000090: 2257 92bb cebb 08bc 543c cb3c aef2 083d
000000a0: a212 b83c 3454 80bc 2c25 d43c 6096 a3bd
000000b0: 790e 0abd 74d4 f4bc c9c4 3abc 5607 a1bb
000000c0: bfc0 54bc 1e52 6abc 60ee 48bd c821 91bd
000000d0: d9d4 19bd cbba 9bbd c5ea 72bd 9a82 a23b
000000e0: 66eb bb38 80aa 83bb f84f bdbc 95a7 543d
000000f0: fac5 b9bc 4c7c 17bd d16f b8bb 2a4a c7ba
00000100: 41f6 3abb 5483 d2bc 3bed 67bd 973d 103c
00000110: 76a1 d43c 7eb5 79bc 5761 1d3d e444 21bd
00000120: d0a1 1abc e929 f4bc 842e 94bc 80dd 093a
00000130: 6a6a 09bc 5e92 bbbc 8ce5 33bc a5be e3bc
00000140: a22b 103d f22e cabb 91e5 29bc 8b98 5dbc
00000150: a975 acbd 145a a83a 383e 39bd b72f 4ebd
00000160: 566b 7dbd f078 533c c884 85bd 2fcc fbbc
00000170: 4385 0dbd 61f0 03bd 505a d33c ee77 28bd
00000180: 57b2 183d d457 c03c c4bb 973b e3ff 6ebd
00000190: 2f14 66bd 7fbd a8bd 492d dfba 072d 8fba
000001a0: 6e8d 0d3c 7f91 a4bc abe3 b6bc 965c 15bc
000001b0: 8548 3ebd f673 4fbd 958f 75bd b796 0fbd
000001c0: ed43 88bb d3d1 b8bc c26f 993c c204 d0bb
000001d0: 91d7 c5bc 38d7 b73b 7e9d 30bd 8823 b1bc
000001e0: 2e7d 40bd 4885 753d d649 0dbc 1ef5 e73c
000001f0: 76fc ecbc 841a c9bc 9c9f 63bb f4a5 babc

sequential/conv2d_1/Conv2D/ReadVariableOp:0 f4 [36, 16, 5, 5]
-0.08473996 0.01596624 0.06465725 0.11580972 0.07012544 -0.06991284 -0.028682362 -0.012722654
-0.08231946 -0.03194907 0.12195222 -0.118000105 -0.28399575 -0.035752144 -0.05149053 -0.064055406
-0.012504994 -0.035617333 -0.016048485 -0.011002724 -0.031573117 0.18145198 0.17772026 0.29567695
0.07550916 0.034847222 0.0017859082 -0.047277648 -0.13569066 0.20325592 -0.054916415 0.11655969
0.07590872 -0.09825476 -0.04213845 -0.24898392 0.020196311 0.09315424 0.26743254 0.04041636
-0.19992058 -0.17277546 -0.0031305777 0.046582647 -0.0093938215 0.12892579 -0.036374222 -0.12566182
0.04677732 0.04985322 -0.048491713 0.009200977 0.21763611 0.13980845 -0.12016946 -0.008944565
-0.014135 0.014546343 -0.094426885 -0.16546322 0.03008284 -0.16843054 -0.2072313 -0.10816397
-0.13393909 0.08516779 -0.015726035 -0.08678232 -0.054895632 0.06316528 0.06311604 -0.0392166
-0.034064077 0.006561161 0.04751925 0.11496685 -0.078451425 0.04020693 -0.102859296 -0.05186296
-0.029852832 -0.051751576 -0.2971442 -0.0020542664 0.07961005 -0.08552805 0.005731287 0.0006609
-0.072719514 -0.31640887 0.1444402 -0.04701963 -0.060795713 -0.12217904 -0.14746222 -0.02755157
-0.02052886 0.055742774 0.0006275398 0.015449125 -0.0014698738 0.00584746 0.015905585 -0.10164134
0.03182531 0.030794334 -0.077384286 0.07549518 -0.17914657 -0.18386734 -0.07836525 -0.06788708
-0.046587266 -0.08577151 -0.20258288 0.0906048 -0.2543071 -0.1541258 0.028167775 0.020948285
-0.11659396 -0.31782353 -0.034894135 0.090696014 0.07441739 0.0742345 -0.0028094805 -0.15327778
-0.045256406 0.010117557 0.14585963 0.061123382 0.0055281543 -0.134048 -0.028568532 0.09016857
0.031211432 0.026385034 0.10650687 0.08787195 0.009721508 -0.030537684 -0.033736423 0.03456839
0.12955382 0.046587083 0.14013721 -0.070583604 0.016422953 -0.07231144 -0.036882542 -0.0841772
0.032895748 0.03621689 0.11357168 -0.030010222 -0.054349348 -0.03699837 -0.076742314 -0.03823729
-0.11496185 0.030292884 0.005689299 -0.12564765 -0.041906677 -0.09372262 -0.00018631395 -0.052143205
0.15215662 0.047678106 0.07900151 0.177614 0.10050748 0.116432935 0.016773872 0.17489149
0.02963258 0.07122787 -0.052979186 0.05931578 -0.019793123 0.016789226 0.082047395 0.016664706
-0.011170288 0.068047285 -0.039536934 -0.0867844 -0.015574238 -0.18099098 0.026269784 -0.037036717
-0.15465286 -0.093950495 -0.091799214 -0.040084083 -0.062250998 0.019608093 -0.019718101 0.009873033
-0.022283575 0.07778614 0.18016088 0.02308395 0.025416479 0.045085926 0.049161583 -0.009601274
0.19234832 0.17722736 0.004416144 -0.047676194 -0.17393741 -0.13364889 0.12990874 0.12697497
-0.030820731 -0.05182761 -0.21869995 -0.16403084 -0.041263036 0.15982385 0.30246934 0.13410822
0.031607445 0.026744174 0.119524084 -0.003968852 -0.15894982 -0.1094505 -0.055699132 -0.19193406
0.1350521 0.2350405 0.12009196 -0.12326631 0.04773623 0.088517256 0.24467354 0.1816705
-0.24374142 -0.0015717839 0.0939432 0.06016914 0.024032066 -0.34885168 -0.33001775 -0.33732852
-0.28957257 -0.09918363 0.022453727 -0.011327456 0.070333876 -0.031796563 0.08449029 0.10044848
00000000: 258c adbd a2cb 823c 056b 843d a52d ed3d
00000010: ed9d 8f3d 772e 8fbd 46f7 eabc ae72 50bc
00000020: 1b97 a8bd 07dd 02bd 16c2 f93d 0aaa f1bd
00000030: e467 91be d770 12bd bce7 52bd 7b2f 83bd
00000040: bfe1 4cbc 7be3 11bd 1d78 83bc c544 34bc
00000050: d052 01bd 8cce 393e 4dfc 353e f862 973e
00000060: 8ca4 9a3d f6bb 0e3d 2315 ea3a 35a6 41bd
00000070: 7ef2 0abe 5222 503e 09f0 60bd d9b6 ee3d
00000080: 0876 9b3d cb39 c9bd 5e99 2cbd a4f5 7ebe
00000090: bc72 a53c a6c7 be3d ebec 883e a08b 253d
000000a0: fbb7 4cbe 0dec 30be 612a 4dbb 72cd 3e3d
000000b0: 8be8 19bc 1f05 043e 23fd 14bd 7ead 00be
000000c0: 9399 3f3d e432 4c3d 3f9f 46bd b2bf 163c
000000d0: 00dc 5e3e f229 0f3e 681b f6bd 3a8c 12bc
000000e0: 7d96 67bc c953 6e3c e262 c1bd 316f 29be
000000f0: 4a70 f63c 0e79 2cbe 7134 54be 1285 ddbd
00000100: 5427 09be 736c ae3d e3d3 80bc eeba b1bd
00000110: 3eda 60bd cc5c 813d fb42 813d 96a1 20bd
00000120: c686 0bbd 02ff d63b 8ca3 423d bd73 eb3d
00000130: 24ab a0bd 06b0 243d e5a7 d2bd 416e 54bd
00000140: ed8d f4bc 76f9 53bd 4923 98be dfa0 06bb
00000150: 980a a33d 5529 afbd 85cd bb3b 4040 2d3a
00000160: f8ed 94bd 5800 a2be 22e8 133e a897 40bd
00000170: ed04 79bd 0139 fabd 5600 17be d5b3 e1bc
00000180: 242c a8bc 8952 643d 7c81 243a 541e 7d3c
00000190: c8a8 c0ba 0d9c bf3b 6e4c 823c 5629 d0bd
000001a0: 425b 023d 6644 fc3c a77b 9ebd 389d 9a3d
000001b0: 3372 37be b847 3cbe f67d a0bd 6208 8bbd
000001c0: 4ad2 3ebd f9a8 afbd e371 4fbe 028f b93d
000001d0: 8a34 82be 27d3 1dbe 1bc0 e63c bd9b ab3c
000001e0: d0c8 eebd c4b9 a2be 27ed 0ebd d5be b93d
000001f0: 2568 983d 4208 983d 431f 38bb daf4 1cbe
00000200: c85e 39bd 1cc4 253c 3a5c 153e 835c 7a3d
00000210: 8525 b53b e143 09be 8e08 eabc 4daa b83d
00000220: 1eaf ff3c 6d25 d83c 4620 da3d 35f6 b33d
00000230: f646 1f3c 2a2a fabc 342f 0abd 9697 0d3d
00000240: c2a9 043e 19d2 3e3d 2180 0f3e 238e 90bd
00000250: 6e89 863c 0518 94bd 2612 17bd 1965 acbd
00000260: b1bd 063d 2958 143d 4598 e83d ffd7 f5bc
00000270: 6c9d 5ebd 9a8b 17bd 132b 9dbd b49e 1cbd
00000280: 1e71 ebbd c828 f83c 4d6d ba3b c7a9 00be
00000290: 56a6 2bbd a5f1 bfbd 455d 43b9 1d94 55bd
000002a0: f2ce 1b3e 1e4a 433d 8bcb a13d 72e0 353e
000002b0: ded6 cd3d 6474 ee3d 5c69 893c c116 333e
000002c0: 06c0 f23c ebdf 913d b400 59bd 1af5 723d
000002d0: 3025 a2bc 8f89 893c 7708 a83d 6c84 883c
000002e0: 9503 37bc 605c 8b3d 7bf1 21bd 05bc b1bd
000002f0: 172b 7fbc b355 39be bb33 d73c d0b3 17bd
00000300: 525d 1ebe 1e69 c0bd 3a01 bcbd 352f 24bd
00000310: e7fa 7ebd 27a1 a03c db87 a1bc 80c2 213c
00000320: 0b8c b6bc 574e 9f3d 187c 383e 8d1a bd3c
00000330: 3836 d03c 05ac 383d a85d 493d a94e 1dbc
00000340: f5f6 443e 177b 353e 4db5 903b 1d48 43bd
00000350: a61c 32be 41db 08be cc06 053e ba05 023e
00000360: c27b fcbc 3049 54bd e1f2 5fbe b3f7 27be
00000370: 6e03 29bd dda8 233e 43dd 9a3e aa53 093e
00000380: cf76 013d 9916 db3c 0bc9 f43d 250d 82bb
00000390: bec3 22be 9527 e0bd c624 64bd 5d8a 44be
000003a0: 194b 0a3e 75ae 703e c6f2 f53d 0c73 fcbd
000003b0: 1187 433d 8948 b53d b38b 7a3e d507 3a3e
000003c0: 5a97 79be 5104 ceba 4b65 c03d eb73 763d
000003d0: e5de c43c b09c b2be 16f8 a8be 53b6 acbe
000003e0: db42 94be c920 cbbd e1f0 b73c cb96 39bc
000003f0: 350b 903d 1d3d 02bd 3f09 ad3d efb7 cd3d

sequential/conv2d_1/BiasAdd/ReadVariableOp:0 f4 [36]
-0.026677707 -0.10067397 -0.005235971 -0.030164676 -0.020909699 0.009503675 -0.036254313 -0.13933413
-0.2266182 -0.1505536 -0.018220479 -0.04528932 -0.15939008 -0.054380305 1.651587e-05 -0.18975869
-0.058432117 0.0024262834 -0.09276761 -0.16033447 -0.04837432 -0.19708085 0.0018774543 -0.17918687
-0.057874635 -0.09448619 -0.28297257 -0.21283786 -0.033950698 -0.04872093 -0.03406877 -0.13830848
0.010312113 -0.009839422 -0.01942732 -0.02842177
00000000: 358b dabc 282e cebd 8292 abbb e91b f7bc
00000010: d14a abbc 4db5 1b3c 677f 14bd 9bad 0ebe
00000020: 9a0e 68be b92a 1abe 1d43 95bc 4b81 39bd
00000030: 2737 23be e2bd 5ebd 908b 8a37 1a50 42be
00000040: 8456 6fbd 4802 1f3b f2fc bdbd b82e 24be
00000050: 2724 46bd 90cf 49be ea14 f63a c37c 37be
00000060: f40d 6dbd fa81 c1bd c8e1 90be 2bf2 59be
00000070: e30f 0bbd 998f 47bd b28b 0bbd bda0 0dbe
00000080: 23f4 283c 8735 21bc 0b26 9fbc c6d4 e8bc

sequential/conv2d/Conv2D/ReadVariableOp:0 f4 [16, 1, 5, 5]
-0.020485923 0.11340357 -0.039142687 -0.031319655 -0.069359265 -0.056749467 -0.036064472 -0.094592445
-0.161068 0.056133803 -0.27249855 -0.19625923 -0.17072794 0.075895034 0.13274853 -0.35583624
-0.087400354 0.12788928 0.19397713 0.08175237 0.13265356 0.044572353 0.18537515 -0.11759893
-0.22443822 -0.0100209005 0.04867164 0.17293279 0.05063382 -0.3911177 -0.12111585 0.069740735
0.2818118 -0.19083841 -0.37944996 -0.112071455 0.087992735 0.21599428 -0.07557754 -0.21884263
-0.1642722 -0.034417167 0.25507182 0.2526196 0.08224366 -0.15536156 0.054188553 -0.023172898
0.02769989 0.07279897 0.055003915 0.015816215 -0.06502834 -0.045353737 -0.21856225 0.09344639
0.12625511 0.058080766 -0.30357647 -0.20384023 0.31111786 0.21816307 -0.17234066 -0.6658144
-0.085717425 0.22937167 0.012098262 -0.41195095 -0.50269026 0.21799625 0.13407268 -0.15899202
-0.396516 0.04340844 0.10232121 0.1987014 -0.09450014 0.024301236 0.06936047 -0.19518171
-0.03786991 -0.09493999 -0.21999736 0.049381174 -0.019383367 0.09788682 -0.053180043 0.17677681
0.26728678 0.36601856 0.080656864 0.1687459 0.12932791 0.007718576 -0.023032112 -0.30692172
-0.38804787 -0.37862608 -0.26370674 -0.3723266 0.02403857 0.13952944 0.013132298 -0.14356771
-0.039056778 -0.05343325 0.19950868 0.1038923 -0.20599978 -0.1387267 -0.067467935 0.21786244
0.1256953 -0.1728557 -0.34566543 0.036226064 0.23576818 0.04719988 -0.19993734 -0.28297386
0.061172683 0.14209217 -0.12070998 -0.17416765 -0.07720228 0.091107525 -0.10403551 -0.18525523
-0.2196233 -0.053213853 0.11278515 -0.042443242 0.025599612 0.016914535 0.067023754 -0.07957471
0.0038947673 0.08016632 0.01827309 0.03622903 0.08406197 0.06326795 -0.13590722 -0.06275426
0.056492146 0.070521206 -0.062111393 0.025047671 0.049447764 0.12002517 -0.13679796 -0.21909884
0.07711996 0.11313903 -0.009185794 -0.36290646 -0.06740819 0.049437657 0.19238828 -0.046431877
-0.37583995 0.080124065 0.14453104 0.056886848 -0.003978164 -0.30331683 -0.06539173 0.073701
0.055013224 0.142284 -0.06981534 0.113905355 0.13472137 -0.05184729 0.12185602 -0.34162614
0.020933215 0.0180124 0.068807326 0.062322456 -0.04531132 0.24407011 0.10019275 0.12167942
0.09530859 0.11666047 0.03257304 0.046685737 0.07689895 -0.25514355 -0.047194343 0.066354334
-0.05686646 -0.13420877 -0.11193129 -0.12631458 -0.037148915 -0.10551339 0.05114941 0.09383937
0.21757255 0.23145233 -0.16217867 -0.06064573 0.072854124 -0.0998415 -0.5175391 -0.33622023
0.025950957 0.13052154 -0.24669911 -0.23535065 0.08939928 0.3208162 -0.02365028 -0.18870415
0.16369914 0.30539152 0.08330003 -0.14245476 0.31038436 0.086862564 0.13487779 -0.093883105
-0.04150166 0.009370442 -0.04217322 0.014234605 0.1239129 0.27550828 0.12964322 -0.14129278
-0.27224854 -0.2580455 0.2590387 0.03578049 -0.13078846 -0.31719974 -0.43013316 -0.20658965
0.26476407 0.23451683 -0.013383798 -0.08398177 -0.3821231 0.09371819 0.14113016 0.3404336
0.29606795 -0.009857037 0.07548308 0.03476597 -0.02286409 0.13603507 0.17457315 -0.014585404
00000000: 18d2 a7bc 2240 e83d 1554 20bd 0a49 00bd
00000010: 3b0c 8ebd 2172 68bd 57b8 13bd afb9 c1bd
00000020: 03ef 24be 8fec 653d ee84 8bbe 2ef8 48be
00000030: 4ed3 2ebe db6e 9b3d 3bef 073e 2b30 b6be
00000040: f5fe b2bd 68f5 023e f1a1 463e c96d a73d
00000050: 56d6 073e 8091 363d fcd2 3d3e b5d7 f0bd
00000060: 22d3 65be b42e 24bc ea5b 473d 4b15 313e
00000070: 6965 4f3d 9440 c8be 960b f8bd 3bd4 8e3d
00000080: a349 903e 256b 43be 4447 c2be b885 e5bd
00000090: 8935 b43d 9b2d 5d3e 66c8 9abd 4818 60be
000000a0: f936 28be 04f9 0cbd c698 823e 5b57 813e
000000b0: 5d6f a83d 1a17 1fbe d1f4 5d3d 17d5 bdbc
000000c0: e1ea e23c a017 953d c94b 613d 0291 813c
000000d0: 942d 85bd d7c4 39bd c8ce 5fbe d260 bf3d
000000e0: 0549 013e 19e6 6d3d 606e 9bbe 7ebb 50be
000000f0: d74a 9f3e 2466 5f3e 127a 30be d072 2abf
00000100: 9e8c afbd 68e0 6a3e ca37 463c 3ceb d2be
00000110: 4fb0 00bf 693a 5f3e 594a 093e cece 22be
00000120: 2504 cbbe 0ccd 313d c88d d13d 6178 4b3e
00000130: 4a89 c1bd 6313 c73c dd0c 8e3d b7dd 47be
00000140: 7b1d 1bbd e66f c2bd fd46 61be ea43 4a3d
00000150: dec9 9ebc e378 c83d 51d3 59bd fb04 353e
00000160: d0d9 883e c966 bb3e 6d2f a53d bacb 2c3e
00000170: 896e 043e 1cec fc3b d7ad bcbc d824 9dbe
00000180: 36ae c6be 47db c1be 9204 87be 98a1 bebe
00000190: 89ec c43c cee0 0e3e da28 573c 6a03 13be
000001a0: 00fa 1fbd d3dc 5abd 014c 4c3e 7cc5 d43d
000001b0: 9bf1 52be 5f0e 0ebe a12c 8abd 5517 5f3e
000001c0: 45b6 003e 1601 31be 0ffb b0be c861 143d
000001d0: 376d 713e a954 413d 60bc 4cbe f3e1 90be
000001e0: 3590 7a3d 9c80 113e cb36 f7bd 0159 32be
000001f0: 3b1c 9ebd 9596 ba3d 9210 d5bd 8cb3 3dbe
00000200: eee4 60be c5f6 59bd e7fb e63d f7d8 2dbd
00000210: 47b6 d13c 5a90 8a3c c043 893d 11f8 a2bd
00000220: 5a3f 7f3b 3d2e a43d 72b1 953c e464 143d
00000230: af28 ac3d a192 813d 432b 0bbe 4e85 80bd
00000240: 4f64 673d 6c6d 903d 8468 7ebd c630 cd3c
00000250: bd89 4a3d c2cf f53d c414 0cbe 725b 60be
00000260: 12f1 9d3d 70b5 e73d 0380 16bc e0ce b9be
00000270: 4e0d 8abd 247f 4a3d 6f01 453e 5a2f 3ebd
00000280: 186e c0be 1618 a43d f2ff 133e 2f02 693d
00000290: 425b 82bb 584c 9bbe 19ec 85bd 8df0 963d
000002a0: 8c55 613d e6b2 113e 58fb 8ebd 3647 e93d
000002b0: 66f4 093e d35d 54bd a68f f93d 9fe9 aebe
000002c0: 227c ab3c be8e 933c dbea 8c3d d545 7f3d
000002d0: 5d98 39bd 84ed 793e db31 cd3d 0f33 f93d
000002e0: 2631 c33d afeb ee3d 4f6b 053d 8b39 3f3d
000002f0: 327d 9d3d 2da2 82be db4e 41bd c8e4 873d
00000300: ceec 68bd 066e 09be 3b3c e5bd 9c58 01be
00000310: 7629 18bd 6717 d8bd 0b82 513d db2e c03d
00000320: 57cb 5e3e d701 6d3e 2a12 26be a867 78bd
00000330: 8b34 953d b379 ccbd 717d 04bf 0f25 acbe
00000340: 1a97 d43c 70a7 053e b19e 7cbe c3ff 70be
00000350: f816 b73d 0542 a43e 3bbe c1bc a93b 41be
00000360: bfa0 273e 475c 9c3e 3599 aa3d a9df 11be
00000370: b3ea 9e3e 00e5 b13d 671d 0a3e c945 c0bd
00000380: a5fd 29bd 7b86 193c d4bd 2cbd 4338 693c
00000390: 0cc6 fd3d 6c0f 8d3e 31c1 043e 0eaf 10be
000003a0: 2964 8bbe 8a1e 84be b8a0 843e 908e 123d
000003b0: 69ed 05be 0168 a2be 6a3a dcbe 3d8c 53be
000003c0: 288f 873e 2e25 703e b847 5bbc a2fe abbd
000003d0: a4a5 c3be 53ef bf3d 6d84 103e 504d ae3e
000003e0: 3896 973e 697f 21bc e096 9a3d c366 0e3d
000003f0: 794d bbbc c74c 0b3e 4ec3 323e 9ef7 6ebc

sequential/conv2d/BiasAdd/ReadVariableOp:0 f4 [16]
-0.091637954 -0.19241579 0.01660329 0.0020092723 -0.0687653 -0.20109634 -0.020591175 -0.034350123
-0.1265073 -0.08603404 -0.16988064 -0.23989418 -0.0027834054 0.033362314 -0.075649545 -0.002112264
00000000: aeac bbbd a508 45be 9f03 883c ffad 033b
00000010: d2d4 8cbd 33ec 4dbe d3ae a8bc b7b2 0cbd
00000020: 218b 01be 9d32 b0bd 31f5 2dbe d2a6 75be
00000030: cb69 36bb eca6 083d 26ee 9abd e96d 0abb
